Assets/results/PingPongAgent/PingPongAgent.onnx (onnx, 82986 bytes, 8 tensors)

49 f4 [24]
0	0x4231a22e	44.40838
1	0x3ef5046c	0.47854936
2	0x4107ac0b	8.479503
3	0x41be881c	23.81646
4	0x3e995c98	0.29953456
5	0x413d0fb4	11.816334
6	0x41d5aa88	26.708267
7	0x3bf9ef00	0.007627368
8	0x41dfffe1	27.99994
9	0x42c1b533	96.853905
10	0x3ef5046c	0.47854936
11	0x42409639	48.1467
12	0x4233fea7	44.998684
13	0x3cc595b9	0.024119245
14	0x410975d1	8.591264
15	0x41c66c7a	24.802967
16	0x3e40504b	0.1878063
17	0x413f5eba	11.960627
18	0x41d95203	27.165045
19	0x3bf9ef00	0.007627368
20	0x41e19382	28.197025
21	0x42c4343f	98.10204
22	0x3cc595b9	0.024119245
23	0x423f0e3d	47.763905

action_model._discrete_distribution.branches.0.bias f4 [3]
0	0x3a6d38e6	0.0009049311
1	0x3c719a7f	0.014746307
2	0xbc889162	-0.016670886

action_model._discrete_distribution.branches.0.weight f4 [3, 128]
0	0x3c0b605e	0.008506862
1	0xbbfc4760	-0.0076989383
2	0x3c29ba77	0.010359398
3	0x3bf046bd	0.0073326514
4	0x3c23b002	0.009990694
5	0x39ee6a02	0.0004547388
6	0xbbbaa286	-0.005695644
7	0xbc13d626	-0.009023225
8	0xbba41d6b	-0.0050083897
9	0x3b817253	0.003950396
10	0xbc0fb17c	-0.008770343
11	0x3cda781f	0.026668606
12	0xbc63c315	-0.013901492
13	0x3c5b9a3f	0.013403474
14	0xbbf6edb0	-0.007535659
15	0x3aaf0695	0.0013353402
16	0xbbc69b69	-0.006061007
17	0x3c1dec78	0.009638898
18	0xba9cc912	-0.0011961779
19	0x3c90d180	0.017678022
20	0xbc3cfdcf	-0.011535122
21	0x3c1da947	0.009622878
22	0xbbb5c102	-0.00554669
23	0x3c9a9514	0.018869914
24	0xba76ab09	-0.00094096415
25	0xbbd69b7d	-0.0065492974
26	0x3ad06c38	0.0015901392
27	0xbc816377	-0.015794499
28	0x3beed325	0.007288354
29	0x3b2e79cc	0.002662289
30	0x3c75d787	0.015004999
31	0xbc175c45	-0.009238307
32	0xbcd159a8	-0.025555447
33	0x3c539bb6	0.012915542
34	0x3acb5d8b	0.0015515549
35	0xbc6b019c	-0.014343645
36	0x3b6391f7	0.0034724453
37	0x3983d0ed	0.0002514193
38	0xbad27a5f	-0.0016058198
39	0xbcb435cf	-0.021998314
40	0xbb01cb67	-0.0019805075
41	0x3bb60714	0.005555043
42	0x3b3596b1	0.0027708227
43	0xbc3656ca	-0.011129091
44	0x3cad61c3	0.02116478
45	0xbbe211e9	-0.0068991077
46	0xbc03b577	-0.00803887
47	0x3b25b44c	0.0025284467
48	0xbbb9288b	-0.005650585
49	0xbc2d6b67	-0.010584689
50	0xbbc8e486	-0.0061307577
51	0x3bf98ba6	0.0076155243
52	0xbc40bd85	-0.011763935
53	0xbb05a629	-0.0020393229
54	0x3b9732a2	0.00461419
55	0xbb1c7cde	-0.0023878138
56	0xbb69e26b	-0.0035687934
57	0xba6a751f	-0.0008943844
58	0xbb83e05e	-0.0040245494
59	0x3b2d7cb0	0.0026472025
60	0x3b6bde84	0.0035990784
61	0x3b893d96	0.00418825
62	0xbadae229	-0.0016699481
63	0x3bed57e5	0.007243144
64	0xbb4f2505	-0.0031607759
65	0x3c9f1262	0.019417945
66	0x3bc2755f	0.005934402
67	0x3c871b5a	0.016492534
68	0x3b2a0abc	0.002594634
69	0x3c60ce6a	0.013721088
70	0xbc95343c	-0.018213384
71	0x3b473886	0.003039868
72	0x3be9d9a7	0.007136542
73	0x3c8331bd	0.016014928
74	0x3c77d989	0.015127548
75	0xbbc7fa5c	-0.006102843
76	0xbc92ff69	-0.017944055
77	0xbacf7424	-0.0015827459
78	0x3adb41d2	0.001672799
79	0x3b3e6bd6	0.0029055974
80	0xbbd013d6	-0.006350021
81	0xbc988243	-0.018616801
82	0xbc9110c9	-0.0177082
83	0x3b20387a	0.0024447725
84	0x3c765647	0.015035219
85	0xbd0c8a67	-0.03431168
86	0xbcac537c	-0.021035902
87	0x3adc81ee	0.001682339
88	0xbbcc9faf	-0.0062446217
89	0xbbcd9b78	-0.006274637
90	0xbc1a009b	-0.009399558
91	0x3c8d0325	0.017213413
92	0xbbbb5560	-0.0057169646
93	0xbc139ff4	-0.009010304
94	0x3bae68d0	0.005322553
95	0xbc867a07	-0.016415609
96	0xbc2010c9	-0.009769627
97	0xbb3d81db	-0.0028916511
98	0x3c5a0081	0.013305784
99	0x3a3998d8	0.00070799654
100	0x3c86a7d4	0.016437449
101	0xbb453bb6	-0.0030095405
102	0x3bcfcdac	0.0063416567
103	0x3b90d65d	0.0044200853
104	0x3b9a0ade	0.0047010025
105	0x3c121278	0.008915536
106	0x3b754d38	0.003743006
107	0xbc7a87da	-0.015291179
108	0x3a6caa4a	0.00090280606
109	0x3965027d	0.00021840069
110	0xb8078a5d	-3.231537e-05
111	0xbcb26797	-0.021777911
112	0xbc489620	-0.012242824
113	0xbb852baf	-0.0040640454
114	0xbbcaee28	-0.006192941
115	0xbc682f43	-0.014171424
116	0xbc53d90e	-0.012930168
117	0xbaaa384f	-0.0012986752
118	0x3c382a33	0.01124053
119	0x3c43baff	0.011946439
120	0x3b4bd034	0.003109944
121	0x3c205a31	0.009787128
122	0x3b0fa0a5	0.002191582
123	0x3be4ec3f	0.0069861705
124	0xbbd22aa2	-0.0064137736
125	0x3a786417	0.0009475364
126	0x3b70b7f0	0.003673073
127	0x3cb58758	0.022159263
128	0xbb85253e	-0.0040632775
129	0x3c9b65a1	0.018969359
130	0x3a03337d	0.0005004926
131	0xbc8486b6	-0.016177516
132	0x3c02eb8d	0.00799073
133	0xbc5b79a9	-0.013395705
134	0xbc0d7236	-0.008633187
135	0x3ca18f58	0.019721672
136	0xbac336fc	-0.0014893706
137	0x3ac627d3	0.001511807
138	0x3c309dc1	0.010779799
139	0xbc198e78	-0.009372346
140	0xb97eb6b9	-0.00024291397
141	0xbb24ccf6	-0.002514658
142	0x3c89ba84	0.01681257
143	0x3b9754a7	0.0046182456
144	0x3bb703f9	0.0055851904
145	0xbc2c294e	-0.010507895
146	0x3b2b1f80	0.0026111305
147	0x3c8452a1	0.016152682
148	0xbc55f02d	-0.013057751
149	0x3c7da25c	0.015480604
150	0x3bf9a763	0.007618831
151	0xbc123df6	-0.008925905
152	0x3c223380	0.009899974
153	0x3b58d26c	0.0033084406
154	0x3af27eb3	0.0018500894
155	0x3c9a73d8	0.018854067
156	0xbc8307e9	-0.015994983
157	0x3c491109	0.012272128
158	0xbc8ddd7a	-0.017317522
159	0x3c8a530f	0.016885309
160	0xbb8f182b	-0.0043668947
161	0xbb7b8101	-0.0038376453
162	0xbc02d13a	-0.007984454
163	0x3c515878	0.01277744
164	0xbbdf5820	-0.0068159252
165	0xbac168ba	-0.0014755942
166	0xbbbae127	-0.00570311
167	0xbb3440e3	-0.0027504496
168	0x3c932bd1	0.01796523
169	0x3b8fbbe9	0.0043864143
170	0xbbcfe78c	-0.006344741
171	0x3c2e7e6a	0.010650257
172	0xbc8cb507	-0.017176164
173	0xbbd3677d	-0.0064515457
174	0x3bd3d76a	0.0064648883
175	0xbc6380d3	-0.013885695
176	0x3c0be118	0.008537553
177	0x3b705105	0.0036669385
178	0x3bc71dc8	0.0060765482
179	0xbc435f29	-0.011924543
180	0x380e847c	3.3978824e-05
181	0x3c925e19	0.017867135
182	0xbbd953a7	-0.0066322866
183	0x3b1e3480	0.002414018
184	0xbbc5f9ee	-0.006041757
185	0x3c2f2353	0.010689574
186	0x3c9bc9d0	0.01901713
187	0x3c0f3756	0.00874122
188	0x3ac1c690	0.0014783908
189	0x3c009255	0.007847388
190	0xbc6d41ce	-0.014481021
191	0xbc0f5999	-0.008749389
192	0xbc560f24	-0.013065133
193	0xbc274e6f	-0.010211571
194	0xb8393be2	-4.4163207e-05
195	0xbbfcf377	-0.007719453
196	0xbc408a7d	-0.011751768
197	0xbc976ed3	-0.018485462
198	0xbbe49579	-0.0069758263
199	0xbbe5dd81	-0.0070149307
200	0x3c8a1ce1	0.016859474
201	0x3c5efc0a	0.0136098955
202	0x3c6e6ef3	0.01455282
203	0x3c4cfa9c	0.012510922
204	0xbbe23c37	-0.006904151
205	0x3c0e748a	0.008694777
206	0x3954ffe1	0.00020313218
207	0x3c36d840	0.011159956
208	0xbbca0844	-0.006165536
209	0xbbb777e8	-0.0055990107
210	0x3c8c76cd	0.017146492
211	0x396a541e	0.00022347315
212	0x3c055c2a	0.008139649
213	0x3a05e645	0.000510786
214	0x3b57ec04	0.0032947073
215	0x395599de	0.00020370583
216	0xbc062432	-0.008187341
217	0xbc12b7ac	-0.008954924
218	0x3bad5fd1	0.005290963
219	0x3c00c98b	0.007860552
220	0xbc184ec7	-0.009296126
221	0x3b8ca820	0.004292503
222	0xbc97a8de	-0.01851314
223	0x3b3d008a	0.0028839433
224	0x3c2a94d4	0.01041146
225	0x3bafe551	0.005367913
226	0xbc32a0d4	-0.010902602
227	0xbbdfe949	-0.0068332297
228	0x3b6dd687	0.0036291198
229	0x3c1e07d5	0.009645422
230	0x3bd1b402	0.0063996324
231	0xbc899090	-0.016792566
232	0xba264b16	-0.0006343586
233	0x3bfa34b5	0.0076356777
234	0x3bb3a279	0.0054820147
235	0x3c30247b	0.010750885
236	0xbcace403	-0.021104818
237	0x3c90a721	0.017657818
238	0xbb8319f2	-0.0040008957
239	0xbb9f2ca6	-0.0048576174
240	0x3cbfd1eb	0.023415526
241	0x3c9d1b7b	0.019178143
242	0x3c6bedd8	0.014399968
243	0x3b944c1a	0.0045256736
244	0x3c62eff5	0.0138511555
245	0xbc4c58e6	-0.012472367
246	0xbc837b55	-0.01605002
247	0x3b40487d	0.0029340081
248	0xba203edd	-0.0006112883
249	0xbb85cef1	-0.004083507
250	0x3b8ce8e6	0.0043002246
251	0x3c3128f2	0.010812985
252	0x3ba719b9	0.005099502
253	0x3c031c1b	0.008002306
254	0x3c9e3fe3	0.019317573
255	0x398c4ce3	0.00026760166

network_body._body_endoder.seq_layers.0.bias f4 [128]
0	0x3bc22316	0.0059245927
1	0x3b7b8ac2	0.0038382267
2	0xbc8a1198	-0.016854092
3	0x3c8617f4	0.016368844
4	0xbc3da09c	-0.011573937
5	0x3c39998f	0.011328115
6	0xbc988073	-0.018615937
7	0x3c216a51	0.009852008
8	0x3cb63cc1	0.022245767
9	0x3c9e9eb8	0.019362792
10	0xbc8ecf64	-0.017432876
11	0x39cdfe5e	0.00039290165
12	0xbc3baa7b	-0.01145422
13	0x3bd5d189	0.0065252227
14	0xbc082915	-0.008310576
15	0x3c407fe9	0.011749246
16	0xbc17c80a	-0.009264002
17	0x3c7ca19b	0.015419389
18	0xbbbe2ee4	-0.0058039296
19	0x3c8113cd	0.015756512
20	0x3bc598c7	0.0060301754
21	0xbc0cf76a	-0.00860391
22	0x3cac6cd6	0.02104799
23	0xbc46a269	-0.012123683
24	0x3c486ebf	0.012233435
25	0x3c7f15bc	0.015569147
26	0xbc95c8f0	-0.018284291
27	0x3bebfd78	0.0072018467
28	0x3c0ad31c	0.008473184
29	0x3bc19da2	0.005908684
30	0xbc7682f4	-0.01504587
31	0xbb83cbe9	-0.0040221107
32	0x3c5fd82c	0.013662379
33	0x3a501a96	0.0007938532
34	0xbc4f5f98	-0.012657069
35	0xb9146c0a	-0.00014154628
36	0x3baa27be	0.005192726
37	0xbc64dcc7	-0.013968653
38	0x3be973f3	0.007124418
39	0x3bd20c5f	0.006410166
40	0x3c192103	0.0093462495
41	0x3c079113	0.0082743345
42	0x3c592d81	0.013255478
43	0xbc372624	-0.011178527
44	0xbc0b1236	-0.008488229
45	0x3af85576	0.0018946368
46	0x3b830fe0	0.003999695
47	0xbc0c5996	-0.008566281
48	0xbb757878	-0.0037455838
49	0x3ca29e03	0.019850736
50	0x39ed53da	0.00045266637
51	0xbc9e9b14	-0.019361056
52	0xbb71d75e	-0.003690205
53	0x3c550d9d	0.013003734
54	0x3c87a993	0.016560351
55	0x3bdb984f	0.006701506
56	0x3c65e175	0.014030804
57	0x3c449a7b	0.011999722
58	0x3c878ff2	0.01654813
59	0x3a24991d	0.0006278919
60	0xbc4ac763	-0.012376639
61	0x3c59a43f	0.013283788
62	0x3c9c545f	0.0190832
63	0x3c1a0fc7	0.009403176
64	0xbc094f0f	-0.008380665
65	0x3c182927	0.009287155
66	0xbc1efb4a	-0.009703467
67	0xbc8a3055	-0.01686875
68	0x3c27718a	0.010219941
69	0x3c9d6c05	0.019216547
70	0xbc67263c	-0.014108237
71	0xbc809ae4	-0.015698858
72	0x3c2dc12f	0.010605141
73	0xbc232378	-0.009957187
74	0x3b5b475b	0.003345928
75	0x3c5f8f01	0.013644935
76	0x3aa0ddf0	0.0012273174
77	0x3c553b3b	0.01301461
78	0x3c729a12	0.014807241
79	0xbb48b1ba	-0.0030623511
80	0xbc492a87	-0.012278206
81	0x3c42df06	0.011893993
82	0xbc3b0ac7	-0.011416144
83	0x3ad20c1c	0.0016025337
84	0xba3ea290	-0.00072721485
85	0xbb2ebf93	-0.002666448
86	0xbb91f483	-0.004454197
87	0xbc7a733e	-0.015286265
88	0xb9a832bd	-0.0003208126
89	0x3c8cb543	0.017176276
90	0x3c253aa2	0.01008478
91	0xbc9fa428	-0.019487455
92	0x3c5ce171	0.013481484
93	0xbb63c6d1	-0.0034755955
94	0xbc4f4ac1	-0.0126521
95	0xbc0f970c	-0.00876404
96	0xbb13fe27	-0.0022581907
97	0xbc370ee0	-0.01117298
98	0x3c646343	0.013939681
99	0xbbe5e055	-0.007015268
100	0xbba43a30	-0.0050118193
101	0xbca21d0d	-0.019789243
102	0xbc301af5	-0.010748615
103	0xbca14d30	-0.019690126
104	0x3c423022	0.011852296
105	0x3c05754f	0.008145644
106	0x3b9b7d6f	0.0047451775
107	0x3c923ca3	0.01785118
108	0x3b3c5453	0.0028736785
109	0x3c879759	0.01655166
110	0xbc3d4c79	-0.011553877
111	0xbc35b2a4	-0.0110899545
112	0xbc0d4f75	-0.008624901
113	0x3c9d0765	0.019168565
114	0x3c3c465f	0.011491387
115	0xbc8c2d24	-0.017111368
116	0x3caecacc	0.021336935
117	0x3c1db4f8	0.009625666
118	0xbc889f6b	-0.016677579
119	0x3b66f2c9	0.0035239926
120	0x3c0d437e	0.008622048
121	0x3c2d0124	0.010559354
122	0x3c380608	0.011231907
123	0xbb1c3654	-0.0023836093
124	0x39b83179	0.00035132075
125	0xbc5096e8	-0.012731291
126	0xbc8aa094	-0.016922273
127	0xbc6490ff	-0.013950585

network_body._body_endoder.seq_layers.0.weight f4 [128, 24]
0	0xbe813f9a	-0.25243837
1	0xbe062198	-0.13098752
2	0x3eed71f2	0.46375996
3	0xbe1aba6e	-0.1511018
4	0x3cb0f05d	0.02159899
5	0x3e1ffb2a	0.15623155
6	0x3e5ae45d	0.21376176
7	0xbdcfdd44	-0.10149625
8	0x3e6727e6	0.22573814
9	0xbdcacf52	-0.099028245
10	0xbe2b2bae	-0.16715881
11	0xbeae7cfc	-0.3407973
12	0x3e8a301a	0.26989824
13	0x3e2d5a3c	0.16928953
14	0x3da02257	0.0781905
15	0x3d654bde	0.055980556
16	0xbdfd0dde	-0.123561606
17	0xbd8414f9	-0.06449313
18	0xbc70d525	-0.014699255
19	0x3e09efca	0.13470379
20	0xbde329e3	-0.11091974
21	0xbdddd637	-0.10831874
22	0xbdc2186a	-0.09477313
23	0x3df6d734	0.120527655
24	0x3c032899	0.008005285
25	0xbb1cc302	-0.0023919945
26	0x3dbd17f0	0.09233081
27	0xbe5084ab	-0.20363109
28	0x3d4aa793	0.049476217
29	0x3ccca1cb	0.024979493
30	0xbdfcdf5c	-0.1234729
31	0xbd711c41	-0.058864836
32	0xbe4f137a	-0.20222273
33	0x3e37fdaa	0.17967859
34	0x3e2fd951	0.17172743
35	0xbd19bbbd	-0.037532557
36	0x3e62647a	0.22108641
37	0x3d13c1e9	0.0360736
38	0x3e1ca567	0.15297471
39	0x3aa9867d	0.0012933757
40	0x3d873ece	0.06603776
41	0x3dd42769	0.103590794
42	0x3e5e63f6	0.2171782
43	0xbda976cb	-0.08274611
44	0x3d575e22	0.052580006
45	0x3e12dee1	0.14342834
46	0x3d843eeb	0.06457313
47	0x3df3533c	0.1188111
48	0xbe253693	-0.161341
49	0xbdc23135	-0.09482042
50	0xbc94f580	-0.01818347
51	0x3dc2a63f	0.09504365
52	0xbec676e5	-0.38762584
53	0xbd9339b0	-0.071887374
54	0xbc62044a	-0.013794968
55	0xbcca5702	-0.024699692
56	0x3e53a85e	0.20669696
57	0xbb2617fd	-0.0025343888
58	0xbe228a7d	-0.15873142
59	0xbc618776	-0.013765207
60	0xbda23cdc	-0.07921764
61	0xbe83eb8e	-0.2576565
62	0xbd69e541	-0.0571034
63	0xbe077310	-0.13227487
64	0xbe87d108	-0.26526666
65	0xbe9f77e7	-0.31146166
66	0xbc83ecc7	-0.016104115
67	0x3e3fdeb9	0.18737306
68	0xbede2f69	-0.43395546
69	0xbdb66e5c	-0.08907768
70	0xbeaee8fe	-0.34162134
71	0x3bac07e0	0.005249962
72	0xbd898c0a	-0.067161635
73	0x3d96ae22	0.07357432
74	0x3dc12d43	0.09432461
75	0xbecb174d	-0.39666215
76	0xbdb56447	-0.08857017
77	0xbd2b05b9	-0.041753504
78	0xbe629e20	-0.22130632
79	0x3e6a7d61	0.22899391
80	0x3dd38164	0.10327414
81	0x3e716bda	0.23576298
82	0x3e21b44b	0.15791433
83	0x3e509915	0.20370896
84	0x3b99cf8f	0.0046939324
85	0xbda76733	-0.081739806
86	0x3e18f080	0.14935493
87	0xbd9b1c7b	-0.075737916
88	0x3df48f68	0.11941415
89	0xbd9404d0	-0.072274804
90	0x3cf1dd00	0.029524326
91	0xbd82729a	-0.06369515
92	0x3e0004d6	0.12501845
93	0xbeaeed8e	-0.34165615
94	0xbe9ddd83	-0.30833063
95	0xbe2ae986	-0.16690645
96	0x3c506f47	0.012721843
97	0x3bb2b920	0.0054541975
98	0x3abacb49	0.0014251258
99	0xbe101f8d	-0.14074536
100	0x3db19208	0.086704314
101	0x3c4044e3	0.011735174
102	0x3dd431ef	0.103610866
103	0xbd966362	-0.073431745
104	0xbe7f4102	-0.24927142
105	0x3e1c9e9c	0.1529488
106	0xbea5bb8b	-0.32369646
107	0xbea3cff7	-0.31994602
108	0x3e9868d3	0.29767475
109	0xbd23f296	-0.04002627
110	0xbe6f6acf	-0.23380588
111	0x3d67ce15	0.05659302
112	0x3dd5efbe	0.10446118
113	0x3da37eba	0.079831555
114	0x3b610747	0.0034336613
115	0xbdc3a4b4	-0.09552899
116	0x3da526ce	0.08064042
117	0x3e090003	0.1337891
118	0x3e302fa6	0.17205676
119	0x3e7165a6	0.23573932
120	0xbe6bb190	-0.23016953
121	0xbe68d3d2	-0.22737053
122	0x3e6b4443	0.22975259
123	0xbeab9123	-0.33509168
124	0x3d8a48dd	0.06752179
125	0x3e78b638	0.24288261
126	0x3e35152c	0.17683858
127	0xbe2ad18d	-0.166815
128	0xbc174fe2	-0.009235354
129	0xbdd64462	-0.10462262
130	0x3e2643b5	0.16236766
131	0x3dc04f6d	0.09390149
132	0xbda88f9e	-0.08230518
133	0xbe7ae2ce	-0.24500582
134	0x3eca4b77	0.395107
135	0x3cafd540	0.02146399
136	0x3e18bf34	0.14916688
137	0x3e86bdf7	0.26316807
138	0xbe0b319d	-0.13593145
139	0x3e67606e	0.22595379
140	0xbcd641d0	-0.026154429
141	0x3dbfae6b	0.093594395
142	0xbe08f7be	-0.13375756
143	0xbcbdcece	-0.023169901
144	0x3ecc705d	0.39929476
145	0xbe777787	-0.2416669
146	0xbea2df9d	-0.31811228
147	0x3c4c5cf6	0.0124733355
148	0x3e617e88	0.22020924
149	0xbe2848f8	-0.16434085
150	0x3e4cd259	0.20002116
151	0x3dccef85	0.10006622
152	0xbd9a63a7	-0.075385384
153	0xbdeb0032	-0.11474647
154	0x3d8bf3ef	0.06833636
155	0x3e9cf199	0.30653074
156	0xbdb81720	-0.08988786
157	0x3f21f4b4	0.6326401
158	0x3e6ec2cc	0.23316497
159	0x3d3156a3	0.043295514
160	0x3e92e1a3	0.28687772
161	0xbe969c98	-0.29416347
162	0xbf2c1679	-0.6722179
163	0xbe12e73e	-0.14346024
164	0xbddf3ef2	-0.10900678
165	0x3b38b9e5	0.0028186974
166	0xbea26a0a	-0.31721526
167	0xbe13ee6a	-0.14446416
168	0xbdad4323	-0.08460071
169	0xbe9e1858	-0.30877948
170	0xbf2dc5ad	-0.67879754
171	0xbe23bbaf	-0.15989564
172	0x3ea052ae	0.3131308
173	0x3dfdab78	0.12386221
174	0xbe8d1aba	-0.27559453
175	0xbe02accc	-0.1276123
176	0xbe592f03	-0.2120934
177	0x3eb5093d	0.3535861
178	0x3d8e03a0	0.06934285
179	0xbdcf809b	-0.101319514
180	0x3de9579a	0.11393662
181	0xbe602660	-0.21889639
182	0xbded42b9	-0.11584992
183	0x3e5f4fb9	0.21807756
184	0xbb85026e	-0.0040591275
185	0xbd898e96	-0.06716649
186	0xbc882e8b	-0.016623756
187	0xbd679b27	-0.05654445
188	0x3c1a2e00	0.009410381
189	0x3e5775f7	0.21041094
190	0x3da32b5b	0.07967254
191	0xbd9962c2	-0.0748954
192	0xbe561341	-0.20905782
193	0x3e3c5a8c	0.18393916
194	0xbbbd24f9	-0.0057722297
195	0xbd9712c5	-0.07376627
196	0x3dc82ba1	0.097739466
197	0xbe8b05b7	-0.27152798
198	0x3cec7d2b	0.028868278
199	0xbebe70c7	-0.37195417
200	0xbcfac7cb	-0.030612847
201	0xbba7e5a7	-0.0051238122
202	0xbe1fae02	-0.15593722
203	0x3d77b01e	0.060470693
204	0xbd877b88	-0.066153586
205	0x3d94171f	0.072309725
206	0x3e19cc64	0.15019375
207	0x3d9cee40	0.0766263
208	0x3ec54d4c	0.38535535
209	0xbd6492d1	-0.055804078
210	0xbdb99996	-0.09062497
211	0x3de47394	0.11154857
212	0x3ebc29c4	0.36750615
213	0xbe4a3ef0	-0.19750571
214	0xbe0de3c1	-0.13856412
215	0xbe2dc8c2	-0.16971114
216	0x3d68333e	0.056689493
217	0xbdb6849f	-0.08912014
218	0x3b3b0081	0.0028534236
219	0xbed7a6d1	-0.42119458
220	0x3dbafff5	0.09130851
221	0xbe8bef2a	-0.27330905
222	0xbe6df4e0	-0.23237944
223	0xbeb81615	-0.35954347
224	0xbcb8f58e	-0.022578027
225	0xbe858e56	-0.26085156
226	0x3ebc3054	0.3675562
227	0x3d36c60f	0.044622477
228	0x3e89307e	0.2679481
229	0x3d9510ad	0.07278571
230	0xbe92064b	-0.28520426
231	0xbdf13ed6	-0.11779563
232	0x3e6bec94	0.23039466
233	0xbc19361c	-0.00935128
234	0xbe85720e	-0.2606358
235	0xbe84f90b	-0.25971255
236	0xbda08504	-0.07837871
237	0xbc43f907	-0.011961228
238	0xbc7a76d1	-0.015287117
239	0x3da19aa0	0.078908205
240	0xbdd2acac	-0.10286841
241	0x3e0bfdab	0.13670985
242	0x3df352e3	0.11881044
243	0x3e7eea2b	0.24894015
244	0x3d2e6efd	0.042586315
245	0x3ce280e9	0.02764936
246	0x3ed84a30	0.422441
247	0x3f005b9c	0.50139785
248	0xbd8d1d28	-0.06890327
249	0x3e798099	0.24365462
250	0xbdc70fe9	-0.097198315
251	0x3d958d6a	0.07302363
252	0xbe1abc83	-0.15110974
253	0xbe5344ff	-0.20631789
254	0x3e2bc7af	0.16775392
255	0xbe3af4ec	-0.18257493

network_body._body_endoder.seq_layers.2.bias f4 [128]
0	0x3c86eb37	0.016469581
1	0x3c8333bf	0.016015885
2	0x3c645f75	0.013938774
3	0x3c1cdee3	0.009574625
4	0xbc9a60b0	-0.018844932
5	0x3bbf2f25	0.0058344775
6	0xbc2ed9c3	-0.010672036
7	0x3c213a3e	0.009840546
8	0xbb7b5791	-0.0038351754
9	0x3caa2419	0.020769166
10	0x3c2255c3	0.0099081425
11	0xbb8be896	-0.0042696698
12	0x3c2ca7f0	0.010538086
13	0x3b234d50	0.0024917908
14	0x3c83d09d	0.016090686
15	0x3c355898	0.011068486
16	0xbb69b756	-0.0035662255
17	0x3b61b5a1	0.0034440535
18	0x3c8c84d5	0.017153183
19	0x3c993fe3	0.018707221
20	0xbcefd887	-0.029278053
21	0x3c908dde	0.017645773
22	0x3cad41f0	0.021149606
23	0xbc1d4e04	-0.00960112
24	0x3c11da2b	0.008902113
25	0x3c1e3b8a	0.00965775
26	0x3ca47ddf	0.020079551
27	0x3b82634c	0.0039791223
28	0xbb029ba0	-0.0019929186
29	0x3cb7814a	0.022400517
30	0xbbaeb39e	-0.0053314706
31	0x3c88a1d0	0.01667872
32	0xbc193b39	-0.009352499
33	0xbb243907	-0.0025058405
34	0xbc691259	-0.014225566
35	0x3b6950ce	0.0035601142
36	0x3c0dbc5b	0.0086508645
37	0x3c69d215	0.014271279
38	0xbc19a0f1	-0.00937675
39	0xbb519f26	-0.003198573
40	0x3b41d6f4	0.0029577585
41	0x3c81cfcb	0.015846154
42	0xbbbb1d4d	-0.00571028
43	0x3c87aa76	0.016560774
44	0xbc1b85bf	-0.009492337
45	0xbc315ad7	-0.010824881
46	0xbb5944d9	-0.0033152609
47	0xbc9d6ec9	-0.019217866
48	0xbc01ca51	-0.007921771
49	0xbb0371cc	-0.0020056842
50	0xbc2dfdd1	-0.010619597
51	0xbc5c0664	-0.013429258
52	0x3bfe7b78	0.0077661835
53	0x3c8eac95	0.017416278
54	0xbcafad7b	-0.021445027
55	0xbc7bf7f2	-0.015378939
56	0x3bdfc55c	0.006828947
57	0x3c810a85	0.015752086
58	0x3c839bcf	0.016065506
59	0xbc5544fc	-0.013016935
60	0xbaf1ccab	-0.0018447837
61	0xbc480022	-0.012207063
62	0xbc9d1fab	-0.01918014
63	0x3bad9775	0.005297596
64	0x3b3852d7	0.0028125548
65	0x3c2cecfe	0.01055455
66	0x3c5ff366	0.013668871
67	0xbc1237e0	-0.008924454
68	0xbc66be57	-0.0140834665
69	0xbc06d979	-0.00823056
70	0xbb0226e3	-0.0019859604
71	0xbc71b279	-0.014752024
72	0x3cc088e3	0.023502773
73	0x3c1f4e4b	0.009723256
74	0x3cbd2854	0.023090519
75	0x3c6c05dc	0.014405694
76	0xbc83f772	-0.016109202
77	0x3c84c318	0.01620631
78	0x3c8405bd	0.016116017
79	0x3ccbfe38	0.024901494
80	0x39e3bdd2	0.0004343824
81	0xbbbca716	-0.005757223
82	0x3b8c1f72	0.0042762095
83	0x3af6cafa	0.0018828802
84	0x3c6f63a9	0.014611163
85	0x3adc9b62	0.0016830976
86	0xbc0d5265	-0.008625601
87	0x3c332d2c	0.010936063
88	0xbc6c1446	-0.01440913
89	0x3c43dbf5	0.011954297
90	0x3c3e474b	0.011613677
91	0x3c7f6521	0.015588076
92	0xbc984549	-0.018587725
93	0x3c0e1833	0.008672762
94	0xbc41b65d	-0.011823264
95	0x3bb56604	0.005535843
96	0x3c4a367d	0.012342093
97	0xbad2d97d	-0.0016086545
98	0xbc5422e5	-0.012947773
99	0x3c5a6dd5	0.01333185
100	0x3a4c3b1a	0.0007790789
101	0x3c7cb7fd	0.015424726
102	0x3c731c95	0.014838357
103	0xbc9d9cda	-0.019239832
104	0xbc394501	-0.011307956
105	0x3cc2a667	0.023760987
106	0x3bfe78bb	0.007765857
107	0x3c18105a	0.009281242
108	0xbc6e58ab	-0.014547507
109	0x3c96d2be	0.018411037
110	0xbc7da52a	-0.015481273
111	0xbc052f67	-0.008128977
112	0x3c9dbca1	0.019254984
113	0x3ca72b48	0.02040638
114	0x3bf979f9	0.007613417
115	0xbbf8e42e	-0.0075955605
116	0x3c20f2b7	0.009823493
117	0xbc9a6136	-0.018845182
118	0xbc67e1d7	-0.0141529655
119	0xbc07d562	-0.0082906205
120	0x3c601eed	0.013679248
121	0x3ca48e78	0.020087466
122	0x3c618294	0.013764042
123	0x3cafafe7	0.021446181
124	0xbc1e9b00	-0.00968051
125	0xbc444123	-0.01197842
126	0x3bfe7992	0.007765957
127	0x3c0dbeb6	0.008651426

network_body._body_endoder.seq_layers.2.weight f4 [128, 128]
0	0xbd8fabd3	-0.07015195
1	0x3cb24b45	0.021764407
2	0xbcb2d0c1	-0.021828057
3	0x3d186d48	0.037213594
4	0xbd92c205	-0.071659125
5	0x3b11793a	0.00221975
6	0xbcc3d0bd	-0.023903245
7	0xba70d59f	-0.00091871055
8	0xbdf1ce73	-0.11806955
9	0x3dec74df	0.11545729
10	0xbdc4c7d1	-0.096084245
11	0x3d0ca81b	0.034340005
12	0x3cfc8519	0.030825185
13	0x3e3565a7	0.17714559
14	0x3af634e5	0.0018784074
15	0x3ac2c0e0	0.0014858507
16	0x3b32e4d8	0.0027297046
17	0xbd7f2141	-0.062287573
18	0x3d39d91d	0.04537307
19	0xbea1ee4d	-0.31627122
20	0x3c9a025b	0.018799951
21	0xbbedace3	-0.0072532757
22	0x3d108602	0.03528405
23	0x3cf256ce	0.029582407
24	0x3d82ba0b	0.06383141
25	0x3a82d9d9	0.0009983137
26	0xbe3e3045	-0.18573101
27	0xbcbc2bb6	-0.022970062
28	0xbd9156ef	-0.070966594
29	0xbc15fcd0	-0.0091545135
30	0xbe028fcf	-0.12750171
31	0xbe6d743a	-0.23188868
32	0xbddf53fd	-0.10904691
33	0xbd87698f	-0.066119306
34	0x3df0ad90	0.117518544
35	0xbc526d8b	-0.0128435
36	0x3d8d080e	0.06886302
37	0x3d6fabce	0.058513455
38	0x3e529bb0	0.20567203
39	0x3d4aa38d	0.04947238
40	0x3dbb7498	0.09153098
41	0xbdbbfcdc	-0.091790885
42	0xbd382138	-0.044953555
43	0xbd4dd9f9	-0.050256703
44	0xbccca384	-0.024980314
45	0x3e36d107	0.17853175
46	0xbd88d51a	-0.06681271
47	0xbcfe437c	-0.031038038
48	0xbd023b9f	-0.03179514
49	0xbdf567ba	-0.11982675
50	0x3daa75c0	0.0832324
51	0x3e6b7ae0	0.22996092
52	0x3dea370d	0.11436281
53	0x3ad288fc	0.0016062553
54	0x3da459ad	0.08024917
55	0xbd0cbdaa	-0.034360565
56	0x3da56246	0.08075385
57	0x3e871576	0.2638356
58	0x3daebb74	0.085318476
59	0xbd426516	-0.047459684
60	0xbd28431f	-0.041079637
61	0x3cfdf4be	0.031000491
62	0x3dc37036	0.09542887
63	0xbd93670a	-0.071973875
64	0x3b4931da	0.003069988
65	0x3da8b1a5	0.08237008
66	0x3cf0e603	0.029406553
67	0xbd02afd7	-0.031905975
68	0xbe36d34b	-0.1785404
69	0x3e250136	0.16113743
70	0xbd5b2c62	-0.053509124
71	0xbdbbff24	-0.091795236
72	0x3d51d055	0.05122407
73	0x3dd6a9fe	0.10481642
74	0xbd2e908d	-0.042618323
75	0xbe013edf	-0.1262164
76	0x3dcde0ae	0.1005262
77	0xbca8f6af	-0.02062544
78	0x3d26cf56	0.040725075
79	0x3d8b0589	0.06788165
80	0xbdf68e85	-0.12038902
81	0xbd59a958	-0.053140014
82	0x3e1092bf	0.14118479
83	0xbde81377	-0.113318376
84	0xbdf3af77	-0.11898702
85	0xbd0126f0	-0.031531274
86	0x3c1122cd	0.008858395
87	0x3db11e77	0.08648389
88	0xbcb488dc	-0.022037916
89	0x3db78abb	0.089620076
90	0x3e30e818	0.17276037
91	0xbc2b464e	-0.010453774
92	0x3da988b0	0.08278024
93	0x3c38a884	0.011270646
94	0x3dcc088e	0.09962569
95	0x3dc67471	0.09690178
96	0x3e426def	0.18987249
97	0x3df818b2	0.12114085
98	0x3e3726e6	0.17885932
99	0xbce5ce34	-0.028052427
100	0x3d53a024	0.051666394
101	0xbdad9e35	-0.08477441
102	0x3c0cca9c	0.008593228
103	0xbe0565ad	-0.13027067
104	0xbe1fa681	-0.1559086
105	0x3d839a88	0.06425959
106	0xbcc3f3d4	-0.023919977
107	0x3d87922b	0.06619676
108	0xbd1bb003	-0.038009655
109	0xbdf25878	-0.1183328
110	0xbc4c9c74	-0.012488473
111	0x3cfb43e7	0.030672027
112	0x3cac43d6	0.02102844
113	0xbcbfe06c	-0.023422442
114	0x3dd43840	0.10362291
115	0xbd5a234a	-0.05325631
116	0xbe348293	-0.17627935
117	0x3e1cde26	0.15319118
118	0xbd99bff2	-0.07507314
119	0xbc60916a	-0.013706544
120	0x3d500d15	0.050793726
121	0x3d8ec1c7	0.06970554
122	0xbd99549c	-0.07486841
123	0x3d0c65db	0.034276824
124	0xbd05e104	-0.032685295
125	0x3d39f4cd	0.045399476
126	0xbccf88cb	-0.025333783
127	0x3d8e56d5	0.06950156
128	0xbdc993af	-0.098426215
129	0x3dd34332	0.10315551
130	0xbdfb1362	-0.12259556
131	0x3d946d62	0.072474256
132	0xbc464bde	-0.012103049
133	0x3e002532	0.12514189
134	0xbe31a579	-0.17348279
135	0x3d8d2de8	0.068935215
136	0x3db63595	0.08896939
137	0x3d675728	0.056479603
138	0xbdcf5340	-0.101233006
139	0xbdca311c	-0.09872648
140	0x3db4f064	0.088349134
141	0x3e29c05c	0.16577286
142	0xbe53fdae	-0.2070224
143	0x3e7c4213	0.2463458
144	0xbe50df74	-0.2039774
145	0x3d42dbef	0.047573026
146	0xbdcdb142	-0.10043575
147	0x3d8c9efc	0.06866261
148	0x3e7ea3f8	0.24867237
149	0xbd1c328d	-0.038134146
150	0xbc30e27a	-0.010796184
151	0x3df3ed4e	0.11910497
152	0x3d63194e	0.055444054
153	0x3d5d1a67	0.053980257
154	0xbdd217ca	-0.10258444
155	0x3d2b8917	0.041878786
156	0xbd3eea23	-0.04661001
157	0x3d8ae33a	0.06781621
158	0x3cbf98a5	0.023388216
159	0xbdd92953	-0.10603585
160	0xbc10f8a7	-0.008848346
161	0xbc9be0e2	-0.01902813
162	0xbbe48ec6	-0.0069750277
163	0xbdb981d3	-0.09057965
164	0x3e264d4d	0.16240425
165	0x3e2f8850	0.17141843
166	0x3c610f82	0.0137366075
167	0xbe0e4b0b	-0.13895814
168	0x3de5bb8b	0.112174116
169	0xbda3e14a	-0.08001955
170	0x3d49612c	0.049164936
171	0x3d6a7044	0.05723597
172	0x3db6b180	0.08920574
173	0xbe638882	-0.22220042
174	0x3dca7b5e	0.09886812
175	0x3dd2dd27	0.10296088
176	0x3dd6269e	0.104565844
177	0xbe11946f	-0.14216779
178	0xbe15de38	-0.14635551
179	0xbe3a3504	-0.18184286
180	0x3c53a429	0.012917557
181	0x3cca53dc	0.02469819
182	0xbdc27ce0	-0.09496474
183	0xbded61ac	-0.11590895
184	0x3d3b9f66	0.04580631
185	0x3c980375	0.018556336
186	0x3ccb9b96	0.024854463
187	0x3c453a86	0.012037879
188	0x3d792d56	0.06083425
189	0x3d00aa89	0.031412635
190	0xbb79c048	-0.0038108993
191	0x3dda26fe	0.106519684
192	0x3da78e29	0.08181412
193	0xbd6f364c	-0.05840139
194	0x3e14d2f4	0.14533597
195	0x3c91dbf1	0.017805072
196	0x3cfb2d83	0.03066135
197	0x3e1e3ac1	0.154521
198	0xbe50ec6f	-0.20402692
199	0x3df3ec8d	0.11910353
200	0x3d8eba8d	0.069691755
201	0xbba39df6	-0.0049931956
202	0xba8aa04d	-0.0010576338
203	0xbe0e2364	-0.13880688
204	0x3c076b3a	0.008265311
205	0xbcdcf2eb	-0.026971301
206	0x3c1e91a9	0.009678283
207	0x3d43c25c	0.047792777
208	0x3d4f8c4b	0.050670903
209	0x3dbd923b	0.09256407
210	0x3c0d798f	0.008634939
211	0xbe013a75	-0.12619956
212	0x3ca656d5	0.020305077
213	0x3d800d44	0.0625253
214	0x3d9802cc	0.074224085
215	0xbd888671	-0.06666268
216	0xbdeb87f6	-0.11500542
217	0x3d2defd6	0.042465053
218	0xbde89caa	-0.11358006
219	0x3e3c9b74	0.18418676
220	0x3d0ab3ff	0.033863064
221	0xbd3c6e9a	-0.046003915
222	0x3db64157	0.08899181
223	0xbde1b9e5	-0.11021785
224	0x3bcfad6c	0.006337812
225	0x3db7d5db	0.089763366
226	0x3dd57628	0.10422927
227	0xbdf69969	-0.120409794
228	0xbdd80ae8	-0.10548955
229	0x3d9a18bf	0.07524251
230	0xbe3b176c	-0.18270653
231	0x3d627257	0.055284824
232	0x3db4a3c6	0.088203
233	0x3dd308b3	0.103043936
234	0xbd9d3ad8	-0.07677239
235	0x3d9d3a0f	0.076770894
236	0x3e3bfb9c	0.183577
237	0xbd3f4638	-0.046697825
238	0x3d4ccf92	0.050002642
239	0x3ddbabcd	0.10726128
240	0xbddff27a	-0.109349206
241	0x3d8329e8	0.06404477
242	0x3e0d9cb4	0.13829309
243	0x3b83f81a	0.0040273787
244	0x3c404662	0.011735531
245	0xbd5ea291	-0.054354254
246	0xbdf4b11e	-0.11947845
247	0xbd836670	-0.06416023
248	0x3d814838	0.06312603
249	0x3dc0ccb6	0.094140455
250	0x3e488d9e	0.19585273
251	0xbd17ba45	-0.037042875
252	0x3d7843a6	0.06061139
253	0x3b892692	0.004185506
254	0xbdd4ec00	-0.10396576
255	0xbe1fe600	-0.15615082

network_body.observation_encoder.processors.0.normalizer.running_mean f4 [24]
0	0xb4700000	-2.2351742e-07
1	0x403afc14	2.9216356
2	0x3f9fb532	1.2477171
3	0xc1110774	-9.06432
4	0x3fb6a283	1.4268345
5	0x4018719a	2.3819337
6	0xc0a988e8	-5.297962
7	0xb4331fd5	-1.6682255e-07
8	0x3f8567c1	1.0422288
9	0xbe369d1e	-0.17833373
10	0x403afc14	2.9216356
11	0x4264375b	57.054058
12	0x35040000	4.917383e-07
13	0x403ffd2c	2.9998274
14	0x3fa2e9d9	1.2727615
15	0xc119e66e	-9.618757
16	0x3fbba389	1.4659282
17	0x401ee870	2.4829369
18	0xc0b7a382	-5.7387094
19	0xb4338f70	-1.6722856e-07
20	0x3f81e5f9	1.0148307
21	0xbe09ca74	-0.13456136
22	0x403ffd2c	2.9998274
23	0x4269b616	58.42782
