Assets/trining/results/Test2/AgentTest/AgentTest-500078.onnx (onnx, 82986 bytes, 8 tensors)

49 f4 [24]
40.795815 0.2974407 10.562652 23.78736 0.1487254 12.344761 20.202398 0.0014141018
17.961946 40.795815 0.2974407 10.562651 40.999928 0.0044717267 10.616784 24.253094
0.0025492837 12.393955 20.315475 0.0014141018 18.04653 40.999928 0.0044717267 10.6168
00000000: ea2e 2342 264a 983e 9f00 2941 834c be41
00000010: 794b 183e 2484 4541 839e a141 6259 b93a
00000020: 11b2 8f41 ea2e 2342 264a 983e 9e00 2941
00000030: edff 2342 9087 923b 59de 2941 5606 c241
00000040: e211 273b a44d 4641 1886 a241 6259 b93a
00000050: 4b5f 9041 edff 2342 9087 923b 6ade 2941

action_model._discrete_distribution.branches.0.bias f4 [3]
-0.03193566 0.004422572 0.027162485
00000000: f7ce 02bd 39eb 903b dc83 de3c

action_model._discrete_distribution.branches.0.weight f4 [3, 128]
-0.015503831 0.0030269015 -0.03901608 0.016357766 -0.0019266637 0.008003963 0.02274538 0.011601703
-0.0073926044 -0.025068361 0.012710506 0.0064340634 -0.006817658 -0.0045911544 0.0141981775 0.013831872
-0.007625732 -0.022151079 0.033273123 -0.014725529 -0.041214522 -0.0018733294 0.012059103 0.038004175
-0.037896134 0.03399912 0.0074411123 0.015833257 0.0015800529 0.032043856 0.003068378 -0.012920082
0.001569341 0.02532373 0.007413413 0.0112739885 -0.031903006 -0.008406955 -0.008852563 -0.006718274
-0.01357768 0.031706434 0.0056888545 0.0342813 -0.012714734 0.012199382 0.025921453 0.004053024
-0.0008852806 0.051135086 0.024605408 0.02630958 0.0023198172 0.0030001188 -0.011809645 0.019749032
0.012682301 -0.0007680834 -0.012150265 0.010056218 0.0040098317 -0.0076194494 -0.008678528 0.027464006
-0.016515115 -0.037696138 0.024663253 -0.029797886 0.00018707174 -0.008763569 -0.0041023516 -0.020522935
-0.014803504 0.0014023072 0.0116677005 0.012056066 -0.017469432 -0.016730528 0.010485502 0.035722043
-0.023349278 -0.0033260048 0.00075691985 -0.02151597 -0.0050101597 -0.009856251 -0.006226178 0.042878147
0.005590252 0.00926417 0.015516648 0.0033148795 -0.022942094 0.004285678 -0.015265175 -0.019296622
-0.0237648 0.0032546143 0.017328836 -0.0059645567 -0.024765093 -0.011223304 -0.014304028 -0.041321285
-0.008050167 0.00174672 -0.016418543 -0.046542775 -0.005182348 -0.012699965 0.045492034 -0.023240188
-0.031259503 -0.010474531 0.011363715 0.023294818 -0.027520644 -0.012321349 -0.016850466 0.005546252
-0.023604019 -0.027092872 -0.009913822 -0.0030641838 -0.012830924 0.012143507 -0.007263345 -0.011943794
-0.03391626 0.055907447 -0.016420841 0.024336768 -0.07523741 -0.06979237 -0.057735585 0.027575571
-0.07836976 -0.083306395 0.034776036 -0.059990283 -0.008051351 -0.047075856 -0.13176969 0.09109658
0.09859258 -0.102103546 -0.043687314 -0.022593332 -0.06980761 0.04965744 0.03649202 0.033218864
0.005599037 -0.010816497 0.06597962 0.020573314 0.068188615 -0.040302977 0.0107908845 0.086769275
0.090618774 0.023909317 0.03918348 0.011963053 0.053048514 -0.05205347 0.09543059 -0.09747419
0.03998913 0.03216635 -0.10713673 0.037159942 -0.11039558 -0.027049294 0.0376903 0.06033814
-0.08663167 -0.0010603105 0.027244208 0.0154170245 -0.012231481 0.043337334 0.050089885 0.05322658
-0.009543493 0.019086547 -0.063873485 0.10064074 0.03347342 -0.08261 -0.047634657 -0.04378857
-0.04899753 -0.01517613 -0.085254855 -0.02590489 0.035132337 -0.021989925 0.08752936 0.07929068
-0.123691134 -0.0628094 0.029434726 0.04950322 -0.06819105 -0.0036136573 0.013968548 -0.0274959
0.011033115 0.09402686 0.06780831 -0.07796817 -0.12899964 -0.060662527 0.10387832 0.018589567
0.036259696 -0.019603284 0.04318027 -0.046232678 -0.054389067 -0.07321785 -0.020771822 0.00065321807
-0.07756608 0.02941438 -0.03969448 0.027393162 -0.019698607 0.07162912 -0.024520343 -0.052658226
-0.07081103 -0.0084962845 0.09054998 -0.041813325 -0.018047497 0.0698309 0.10637726 -0.11303081
-0.039443076 0.10081353 -0.045697305 0.073890835 -0.05117361 -0.024350313 0.05491959 0.092739634
-0.074032776 0.010326539 -0.0924621 -0.09903344 0.037215885 0.058085848 0.09143939 0.08200396
00000000: c803 7ebc fb5e 463b 53cf 1fbd b900 863c
00000010: 1b88 fcba 0e23 033c 8554 ba3c 1215 3e3c
00000020: a93d f2bb 2a5c cdbc ba3f 503c d6d4 d23b
00000030: a966 dfbb 6571 96bb 799f 683c 139f 623c
00000040: 47e1 f9bb 2e76 b5bc 6649 083d 5843 71bc
00000050: 8fd0 28bd 818a f5ba 8b93 453c 44aa 1b3d
00000060: fa38 1bbd a942 0b3d 93d4 f33b bfb4 813c
00000070: c719 cf3a 6b40 033d d716 493b c0ae 53bc
00000080: 59b2 cd3a b673 cf3c 37ec f23b 89b6 383c
00000090: baac 02bd 53bd 09bc 570a 11bc f824 dcbb
000000a0: eb74 5ebc 9bde 013d 9269 ba3b 8c6a 0c3d
000000b0: 7651 50bc ebdf 473c 3a59 d43c 3bcf 843b
000000c0: 2d12 68ba 0673 513d 4891 c93c 3087 d73c
000000d0: 1308 183b a49d 443b 3e7d 41bc b9c8 a13c
000000e0: 6dc9 4f3c 3459 49ba e811 47bc d6c2 243c
000000f0: e864 833b 93ac f9bb 6230 0ebc 32fc e03c
00000100: b54a 87bc 4467 1abd 970a ca3c b21a f4bc
00000110: b028 4439 1395 0fbc 056d 86bb b71f a8bc
00000120: 658a 72bc 9fcd b73a e229 3f3c ce86 453c
00000130: 0e1c 8fbc 760e 89bc 62cb 2b3c 4751 123d
00000140: fc46 bfbc 1af9 59bb 086c 463a 4242 b0bc
00000150: 442c a4bb 1d7c 21bc f704 ccbb ffa0 2f3d
00000160: 6f2e b73b bfc8 173c 8a39 7e3c 733e 593b
00000170: 0ff1 bbbc df6e 8c3b c91a 7abc f313 9ebc
00000180: 66ae c2bc 5e4b 553b 34f5 8d3c 5472 c3bb
00000190: 2ae0 cabc f3e1 37bc 715b 6abc 8240 29bd
000001a0: d9e4 03bc 33f2 e43a 2e80 86bc a3a3 3ebd
000001b0: b0d0 a9bb 8413 50bc db55 3a3d 3562 bebc
000001c0: f709 00bd 5e9d 2bbc e02e 3a3c c6d4 be3c
000001d0: f972 e1bc 7cdf 49bc fd09 8abc 55bd b53b
000001e0: 375d c1bc dff1 ddbc 956d 22bc 79d0 48bb
000001f0: cc38 52bc 8ff5 463c 5b01 eebb e7af 43bc
00000200: c7eb 0abd 35ff 643d 0085 86bc e75d c73c
00000210: 1216 9abd 4def 8ebd 267c 6cbd 2ae6 e13c
00000220: 5380 a0bd 8b9c aabd 5171 0e3d 5fb8 75bd
00000230: d0e9 03bc 9dd2 40bd a2ee 06be d890 ba3d
00000240: e8ea c93d aa1b d1bd 78f1 32bd a715 b9bc
00000250: 4bf7 8ebd 9a65 4b3d a878 153d 8110 083d
00000260: 2078 b73b ad37 31bc 5320 873d 5e89 a83c
00000270: 79a6 8b3d bc14 25bd 40cc 303c 17b4 b13d
00000280: 5696 b93d 79dd c33c db7e 203d ae00 443c
00000290: 6649 593d 0536 55bd 1d71 c33d 8ca0 c7bd
000002a0: a4cb 233d ddc0 033d 806a dbbd 0635 183d
000002b0: 1417 e2bd 7b96 ddbc 2561 1a3d 2025 773d
000002c0: f26b b1bd 1efa 8aba 3f2f df3c b097 7c3c
000002d0: 8d66 48bc 7d82 313d 0d2b 4d3d 1d04 5a3d
000002e0: 505c 1cbc 645b 9c3c 1ad0 82bd bb1c ce3d
000002f0: 6d1b 093d 6f2f a9bd 8f1c 43bd a55b 33bd
00000300: a2b1 48bd 4ea5 78bc 199a aebd 7e36 d4bc
00000310: ede6 0f3d 3724 b4bc 9842 b33d 2763 a23d
00000320: c751 fdbd 37a2 80bd 1821 f13c e3c3 4a3d
00000330: c0a7 8bbd 1cd3 6cbb 56dc 643c 153f e1bc
00000340: 3dc4 343c 2891 c03d 15df 8a3d c7ad 9fbd
00000350: 7b18 04be 4579 78bd 28be d43d 2649 983c
00000360: 0c85 143d 1197 a0bc cbdd 303d 7a5e 3dbd
00000370: 12c7 5ebd 3df3 95bd ab29 aabc b93c 2b3a
00000380: f7da 9ebd 6df6 f03c ae96 22bd a067 e03c
00000390: f95e a1bc 4ab2 923d e3de c8bc 27b0 57bd
000003a0: 6005 91bd 0034 0bbc 4572 b93d 7344 2bbd
000003b0: 58d8 93bc 8103 8f3d 52dc d93d b37c e7bd
000003c0: 108f 21bd 5377 ce3d 192d 3bbd 1454 973d
000003d0: 6b9b 51bd 4f7a c7bc 5df3 603d 47ee bd3d
000003e0: 7f9e 97bd a530 293c c55c bdbd 0bd2 cabd
000003f0: af6f 183d 6deb 6d3d 9344 bb3d b1f1 a73d

network_body._body_endoder.seq_layers.0.bias f4 [128]
0.024866514 -0.06377943 -0.00063707074 -0.051126055 0.0052028485 -0.017346824 -0.083194666 -0.023439253
0.0399367 0.006889027 0.00036730428 -0.010375701 -0.015956031 -0.023832725 0.03678664 -0.01944369
0.017266585 0.00498433 -0.055976357 -0.013249775 0.0334988 -0.03378375 0.005106601 0.030889649
0.04718154 -0.0006493119 0.027813943 -0.041614797 -0.018602459 0.030927373 -0.023020113 0.03866262
-0.06187769 -0.07526783 -0.00026721274 0.07222488 0.033240743 -0.0029022458 -0.008230634 0.03349234
-0.0028813784 -0.063458376 0.0052854717 0.00543135 -0.0269395 0.0061364775 0.0076645953 -0.006582255
-0.033531617 0.0065845703 0.016446156 0.017095398 -0.12852745 -0.06345607 0.012088911 0.010330416
-0.061173916 -0.041944597 0.04282067 0.07191255 -0.08594096 -0.008390756 0.018534048 -0.0004369381
-0.02503367 0.007382168 0.016742919 0.011690302 0.002087093 0.018799027 0.0016548204 -0.0033264735
0.005706818 -0.026362844 -0.042565078 0.0015000326 0.05482506 -0.0072698705 -0.0101941535 -0.03918146
-0.075893834 -0.08031878 -0.017042775 -0.018483851 0.029505335 0.011631258 -0.00082834443 -0.035380024
0.01620509 -0.040248517 -0.008427786 0.049637772 0.011548848 -0.0034259923 -0.0146994395 0.012965332
-0.04572849 -0.009925981 0.05076066 -0.010107651 -0.08914098 -0.07657238 0.010450129 0.046981532
-0.0028001934 0.002392025 -0.0022393698 -0.025301581 -0.045147575 -0.0025912642 -0.016820913 0.0021750282
-0.00025769745 0.004856992 -0.025765894 -0.011601538 -0.035868406 -0.0019517449 0.03225656 -0.01966671
-0.036408383 -0.016740657 0.001446678 0.036745284 -0.0248537 0.038476724 -0.04894685 0.0009298497
00000000: dcb4 cb3c ca9e 82bd 1801 27ba 8e69 51bd
00000010: a87c aa3b ed1a 8ebc f761 aabd ad03 c0bc
00000020: aa94 233d 59bd e13b bf92 c039 d8fe 29bc
00000030: 39b6 82bc d93c c3bc 96ad 163d 6048 9fbc
00000040: a772 8d3c 9753 a33b 7747 65bd 9615 59bc
00000050: 0a36 093d d460 0abd 4655 a73b 4a0c fd3c
00000060: 6e41 413d 9636 2aba 11da e33c 4774 2abd
00000070: 2f64 98bc 675b fd3c ad94 bcbc b25c 1e3d
00000080: 7673 7dbd 0526 9abd b018 8cb9 a3ea 933d
00000090: 7227 083d 9b33 3ebb c8d9 06bc 442f 093d
000000a0: 82d5 3cbb 77f6 81bd c031 ad3b 77f9 b13b
000000b0: 3ab0 dcbc 8114 c93b 4927 fb3b f5af d7bb
000000c0: 7358 09bd 61c3 d73b 17ba 863c a60b 8c3c
000000d0: b39c 03be 42f5 81bd 9110 463c e840 293c
000000e0: 8091 7abd 19ce 2bbd ba64 2f3d e346 933d
000000f0: d001 b0bd 6279 09bc b7d4 973c d714 e5b9
00000100: 6913 cdbc 1de6 f13b 7228 893c ae88 3f3c
00000110: 9cc7 083b 6b00 9a3c 8fe6 d83a f700 5abb
00000120: 4200 bb3b e4f6 d7bc b858 2ebd be9c c43a
00000130: 3e90 603d 1838 eebb 6105 27bc bd7c 20bd
00000140: 3a6e 9bbd 2c7e a4bd 4a9d 8bbc 726b 97bc
00000150: 2cb5 f13c 0891 3e3c 4125 59ba a5ea 10bd
00000160: 89c0 843c a1db 24bd b214 0abc fa50 4b3d
00000170: 6137 3d3c 9d86 60bb ebd5 70bc 8b6c 543c
00000180: cc4d 3bbd 95a0 22bc 69ea 4f3d 909a 25bc
00000190: 8c8f b6bd fbd1 9cbd 0537 2b3c b56f 403d
000001a0: 7383 37bb 85c3 1c3b 64c2 12bb 4345 cfbc
000001b0: aaec 38bd 33d2 29bb 03cc 89bc eb8a 0e3b
000001c0: 911b 87b9 6727 9f3b ff12 d3bc 6114 3ebc
000001d0: c0ea 12bd b1d1 ffba 741f 043d 151c a1bc
000001e0: f520 15bd b423 89bc 759e bd3a 3982 163d
000001f0: fd99 cbbc c599 1d3d 7e7c 48bd 28c1 733a

network_body._body_endoder.seq_layers.0.weight f4 [128, 24]
0.12868966 -0.010304525 0.13062672 0.32732725 -0.036417417 0.41042906 0.31499353 -0.0073752278
-0.04055039 0.011143791 0.41821283 -0.137874 0.4040442 -0.003666366 -0.0614639 0.062645085
-0.09416129 0.5911409 -0.10165282 0.23980545 -0.20911977 -0.3504527 -0.039223537 -0.52709156
-0.22460301 -0.31335425 0.06858224 -0.057029203 -0.06790972 0.21297517 -0.14590314 -0.15311694
0.43709823 -0.18016629 0.122959115 -0.051915906 0.06149346 0.2426751 -0.012033978 0.13285503
-0.1995997 0.11098605 -0.16550787 0.27253658 -0.19855888 0.43498814 0.3419476 0.10917719
0.109718435 0.19812402 -0.09953916 -0.5684917 -0.2901637 0.27256766 -0.010777957 -0.124656335
0.11828826 0.054159824 -0.005086898 0.13802573 -0.42603135 0.12703758 0.18697406 -0.10058234
-0.14765221 -0.11780117 -0.36726418 0.10219322 -0.14963497 0.20172556 0.13522361 0.12484543
0.018491827 0.03445687 0.23682933 -0.026616368 -0.08149738 -0.076495305 -0.08532122 -0.23020628
0.004857279 -0.17643593 0.24989419 -0.11549933 -0.056569487 0.04335767 -0.02487346 0.12318012
-0.011203671 0.28152642 -0.19743031 -0.3397213 -0.16575783 0.26336235 -0.14860147 -0.012019792
-0.2751788 0.4188692 0.12168652 0.1002688 0.0428777 -0.3854607 0.021619113 -0.19604418
-0.20714152 -0.27278545 -0.07403193 0.24429618 -0.2713032 0.10385353 0.39100873 -0.29123956
0.15196261 -0.36874372 -0.4229999 -0.032630406 0.101436436 -0.0080575785 -0.072716035 0.026768811
0.14790572 -0.22303598 0.021835309 -0.1873194 0.21477239 -0.083237596 -0.2775393 -0.2113489
0.26718044 0.21925746 -0.10457299 0.37832332 -0.20027255 0.22529753 -0.3938997 0.22403838
0.19892494 0.5377602 -0.35202992 -0.44892764 -0.2539205 0.28702706 0.0076557677 -0.138746
-0.30902857 -0.11174332 -0.04964699 0.3766765 0.016799549 0.21982434 -0.052063502 0.27769974
-0.25272685 0.068492785 -0.1575313 -0.049712885 0.01732118 -0.3296493 -0.04188987 -0.14823596
0.077855885 0.10912057 -0.019917762 -0.2417486 -0.043855652 0.04923104 -0.20019506 0.014126885
-0.39517745 -0.18766114 -0.08362534 0.08678042 -0.44727448 -0.18374659 0.063380055 0.1253433
-0.020788003 0.11849307 0.22188038 0.15267679 -0.032772075 -0.33378708 0.062449083 0.11748334
-0.04041915 0.047809523 -0.063412994 -0.10921309 0.39784685 0.07506241 -0.094822906 -0.42066982
0.11128499 0.093782976 0.36995116 0.07532319 0.060656704 -0.26596314 0.19228575 -0.120637655
-0.15299706 -0.15445565 0.26875207 -0.15033196 -0.18647355 -0.16134074 0.39993483 0.35369986
0.0012930864 0.121640705 0.2385007 0.31422314 -0.12706791 0.022870265 -0.04063479 -0.05813524
0.06944883 0.515565 -0.17369935 0.13575035 0.13360916 -0.4670558 0.16520625 -0.15157022
0.22306216 0.029241981 -0.038610794 0.12156029 0.024682287 0.36488432 0.04625918 0.21465623
-0.18421091 -0.16981965 0.19436204 0.056386657 -0.26062554 0.17582646 -0.30699816 -0.4939798
-0.22815135 0.03885499 -0.109100714 -0.2599143 0.39427525 0.23655643 0.08544677 0.28706238
-0.0626689 0.26866958 -0.0804586 0.14483581 -0.27655888 -0.2050546 -0.22081551 -0.008713553
00000000: 39c7 033e 4fd4 28bc 03c3 053e 7097 a73e
00000010: 6e2a 15bd c223 d23e d546 a13e e5ab f1bb
00000020: 2a18 26bd 7294 363c fe1f d63e d82e 0dbe
00000030: e2de ce3e 6a47 70bb 92c1 7bbd 114c 803d
00000040: a2d7 c0bd 0355 173f 5b2f d0bd 8f8f 753e
00000050: 7e23 56be 896e b3be dca8 20bd 79ef 06bf
00000060: 55fe 65be f86f a0be d874 8c3d 7497 69bd
00000070: 4014 8bbd 2a16 5a3e a267 15be b0ca 1cbe
00000080: 57cb df3e 837d 38be fdd1 fb3d c6a5 54bd
00000090: 91e0 7b3d d27f 783e 292a 45bc 260b 083e
000000a0: dd63 4cbe a74c e33d e57a 29be ea89 8b3e
000000b0: 0553 4bbe c4b6 de3e c113 af3e 4a98 df3d
000000c0: 0fb4 e03d 06e1 4a3e 30db cbbd ac88 11bf
000000d0: 5690 94be fd8d 8b3e 0796 30bc d24b ffbd
000000e0: 1e41 f23d b1d6 5d3d feaf a6bb 9e56 0d3e
000000f0: c820 dabe 2416 023e 2176 3f3e 1dfe cdbd
00000100: 2432 17be bd41 f1bd 0d0a bcbe ae4a d13d
00000110: e939 19be 2591 4e3e 0f78 0a3e f6ae ff3d
00000120: 2c7c 973c a622 0d3d 6383 723e 920a dabc
00000130: 19e8 a6bd 92a9 9cbd e4bc aebd 32bb 6bbe
00000140: cf29 9f3b 9fab 34be 43e4 7f3e ea8a ecbd
00000150: 68b5 67bd d097 313d 6dc3 cbbc dc45 fc3d
00000160: 9a8f 37bc 3b24 903e 2c2b 4abe f3ef adbe
00000170: 6cbc 29be 6ed7 863e fc2a 18be a9ee 44bc
00000180: 3ce4 8cbe 0676 d63e c836 f93d bb59 cd3d
00000190: 87a0 2f3d 1b5b c5be 911a b13c cebf 48be
000001a0: e81c 54be 89aa 8bbe 0d9e 97bd c728 7a3e
000001b0: 41e8 8abe 29b1 d43d 4c32 c83e 5a1d 95be
000001c0: 169c 1b3e facb bcbe 7193 d8be 76a7 05bd
000001d0: e8bd cf3d ef03 04bc 25ec 94bd 444a db3c
000001e0: 9974 173e 8b63 64be f6df b23c a8d0 3fbe
000001f0: 4bed 5b3e 7978 aabd a219 8ebe d96b 58be
00000200: e0cb 883e 0785 603e 5d2a d6bd 98b3 c13e
00000210: 3f14 4dbe 65b4 663e 39ad c9be 516a 653e
00000220: fbb2 4b3e a7aa 093f 443d b4be d8d9 e5be
00000230: de01 82be 36f5 923e 3cdd fa3b 6e13 0ebe
00000240: fe38 9ebe afd9 e4bd a45a 4bbd bedb c03e
00000250: 359f 893c a219 613e 8a40 55bd a92e 8e3e
00000260: 6a65 81be f245 8c3d e34f 21be bd9f 4bbd
00000270: 26e5 8d3c cbc7 a8be b694 2bbd 2bcb 17be
00000280: e872 9f3d 9b7a df3d 932a a3bc f28c 77be
00000290: fca1 33bd 7da6 493d efff 4cbe 7374 673c
000002a0: b354 cabe 3e2a 40be c343 abbd efb9 b13d
000002b0: 2901 e5be 1128 3cbe 67cd 813d fe59 003e
000002c0: 9a4b aabc 7fac f23d 9c34 633e 4e57 1c3e
000002d0: 033c 06bd 24e6 aabe 9cca 7f3d 1b9b f03d
000002e0: 8d8e 25bd ebd3 433d acde 81bd 1dab dfbd
000002f0: 95b2 cb3e 52ba 993d 8332 c2bd 0962 d7be
00000300: 63e9 e33d 4a11 c03d 3d6a bd3e 0b43 9a3d
00000310: 2a73 783d 522c 88be 8ee6 443e e010 f7bd
00000320: 43ab 1cbe 9f29 1ebe df99 893e 9ff0 19be
00000330: ecf2 3ebe 8236 25be 42c4 cc3e 2618 b53e
00000340: c87c a93a c31e f93d 8739 743e dbe1 a03e
00000350: 171e 02be 6c5a bb3c aa70 26bd 381f 6ebd
00000360: 303b 8e3d 11fc 033f 3ede 31be 2402 0b3e
00000370: d7d0 083e f021 efbe d42b 293e 3935 1bbe
00000380: 686a 643e e18c ef3c 5a26 1ebd 9af4 f83d
00000390: 8232 ca3c 1ed2 ba3e 447a 3d3d d8ce 5b3e
000003a0: c9a1 3cbe 34e5 2dbe d806 473e b2f5 663d
000003b0: b670 85be da0b 343e dd2e 9dbe ecea fcbe
000003c0: 82a0 69be 6926 1f3d 3270 dfbd 7d13 85be
000003d0: 72de c93e d93b 723e b7fe ae3d d7f9 923e
000003e0: 8d58 80bd 0f8f 893e 7ac7 a4bd d74f 143e
000003f0: 2099 8dbe d5f9 51be 761d 62be 4ac3 0ebc

network_body._body_endoder.seq_layers.2.bias f4 [128]
-0.011431406 0.034417592 0.019796181 -0.022515535 0.036356345 -0.017260684 0.023859268 -0.0076028085
0.032913517 0.054010853 0.0071002035 -0.002245789 0.008882485 0.035673663 0.03660443 0.02134409
0.036202658 0.05072261 -0.018653061 0.02291761 0.048037708 -0.013238828 -0.03192776 -0.007318173
0.036503945 -0.054566696 0.0093657365 -0.01553063 -0.014790784 -0.027256705 -0.0022677467 0.023174156
0.014655166 -0.017048432 0.0125163 -0.014185485 0.016206386 0.010873515 0.010946477 0.039657194
0.019826941 -0.0002729715 0.039631777 0.0013547821 0.060948383 -0.00014487033 -0.0037110434 -0.008625055
-0.004452307 -0.009407722 0.012791718 -0.014124683 -0.030100431 -0.0035251144 0.0035321007 0.020000055
-0.032750588 -0.010956468 0.0056171822 0.047140967 0.005107629 0.053965215 0.006930101 -0.016824137
0.024004677 0.028840879 0.029514028 0.020424332 0.006033639 0.015949048 0.0175307 0.028815862
0.06376348 0.03057807 -0.017983157 0.0038256093 0.03233405 0.0055876854 -0.007943609 -0.038339496
-0.00047002532 0.015804853 0.019062802 0.05500403 0.052055247 0.029480921 0.046338003 -0.03792261
0.017026277 -0.028703922 0.0016825675 0.009885851 0.025362182 0.034186706 -0.006040182 0.0061977184
0.045968834 -0.00832527 -0.02380847 -0.031288885 0.019505858 0.034166723 0.012850911 0.03340671
0.017867696 -0.030071624 0.022757938 0.019409712 0.009802004 -0.0026419437 0.015450628 0.054910786
0.024284892 0.025570814 0.018573174 -0.015471291 0.028473804 -0.0030633446 -0.026736243 0.028935285
0.037421636 -0.0017132993 0.054048028 0.02965606 -0.006817179 0.0143503025 0.030016024 0.002088648
00000000: cb4a 3bbc 76f9 0c3d 9a2b a23c 8072 b8bc
00000010: 64ea 143d 4766 8dbc 8374 c33c fb20 f9bb
00000020: 53d0 063d 7c3a 5d3d d3a8 e83b 162e 13bb
00000030: d887 113c 8c1e 123d 87ee 153d cdd9 ae3c
00000040: 3d49 143d 83c2 4f3d 4ece 98bc b6bd bb3c
00000050: 30c3 443d abe7 58bc afc6 02bd 49cd efbb
00000060: 2985 153d 5481 5fbd bf72 193c 2f74 7ebc
00000070: 0b55 72bc 7449 dfbc 7a9e 14bb bad7 bd3c
00000080: 391c 703c 27a9 8bbc 2b11 4d3c 3d6a 68bc
00000090: 41c3 843c d426 323c da58 333c 956f 223d
000000a0: 1c6c a23c 9d1d 8fb9 ee54 223d f292 b13a
000000b0: 03a5 793d 55e8 17b9 fa34 73bb 1a50 0dbc
000000c0: a8e4 91bb d922 1abc 5b94 513c 376b 67bc
000000d0: 2e95 f6bc 9b05 67bb d17a 673b 28d7 a33c
000000e0: 7b25 06bd c282 33bc 5710 b83b e316 413d
000000f0: e65d a73b a10a 5d3d e715 e33b c6d2 89bc
00000100: 75a5 c43c b543 ec3c 67c7 f13c ee50 a73c
00000110: d5b5 c53b 94a7 823c 8b9c 8f3c 3e0f ec3c
00000120: 6d96 823d dc7e fa3c 6a51 93bc 13b7 7a3b
00000130: b570 043d e718 b73b e925 02bc e009 1dbd
00000140: bb6d f6b9 2e79 813c 9829 9c3c e84b 613d
00000150: e237 553d f981 f13c ebcc 3d3d bd54 1bbd
00000160: b17a 8b3c 7d24 ebbc 9989 dc3a 44f8 213c
00000170: 5ac4 cf3c 5c07 0c3d b8ec c5bb 3b16 cb3b
00000180: d149 3c3d b766 08bc fb09 c3bc c628 00bd
00000190: c0ca 9f3c 68f2 0b3d a18c 523c 79d5 083d
000001a0: 465f 923c c458 f6bc db6e ba3c 1e01 9f3c
000001b0: 9698 203c 7624 2dbb a124 7d3c 22ea 603d
000001c0: 1cf1 c63c e279 d13c c526 983c 4c7b 7dbc
000001d0: e541 e93c 65c2 48bb f705 dbbc b109 ed3c
000001e0: 6e47 193d c990 e0ba 7761 5d3d 44f1 f23c
000001f0: a462 dfbb 881d 6b3c 2ae4 f53c b3e1 083b

network_body._body_endoder.seq_layers.2.weight f4 [128, 128]
0.038619358 -0.11322881 -0.079655305 -0.13091578 0.1004401 -0.103386626 -0.0214907 0.10025115
-0.05104071 0.12615225 0.17090194 0.071767434 0.10451767 0.031373225 0.034272872 -0.030311948
-0.0076111015 -0.10477311 -0.076168284 0.03378767 -0.11932407 -0.25002104 -0.053413235 0.045843568
0.07374292 -0.21865574 -0.12500517 0.15012358 -0.073316135 0.20604491 0.053020705 0.016295774
-0.012366345 0.0069860113 -0.09167046 -0.009083939 0.11459601 0.14535442 -0.013112337 0.14010337
-0.092970625 -0.053635005 0.045372073 -0.047922183 -0.020402625 0.08929886 0.09830343 -0.010403701
0.13816822 0.14236465 -0.08879425 0.10200451 -0.07593885 0.018085573 -0.18279639 -0.127522
0.074805476 0.1174346 0.1342928 0.013992755 -0.061513323 -0.007191724 -0.05047014 -0.10658194
0.010750133 0.049386982 0.18462454 0.114303686 0.10256948 0.053378936 -0.033250593 0.04767476
-0.0021189079 0.2525853 -0.031455703 0.016570695 0.06380782 -0.005948628 0.043631695 -0.039553665
-0.06883455 -0.1781791 -0.029205928 0.14566363 0.040110808 -0.06950287 0.074075796 0.025966149
-0.088479884 -0.11306716 0.059732955 0.1104679 0.061773777 -0.007729647 -0.032657776 0.08781973
0.059939478 0.027124217 0.033958722 0.11519584 0.0068957713 -0.05661614 -0.048711948 -0.06737225
-0.14154561 -0.087252595 0.0133849345 0.08687759 0.095168576 0.10932943 -0.078866296 -0.049954586
0.10114758 -0.08161523 0.0907572 -0.049180176 -0.08137563 -0.06517842 -0.18064344 -0.05326384
-0.040670656 -0.093258776 -0.019734545 -0.015214849 -0.18437149 -0.30515188 -0.019330371 0.06326954
-0.042229276 0.0010725112 0.098485865 -0.026787836 0.04966042 -0.082225874 0.10198756 -0.12260067
-0.015876481 -0.13801464 0.120751955 0.160196 0.076147154 0.008146736 -0.1733139 0.13490713
0.052585006 -0.10249574 0.070753895 -0.075884536 -0.07227482 0.007695831 0.021353304 -0.010138566
-0.14138864 0.22083998 0.0146326125 0.053495344 0.05295552 -0.081070386 -0.009445764 -0.051320966
-0.064848274 0.0034905118 0.079752885 -0.16595358 -0.16824219 0.014405461 -0.030537149 -0.11872823
0.09196824 -0.033883706 -0.0028055592 0.1414993 -0.03795047 0.17278634 0.03787876 0.14079659
0.02261365 -0.1432428 0.056344688 -0.03443372 -0.024257565 0.08648736 0.09943066 0.007715483
0.00441422 -0.14187008 0.042471964 -0.0060251644 -0.0671343 -0.01730084 0.2005852 -0.038005665
0.06699368 -0.003977557 -0.015168777 -0.20952347 -0.122425735 -0.084832825 0.024575558 0.060520645
-0.19690895 -0.07451476 -0.034056276 0.016193472 0.1056595 -0.071114175 0.0062342267 -0.3112642
-0.010586921 -0.08686197 -0.04292842 -0.054537926 0.036952768 0.011023557 -0.009919539 -0.05380969
-0.1492465 -0.014006658 0.012340734 -0.057967678 0.061199933 -0.1298345 0.022576734 0.2279584
-0.094449334 0.0105599975 0.022190103 0.051800326 -0.02451186 0.097226635 0.095750794 -0.17548953
0.091402955 0.085743845 -0.044291448 -0.058196586 -0.0650904 0.00013518917 0.13561352 0.21523699
-0.061739877 0.23544699 -0.010084849 0.101001725 -0.060368527 0.03047591 0.06778053 0.028162874
-0.123122334 0.0548532 0.010352596 0.07972407 -0.21631663 -0.0075259255 -0.008060733 -0.05506195
00000000: 552f 1e3d 82e4 e7bd 5222 a3bd c90e 06be
00000010: 8ab3 cd3d 5ebc d3bd 440d b0bc 7a50 cd3d
00000020: 1010 51bd 0e2e 013e eb00 2f3e cefa 923d
00000030: 5c0d d63d 3681 003d b661 0c3d c350 f8bc
00000040: 8c66 f9bb 4993 d6bd 1efe 9bbd f164 0a3d
00000050: 2e60 f4bd c202 80be d6c7 5abd 77c6 3b3d
00000060: 8706 973d 4ae7 5fbe 5b01 00be ffb9 193e
00000070: c526 96bd 70fd 523e 3d2c 593d b77e 853c
00000080: 369c 4abc e9ea e43b b9bd bbbd cdd4 14bc
00000090: 50b1 ea3d cad7 143e 21d5 56bc 4277 0f3e
000000a0: 6267 bebd 61b0 5bbd 11d8 393d 0d4a 44bd
000000b0: 6823 a7bc 52e2 b63d 4f53 c93d 4974 2abc
000000c0: f87b 0d3e 0ac8 113e c2d9 b5bd bee7 d03d
000000d0: d485 9bbd 3228 943c fa2e 3bbe 2195 02be
000000e0: 9d33 993d 8d81 f03d 0d84 093e de41 653c
000000f0: 65f5 7bbd 8ea8 ebbb c7b9 4ebd a247 dabd
00000100: 5321 303c 014a 4a3d 370e 3d3e 0d18 ea3d
00000110: f30f d23d dfa3 5a3d c631 08bd 9c46 433d
00000120: 60dd 0abb dc52 813e b2d7 00bd 44bf 873c
00000130: adad 823d b5ec c2bb 26b7 323d 0603 22bd
00000140: 21f9 8cbd 9574 36be 4541 efbc d928 153e
00000150: 3b4b 243d 8557 8ebd 0db5 973d f6b6 d43c
00000160: f134 b5bd c18f e7bd 8baa 743d ff3c e23d
00000170: 8006 7d3d fb48 fdbb 29c4 05bd d5da b33d
00000180: 1983 753d 9b33 de3c 4d18 0b3d cceb eb3d
00000190: ecf5 e13b 53e6 67bd 2e86 47bd 76fa 89bd
000001a0: 55f1 10be 7db1 b2bd 7c4c 5b3c e1ec b13d
000001b0: bee7 c23d 1ce8 df3d a784 a1bd 2e9d 4cbd
000001c0: 7626 cf3d e325 a7bd e9de b93d 2771 49bd
000001d0: 44a8 a6bd 437c 85bd 98fa 38be 2f2b 5abd
000001e0: 4696 26bd 75fe bebd 57aa a1bc b447 79bc
000001f0: e1cb 3cbe de3c 9cbe ba5a 9ebc 7693 813d
00000200: 9bf8 2cbd 8193 8c3a f5b2 c93d 2a72 dbbc
00000210: b968 4b3d 0a66 a8bd dbde d03d 0f16 fbbd
00000220: 650f 82bc b653 0dbe cd4c f73d 6c0a 243e
00000230: 0af3 9b3d e379 053c 3379 31be 1825 0a3e
00000240: 6063 573d 49e9 d1bd 6be7 903d 5a69 9bbd
00000250: d204 94bd 4f2d fc3b 20ed ae3c 3a1c 26bc
00000260: 2fc8 10be e023 623e a0bd 6f3c ef1d 5b3d
00000270: e3e7 583d 3b08 a6bd 68c2 1abc ef35 52bd
00000280: 2ccf 84bd 12c1 643b 7b55 a33d bcef 29be
00000290: ae47 2cbe e204 6c3c 0b29 fabc c927 f3bd
000002a0: d859 bc3d a4c9 0abd 79dd 37bb 31e5 103e
000002b0: f471 1bbd e7ee 303e c226 1b3d fb2c 103e
000002c0: 4340 b93c 3eae 12be b0c9 663d 5f0a 0dbd
000002d0: cdb7 c6bc 4920 b13d 4da2 cb3d 2ad2 fc3b
000002e0: 29a5 903b 6446 11be 15f7 2d3d be6e c5bb
000002f0: b57d 89bd 7eba 8dbc 3566 4d3e d4ab 1bbd
00000300: fc33 893d 2b56 82bb 7686 78bc 528d 56be
00000310: 58ba fabd d5bc adbd ae52 c93c 7fe4 773d
00000320: 80a2 49be 329b 98bd 987e 0bbd 2ca8 843c
00000330: 0264 d83d 4fa4 91bd 7c48 cc3b 055e 9fbe
00000340: c474 2dbc b0e4 b1bd b6d5 2fbd 2963 5fbd
00000350: c95b 173d 269c 343c 9085 22bc 8d67 5cbd
00000360: 13d4 18be 2f7c 65bc ca30 4a3c 846f 6dbd
00000370: c8ac 7a3d 56f3 04be d8f2 b83c ed6d 693e
00000380: a76e c1bd d703 2d3c 05c8 b53c 942c 543d
00000390: 19cd c8bc c21e c73d fe18 c43d 87b3 33be
000003a0: 7931 bb3d 789a af3d f36a 35bd 8b5f 6ebd
000003b0: 1e4e 85bd 91c1 0d39 45de 0a3e 1667 5c3e
000003c0: f4e2 7cbd 0419 713e ec3a 25bc fed9 ce3d
000003d0: fd44 77bd 9ea8 f93c 85d0 8a3d d4b5 e63c
000003e0: 9027 fcbd c0ad 603d ef9d 293c 6046 a33d
000003f0: 1b82 5dbe 0a9c f6bb 2a11 04bc a488 61bd

network_body.observation_encoder.processors.0.normalizer.running_mean f4 [24]
6.9849193e-09 2.9702384 2.3143773 -4.465372 1.4851192 0.7373461 -0.39044106 0.0
-0.047822498 -6.9849193e-09 2.9702384 2.3143783 -3.213063e-08 2.999925 2.3353672 -4.501194
1.4999624 0.73121315 -0.39553148 0.0 -0.058247443 3.213063e-08 2.999925 2.3353617
00000000: 0000 f031 6318 3e40 c21e 1440 54e4 8ec0
00000010: 6318 be3f b7c2 3c3f e4e7 c7be 0000 0000
00000020: 86e1 43bd 0000 f0b1 6318 3e40 c61e 1440
00000030: 0000 0ab3 c5fe 3f40 a876 1540 c809 90c0
00000040: c5fe bf3f c930 3b3f 1a83 cabe 0000 0000
00000050: df94 6ebd 0000 0a33 c5fe 3f40 9176 1540
