Assets/Trining/results/PingPongTest1/PingPongAgent/PingPongAgent-500060.onnx (onnx, 82986 bytes, 8 tensors)

49 f4 [24]
44.669167 0.36056775 9.795234 25.07123 0.22642341 13.092485 30.21358 0.0014141273
26.391895 97.26561 0.36056775 48.728832 45.00003 0.00447181 9.854131 25.717094
0.13999712 13.162243 30.508528 0.0014141273 26.50207 97.985504 0.00447181 48.52381
00000000: 3aad 3242 569c b83e 47b9 1c41 e191 c841
00000010: 8adb 673e d27a 5141 69b5 f141 3d5a b93a
00000020: 9a22 d341 fe87 c242 569c b83e 53ea 4242
00000030: 0800 3442 4388 923b 85aa 1d41 9cbc cd41
00000040: 685b 0f3e 8c98 5241 7711 f441 3d5a b93a
00000050: 3d04 d441 94f8 c342 4388 923b 6218 4242

action_model._discrete_distribution.branches.0.bias f4 [3]
-0.029265778 0.012583579 0.01852638
00000000: c9be efbc 5b2b 4e3c a3c4 973c

action_model._discrete_distribution.branches.0.weight f4 [3, 128]
0.03966512 -0.02011125 -0.028754182 0.025975049 0.041899566 -0.036265306 0.037693255 0.003798173
-0.012376044 0.007144688 -0.06434889 0.030298451 -0.053321976 0.04001151 0.058874637 -0.043487035
-0.041456304 0.030744283 0.0012864469 -0.007129019 0.0043285675 0.024151515 -0.074627385 0.01674606
0.02671135 -0.0405155 -0.03960133 0.014814334 -0.040705394 -0.02262039 -0.03794568 -0.027449364
-0.05353198 0.016851773 0.026026696 0.003201227 -0.0271897 0.02910473 0.0078067984 -0.02500155
-0.018501211 0.017919054 -0.046049673 -0.009484268 -0.014258406 0.015854027 0.037684906 0.00077045074
0.004166356 0.0067483974 0.02019936 -0.009175777 0.033376127 -0.026735736 -0.012778797 0.021978201
-0.030365549 -0.01183718 -0.031116014 -0.009196913 -0.030891068 0.04544922 -0.07690684 -0.01045202
0.039400376 -0.022722615 0.05412789 -0.0565762 0.009490329 -0.012386389 0.049054712 0.028134404
-0.022261195 0.015645131 -0.01509313 0.014024646 0.07529287 -0.013619223 0.015718354 -0.01146012
-0.009371747 0.00049844093 0.00069483503 0.0063430066 -0.038351856 -0.09173752 0.0038470086 0.038980234
0.04818784 -0.026512494 -0.0021542655 0.030387338 -0.029271258 -0.01687069 -0.019093389 0.04541865
0.009833426 -0.017307749 0.046421856 -0.015966017 -0.019264376 0.0023038613 0.02901948 0.0168446
0.049290903 -0.019984825 -0.017717525 0.10931312 0.019331442 0.034359854 -0.011093329 -0.010607426
0.01730471 -0.079073474 -0.0161872 0.06375743 0.013612962 0.020125639 0.027040062 0.036382314
0.004786477 -0.032432646 0.027849147 -0.027515193 -0.015383066 -0.036132146 -0.030212583 -0.017602796
-0.047124594 0.0001696095 0.13044947 -0.0023761487 -0.04652488 -0.04642105 0.031430703 0.058565702
0.10315044 0.02940578 -0.03868298 0.010811638 -0.040131014 -0.00033419026 -0.024113545 0.039786294
-0.01804498 -0.11595844 -0.08100902 0.08656952 0.10957962 0.07114709 -0.051174007 -0.0019005461
0.071904436 -0.0123737035 -0.0012770788 -0.035342354 -0.10410678 0.085293606 -0.00657481 -0.008597465
0.09907486 0.055267207 0.042452928 0.031596124 0.124743454 -0.01586679 -0.05741603 0.042620055
0.03606414 -0.06920507 -0.026351172 0.0024382572 0.08915949 0.025986046 -0.019853612 -0.049919598
-0.004432791 0.06401199 -0.00936445 -0.0075827735 0.061826292 -0.036499023 -0.06187262 -0.022909746
-0.0119582005 0.07650984 -0.09378586 -0.034367003 -0.076063015 -0.0073101576 -0.029992 -0.051389296
-0.022242267 -0.066060476 -0.056125488 -0.06512029 0.07949912 0.09389291 -0.0336673 -0.021646267
0.07372446 0.026278451 0.015200453 0.082035676 -0.06973691 0.016456425 0.045150504 0.07198882
0.06975558 -0.013829869 -0.09700864 0.057828374 0.10895626 0.008860885 0.049913544 0.02949419
-0.0046531083 0.08297127 0.097207785 0.06395358 -0.07274765 -0.14301956 -0.04996465 -0.039836027
-0.024985397 0.02715933 -0.043956447 0.0039695296 -0.08720997 -0.062946655 -0.09182767 0.027907168
-0.046819933 -0.07889745 -0.059736095 -0.05112502 0.071047135 -0.029395858 -0.0021420377 -0.0341267
0.05480408 -0.026270237 -0.07933534 -0.055217586 0.048245512 0.08778867 0.0061882124 0.022939004
0.02814716 0.05164129 -0.0038482735 0.0111598605 0.09904859 -0.010509345 0.024634995 0.043521114
00000000: e577 223d 59c0 a4bc e48d ebbc a0c9 d43c
00000010: e19e 2b3d ee8a 14bd 3e64 1a3d c5ea 783b
00000020: e4c4 4abc fd1d ea3b 5ac9 83bd 7534 f83c
00000030: 2568 5abd 1ce3 233d 8826 713d 761f 32bd
00000040: 16ce 29bd 6fdb fb3c ff9d a83a 8c9a e9bb
00000050: a8d6 8d3b 66d9 c53c 3ed6 98bd 092f 893c
00000060: c3d1 da3c 95f3 25bd 0135 22bd d2b7 723c
00000070: b3ba 26bd 654e b9bc ee6c 1bbd 7ddd e0bc
00000080: 5944 5bbd bb0c 8a3c f035 d53c adcb 513b
00000090: efbc debc 0b6d ee3c 2cd0 ff3b 0dd0 ccbc
000000a0: da8f 97bc fbca 923c 959e 3cbd e763 1bbc
000000b0: 179c 69bc 4ee0 813c 7d5b 1a3d 13f8 493a
000000c0: ed85 883b a921 dd3b 2179 a53c 0056 16bc
000000d0: 68b5 083d e704 dbbc 295e 51bc a10b b43c
000000e0: 2cc1 f8bc bbf0 41bc 03e7 febc a6ae 16bc
000000f0: 440f fdbc f628 3a3d 5581 9dbd f33e 2bbc
00000100: 4a62 213d c724 babc 35b5 5d3d 72bc 67bd
00000110: 537d 1b3c 48f0 4abc 98ed 483d 1f7a e63c
00000120: 1c5d b6bc 382a 803c 2d49 77bc a1c7 653c
00000130: 2633 9a3d 2923 5fbc c7c3 803c 3ac3 3bbc
00000140: f58b 19bc cea9 023a 9725 363a ffd8 cf3b
00000150: d616 1dbd e2e0 bbbd 181e 7c3b bda9 1f3d
00000160: 9d60 453d bb30 d9bc 942e 0dbb deee f83c
00000170: 47ca efbc 6734 8abc bd69 9cbc e808 3a3d
00000180: 611c 213c fbc8 8dbc d824 3e3d 2acb 82bc
00000190: 53d0 9dbc 61fc 163b 43ba ed3c b0fd 893c
000001a0: 42e5 493d 37b7 a3bc 5824 91bc 8fdf df3d
000001b0: f95c 9e3c ebbc 0c3d cbc0 35bc c5ca 2dbc
000001c0: 9bc2 8d3c 46f1 a1bd 059b 84bc 4193 823d
000001d0: e708 5f3c 86de a43c 1f83 dd3c 9f05 153d
000001e0: e1d7 9c3b 18d8 04bd e523 e43c 8b67 e1bc
000001f0: 4109 7cbc 4dff 13bd 6180 f7bc bd33 90bc
00000200: b805 41bd 34d9 3139 8c94 053e 29b9 1bbb
00000210: df90 3ebd 0024 3ebd 7bbd 003d 97e2 6f3d
00000220: 8a40 d33d 64e4 f03c 0b72 1ebd 4c23 313c
00000230: 6b60 24bd 4236 afb9 c589 c5bc f4f6 223d
00000240: 11d3 93bc 9e7b edbd 0fe8 a5bd 5c4b b13d
00000250: 486b e03d 91b5 913d d69b 51bd bf1b f9ba
00000260: a242 933d 13bb 4abc a763 a7ba 25c3 10bd
00000270: ef35 d5bd 6aae ae3d 8171 d7bb 62dc 0cbc
00000280: c3e7 ca3d de5f 623d 1fe3 2d3d f06a 013d
00000290: 7f79 ff3d 12fb 81bc 122d 6bbd 5e92 2e3d
000002a0: feb7 133d 63bb 8dbd 6ade d7bc 2bcb 1f3b
000002b0: 4099 b63d b0e0 d43c 0ba4 a2bc 7e78 4cbd
000002c0: f240 91bb b818 833d 5a6d 19bc ea78 f8bb
000002d0: 913d 7d3d 0080 15bd 256e 7dbd 38ad bbbc
000002e0: 54ec 43bc 31b1 9c3d cd12 c0bd 6ac4 0cbd
000002f0: edc6 9bbd 0c8a efbb c8b1 f5bc 957d 52bd
00000300: 6a35 b6bc b74a 87bd d7e3 65bd c95d 85bd
00000310: 6fd0 a23d ed4a c03d b9e6 09bd 8353 b1bc
00000320: dafc 963d e845 d73c 520b 793c 5202 a83d
00000330: 3ad2 8ebd a0cf 863c bcef 383d e06e 933d
00000340: 03dc 8e3d ad96 62bc 77ac c6bd 72dd 6c3d
00000350: 7624 df3d 3f2d 113c 2572 4c3d cd9d f13c
00000360: 1a79 98bb d7ec a93d e014 c73d 18fa 823d
00000370: b8fc 94bd b873 12be bca7 4cbd 1a2b 23bd
00000380: 2dae ccbc 3e7d de3c ad0b 34bd d412 823b
00000390: 249b b2bd 2dea 80bd 2510 bcbd 939d e43c
000003a0: 42c6 3fbd fc94 a1bd d6ad 74bd 7868 51bd
000003b0: 2981 913d 95cf f0bc 6e61 0cbb 70c8 0bbd
000003c0: 3e7a 603d ae34 d7bc 917a a2bd d62b 62bd
000003d0: 169d 453d 8cca b33d 7dc6 ca3b 94ea bb3c
000003e0: df94 e63c d185 533d 5133 7cbb d9d7 363c
000003f0: fdd9 ca3d 632f 2cbc 54cf c93c 3243 323d

network_body._body_endoder.seq_layers.0.bias f4 [128]
-0.0023720767 0.06786986 0.025174864 0.0071238475 0.037771236 0.017065622 0.042593192 0.018075712
-0.0034895649 -0.0019153437 -0.04118595 -0.020682719 0.016847216 0.009669399 0.03089662 0.014995104
0.0022394157 0.012413673 0.03255785 0.059887923 0.0416209 -0.014183208 0.023188075 0.061997946
0.03516014 -0.02705972 0.018472908 0.005740146 -0.011955884 0.030654324 -0.022999946 -0.0016616407
-0.014608772 0.032745153 0.0013543367 0.046425574 0.0035009177 -0.042739265 -0.063025855 -0.05592171
-0.0072826706 0.047414158 -0.07611299 -0.024977855 -0.032076024 0.014358872 -0.09539525 0.019076113
0.015640479 0.025079025 0.024354411 0.02227326 -0.038917832 0.023899041 -0.015295518 0.050644677
0.0005625547 -0.008859514 0.054540254 0.057392042 0.026161106 -0.034248497 0.058698133 -0.0028331082
0.017486658 -0.019200439 0.018120164 0.0121412445 0.020324504 0.0136941755 0.040703412 0.003976395
-0.01967949 0.04329061 0.004302118 0.038648173 -0.047711574 0.028470568 0.0669934 -0.025649168
0.011900857 -0.08008932 -0.041475248 0.053281493 0.0564437 0.033381514 0.009095493 0.0430438
-0.06988694 0.012454994 0.0015557802 0.027928844 -0.023758365 0.025265126 -0.029044416 0.04617962
0.020179115 0.086322255 0.0059911003 0.029446775 -0.04358223 -0.020505289 0.025042096 -0.01597936
0.03876115 0.05213605 0.023370411 0.012527157 -0.004393776 -0.048126463 -0.04124674 0.02087964
0.00089769886 0.0015569389 0.03785297 9.118476e-05 -0.022167943 0.035669632 -0.009621828 0.024906976
0.040552534 0.04295952 -0.07015186 0.008314154 0.007545446 -0.0019391418 0.029676065 0.03681838
00000000: d874 1bbb 5aff 8a3d 843b ce3c 2a6f e93b
00000010: 03b6 1a3d 34cd 8b3c 3376 2e3d 8413 943c
00000020: 2fb1 64bb 450c fbba 99b2 28bd ce6e a9bc
00000030: 2c03 8a3c 666c 1e3c e91a fd3c 06ae 753c
00000040: 29c3 123b b862 4b3c 615b 053d 0a4d 753d
00000050: ad7a 2a3d b060 68bc ebf4 bd3c 8ff1 7d3d
00000060: 1404 103d 59ac ddbc 7f54 973c d617 bc3b
00000070: 9de2 43bc c71e fb3c 626a bcbc 69cb d9ba
00000080: a159 6fbc c81f 063d 0084 b13a be28 3e3d
00000090: a76f 653b 5e0f 2fbd b313 81bd 2a0e 65bd
000000a0: 78a3 eebb 5935 423d 21e1 9bbd 5c9e ccbc
000000b0: 2662 03bd 7941 6b3c 965e c3bd 8245 9c3c
000000c0: 7620 803c 8772 cd3c e782 c73c 6976 b63c
000000d0: 4e68 1fbd ecc7 c33c 0d9a 7abc cb70 4f3d
000000e0: 6878 133a 7f27 11bc 9a65 5f3d eb13 6b3d
000000f0: d14f d63c 2748 0cbd 746d 703d abab 39bb
00000100: 2e40 8f3c 3d4a 9dbc bd70 943c 12ec 463c
00000110: 937f a63c 895d 603c 9fb8 263d 6b4c 823b
00000120: e236 a1bc 7f51 313d c8f8 8c3b 8c4d 1e3d
00000130: 366d 43bd 1c3b e93c d633 893d 341e d2bc
00000140: d0fb 423c df05 a4bd f3e1 29bd b23d 5a3d
00000150: 8231 673d 0ebb 083d 4305 153c b24e 303d
00000160: e220 8fbd 0810 4c3c 52eb cb3a 08cb e43c
00000170: e7a0 c2bc cff8 ce3c 8eee edbc d726 3d3d
00000180: ac4e a53c b9c9 b03d fe50 c43b 5d3a f13c
00000190: 4883 32bd b5fa a7bc 1525 cd3c 26e7 82bc
000001a0: 03c4 1e3d 9c8c 553d 4e73 bf3c b43e 4d3c
000001b0: aaf9 8fbb 4120 45bd 57f2 28bd c70b ab3c
000001c0: 8d53 6b3a 3312 cc3a b70b 1b3d 723a bf38
000001d0: 8c99 b5bc 521a 123d dfa4 1dbc b709 cc3c
000001e0: 6a1a 263d 52f6 2f3d c7ab 8fbd 1738 083c
000001f0: ca3f f73b cd2a feba 381b f33c dfce 163d

network_body._body_endoder.seq_layers.0.weight f4 [128, 24]
0.0271843 0.05643899 -0.19558991 0.11403555 -0.25819713 0.27616802 0.30610284 0.006527537
0.060902685 0.3516676 -0.0746201 0.13346773 -0.17052524 -0.029903706 0.28410974 0.3345901
-0.06522134 0.10861107 0.0017060592 -0.06165537 0.35972086 -0.07060092 0.020714521 0.47480425
-0.13831954 0.14432435 -0.07008469 -0.076527536 -0.27107024 -0.116287425 -0.536733 0.5035546
-0.20584953 0.16883555 0.33222565 -0.25631896 0.13201335 0.3206457 0.18066934 -0.18386221
0.0939188 -0.07118653 0.08177003 -0.239794 -0.084192686 -0.07609166 0.42029625 -0.00032704542
0.5240305 0.026313286 -0.15385526 0.019849066 0.15352307 -0.089888744 0.18946104 0.17289478
0.11454851 -0.024743417 -0.25247258 0.22712825 0.34043533 0.007971003 0.060243055 -0.054103605
-0.098611 0.04605059 0.23592715 0.18991031 0.2543439 -0.27485567 0.05131222 0.14545417
0.026070002 0.10887455 0.19585301 -0.020189712 0.17491889 -0.03122759 0.079056405 -0.15399353
-0.33112973 0.35792547 -0.045852225 -0.21210681 0.17859477 -0.11859974 0.099767044 0.30664787
-0.13446805 -0.009604643 0.07831057 -0.13289353 -0.0006027205 -0.042695437 -0.025505375 0.33325827
-0.17104004 -0.44390666 0.22727829 -0.35048676 0.27726573 -0.06341269 -0.1573799 -0.11688287
-0.36593378 0.34219092 -0.25487098 -0.16592515 0.4668865 0.35260472 0.012889327 -0.30996123
0.21084304 -0.088489756 0.023571001 -0.4070771 0.06765568 -0.096704274 -0.045461025 0.25118315
0.20025413 -0.0028480277 -0.16592313 0.17687157 0.16127773 -0.3465477 -0.12921518 0.34190753
0.14514413 0.15069269 -0.11501435 0.1722676 0.11368313 0.19964139 0.20127806 -0.03481094
-0.41044497 -0.10455566 0.038250197 0.2517713 -0.14956957 -0.22423342 0.230774 0.16998231
-0.27030608 0.051250476 0.10540514 0.18178387 0.11729917 0.043721266 -0.08851722 0.1995386
-0.19216666 0.072546095 0.1155776 -0.041821282 0.15502301 -0.15602285 0.07959423 -0.06805223
0.15644108 0.07425001 0.20843957 0.095316134 0.25171158 -0.055910733 -0.13598609 -0.067493446
-0.14053677 0.17234848 -0.123574644 -0.004904659 0.053556215 -0.27090582 0.12167489 0.14249341
-0.02422803 0.08366276 -0.23747031 -0.37745357 -0.15296504 0.13109578 0.32784277 -0.21390581
-0.03113752 -0.38274553 -0.3222032 -0.30611092 -0.2201677 -0.2702438 0.28818542 -0.39923266
-0.089682855 -0.1553156 0.28342757 0.048924506 -0.15290163 -0.40933907 0.06987075 0.028366553
-0.41181263 0.37633398 0.0391867 -0.049894866 0.2475321 0.648121 -0.067127354 -0.06261748
0.5047336 -0.12263317 0.10542854 -0.20947403 0.10093797 0.017695665 0.4085158 -0.23569363
0.12055836 -0.008169015 -0.07522707 -0.020234518 0.023595115 -0.009384966 -0.09895638 0.20032676
-0.14823839 0.009370038 -0.3044751 0.092608325 0.07611749 0.10757295 0.35037237 -0.13734888
0.19686976 0.30377522 0.1516625 0.3115549 -0.11202297 -0.18861535 0.1089255 0.26432014
-0.47841844 -0.023664862 -0.015897512 0.12592447 0.0114860535 0.13240074 0.09298759 -0.089878805
0.04886887 -0.008300484 -0.18187957 0.04415795 0.15387097 -0.3316656 0.1314895 0.20949237
00000000: 9cb1 de3c 922c 673d b948 48be 788b e93d
00000010: 6a32 84be e565 8d3e 83b9 9c3e f3e4 d53b
00000020: 1875 793d c70d b43e 6cd2 98bd c4ab 083e
00000030: 2b9e 2ebe 9ef8 f4bc d576 913e 654f ab3e
00000040: c492 85bd 7b6f de3d d99d df3a 578a 7cbd
00000050: 552d b83e 3797 90bd 80b1 a93c 8b19 f33e
00000060: a3a3 0dbe c3c9 133e 9088 8fbd 78ba 9cbd
00000070: b8c9 8abe 1a28 eebd 5567 09bf f4e8 003f
00000080: 38ca 52be 3ae3 2c3e 7b19 aa3e 3d3c 83be
00000090: 822e 073e ac2b a43e 6201 393e 6046 3cbe
000000a0: 8058 c03d 3eca 91bd 0c77 a73d 8f8c 75be
000000b0: 376d acbd f2d5 9bbd 1231 d73e 4b77 abb9
000000c0: dd26 063f f68e d73c 3c8c 1dbe 829a a23c
000000d0: 2735 1d3e 9717 b8bd 1302 423e 540b 313e
000000e0: 6998 ea3d b5b2 cabc 1644 81be 4f94 683e
000000f0: 8a4d ae3e cf98 023c 6cc1 763d be9b 5dbd
00000100: 90f4 c9bd 8b9f 3c3d e396 713e d977 423e
00000110: 5d39 823e e2b9 8cbe c32c 523d f0f1 143e
00000120: c290 d53c 9ff9 de3d b18d 483e e564 a5bc
00000130: f01d 333e 01d1 ffbc 53e8 a13d 7bb0 1dbe
00000140: d689 a9be 0242 b73e 8bcf 3bbd 8732 59be
00000150: 8ce1 363e 6ce4 f2bd aa52 cc3d f300 9d3e
00000160: feb1 09be cb5c 1dbc 4b61 a03d 3e15 08be
00000170: e3ff 1dba 69e1 2ebd a6f0 d0bc d4a0 aa3e
00000180: 1f25 2fbe bc47 e3be a4bb 683e 0073 b3be
00000190: c6f5 8d3e 83de 81bd 3228 21be 4960 efbd
000001a0: ac5b bbbe a633 af3e 737e 82be 48e8 29be
000001b0: bf0b ef3e 9b88 b43e c12d 533c 3db3 9ebe
000001c0: 3de7 573e 1e3a b5bd f917 c13c 696c d0be
000001d0: 108f 8a3d e40c c6bd 5735 3abd 149b 803e
000001e0: 6b0f 4d3e faa5 3abb c1e7 29be d21d 353e
000001f0: fd25 253e b36e b1be fc50 04be 810e af3e
00000200: aaa0 143e 2f4f 1a3e a58c ebbd eb66 303e
00000210: b3d2 e83d cb6e 4c3e d61b 4e3e eb95 0ebd
00000220: d825 d2be 4721 d6bd 3dac 1c3d 2be8 803e
00000230: c428 19be 729d 65be 0550 6c3e d80f 2e3e
00000240: 8f65 8abe 05ec 513d a6de d73d 8d25 3a3e
00000250: 8c3a f03d 1215 333d 8448 b5bd d953 4c3e
00000260: 56c7 44be 0c93 943d f3b3 ec3d cb4c 2bbd
00000270: 5abe 1e3e 74c4 1fbe 4d02 a33d f85e 8bbd
00000280: 1732 203e 6410 983d 2f71 553e 1b35 c33d
00000290: 57e0 803e a702 65bd f03f 0bbe 013a 8abd
000002a0: dfe8 0fbe 1f7c 303e b414 fdbd 43b7 a0bb
000002b0: c35d 5b3d 2bb4 8abe af30 f93d cbe9 113e
000002c0: dd79 c6bc 6257 ab3d 6b2b 73be 9841 c1be
000002d0: dea2 1cbe f93d 063e 02db a73e 200a 5bbe
000002e0: 1d14 ffbc 39f7 c3be d1f7 a4be 92ba 9cbe
000002f0: a473 61be 655d 8abe 0a8d 933e 3968 ccbe
00000300: a5ab b7bd 0d0b 1fbe 6b1d 913e 1065 483d
00000310: 3f92 1cbe e494 d1be 6518 8f3d f960 e83c
00000320: 1bd9 d2be d9ae c03e 3c82 203d 8f5e 4cbd
00000330: 0e79 7d3e 42eb 253f 117a 89bd 983d 80bd
00000340: 3936 013f 1927 fbbd ebea d73d 5c80 56be
00000350: 91b8 ce3d 80f6 903c fc28 d13e ac59 71be
00000360: 4de7 f63d 55d7 05bc a610 9abd dcc2 a5bc
00000370: 8b4a c13c 67c3 19bc a4a9 cabd 7522 4d3e
00000380: cecb 17be ca84 193c 29e4 9bbe 6fa9 bd3d
00000390: 7de3 9b3d 354f dc3d 0264 b33e 2fa5 0cbe
000003a0: 3a98 493e 6d88 9b3e 6a4d 1b3e 2084 9f3e
000003b0: 4d6c e5bd 6224 41be 5514 df3d f854 873e
000003c0: 43f3 f4be d0dc c1bc 803b 82bc 58f2 003e
000003d0: 0030 3c3c 0f94 073e 4770 be3d 6112 b8bd
000003e0: b92a 483d c1fe 07bc a33e 3abe f7de 343d
000003f0: 5a90 1d3e 13d0 a9be 2fa5 063e 2b85 563e

network_body._body_endoder.seq_layers.2.bias f4 [128]
0.014227406 -0.013361791 0.04757619 -0.08753375 -0.012555762 -0.008147301 0.016259966 -0.04023264
0.046387255 0.005995811 0.07391502 -0.041043933 0.062577724 -0.013959909 -0.028614257 -0.0048722043
0.023227155 0.040198494 0.04345951 0.016632987 0.044283256 0.06652292 0.080382966 -0.029885665
-0.020920968 0.031113718 0.025391072 -0.026375629 0.009873083 0.04370968 0.03286204 0.044438165
0.06420808 -0.0047836388 -0.00787327 0.012797942 0.055728976 -0.043153558 -0.012373761 0.012664082
0.008687062 0.016090322 0.06282335 -0.04161997 0.026666073 0.0013419386 -0.010017203 0.027668985
-0.016916113 -0.0032930507 -0.060578853 0.0083908485 0.047021523 0.055987913 0.009027369 0.0002845072
0.012755955 0.038800005 0.008840261 0.017555933 0.049480516 -0.0358947 0.038743667 -0.015253393
-0.027223833 0.0364627 -0.018780114 0.060470436 0.040666603 0.021874707 -0.033099297 -0.039908465
0.033257075 -0.005330282 0.0054222243 0.027377738 -0.003701903 0.025306603 -0.044195842 0.023349226
0.041368756 0.01324819 0.04237213 0.039563667 0.036394864 0.019837536 -0.0024111515 -0.0313026
-0.010493948 0.029022168 0.07945257 0.01742782 0.03645348 0.012178954 0.029274004 -0.0032088456
0.00809759 -0.008033872 0.022128431 0.017295854 0.024226425 0.039254602 0.03408038 -0.024978295
-0.0014888869 0.029693523 0.011294153 0.020503962 0.00046601795 0.004933147 0.0022279404 0.012627226
-0.014614701 0.067529425 0.03576673 -0.011248096 -0.00883367 -0.0013180408 0.009151272 -0.057202213
-0.03348011 0.0380858 -0.035145693 0.018767487 0.04328723 0.035336602 0.019719882 0.011342267
00000000: 111a 693c 6aeb 5abc 40df 423d e544 b3bd
00000010: afb6 4dbc 427c 05bc 9f33 853c fbca 24bd
00000020: 9000 3e3d 8278 c43b c260 973d af1d 28bd
00000030: c028 803d 1ab8 64bc 7268 eabc 03a7 9fbb
00000040: e046 be3c 2da7 243d 9902 323d e741 883c
00000050: 5c62 353d 2b3d 883d d39f a43d c8d2 f4bc
00000060: 7362 abbc 32e2 fe3c f000 d03c b411 d8bc
00000070: b6c2 213c ec08 333d 599a 063d cb04 363d
00000080: 877f 833d 12c0 9cbb e3fe 00bc 76ae 513c
00000090: 1144 643d c9c1 30bd 51bb 4abc 037d 4f3c
000000a0: 2e54 0e3c dacf 833c 87a9 803d b479 2abd
000000b0: cf72 da3c fde3 af3a 321f 24bc 11aa e23c
000000c0: a993 8abc 39d0 57bb 8821 78bd c579 093c
000000d0: a499 403d 9553 653d 88e7 133c e929 9539
000000e0: 5afe 503c c1ec 1e3d bed6 103c 76d1 8f3c
000000f0: 15ac 4a3d 5206 13bd aeb1 1e3d 5ee9 79bc
00000100: 8404 dfbc ea59 153d c1d8 99bc d9af 773d
00000110: 0692 263d 9632 b33c 2193 07bd 0f77 23bd
00000120: 9238 083d a5a9 aebb eaac b13b 4747 e03c
00000130: a09b 72bb cb4f cf3c b306 35bd e046 bf3c
00000140: 4972 293d f00e 593c 668e 2d3d 830d 223d
00000150: c812 153d 5482 a23c 6904 1ebb 2837 00bd
00000160: cfee 2bbc e6bf ed3c 07b8 a23d cac4 8e3c
00000170: 3f50 153d 3c8a 473c 09d0 ef3c 7f4b 52bb
00000180: c1ab 043c 80a0 03bc af46 b53c 09b0 8d3c
00000190: 7f76 c63c 6fc9 203d de97 0b3d 489f ccbc
000001a0: c126 c3ba d53f f33c 1c0b 393c edf7 a73c
000001b0: df53 f439 3da6 a13b a302 123b 6de2 4e3c
000001c0: 8072 6fbc de4c 8a3d 2280 123d ef49 38bc
000001d0: 19bb 10bc 1cc2 acba 37ef 153c de4c 6abd
000001e0: 7122 09bd dbff 1b3d eef4 0fbd 46be 993c
000001f0: f34d 313d 1dbd 103d 978b a13c ead4 393c

network_body._body_endoder.seq_layers.2.weight f4 [128, 128]
0.024041807 -0.08780222 -0.1375481 -0.038526088 0.1012903 -0.0009013184 -0.075217 -0.07113827
0.017339284 -0.0012513074 -0.034523536 -0.042787842 -0.15289943 -0.08545652 -0.11556369 -0.16387926
-0.005712946 -0.015069175 -0.083237395 -0.046398655 0.02810289 0.00710695 0.07651965 0.21183123
0.17526913 0.17903046 -0.12244708 -0.0052174274 -0.07865283 -0.015206958 0.07248592 0.04719612
0.101629704 -0.050050028 -0.04705344 -0.136676 -0.08174218 -0.045514077 -0.2673486 -0.04755015
0.15881716 0.029529983 0.07919183 0.031875897 -0.18274088 0.06233746 -0.08350958 -0.081290714
-0.23442264 -0.03957016 -0.047726914 0.06397852 0.055447143 -0.14202696 -0.23468147 -0.09521397
0.12899114 0.20525287 0.014777072 -0.10562611 -0.068722844 0.17263338 -0.026599308 0.04724292
-0.06516067 -0.059259813 0.081249036 -0.029265914 0.012312098 -0.17179218 -0.05037986 0.0010770147
-0.0163533 4.819906e-06 -0.14749373 -0.072792634 0.06379463 -0.062913395 0.07253837 0.19722094
0.13530713 0.07059274 0.10466425 0.020928213 -0.21413165 -0.0049259304 -0.11537933 0.048824888
-0.009707861 0.08146588 -0.10279949 -0.1800609 -0.1566694 -0.0043041673 -0.035419736 0.120469876
-0.085191645 -0.053167414 0.036482908 -0.0040015657 -0.038149174 0.08693702 -0.11218805 -0.03327601
0.04308208 0.14229356 0.16585305 0.048396595 0.0208863 -0.015600824 -0.11076985 -0.124704234
-0.022931585 -0.057535693 -0.075737275 0.028577643 -0.05653865 0.036698073 0.13550882 -0.06460215
-0.066585295 -0.039453186 -0.04029345 0.20472075 0.124262504 -0.06451292 -0.092523076 -0.13029054
-0.01702521 -0.04964396 0.0766969 -0.12755938 -0.03544496 -0.067835085 -0.081914686 0.008513709
-0.003522607 -0.019228034 0.14908525 0.17384462 -0.04520438 0.06808266 -0.056397926 -0.04852573
0.027918208 -0.00789956 0.019416623 -0.046503283 -0.013679434 0.08507357 0.03687093 -0.090896145
0.025332788 0.022199918 0.06926743 0.0051657166 -0.056246087 -0.011318436 0.06857725 0.035338502
-0.08066177 -0.040977117 0.1025397 0.20274435 -0.05839262 -0.043437097 0.15704139 0.16469714
0.01944215 -0.081638694 0.013427811 -0.003732357 0.014378336 0.09180707 0.1151293 -0.00969502
-0.117478974 0.03540742 -0.03551551 0.09471342 0.028187292 0.05122856 -0.09196308 0.00605796
-0.03889668 -0.021303635 -0.03963142 -0.008969332 -0.082785964 0.07531357 0.060690586 -0.015559915
0.010555743 0.014372519 0.051304124 0.1929113 0.11645119 0.054337263 0.18744828 -0.114732854
-0.07240653 0.058255527 -0.10677908 0.0694072 -0.08345123 0.09282614 0.004018933 -0.113244295
0.058039386 -0.16285165 0.037517916 0.06089384 -0.027543403 0.15441805 0.055822093 -0.07684857
-0.09269803 -0.091499165 0.019320756 -0.0024400847 0.024808751 0.002837225 0.01832121 0.086979486
-0.09841026 0.07951584 0.089142516 0.03508183 -0.005473743 0.06394771 -0.13056597 -0.0976189
-0.0072636246 -0.053939525 0.116347626 -0.013172762 0.03920773 -0.014065628 -0.17370608 0.06543044
0.007012872 0.0061126817 -0.01202335 0.06402116 0.017679537 0.067940645 -0.12164447 0.08943641
0.10324495 -0.13931824 0.048602737 -0.018914212 0.16847484 0.13510878 -0.064777754 -0.09665335
00000000: 53f3 c43c a6d1 b3bd 69d9 0cbe 88cd 1dbd
00000010: 4a71 cf3d 7446 6cba 5f0b 9abd f1b0 91bd
00000020: 1d0b 8e3c e902 a4ba 8d68 0dbd 4e42 2fbd
00000030: ab91 1cbe d403 afbd a8ac ecbd f7cf 27be
00000040: aa33 bbbb b3e4 76bc 5e78 aabd 840c 3ebd
00000050: 0838 e63c 6be1 e83b 56b6 9c3d 49ea 583e
00000060: c079 333e c353 373e 89c5 fabd f4f6 aabb
00000070: bc14 a1bd 9b26 79bc 7f73 943d b850 413d
00000080: 3c23 d03d 4201 4dbd 1cbb 40bd cbf4 0bbe
00000090: 7268 a7bd f86c 3abd eae1 88be f2c3 42bd
000000a0: f7a0 223e dde8 f13c 532f a23d 4d90 023d
000000b0: 6d20 3bbe 9155 7f3d 1207 abbd bf7b a6bd
000000c0: 7d0c 70be 5214 22bd 4c7d 43bd 2c07 833d
000000d0: 8b1c 633d 846f 11be 5750 70be 8bff c2bd
000000e0: 4116 043e cf2d 523e 881b 723c 8152 d8bd
000000f0: 90be 8cbd cec6 303e cbe6 d9bc cb81 413d
00000100: f572 85bd 6bba 72bd e565 a63d 12bf efbc
00000110: afb8 493c 4aea 2fbe 1d5b 4ebd 9e2a 8d3a
00000120: 5bf7 85bc adba a136 9908 17be 4e14 95bd
00000130: c2a6 823d bdd8 80bd ff8e 943d 49f4 493e
00000140: f48d 0a3e ed92 903d 365a d63d a571 ab3c
00000150: 5445 5bbe b369 a1bb 004c ecbd 9bfc 473d
00000160: b80d 1fbc 95d7 a63d 8a88 d2bd e261 38be
00000170: f16d 20be f909 8dbb 4914 11bd e9b8 f63d
00000180: f578 aebd 13c6 59bd 1a6f 153d 911f 83bb
00000190: 4f42 1cbd 090c b23d d9c2 e5bd 6d4c 08bd
000001a0: d676 303d 67b5 113e 62d5 293e 823b 463d
000001b0: bf19 ab3c 999a 7fbc 4edb e2bd ef64 ffbd
000001c0: 05db bbbc 8caa 6bbd 251c 9bbd a91b ea3c
000001d0: 1295 67bd b850 163d d3c2 0a3e 224e 84bd
000001e0: df5d 88bd aa99 21bd bf0a 25bd 51a2 513e
000001f0: 577d fe3d 5a1f 84bd bd7c bdbd e26a 05be
00000200: 7478 8bbc 7757 4bbd 4413 9d3d ed9e 02be
00000210: bc2e 11bd 1fed 8abd e3c2 a7bd 157d 0b3c
00000220: 8adb 66bb 1c84 9dbc cea9 183e 5304 323e
00000230: 3a28 39bd ec6e 8b3d 8301 67bd eac2 46bd
00000240: bab4 e43c 286d 01bc 9c0f 9f3c 3a7a 3ebd
00000250: b41f 60bc 0d3b ae3d f905 173d c227 babd
00000260: b586 cf3c 9adc b53c 15dc 8d3d 2c45 a93b
00000270: 4c62 66bd f670 39bc 3b72 8c3d 1bbf 103d
00000280: 0032 a5bd 9fd7 27bd 5600 d23d 379c 4f3e
00000290: 1a2d 6fbd 19eb 31bd 75cf 203e 5ea6 283e
000002a0: 2545 9f3c 3032 a7bd 5200 5c3c 8f9a 74bb
000002b0: 1d93 6b3c 5805 bc3d e9c8 eb3d dcd7 1ebc
000002c0: d198 f0bd 5f07 113d b678 11bd 1cf9 c13d
000002d0: 09e9 e63c 0ad5 513d 2457 bcbd da81 c63b
000002e0: 2052 1fbd f684 aebc 8e54 22bd 1bf4 12bc
000002f0: b08b a9bd 003e 9a3d b196 783d 04ef 7ebc
00000300: fff1 2c3c b77a 6b3c 4624 523d 8a8a 453e
00000310: f67d ee3d c090 5e3d 71f2 3f3e 0ff9 eabd
00000320: e049 94bd 599d 6e3d feae dabd 5d25 8e3d
00000330: 7ae8 aabd a21b be3d 41b1 833b a0ec e7bd
00000340: b5ba 6d3d 95c2 26be 63ac 193d d26b 793d
00000350: b4a2 e1bc c41f 1e3e b5a5 643d c862 9dbd
00000360: 77d8 bdbd ea63 bbbd 9046 9e3c d4e9 1fbb
00000370: b93b cb3c bdf0 393b 5d16 963c 4d22 b23d
00000380: 528b c9bd 33d9 a23d 5a90 b63d f7b1 0f3d
00000390: 165d b3bb 04f7 823d 16b3 05be 6bec c7bd
000003a0: b303 eebb b1ef 5cbd aa47 ee3d 91d2 57bc
000003b0: 4998 203d 8573 66bc 02e0 31be 6500 863d
000003c0: 3ccc e53b e44c c83b 96fd 44bc 871d 833d
000003d0: add4 903c 7724 8b3d bc20 f9bd 702a b73d
000003e0: 1772 d33d 71a9 0ebe aa13 473d faf1 9abc
000003f0: ab84 2c3e f559 0a3e 33aa 84bd 31f2 c5bd

network_body.observation_encoder.processors.0.normalizer.running_mean f4 [24]
0.0012597428 2.9560199 2.9606638 -3.8692758 1.4591696 1.3355929 -0.08097173 -1.2981236e-07
0.16139086 -0.17230158 2.9560199 60.372948 -2.0023435e-08 2.9999204 3.001847 -3.8785803
1.4811502 1.3497887 -0.0933592 -1.2893537e-07 0.13736232 -0.13163662 2.9999204 61.269165
00000000: f41d a53a 6e2f 3d40 847b 3d40 37a2 77c0
00000010: 12c6 ba3f b5f4 aa3f 82d4 a5bd 8d62 0bb4
00000020: a543 253e d36f 30be 6e2f 3d40 e67d 7142
00000030: 0000 acb2 b2fe 3f40 431e 4040 a93a 78c0
00000040: 5496 bd3f e0c5 ac3f 1c33 bfbd 7c71 0ab4
00000050: b5a8 0c3e c0cb 06be b2fe 3f40 a013 7542
