Assets/Trining/results/PingPongTest1/PingPongAgent/PingPongAgent-499996.pt (torch, 498103 bytes, 41 tensors)

network_body.observation_encoder.processors.0.normalizer.running_mean f4 [24]
0	0xbb9082dc	-0.004410131
1	0x403d2f70	2.9560204
2	0x403d78d8	2.9605007
3	0xc077a7c9	-3.8696158
4	0x3fbac60b	1.4591688
5	0x3faae901	1.3352357
6	0xbda48f2d	-0.08035121
7	0xb40b62ae	-1.2981283e-07
8	0x3e24e816	0.16104159
9	0xbe2aa73e	-0.1666536
10	0x403d2f70	2.9560204
11	0x42717df0	60.372986
12	0xbbbcbed9	-0.0057600555
13	0x403ffeb2	2.9999204
14	0x40401b49	3.0016654
15	0xc0783f27	-3.8788545
16	0x3fbd964c	1.4811492
17	0x3facb8da	1.3493912
18	0xbdbdd5bf	-0.092692845
19	0xb40a7147	-1.2893462e-07
20	0x3e0c3b58	0.13694513
21	0xbe00ea35	-0.12589343
22	0x403ffeb2	2.9999204
23	0x427513a3	61.269176

network_body.observation_encoder.processors.0.normalizer.running_variance f4 [24]
0	0x4e6ddc6c	9.9766144e+08
1	0x477deb9f	65003.62
2	0x4c37026b	4.7974828e+07
3	0x4d95dd2d	3.1428752e+08
4	0x46c8447c	25634.242
5	0x4ca37a05	8.570884e+07
6	0x4dd9a33c	4.564192e+08
7	0x3f800000	1.0
8	0x4da61214	3.4827533e+08
9	0x4f8cfcc2	4.73075e+09
10	0x477deb9f	65003.62
11	0x4e8d8c22	1.1873856e+09
12	0x4e7165d0	1.01249536e+09
13	0x411fff07	9.999763
14	0x4c393782	4.855348e+07
15	0x4d9daf6a	3.3068986e+08
16	0x4619213a	9800.307
17	0x4ca53904	8.662429e+07
18	0x4ddde871	4.6537475e+08
19	0x3f800000	1.0
20	0x4da775ad	3.5118838e+08
21	0x4f8f14ff	4.801036e+09
22	0x411fff07	9.999763
23	0x4e8c5bf7	1.1774186e+09

network_body.processors.0.normalizer.running_mean f4 [24]
0	0xbb9082dc	-0.004410131
1	0x403d2f70	2.9560204
2	0x403d78d8	2.9605007
3	0xc077a7c9	-3.8696158
4	0x3fbac60b	1.4591688
5	0x3faae901	1.3352357
6	0xbda48f2d	-0.08035121
7	0xb40b62ae	-1.2981283e-07
8	0x3e24e816	0.16104159
9	0xbe2aa73e	-0.1666536
10	0x403d2f70	2.9560204
11	0x42717df0	60.372986
12	0xbbbcbed9	-0.0057600555
13	0x403ffeb2	2.9999204
14	0x40401b49	3.0016654
15	0xc0783f27	-3.8788545
16	0x3fbd964c	1.4811492
17	0x3facb8da	1.3493912
18	0xbdbdd5bf	-0.092692845
19	0xb40a7147	-1.2893462e-07
20	0x3e0c3b58	0.13694513
21	0xbe00ea35	-0.12589343
22	0x403ffeb2	2.9999204
23	0x427513a3	61.269176

network_body.processors.0.normalizer.running_variance f4 [24]
0	0x4e6ddc6c	9.9766144e+08
1	0x477deb9f	65003.62
2	0x4c37026b	4.7974828e+07
3	0x4d95dd2d	3.1428752e+08
4	0x46c8447c	25634.242
5	0x4ca37a05	8.570884e+07
6	0x4dd9a33c	4.564192e+08
7	0x3f800000	1.0
8	0x4da61214	3.4827533e+08
9	0x4f8cfcc2	4.73075e+09
10	0x477deb9f	65003.62
11	0x4e8d8c22	1.1873856e+09
12	0x4e7165d0	1.01249536e+09
13	0x411fff07	9.999763
14	0x4c393782	4.855348e+07
15	0x4d9daf6a	3.3068986e+08
16	0x4619213a	9800.307
17	0x4ca53904	8.662429e+07
18	0x4ddde871	4.6537475e+08
19	0x3f800000	1.0
20	0x4da775ad	3.5118838e+08
21	0x4f8f14ff	4.801036e+09
22	0x411fff07	9.999763
23	0x4e8c5bf7	1.1774186e+09

network_body._body_endoder.seq_layers.0.weight f4 [128, 24]
0	0x3cdeb19c	0.0271843
1	0x3d672c92	0.05643899
2	0xbe4848b9	-0.19558991
3	0x3de98b78	0.11403555
4	0xbe84326a	-0.25819713
5	0x3e8d65e5	0.27616802
6	0x3e9cb983	0.30610284
7	0x3bd5e4f3	0.006527537
8	0x3d797518	0.060902685
9	0x3eb40dc7	0.3516676
10	0xbd98d26c	-0.0746201
11	0x3e08abc4	0.13346773
12	0xbe2e9e2b	-0.17052524
13	0xbcf4f89e	-0.029903706
14	0x3e9176d5	0.28410974
15	0x3eab4f65	0.3345901
16	0xbd8592c4	-0.06522134
17	0x3dde6f7b	0.10861107
18	0x3adf9dd9	0.0017060592
19	0xbd7c8a57	-0.06165537
20	0x3eb82d55	0.35972086
21	0xbd909737	-0.07060092
22	0x3ca9b180	0.020714521
23	0x3ef3198b	0.47480425
24	0xbe0da3a3	-0.13831954
25	0x3e13c9c3	0.14432435
26	0xbd8f8890	-0.07008469
27	0xbd9cba78	-0.076527536
28	0xbe8ac9b8	-0.27107024
29	0xbdee281a	-0.116287425
30	0xbf096755	-0.536733
31	0x3f00e8f4	0.5035546
32	0xbe52ca38	-0.20584953
33	0x3e2ce33a	0.16883555
34	0x3eaa197b	0.33222565
35	0xbe833c3d	-0.25631896
36	0x3e072e82	0.13201335
37	0x3ea42bac	0.3206457
38	0x3e390162	0.18066934
39	0xbe3c4660	-0.18386221
40	0x3dc05880	0.0939188
41	0xbd91ca3e	-0.07118653
42	0x3da7770c	0.08177003
43	0xbe758c8f	-0.239794
44	0xbdac6d37	-0.084192686
45	0xbd9bd5f2	-0.07609166
46	0x3ed73112	0.42029625
47	0xb9ab774b	-0.00032704542
48	0x3f0626dd	0.5240305
49	0x3cd78ef6	0.026313286
50	0xbe1d8c3c	-0.15385526
51	0x3ca29a82	0.019849066
52	0x3e1d3527	0.15352307
53	0xbdb81797	-0.089888744
54	0x3e420213	0.18946104
55	0x3e310b54	0.17289478
56	0x3dea9869	0.11454851
57	0xbccab2b5	-0.024743417
58	0xbe814416	-0.25247258
59	0x3e68944f	0.22712825
60	0x3eae4d8a	0.34043533
61	0x3c0298cf	0.007971003
62	0x3d76c16c	0.060243055
63	0xbd5d9bbe	-0.054103605
64	0xbdc9f490	-0.098611
65	0x3d3c9f8b	0.04605059
66	0x3e7196e3	0.23592715
67	0x3e4277d9	0.18991031
68	0x3e82395d	0.2543439
69	0xbe8cb9e2	-0.27485567
70	0x3d522cc3	0.05131222
71	0x3e14f1f0	0.14545417
72	0x3cd590c2	0.026070002
73	0x3ddef99f	0.10887455
74	0x3e488db1	0.19585301
75	0xbca564e5	-0.020189712
76	0x3e331df0	0.17491889
77	0xbcffd101	-0.03122759
78	0x3da1e853	0.079056405
79	0xbe1db07b	-0.15399353
80	0xbea989d6	-0.33112973
81	0x3eb74202	0.35792547
82	0xbd3bcf8b	-0.045852225
83	0xbe593287	-0.21210681
84	0x3e36e18c	0.17859477
85	0xbdf2e46c	-0.11859974
86	0x3dcc52aa	0.099767044
87	0x3e9d00f3	0.30664787
88	0xbe09b1fe	-0.13446805
89	0xbc1d5ccb	-0.009604643
90	0x3da0614b	0.07831057
91	0xbe08153e	-0.13289353
92	0xba1dffe3	-0.0006027205
93	0xbd2ee169	-0.042695437
94	0xbcd0f0a6	-0.025505375
95	0x3eaaa0d4	0.33325827
96	0xbe2f251f	-0.17104004
97	0xbee347bc	-0.44390666
98	0x3e68bba4	0.22727829
99	0xbeb37300	-0.35048676
100	0x3e8df5c6	0.27726573
101	0xbd81de83	-0.06341269
102	0xbe212832	-0.1573799
103	0xbdef6049	-0.11688287
104	0xbebb5bac	-0.36593378
105	0x3eaf33a6	0.34219092
106	0xbe827e73	-0.25487098
107	0xbe29e848	-0.16592515
108	0x3eef0bbf	0.4668865
109	0x3eb4889b	0.35260472
110	0x3c532dc1	0.012889327
111	0xbe9eb33d	-0.30996123
112	0x3e57e73d	0.21084304
113	0xbdb53a1e	-0.088489756
114	0x3cc117f9	0.023571001
115	0xbed06c69	-0.4070771
116	0x3d8a8f10	0.06765568
117	0xbdc60ce4	-0.096704274
118	0xbd3a3557	-0.045461025
119	0x3e809b14	0.25118315
120	0x3e4d0f6b	0.20025413
121	0xbb3aa5fa	-0.0028480277
122	0xbe29e7c1	-0.16592313
123	0x3e351dd2	0.17687157
124	0x3e2525fd	0.16127773
125	0xbeb16eb3	-0.3465477
126	0xbe0450fc	-0.12921518
127	0x3eaf0e81	0.34190753
128	0x3e14a0aa	0.14514413
129	0x3e1a4f2f	0.15069269
130	0xbdeb8ca5	-0.11501435
131	0x3e3066eb	0.1722676
132	0x3de8d2b3	0.11368313
133	0x3e4c6ecb	0.19964139
134	0x3e4e1bd6	0.20127806
135	0xbd0e95eb	-0.03481094
136	0xbed225d8	-0.41044497
137	0xbdd62147	-0.10455566
138	0x3d1cac3d	0.038250197
139	0x3e80e82b	0.2517713
140	0xbe1928c4	-0.14956957
141	0xbe659d72	-0.22423342
142	0x3e6c5005	0.230774
143	0x3e2e0fd8	0.16998231
144	0xbe8a658f	-0.27030608
145	0x3d51ec05	0.051250476
146	0x3dd7dea6	0.10540514
147	0x3e3a258d	0.18178387
148	0x3df03a8c	0.11729917
149	0x3d331512	0.043721266
150	0xbdb54884	-0.08851722
151	0x3e4c53d9	0.1995386
152	0xbe44c756	-0.19216666
153	0x3d94930c	0.072546095
154	0x3decb3f3	0.1155776
155	0xbd2b4ccb	-0.041821282
156	0x3e1ebe5a	0.15502301
157	0xbe1fc474	-0.15602285
158	0x3da3024d	0.07959423
159	0xbd8b5ef8	-0.06805223
160	0x3e203217	0.15644108
161	0x3d981064	0.07425001
162	0x3e55712f	0.20843957
163	0x3dc3351b	0.095316134
164	0x3e80e057	0.25171158
165	0xbd6502a7	-0.055910733
166	0xbe0b3ff0	-0.13598609
167	0xbd8a3a01	-0.067493446
168	0xbe0fe8df	-0.14053677
169	0x3e307c1f	0.17234848
170	0xbdfd14b4	-0.123574644
171	0xbba0b743	-0.004904659
172	0x3d5b5dc3	0.053556215
173	0xbe8ab42b	-0.27090582
174	0x3df930af	0.12167489
175	0x3e11e9cb	0.14249341
176	0xbcc679dd	-0.02422803
177	0x3dab5762	0.08366276
178	0xbe732b6b	-0.23747031
179	0xbec14198	-0.37745357
180	0xbe1ca2de	-0.15296504
181	0x3e063df9	0.13109578
182	0x3ea7db02	0.32784277
183	0xbe5b0a20	-0.21390581
184	0xbcff141d	-0.03113752
185	0xbec3f739	-0.38274553
186	0xbea4f7d1	-0.3222032
187	0xbe9cba92	-0.30611092
188	0xbe6173a4	-0.2201677
189	0xbe8a5d65	-0.2702438
190	0x3e938d0a	0.28818542
191	0xbecc6839	-0.39923266
192	0xbdb7aba5	-0.089682855
193	0xbe1f0b0d	-0.1553156
194	0x3e911d6b	0.28342757
195	0x3d486510	0.048924506
196	0xbe1c923f	-0.15290163
197	0xbed194e4	-0.40933907
198	0x3d8f1865	0.06987075
199	0x3ce860f9	0.028366553
200	0xbed2d91b	-0.41181263
201	0x3ec0aed9	0.37633398
202	0x3d20823c	0.0391867
203	0xbd4c5e8f	-0.049894866
204	0x3e7d790e	0.2475321
205	0x3f25eb42	0.648121
206	0xbd897a11	-0.067127354
207	0xbd803d98	-0.06261748
208	0x3f013639	0.5047336
209	0xbdfb2719	-0.12263317
210	0x3dd7eaeb	0.10542854
211	0xbe56805c	-0.20947403
212	0x3dceb891	0.10093797
213	0x3c90f680	0.017695665
214	0x3ed128fc	0.4085158
215	0xbe7159ac	-0.23569363
216	0x3df6e74d	0.12055836
217	0xbc05d755	-0.008169015
218	0xbd9a10a6	-0.07522707
219	0xbca5c2dc	-0.020234518
220	0x3cc14a8b	0.023595115
221	0xbc19c367	-0.009384966
222	0xbdcaa9a4	-0.09895638
223	0x3e4d2275	0.20032676
224	0xbe17cbce	-0.14823839
225	0x3c1984ca	0.009370038
226	0xbe9be429	-0.3044751
227	0x3dbda96f	0.092608325
228	0x3d9be37d	0.07611749
229	0x3ddc4f35	0.10757295
230	0x3eb36402	0.35037237
231	0xbe0ca52f	-0.13734888
232	0x3e49983a	0.19686976
233	0x3e9b886d	0.30377522
234	0x3e1b4d6a	0.1516625
235	0x3e9f8420	0.3115549
236	0xbde56c4d	-0.11202297
237	0xbe412462	-0.18861535
238	0x3ddf1455	0.1089255
239	0x3e8754f8	0.26432014
240	0xbef4f343	-0.47841844
241	0xbcc1dcd0	-0.023664862
242	0xbc823b80	-0.015897512
243	0x3e00f258	0.12592447
244	0x3c3c3000	0.0114860535
245	0x3e07940f	0.13240074
246	0x3dbe7047	0.09298759
247	0xbdb81261	-0.089878805
248	0x3d482ab9	0.04886887
249	0xbc07fec1	-0.008300484
250	0xbe3a3ea3	-0.18187957
251	0x3d34def7	0.04415795
252	0x3e1d905a	0.15387097
253	0xbea9d013	-0.3316656
254	0x3e06a52f	0.1314895
255	0x3e56852b	0.20949237

network_body._body_endoder.seq_layers.0.bias f4 [128]
0	0xbb1b74d8	-0.0023720767
1	0x3d8aff5a	0.06786986
2	0x3cce3b84	0.025174864
3	0x3be96f2a	0.0071238475
4	0x3d1ab603	0.037771236
5	0x3c8bcd34	0.017065622
6	0x3d2e7633	0.042593192
7	0x3c941384	0.018075712
8	0xbb64b12f	-0.0034895649
9	0xbafb0c45	-0.0019153437
10	0xbd28b299	-0.04118595
11	0xbca96ece	-0.020682719
12	0x3c8a032c	0.016847216
13	0x3c1e6c66	0.009669399
14	0x3cfd1ae9	0.03089662
15	0x3c75ae06	0.014995104
16	0x3b12c329	0.0022394157
17	0x3c4b62b8	0.012413673
18	0x3d055b61	0.03255785
19	0x3d754d0a	0.059887923
20	0x3d2a7aad	0.0416209
21	0xbc6860b0	-0.014183208
22	0x3cbdf4eb	0.023188075
23	0x3d7df18f	0.061997946
24	0x3d100414	0.03516014
25	0xbcddac59	-0.02705972
26	0x3c97547f	0.018472908
27	0x3bbc17d6	0.005740146
28	0xbc43e29d	-0.011955884
29	0x3cfb1ec7	0.030654324
30	0xbcbc6a62	-0.022999946
31	0xbad9cb69	-0.0016616407
32	0xbc6f59a1	-0.014608772
33	0x3d061fc8	0.032745153
34	0x3ab18400	0.0013543367
35	0x3d3e28be	0.046425574
36	0x3b656fa7	0.0035009177
37	0xbd2f0f5e	-0.042739265
38	0xbd8113b3	-0.063025855
39	0xbd650e2a	-0.05592171
40	0xbbeea378	-0.0072826706
41	0x3d423559	0.047414158
42	0xbd9be121	-0.07611299
43	0xbccc9e5c	-0.024977855
44	0xbd036226	-0.032076024
45	0x3c6b4179	0.014358872
46	0xbdc35e96	-0.09539525
47	0x3c9c4582	0.019076113
48	0x3c802076	0.015640479
49	0x3ccd7287	0.025079025
50	0x3cc782e7	0.024354411
51	0x3cb67669	0.02227326
52	0xbd1f684e	-0.038917832
53	0x3cc3c7ec	0.023899041
54	0xbc7a9a0d	-0.015295518
55	0x3d4f70cb	0.050644677
56	0x3a137868	0.0005625547
57	0xbc11277f	-0.008859514
58	0x3d5f659a	0.054540254
59	0x3d6b13eb	0.057392042
60	0x3cd64fd1	0.026161106
61	0xbd0c4827	-0.034248497
62	0x3d706d74	0.058698133
63	0xbb39abab	-0.0028331082
64	0x3c8f402e	0.017486658
65	0xbc9d4a3d	-0.019200439
66	0x3c9470bd	0.018120164
67	0x3c46ec12	0.0121412445
68	0x3ca67f93	0.020324504
69	0x3c605d89	0.0136941755
70	0x3d26b89f	0.040703412
71	0x3b824c6b	0.003976395
72	0xbca136e2	-0.01967949
73	0x3d31517f	0.04329061
74	0x3b8cf8c8	0.004302118
75	0x3d1e4d8c	0.038648173
76	0xbd436d36	-0.047711574
77	0x3ce93b1c	0.028470568
78	0x3d8933d6	0.0669934
79	0xbcd21e34	-0.025649168
80	0x3c42fbd0	0.011900857
81	0xbda405df	-0.08008932
82	0xbd29e1f3	-0.041475248
83	0x3d5a3db2	0.053281493
84	0x3d673182	0.0564437
85	0x3d08bb0e	0.033381514
86	0x3c150543	0.009095493
87	0x3d304eb2	0.0430438
88	0xbd8f20e2	-0.06988694
89	0x3c4c1008	0.012454994
90	0x3acbeb52	0.0015557802
91	0x3ce4cb08	0.027928844
92	0xbcc2a0e7	-0.023758365
93	0x3ccef8cf	0.025265126
94	0xbcedee8e	-0.029044416
95	0x3d3d26d7	0.04617962
96	0x3ca54eac	0.020179115
97	0x3db0c9b9	0.086322255
98	0x3bc450fe	0.0059911003
99	0x3cf13a5d	0.029446775
100	0xbd328348	-0.04358223
101	0xbca7fab5	-0.020505289
102	0x3ccd2515	0.025042096
103	0xbc82e726	-0.01597936
104	0x3d1ec403	0.03876115
105	0x3d558c9c	0.05213605
106	0x3cbf734e	0.023370411
107	0x3c4d3eb4	0.012527157
108	0xbb8ff9aa	-0.004393776
109	0xbd452041	-0.048126463
110	0xbd28f257	-0.04124674
111	0x3cab0bc7	0.02087964
112	0x3a6b538d	0.00089769886
113	0x3acc1233	0.0015569389
114	0x3d1b0bb7	0.03785297
115	0x38bf3a72	9.118476e-05
116	0xbcb5998c	-0.022167943
117	0x3d121a52	0.035669632
118	0xbc1da4df	-0.009621828
119	0x3ccc09b7	0.024906976
120	0x3d261a6a	0.040552534
121	0x3d2ff652	0.04295952
122	0xbd8fabc7	-0.07015186
123	0x3c083817	0.008314154
124	0x3bf73fca	0.007545446
125	0xbafe2acd	-0.0019391418
126	0x3cf31b38	0.029676065
127	0x3d16cedf	0.03681838

network_body._body_endoder.seq_layers.2.weight f4 [128, 128]
0	0x3cc4f353	0.024041807
1	0xbdb3d1a6	-0.08780222
2	0xbe0cd969	-0.1375481
3	0xbd1dcd88	-0.038526088
4	0x3dcf714a	0.1012903
5	0xba6c4674	-0.0009013184
6	0xbd9a0b5f	-0.075217
7	0xbd91b0f1	-0.07113827
8	0x3c8e0b1d	0.017339284
9	0xbaa402e9	-0.0012513074
10	0xbd0d688d	-0.034523536
11	0xbd2f424e	-0.042787842
12	0xbe1c91ab	-0.15289943
13	0xbdaf03d4	-0.08545652
14	0xbdecaca8	-0.11556369
15	0xbe27cff7	-0.16387926
16	0xbbbb33aa	-0.005712946
17	0xbc76e4b3	-0.015069175
18	0xbdaa785e	-0.083237395
19	0xbd3e0c84	-0.046398655
20	0x3ce63808	0.02810289
21	0x3be8e16b	0.00710695
22	0x3d9cb656	0.07651965
23	0x3e58ea49	0.21183123
24	0x3e3379c0	0.17526913
25	0x3e3753c3	0.17903046
26	0xbdfac589	-0.12244708
27	0xbbaaf6f4	-0.0052174274
28	0xbda114bc	-0.07865283
29	0xbc79269b	-0.015206958
30	0x3d94737f	0.07248592
31	0x3d4150b8	0.04719612
32	0x3dd0233c	0.101629704
33	0xbd4d0142	-0.050050028
34	0xbd40bb1c	-0.04705344
35	0xbe0bf4cb	-0.136676
36	0xbda76872	-0.08174218
37	0xbd3a6cf8	-0.045514077
38	0xbe88e1ea	-0.2673486
39	0xbd42c3f2	-0.04755015
40	0x3e22a0f7	0.15881716
41	0x3cf1e8dd	0.029529983
42	0x3da22f53	0.07919183
43	0x3d02904d	0.031875897
44	0xbe3b206d	-0.18274088
45	0x3d7f5591	0.06233746
46	0xbdab0712	-0.08350958
47	0xbda67bbf	-0.081290714
48	0xbe700c7d	-0.23442264
49	0xbd221452	-0.03957016
50	0xbd437d4c	-0.047726914
51	0x3d83072c	0.06397852
52	0x3d631c8b	0.055447143
53	0xbe116f84	-0.14202696
54	0xbe705057	-0.23468147
55	0xbdc2ff8b	-0.09521397
56	0x3e041641	0.12899114
57	0x3e522dcf	0.20525287
58	0x3c721b88	0.014777072
59	0xbdd85281	-0.10562611
60	0xbd8cbe90	-0.068722844
61	0x3e30c6ce	0.17263338
62	0xbcd9e6cb	-0.026599308
63	0x3d4181cb	0.04724292
64	0xbd8572f5	-0.06516067
65	0xbd72ba6b	-0.059259813
66	0x3da665e5	0.081249036
67	0xbcefbf12	-0.029265914
68	0x3c49b8af	0.012312098
69	0xbe2fea4a	-0.17179218
70	0xbd4e5b1d	-0.05037986
71	0x3a8d2a9e	0.0010770147
72	0xbc85f75b	-0.0163533
73	0x36a1baad	4.819906e-06
74	0xbe170899	-0.14749373
75	0xbd95144e	-0.072792634
76	0x3d82a6c2	0.06379463
77	0xbd80d8bd	-0.062913395
78	0x3d948eff	0.07253837
79	0x3e49f449	0.19722094
80	0x3e0a8df4	0.13530713
81	0x3d9092ed	0.07059274
82	0x3dd65a36	0.10466425
83	0x3cab71a5	0.020928213
84	0xbe5b4554	-0.21413165
85	0xbba169b3	-0.0049259304
86	0xbdec4c00	-0.11537933
87	0x3d47fc9b	0.048824888
88	0xbc1f0db8	-0.009707861
89	0x3da6d795	0.08146588
90	0xbdd2888a	-0.10279949
91	0xbe3861e2	-0.1800609
92	0xbe206df1	-0.1566694
93	0xbb8d09f9	-0.0043041673
94	0xbd111449	-0.035419736
95	0x3df6b8e9	0.120469876
96	0xbdae78f5	-0.085191645
97	0xbd59c613	-0.053167414
98	0x3d156f1a	0.036482908
99	0xbb831f91	-0.0040015657
100	0xbd1c424f	-0.038149174
101	0x3db20c09	0.08693702
102	0xbde5c2d9	-0.11218805
103	0xbd084c6d	-0.03327601
104	0x3d3076d6	0.04308208
105	0x3e11b567	0.14229356
106	0x3e29d562	0.16585305
107	0x3d463b82	0.048396595
108	0x3cab19bf	0.0208863
109	0xbc7f9a99	-0.015600824
110	0xbde2db4e	-0.11076985
111	0xbdff64ef	-0.124704234
112	0xbcbbdb05	-0.022931585
113	0xbd6baa8c	-0.057535693
114	0xbd9b1c25	-0.075737275
115	0x3cea1ba9	0.028577643
116	0xbd679512	-0.05653865
117	0x3d1650b8	0.036698073
118	0x3e0ac2d3	0.13550882
119	0xbd844e22	-0.06460215
120	0xbd885ddf	-0.066585295
121	0xbd2199aa	-0.039453186
122	0xbd250abf	-0.04029345
123	0x3e51a251	0.20472075
124	0x3dfe7d57	0.124262504
125	0xbd841f5a	-0.06451292
126	0xbdbd7cbd	-0.092523076
127	0xbe056ae2	-0.13029054
128	0xbc8b7874	-0.01702521
129	0xbd4b5777	-0.04964396
130	0x3d9d1344	0.0766969
131	0xbe029eed	-0.12755938
132	0xbd112ebc	-0.03544496
133	0xbd8aed1f	-0.067835085
134	0xbda7c2e3	-0.081914686
135	0x3c0b7d15	0.008513709
136	0xbb66db8a	-0.003522607
137	0xbc9d841c	-0.019228034
138	0x3e18a9ce	0.14908525
139	0x3e320453	0.17384462
140	0xbd39283a	-0.04520438
141	0x3d8b6eec	0.06808266
142	0xbd670183	-0.056397926
143	0xbd46c2ea	-0.04852573
144	0x3ce4b4ba	0.027918208
145	0xbc016d28	-0.00789956
146	0x3c9f0f9c	0.019416623
147	0xbd3e7a3a	-0.046503283
148	0xbc601fb4	-0.013679434
149	0x3dae3b0d	0.08507357
150	0x3d1705f9	0.03687093
151	0xbdba27c2	-0.090896145
152	0x3ccf86b5	0.025332788
153	0x3cb5dc9a	0.022199918
154	0x3d8ddc15	0.06926743
155	0x3ba9452c	0.0051657166
156	0xbd66624c	-0.056246087
157	0xbc3970f6	-0.011318436
158	0x3d8c723b	0.06857725
159	0x3d10bf1b	0.035338502
160	0xbda53200	-0.08066177
161	0xbd27d79f	-0.040977117
162	0x3dd20056	0.1025397
163	0x3e4f9c37	0.20274435
164	0xbd6f2d1a	-0.05839262
165	0xbd31eb19	-0.043437097
166	0x3e20cf75	0.15704139
167	0x3e28a65e	0.16469714
168	0x3c9f4525	0.01944215
169	0xbda73230	-0.081638694
170	0x3c5c0052	0.013427811
171	0xbb749a8f	-0.003732357
172	0x3c6b931d	0.014378336
173	0x3dbc0558	0.09180707
174	0x3debc8e9	0.1151293
175	0xbc1ed7dc	-0.00969502
176	0xbdf098d1	-0.117478974
177	0x3d11075f	0.03540742
178	0xbd1178b6	-0.03551551
179	0x3dc1f91c	0.09471342
180	0x3ce6e909	0.028187292
181	0x3d51d50a	0.05122856
182	0xbdbc5724	-0.09196308
183	0x3bc681da	0.00605796
184	0xbd1f5220	-0.03889668
185	0xbcae84f6	-0.021303635
186	0xbd22548e	-0.03963142
187	0xbc12f41b	-0.008969332
188	0xbda98bb0	-0.082785964
189	0x3d9a3e00	0.07531357
190	0x3d7896b1	0.060690586
191	0xbc7eef04	-0.015559915
192	0x3c2cf1ff	0.010555743
193	0x3c6b7ab7	0.014372519
194	0x3d522446	0.051304124
195	0x3e458a8a	0.1929113
196	0x3dee7df6	0.11645119
197	0x3d5e90c0	0.054337263
198	0x3e3ff271	0.18744828
199	0xbdeaf90f	-0.114732854
200	0xbd9449e0	-0.07240653
201	0x3d6e9d59	0.058255527
202	0xbddaaefe	-0.10677908
203	0x3d8e255d	0.0694072
204	0xbdaae87a	-0.08345123
205	0x3dbe1ba2	0.09282614
206	0x3b83b141	0.004018933
207	0xbde7eca0	-0.113244295
208	0x3d6dbab5	0.058039386
209	0xbe26c295	-0.16285165
210	0x3d19ac63	0.037517916
211	0x3d796bd2	0.06089384
212	0xbce1a2b4	-0.027543403
213	0x3e1e1fc4	0.15441805
214	0x3d64a5b5	0.055822093
215	0xbd9d62c8	-0.07684857
216	0xbdbdd877	-0.09269803
217	0xbdbb63ea	-0.091499165
218	0x3c9e4690	0.019320756
219	0xbb1fe9d4	-0.0024400847
220	0x3ccb3bb9	0.024808751
221	0x3b39f0bd	0.002837225
222	0x3c96165d	0.01832121
223	0x3db2224d	0.086979486
224	0xbdc98b52	-0.09841026
225	0x3da2d933	0.07951584
226	0x3db6905a	0.089142516
227	0x3d0fb1f7	0.03508183
228	0xbbb35d16	-0.005473743
229	0x3d82f704	0.06394771
230	0xbe05b316	-0.13056597
231	0xbdc7ec6b	-0.0976189
232	0xbbee03b3	-0.0072636246
233	0xbd5cefb1	-0.053939525
234	0x3dee47aa	0.116347626
235	0xbc57d291	-0.013172762
236	0x3d209849	0.03920773
237	0xbc667385	-0.014065628
238	0xbe31e002	-0.17370608
239	0x3d860065	0.06543044
240	0x3be5cc3c	0.007012872
241	0x3bc84ce4	0.0061126817
242	0xbc44fd96	-0.01202335
243	0x3d831d87	0.06402116
244	0x3c90d4ad	0.017679537
245	0x3d8b2477	0.067940645
246	0xbdf920bc	-0.12164447
247	0x3db72a70	0.08943641
248	0x3dd37217	0.10324495
249	0xbe0ea971	-0.13931824
250	0x3d4713aa	0.048602737
251	0xbc9af1fa	-0.018914212
252	0x3e2c84ab	0.16847484
253	0x3e0a59f5	0.13510878
254	0xbd84aa33	-0.064777754
255	0xbdc5f231	-0.09665335

network_body._body_endoder.seq_layers.2.bias f4 [128]
0	0x3c691a11	0.014227406
1	0xbc5aeb6a	-0.013361791
2	0x3d42df40	0.04757619
3	0xbdb344e5	-0.08753375
4	0xbc4db6af	-0.012555762
5	0xbc057c42	-0.008147301
6	0x3c85339f	0.016259966
7	0xbd24cafb	-0.04023264
8	0x3d3e0090	0.046387255
9	0x3bc47882	0.005995811
10	0x3d9760c2	0.07391502
11	0xbd281daf	-0.041043933
12	0x3d8028c0	0.062577724
13	0xbc64b81a	-0.013959909
14	0xbcea6872	-0.028614257
15	0xbb9fa703	-0.0048722043
16	0x3cbe46e0	0.023227155
17	0x3d24a72d	0.040198494
18	0x3d320299	0.04345951
19	0x3c8841e7	0.016632987
20	0x3d35625c	0.044283256
21	0x3d883d2b	0.06652292
22	0x3da49fd3	0.080382966
23	0xbcf4d2c8	-0.029885665
24	0xbcab6273	-0.020920968
25	0x3cfee232	0.031113718
26	0x3cd000f0	0.025391072
27	0xbcd811b4	-0.026375629
28	0x3c21c2b6	0.009873083
29	0x3d3308ec	0.04370968
30	0x3d069a59	0.03286204
31	0x3d3604cb	0.044438165
32	0x3d837f87	0.06420808
33	0xbb9cc012	-0.0047836388
34	0xbc00fee3	-0.00787327
35	0x3c51ae76	0.012797942
36	0x3d644411	0.055728976
37	0xbd30c1c9	-0.043153558
38	0xbc4abb51	-0.012373761
39	0x3c4f7d03	0.012664082
40	0x3c0e542e	0.008687062
41	0x3c83cfda	0.016090322
42	0x3d80a987	0.06282335
43	0xbd2a79b4	-0.04161997
44	0x3cda72cf	0.026666073
45	0x3aafe3fd	0.0013419386
46	0xbc241f32	-0.010017203
47	0x3ce2aa11	0.027668985
48	0xbc8a93a9	-0.016916113
49	0xbb57d039	-0.0032930507
50	0xbd782188	-0.060578853
51	0x3c0979c5	0.0083908485
52	0x3d4099a4	0.047021523
53	0x3d655395	0.055987913
54	0x3c13e788	0.009027369
55	0x399529e9	0.0002845072
56	0x3c50fe5a	0.012755955
57	0x3d1eecc1	0.038800005
58	0x3c10d6be	0.008840261
59	0x3c8fd176	0.017555933
60	0x3d4aac15	0.049480516
61	0xbd130652	-0.0358947
62	0x3d1eb1ae	0.038743667
63	0xbc79e95e	-0.015253393
64	0xbcdf0484	-0.027223833
65	0x3d1559ea	0.0364627
66	0xbc99d8c1	-0.018780114
67	0x3d77afd9	0.060470436
68	0x3d269206	0.040666603
69	0x3cb33296	0.021874707
70	0xbd079321	-0.033099297
71	0xbd23770f	-0.039908465
72	0x3d083892	0.033257075
73	0xbbaea9a5	-0.005330282
74	0x3bb1acea	0.0054222243
75	0x3ce04747	0.027377738
76	0xbb729ba0	-0.003701903
77	0x3ccf4fcb	0.025306603
78	0xbd3506b3	-0.044195842
79	0x3cbf46e0	0.023349226
80	0x3d297249	0.041368756
81	0x3c590ef0	0.01324819
82	0x3d2d8e66	0.04237213
83	0x3d220d83	0.039563667
84	0x3d1512c8	0.036394864
85	0x3ca28254	0.019837536
86	0xbb1e0469	-0.0024111515
87	0xbd003728	-0.0313026
88	0xbc2beecf	-0.010493948
89	0x3cedbfe6	0.029022168
90	0x3da2b807	0.07945257
91	0x3c8ec4ca	0.01742782
92	0x3d15503f	0.03645348
93	0x3c478a3c	0.012178954
94	0x3cefd009	0.029274004
95	0xbb524b7f	-0.0032088456
96	0x3c04abc1	0.00809759
97	0xbc03a080	-0.008033872
98	0x3cb546af	0.022128431
99	0x3c8db009	0.017295854
100	0x3cc6767f	0.024226425
101	0x3d20c96f	0.039254602
102	0x3d0b97de	0.03408038
103	0xbccc9f48	-0.024978295
104	0xbac326c1	-0.0014888869
105	0x3cf33fd5	0.029693523
106	0x3c390b1c	0.011294153
107	0x3ca7f7ed	0.020503962
108	0x39f453df	0.00046601795
109	0x3ba1a63d	0.004933147
110	0x3b1202a3	0.0022279404
111	0x3c4ee26d	0.012627226
112	0xbc6f7280	-0.014614701
113	0x3d8a4cde	0.067529425
114	0x3d128022	0.03576673
115	0xbc3849ef	-0.011248096
116	0xbc10bb19	-0.00883367
117	0xbaacc21c	-0.0013180408
118	0x3c15ef37	0.009151272
119	0xbd6a4cde	-0.057202213
120	0xbd092271	-0.03348011
121	0x3d1bffdb	0.0380858
122	0xbd0ff4ee	-0.035145693
123	0x3c99be46	0.018767487
124	0x3d314df3	0.04328723
125	0x3d10bd1d	0.035336602
126	0x3ca18b97	0.019719882
127	0x3c39d4ea	0.011342267

action_model._discrete_distribution.branches.0.weight f4 [3, 128]
0	0x3d2277e5	0.03966512
1	0xbca4c059	-0.02011125
2	0xbceb8de4	-0.028754182
3	0x3cd4c9a0	0.025975049
4	0x3d2b9ee1	0.041899566
5	0xbd148aee	-0.036265306
6	0x3d1a643e	0.037693255
7	0x3b78eac5	0.003798173
8	0xbc4ac4e4	-0.012376044
9	0x3bea1dfd	0.007144688
10	0xbd83c95a	-0.06434889
11	0x3cf83475	0.030298451
12	0xbd5a6825	-0.053321976
13	0x3d23e31c	0.04001151
14	0x3d712688	0.058874637
15	0xbd321f76	-0.043487035
16	0xbd29ce16	-0.041456304
17	0x3cfbdb6f	0.030744283
18	0x3aa89dff	0.0012864469
19	0xbbe99a8c	-0.007129019
20	0x3b8dd6a8	0.0043285675
21	0x3cc5d966	0.024151515
22	0xbd98d63e	-0.074627385
23	0x3c892f09	0.01674606
24	0x3cdad1c3	0.02671135
25	0xbd25f395	-0.0405155
26	0xbd223501	-0.03960133
27	0x3c72b7d2	0.014814334
28	0xbd26bab3	-0.040705394
29	0xbcb94e65	-0.02262039
30	0xbd1b6cee	-0.03794568
31	0xbce0dd7d	-0.027449364
32	0xbd5b4459	-0.05353198
33	0x3c8a0cbb	0.016851773
34	0x3cd535f0	0.026026696
35	0x3b51cbad	0.003201227
36	0xbcdebcef	-0.0271897
37	0x3cee6d0b	0.02910473
38	0x3bffd02c	0.0078067984
39	0xbcccd00d	-0.02500155
40	0xbc978fda	-0.018501211
41	0x3c92cafb	0.017919054
42	0xbd3c9e95	-0.046049673
43	0xbc1b63e7	-0.009484268
44	0xbc699c17	-0.014258406
45	0x3c81e04e	0.015854027
46	0x3d1a5b7d	0.037684906
47	0x3a49f813	0.00077045074
48	0x3b8885ed	0.004166356
49	0x3bdd21a9	0.0067483974
50	0x3ca57921	0.02019936
51	0xbc165600	-0.009175777
52	0x3d08b568	0.033376127
53	0xbcdb04e7	-0.026735736
54	0xbc515e29	-0.012778797
55	0x3cb40ba1	0.021978201
56	0xbcf8c12c	-0.030365549
57	0xbc41f0bb	-0.01183718
58	0xbcfee703	-0.031116014
59	0xbc16aea6	-0.009196913
60	0xbcfd0f44	-0.030891068
61	0x3d3a28f6	0.04544922
62	0xbd9d8155	-0.07690684
63	0xbc2b3ef3	-0.01045202
64	0x3d21624a	0.039400376
65	0xbcba24c7	-0.022722615
66	0x3d5db535	0.05412789
67	0xbd67bc72	-0.0565762
68	0x3c1b7d53	0.009490329
69	0xbc4af048	-0.012386389
70	0x3d48ed98	0.049054712
71	0x3ce67a1f	0.028134404
72	0xbcb65d1c	-0.022261195
73	0x3c802a38	0.015645131
74	0xbc77492d	-0.01509313
75	0x3c65c7a1	0.014024646
76	0x3d9a3326	0.07529287
77	0xbc5f2329	-0.013619223
78	0x3c80c3c7	0.015718354
79	0xbc3bc33a	-0.01146012
80	0xbc198bf5	-0.009371747
81	0x3a02a9ce	0.00049844093
82	0x3a362597	0.00069483503
83	0x3bcfd8ff	0.0063430066
84	0xbd1d16d6	-0.038351856
85	0xbdbbe0e2	-0.09173752
86	0x3b7c1e18	0.0038470086
87	0x3d1fa9bd	0.038980234
88	0x3d45609d	0.04818784
89	0xbcd930bb	-0.026512494
90	0xbb0d2e94	-0.0021542655
91	0x3cf8eede	0.030387338
92	0xbcefca47	-0.029271258
93	0xbc8a3467	-0.01687069
94	0xbc9c69bd	-0.019093389
95	0x3d3a08e8	0.04541865
96	0x3c211c61	0.009833426
97	0xbc8dc8fb	-0.017307749
98	0x3d3e24d8	0.046421856
99	0xbc82cb2a	-0.015966017
100	0xbc9dd053	-0.019264376
101	0x3b16fc61	0.0023038613
102	0x3cedba43	0.02901948
103	0x3c89fdb0	0.0168446
104	0x3d49e542	0.049290903
105	0xbca3b737	-0.019984825
106	0xbc912458	-0.017717525
107	0x3ddfdf8f	0.10931312
108	0x3c9e5cf9	0.019331442
109	0x3d0cbceb	0.034359854
110	0xbc35c0cb	-0.011093329
111	0xbc2dcac5	-0.010607426
112	0x3c8dc29b	0.01730471
113	0xbda1f146	-0.079073474
114	0xbc849b05	-0.0161872
115	0x3d829341	0.06375743
116	0x3c5f08e7	0.013612962
117	0x3ca4de86	0.020125639
118	0x3cdd831f	0.027040062
119	0x3d15059f	0.036382314
120	0x3b9cd7e1	0.004786477
121	0xbd04d818	-0.032432646
122	0x3ce423e5	0.027849147
123	0xbce1678b	-0.027515193
124	0xbc7c0941	-0.015383066
125	0xbd13ff4d	-0.036132146
126	0xbcf78061	-0.030212583
127	0xbc9033bd	-0.017602796
128	0xbd4105b8	-0.047124594
129	0x3931d934	0.0001696095
130	0x3e05948c	0.13044947
131	0xbb1bb929	-0.0023761487
132	0xbd3e90df	-0.04652488
133	0xbd3e2400	-0.04642105
134	0x3d00bd7b	0.031430703
135	0x3d6fe297	0.058565702
136	0x3dd3408a	0.10315044
137	0x3cf0e464	0.02940578
138	0xbd1e720b	-0.03868298
139	0x3c31234c	0.010811638
140	0xbd24606b	-0.040131014
141	0xb9af3642	-0.00033419026
142	0xbcc589c5	-0.024113545
143	0x3d22f6f4	0.039786294
144	0xbc93d311	-0.01804498
145	0xbded7b9e	-0.11595844
146	0xbda5e80f	-0.08100902
147	0x3db14b5c	0.08656952
148	0x3de06b48	0.10957962
149	0x3d91b591	0.07114709
150	0xbd519bd6	-0.051174007
151	0xbaf91bbf	-0.0019005461
152	0x3d9342a2	0.071904436
153	0xbc4abb13	-0.0123737035
154	0xbaa763a7	-0.0012770788
155	0xbd10c325	-0.035342354
156	0xbdd535ef	-0.10410678
157	0x3daeae6a	0.085293606
158	0xbbd77181	-0.00657481
159	0xbc0cdc62	-0.008597465
160	0x3dcae7c3	0.09907486
161	0x3d625fde	0.055267207
162	0x3d2de31f	0.042452928
163	0x3d016af0	0.031596124
164	0x3dff797f	0.124743454
165	0xbc81fb12	-0.01586679
166	0xbd6b2d12	-0.05741603
167	0x3d2e925e	0.042620055
168	0x3d13b7fe	0.03606414
169	0xbd8dbb63	-0.06920507
170	0xbcd7de6a	-0.026351172
171	0x3b1fcb2b	0.0024382572
172	0x3db69940	0.08915949
173	0x3cd4e0b0	0.025986046
174	0xbca2a40b	-0.019853612
175	0xbd4c787e	-0.049919598
176	0xbb9140f2	-0.004432791
177	0x3d8318b8	0.06401199
178	0xbc196d5a	-0.00936445
179	0xbbf878ea	-0.0075827735
180	0x3d7d3d91	0.061826292
181	0xbd158000	-0.036499023
182	0xbd7d6e25	-0.06187262
183	0xbcbbad38	-0.022909746
184	0xbc43ec54	-0.0119582005
185	0x3d9cb131	0.07650984
186	0xbdc012cd	-0.09378586
187	0xbd0cc46a	-0.034367003
188	0xbd9bc6ed	-0.076063015
189	0xbbef8a0c	-0.0073101576
190	0xbcf5b1c8	-0.029992
191	0xbd527d95	-0.051389296
192	0xbcb6356a	-0.022242267
193	0xbd874ab7	-0.066060476
194	0xbd65e3d7	-0.056125488
195	0xbd855dc9	-0.06512029
196	0x3da2d06f	0.07949912
197	0x3dc04aed	0.09389291
198	0xbd09e6b9	-0.0336673
199	0xbcb15383	-0.021646267
200	0x3d96fcda	0.07372446
201	0x3cd745e8	0.026278451
202	0x3c790b52	0.015200453
203	0x3da80252	0.082035676
204	0xbd8ed23a	-0.06973691
205	0x3c86cfa0	0.016456425
206	0x3d38efbc	0.045150504
207	0x3d936ee0	0.07198882
208	0x3d8edc03	0.06975558
209	0xbc6296ad	-0.013829869
210	0xbdc6ac77	-0.09700864
211	0x3d6cdd72	0.057828374
212	0x3ddf2476	0.10895626
213	0x3c112d3f	0.008860885
214	0x3d4c7225	0.049913544
215	0x3cf19dcd	0.02949419
216	0xbb98791a	-0.0046531083
217	0x3da9ecd7	0.08297127
218	0x3dc714e0	0.097207785
219	0x3d82fa18	0.06395358
220	0xbd94fcb8	-0.07274765
221	0xbe1273b8	-0.14301956
222	0xbd4ca7bc	-0.04996465
223	0xbd232b1a	-0.039836027
224	0xbcccae2d	-0.024985397
225	0x3cde7d3e	0.02715933
226	0xbd340bad	-0.043956447
227	0x3b8212d4	0.0039695296
228	0xbdb29b24	-0.08720997
229	0xbd80ea2d	-0.062946655
230	0xbdbc1025	-0.09182767
231	0x3ce49d93	0.027907168
232	0xbd3fc642	-0.046819933
233	0xbda194fc	-0.07889745
234	0xbd74add6	-0.059736095
235	0xbd516878	-0.05112502
236	0x3d918129	0.071047135
237	0xbcf0cf95	-0.029395858
238	0xbb0c616e	-0.0021420377
239	0xbd0bc870	-0.0341267
240	0x3d607a3e	0.05480408
241	0xbcd734ae	-0.026270237
242	0xbda27a91	-0.07933534
243	0xbd622bd6	-0.055217586
244	0x3d459d16	0.048245512
245	0x3db3ca8c	0.08778867
246	0x3bcac67d	0.0061882124
247	0x3cbbea94	0.022939004
248	0x3ce694df	0.02814716
249	0x3d5385d1	0.05164129
250	0xbb7c3351	-0.0038482735
251	0x3c36d7d9	0.0111598605
252	0x3dcad9fd	0.09904859
253	0xbc2c2f63	-0.010509345
254	0x3cc9cf54	0.024634995
255	0x3d324332	0.043521114

action_model._discrete_distribution.branches.0.bias f4 [3]
0	0xbcefbec9	-0.029265778
1	0x3c4e2b5b	0.012583579
2	0x3c97c4a3	0.01852638

exp_avg f4 [128, 24]
0	0xb98462b7	-0.0002525055
1	0xb8e6307d	-0.00010976286
2	0xbae974a0	-0.0017811246
3	0x3840a7a8	4.593251e-05
4	0x39ff41d6	0.00048686442
5	0xbb006cbd	-0.0019596063
6	0xba00249e	-0.0004888269
7	0x33ccd7e1	9.5387584e-08
8	0x399b9982	0.00029678276
9	0xba4184ae	-0.00073821365
10	0xb8e6307d	-0.00010976286
11	0xbad9ad3c	-0.0016607414
12	0xb9835e48	-0.00025056512
13	0xb7e67706	-2.7473561e-05
14	0xbadef0d9	-0.0017009034
15	0x377ed340	1.5188765e-05
16	0x39b8ae33	0.00035225003
17	0xbaf7be1a	-0.0018901259
18	0xb945fa23	-0.00018880567
19	0x34d5a242	3.97924e-07
20	0x39d56a43	0.00040705697
21	0xba460225	-0.000755342
22	0xb7e67706	-2.7473561e-05
23	0xbad49434	-0.0016218484
24	0xb9c9165a	-0.0003835436
25	0xb94f8dcb	-0.0001979388
26	0x39bf8f1a	0.00036536978
27	0x378ebaa0	1.7014623e-05
28	0xba80fdaa	-0.0009841223
29	0xb9c65452	-0.00037828326
30	0x3aa16ad1	0.0012315159
31	0x35b489b5	1.3451123e-06
32	0x39c65adc	0.00037833198
33	0xbba43aff	-0.0050119157
34	0xb94f8dcb	-0.0001979388
35	0x3acb1d0e	0.001549633
36	0xb9c89afe	-0.0003826245
37	0xb7d0c4ad	-2.4887117e-05
38	0xb8c48178	-9.370124e-05
39	0x38e5074c	0.0001092093
40	0xba30fd51	-0.0006751614
41	0xb96e53dc	-0.00022728689
42	0x39650cd2	0.00021843918
43	0xb558160c	-8.0498353e-07
44	0x3aba3ba5	0.0014208449
45	0xbba2d8f8	-0.0049697123
46	0xb7d0c4ad	-2.4887117e-05
47	0x3ada39f0	0.0016649347
48	0x3a61d430	0.0008614687
49	0x390c9733	0.00013407767
50	0x3a4aef89	0.0007741382
51	0x396d3f59	0.0002262568
52	0x393f7d02	0.00018261748
53	0x3a583001	0.0008246899
54	0x3a7bfd77	0.00096126593
55	0x33c87602	9.334691e-08
56	0xb8ec51db	-0.00011268604
57	0x38489804	4.782529e-05
58	0x390c9733	0.00013407767
59	0x389ef785	7.580131e-05
60	0x3a62c150	0.00086500216
61	0x377a4892	1.4918058e-05
62	0x3a50af64	0.00079607056
63	0x39ad93b0	0.00033107167
64	0x390699a5	0.00012836473
65	0x3a51fbd2	0.00080102414
66	0x3a75ac12	0.0009371649
67	0x348ae026	2.5867593e-07
68	0xb9339783	-0.00017127213
69	0x38333152	4.272286e-05
70	0x377a4892	1.4918058e-05
71	0x382525ae	3.9374157e-05
72	0x3a240ea0	0.0006258283
73	0xb9466dae	-0.0001892361
74	0x385354b0	5.038519e-05
75	0x3a9e6e2c	0.0012087277
76	0xb9c563e0	-0.0003764918
77	0xb9391efa	-0.00017654515
78	0xb9f5230c	-0.00046756153
79	0x352a32c8	6.340383e-07
80	0xb9c9939d	-0.00038447688
81	0xbb1f68f3	-0.002432403
82	0xb9466dae	-0.0001892361
83	0x3a52cb42	0.0008041152
84	0x3a2ab29b	0.00065115996
85	0xb80390d2	-3.136771e-05
86	0xb8952fc0	-7.113768e-05
87	0x3a8d7779	0.0010793052
88	0xb98273f5	-0.00024881927
89	0xb93e2e8c	-0.00018137152
90	0xba940008	-0.0011291513
91	0xb3b2d430	-8.3273676e-08
92	0x3a1572bf	0.00057009974
93	0xbb1ff9a8	-0.0024410281
94	0xb80390d2	-3.136771e-05
95	0x3a64510d	0.0008709587
96	0xb8e419e2	-0.00010876708
97	0xb902db47	-0.00012479453
98	0xba2abd31	-0.0006513177
99	0x3a8df9a1	0.0010831842
100	0xb95bc1b4	-0.00020957628
101	0xbab1adcc	-0.0013555824
102	0x39d1f611	0.0004004692
103	0x35884f8a	1.0155939e-06
104	0xb9d5b6a2	-0.00040762598
105	0xbb84b9d5	-0.004050473
106	0xb902db47	-0.00012479453
107	0x3a202edd	0.0006110499
108	0xb8430ae8	-4.650178e-05
109	0xb8071d48	-3.221378e-05
110	0xba899001	-0.0010495187
111	0x3a8e1268	0.0010839226
112	0xb8e877f8	-0.00011084968
113	0xbab1cd99	-0.0013565301
114	0xb9279642	-0.00015982336
115	0x3390b4c0	6.738401e-08
116	0x3a212186	0.0006146658
117	0xbb860338	-0.004089739
118	0xb8071d48	-3.221378e-05
119	0x3a293b4a	0.0006455673
120	0xba0e470e	-0.0005427458
121	0x39272ba8	0.00015942624
122	0x39f2af9e	0.00046288682
123	0x3a598828	0.0008298182
124	0xb965aa00	-0.00021902472
125	0x39d6f098	0.00040996517
126	0xb8ea70ce	-0.00011179001
127	0x3508b854	5.093218e-07
128	0xb89016a0	-6.870669e-05
129	0xbb0f1eb9	-0.002183838
130	0x39272ba8	0.00015942624
131	0x3acc514f	0.0015588197
132	0xb9af770f	-0.00033467307
133	0xb5e91120	-1.7364837e-06
134	0x39418914	0.0001845698
135	0x3a4b25cc	0.00077494676
136	0xb87d2bd8	-6.0360733e-05
137	0x39e45728	0.00043552485
138	0xb9bb8bc4	-0.00035771553
139	0xb31154b8	-3.3837495e-08
140	0x394bbf6e	0.00019430902
141	0xbb1a9b74	-0.0023591192
142	0xb5e91120	-1.7364837e-06
143	0x3acd694e	0.0015671642
144	0x386d1d15	5.6532288e-05
145	0xb828fe6f	-4.029128e-05
146	0xb9ff4a92	-0.0004869295
147	0xb89632f9	-7.162052e-05
148	0xb88ac5f2	-6.617223e-05
149	0xb9f75982	-0.000471782
150	0xb9a2fbc5	-0.0003108663
151	0xb385ff76	-6.239763e-08
152	0xb5991c20	-1.1407574e-06
153	0x3864b568	5.4528384e-05
154	0xb828fe6f	-4.029128e-05
155	0xb99a8a5c	-0.00029476255
156	0x3881dd2a	6.192394e-05
157	0xb6c818b4	-5.9633403e-06
158	0xb9edfb62	-0.00045391457
159	0xb8d931d9	-0.00010356651
160	0xb8344a82	-4.2984735e-05
161	0xb9f93782	-0.00047534338
162	0xb9939da6	-0.00028155482
163	0xb399cd89	-7.162004e-08
164	0xb819c560	-3.6661862e-05
165	0x384ce666	4.8851965e-05
166	0xb6c818b4	-5.9633403e-06
167	0xb99c4407	-0.00029805323
168	0xbb18310b	-0.0023222591
169	0x3958c330	0.00020672078
170	0x3a24b2d2	0.000628275
171	0x3a10278c	0.0005499057
172	0xb9682e47	-0.00022142484
173	0x388bf678	6.673945e-05
174	0x3a9e5960	0.0012081079
175	0x3606e2ac	2.0099496e-06
176	0xb6ad6dc0	-5.1685784e-06
177	0xbb829843	-0.003985436
178	0x3958c330	0.00020672078
179	0x3b369aa1	0.0027863162
180	0xbb13ac5b	-0.0022533152
181	0xb7b945f8	-2.20863e-05
182	0x3a3164a4	0.0006767011
183	0x3a166c7e	0.00057382125
184	0xb97bf507	-0.00024028505
185	0x39096e29	0.00013106376
186	0xb9e31d6d	-0.00043318738
187	0xb52b599d	-6.383287e-07
188	0x3a7e2f48	0.00096963765
189	0xbb84ea65	-0.0040562623
190	0xb7b945f8	-2.20863e-05
191	0x3b3b737e	0.0028602774
192	0xba5ed2da	-0.0008500047
193	0xb9c6bc50	-0.00037905807
194	0x399c3bf0	0.00029799296
195	0x3ae23a17	0.0017259744
196	0xba2d68ba	-0.0006615032
197	0xb9ed50c8	-0.0004526435
198	0x35e8ef40	1.7354978e-06
199	0x355dee8a	8.2676036e-07
200	0xba3eb838	-0.00072753755
201	0xbb4d0b34	-0.0031287195
202	0xb9c6bc50	-0.00037905807
203	0x3aa9533e	0.0012918485
204	0xba5a1489	-0.00083191
205	0xb846dd82	-4.7413174e-05
206	0x38b53828	8.6412125e-05
207	0x3ad704f2	0.0016404672
208	0xb9d5c0ac	-0.00040770078
209	0xb9f00b40	-0.0004578475
210	0xba4bd011	-0.000777484
211	0xb45556cf	-1.9868752e-07
212	0x3a2430ee	0.00062633946
213	0xbb4bee9b	-0.0031117562
214	0xb846dd82	-4.7413174e-05
215	0x3ab3fcba	0.0013731935
216	0x39e73ca4	0.00044104934
217	0xb84664be	-4.7300702e-05
218	0x393305a2	0.00017072869
219	0x3a67d565	0.0008843749
220	0xb859e32f	-5.1948413e-05
221	0x394253d5	0.00018532512
222	0xb98379bb	-0.00025076963
223	0x34d3d1a1	3.9454338e-07
224	0xb96bb825	-0.00022479946
225	0xb9ca3e9e	-0.00038575096
226	0xb84664be	-4.7300702e-05
227	0x3a29472a	0.00064574427
228	0x39ec9854	0.0004512692
229	0x34f5f8b8	4.5815773e-07
230	0x39333da0	0.00017093727
231	0x3a55e99d	0.0008160116
232	0xb859edae	-5.1958188e-05
233	0x3928b9d8	0.0001609096
234	0xba068d56	-0.0005132755
235	0x33c2f88c	9.0790394e-08
236	0x393b7fef	0.00017881369
237	0xb9c937f5	-0.000383794
238	0x34f5f8b8	4.5815773e-07
239	0x3a2bc700	0.00065527856
240	0xba06c9cb	-0.0005141764
241	0xb8a9193c	-8.063248e-05
242	0xba3d0dcd	-0.00072118343
243	0x39f61052	0.00046932936
244	0xb8ac7f31	-8.2252904e-05
245	0xba0a3823	-0.0005272647
246	0xba2ffc66	-0.00067133305
247	0x34ca3d25	3.766992e-07
248	0x37a37950	1.9487605e-05
249	0xba60bbad	-0.0008572888
250	0xb8a9193c	-8.063248e-05
251	0xb98f1fdc	-0.00027298823
252	0xba0f2b4f	-0.00054614706
253	0xb6088f56	-2.0349012e-06
254	0xba398d7e	-0.0007078274
255	0x39b65770	0.0003477889

exp_avg_sq f4 [128, 24]
0	0x376736ea	1.3781459e-05
1	0x3596355b	1.1191399e-06
2	0x378e353e	1.6952512e-05
3	0x37840217	1.57366e-05
4	0x37283ba1	1.0027464e-05
5	0x37867f52	1.6033333e-05
6	0x37a1fbb7	1.930991e-05
7	0x2ca94ad6	4.8115774e-12
8	0x36d3b27a	6.3090674e-06
9	0x3785d9e3	1.5956297e-05
10	0x3596355b	1.1191399e-06
11	0x37838317	1.567746e-05
12	0x3763ea65	1.3584829e-05
13	0x318e5ecb	4.1435206e-09
14	0x378bbf10	1.6659062e-05
15	0x3787e16a	1.619822e-05
16	0x364feb8a	3.0982505e-06
17	0x37830375	1.5618027e-05
18	0x37a0fa53	1.9190053e-05
19	0x2caa6299	4.842637e-12
20	0x36e468f1	6.8071463e-06
21	0x378431fe	1.5758906e-05
22	0x318e5ecb	4.1435206e-09
23	0x378135f8	1.540313e-05
24	0x3859f051	5.1960644e-05
25	0x3546e523	7.4094186e-07
26	0x387cf19a	6.030649e-05
27	0x3852d533	5.026646e-05
28	0x37d04c05	2.4830932e-05
29	0x382985e5	4.041744e-05
30	0x389587ca	7.130166e-05
31	0x2dd5fb72	2.432696e-11
32	0x3782cfeb	1.5594027e-05
33	0x3866c59f	5.5020322e-05
34	0x3546e523	7.4094186e-07
35	0x383f2304	4.557056e-05
36	0x3856a9db	5.1179766e-05
37	0x327bacb2	1.4649389e-08
38	0x38838dc5	6.2729734e-05
39	0x387163e3	5.7551904e-05
40	0x3670fad4	3.5908788e-06
41	0x381e4ca5	3.7741516e-05
42	0x3891c29a	6.950386e-05
43	0x2d5436b9	1.2062956e-11
44	0x37850334	1.5856327e-05
45	0x38634848	5.4188335e-05
46	0x327bacb2	1.4649389e-08
47	0x38428bc5	4.6383375e-05
48	0x36c0508f	5.731424e-06
49	0x34e67bc1	4.293088e-07
50	0x37021aef	7.754875e-06
51	0x3705388a	7.940582e-06
52	0x35728cb2	9.0356764e-07
53	0x36cde1b7	6.1357528e-06
54	0x36ef8e60	7.1393297e-06
55	0x2ba2b78f	1.156174e-12
56	0x366f41a2	3.5651979e-06
57	0x36ae5a65	5.1961274e-06
58	0x34e67bc1	4.293088e-07
59	0x36b788b2	5.4697384e-06
60	0x36bd940d	5.6498743e-06
61	0x30e034a7	1.631311e-09
62	0x36fa06a2	7.4513528e-06
63	0x370e5424	8.48345e-06
64	0x350eedf5	5.3245395e-07
65	0x36c3c64c	5.8345377e-06
66	0x36ebf19c	7.031673e-06
67	0x2bba2d01	1.3228586e-12
68	0x36738308	3.6286092e-06
69	0x36ac2b62	5.13105e-06
70	0x30e034a7	1.631311e-09
71	0x36b8fa5a	5.512772e-06
72	0x37dd91aa	2.6413083e-05
73	0x357b4186	9.3600136e-07
74	0x3812ea8a	3.5027544e-05
75	0x3816d20c	3.595841e-05
76	0x35d92f31	1.6181494e-06
77	0x37f875a0	2.9618677e-05
78	0x381dfb39	3.7665686e-05
79	0x2c87fe9c	3.865198e-12
80	0x375b82fe	1.3083916e-05
81	0x37d6b7e3	2.5596417e-05
82	0x357b4186	9.3600136e-07
83	0x37cf558c	2.4716159e-05
84	0x37d9dc2d	2.5970943e-05
85	0x320ed770	8.314473e-09
86	0x38143d30	3.5342935e-05
87	0x3822e21a	3.8834383e-05
88	0x358f1dc2	1.0662991e-06
89	0x37dea7cb	2.6542597e-05
90	0x381c21ba	3.722471e-05
91	0x2c9cedc1	4.4601827e-12
92	0x375d6979	1.3197184e-05
93	0x37d3960c	2.5223031e-05
94	0x320ed770	8.314473e-09
95	0x37ce62df	2.4603154e-05
96	0x37e591fe	2.736691e-05
97	0x3591b9a9	1.0857376e-06
98	0x3802a320	3.1146337e-05
99	0x380652de	3.2025266e-05
100	0x35fa0bf5	1.8629931e-06
101	0x37dc60f3	2.627119e-05
102	0x3828a81d	4.021089e-05
103	0x2c9e50df	4.4996086e-12
104	0x3720378e	9.549678e-06
105	0x38093a7c	3.2717813e-05
106	0x3591b9a9	1.0857376e-06
107	0x37d6b47d	2.5594834e-05
108	0x37e226bc	2.6959337e-05
109	0x32104723	8.398078e-09
110	0x3806256f	3.1982952e-05
111	0x3818b841	3.6411224e-05
112	0x35a03053	1.1934993e-06
113	0x37ca0700	2.4083536e-05
114	0x381fef05	3.813116e-05
115	0x2c885601	3.874901e-12
116	0x372ad0e3	1.0181425e-05
117	0x380716e2	3.220782e-05
118	0x32104723	8.398078e-09
119	0x37d7b514	2.5714318e-05
120	0x37ee49c0	2.8406153e-05
121	0x3721ab2c	9.636202e-06
122	0x38541ed5	5.0573453e-05
123	0x381d859b	3.7556147e-05
124	0x375f76c6	1.331949e-05
125	0x37fcd240	3.0138646e-05
126	0x382f35fc	4.177353e-05
127	0x2cc9c400	5.734524e-12
128	0x372a7ebf	1.01623e-05
129	0x37f13f07	2.8758788e-05
130	0x3721ab2c	9.636202e-06
131	0x37dd2591	2.6362746e-05
132	0x37edc42f	2.8343957e-05
133	0x32142add	8.62448e-09
134	0x38557c86	5.089913e-05
135	0x382b19ba	4.0793537e-05
136	0x372b7268	1.02190315e-05
137	0x37ebb7e0	2.8099807e-05
138	0x382bdc5e	4.097481e-05
139	0x2d17cfb2	8.629474e-12
140	0x373442f0	1.0744421e-05
141	0x37f289a9	2.8912751e-05
142	0x32142add	8.62448e-09
143	0x37d88cae	2.5814716e-05
144	0x35582256	8.0516236e-07
145	0x329e3c3e	1.8421016e-08
146	0x35ab4700	1.2761157e-06
147	0x3593eedd	1.1021872e-06
148	0x33234cf2	3.8021376e-08
149	0x35a0523b	1.1944861e-06
150	0x358e9e6e	1.0625934e-06
151	0x2a0702ee	1.1991425e-13
152	0x34da3334	4.064292e-07
153	0x35590799	8.0849856e-07
154	0x329e3c3e	1.8421016e-08
155	0x35466387	7.390558e-07
156	0x3554c8e3	7.9268483e-07
157	0x2f81b599	2.3593996e-10
158	0x35aeb219	1.3015843e-06
159	0x3597959d	1.129392e-06
160	0x32b56d3f	2.1120853e-08
161	0x359dcbfd	1.175678e-06
162	0x35896686	1.0237134e-06
163	0x2a11f61a	1.2963971e-13
164	0x34e1088a	4.191573e-07
165	0x355572be	7.9515655e-07
166	0x2f81b599	2.3593996e-10
167	0x35470285	7.4136943e-07
168	0x389fe0a2	7.623552e-05
169	0x360961de	2.0471557e-06
170	0x38c0cfa7	9.193952e-05
171	0x389e6002	7.55191e-05
172	0x378958bd	1.6372995e-05
173	0x386b1313	5.604613e-05
174	0x38d7984b	0.00010280366
175	0x2de57552	2.6086387e-11
176	0x37bab161	2.2255526e-05
177	0x388266db	6.2180414e-05
178	0x360961de	2.0471557e-06
179	0x38a2db18	7.765571e-05
180	0x389db69e	7.5203585e-05
181	0x32b418fe	2.0966123e-08
182	0x38c22530	9.2575676e-05
183	0x38b23f05	8.49944e-05
184	0x368749c1	4.0318996e-06
185	0x38550197	5.0784638e-05
186	0x38d1923d	9.9931356e-05
187	0x2d69581c	1.3264081e-11
188	0x37c05482	2.2927536e-05
189	0x3880aad6	6.135336e-05
190	0x32b418fe	2.0966123e-08
191	0x38a7ac86	7.9953155e-05
192	0x37e0e422	2.6809113e-05
193	0x34f73e5b	4.6052705e-07
194	0x38442925	4.676836e-05
195	0x381d57d8	3.7513528e-05
196	0x368cc604	4.195377e-06
197	0x38031219	3.124969e-05
198	0x381b6b49	3.7054797e-05
199	0x2d0c6d02	7.982283e-12
200	0x3767c2e5	1.381405e-05
201	0x37e0ccd4	2.6798261e-05
202	0x34f73e5b	4.6052705e-07
203	0x37cb997e	2.4270961e-05
204	0x37dd6cc1	2.6395895e-05
205	0x3214d624	8.663424e-09
206	0x38404f9f	4.585052e-05
207	0x3826fb59	3.981157e-05
208	0x352d5de1	6.4584134e-07
209	0x37e82b20	2.7676637e-05
210	0x3816819f	3.5883506e-05
211	0x2cc435c0	5.5766225e-12
212	0x376c657f	1.4090328e-05
213	0x37dd78e9	2.6401556e-05
214	0x3214d624	8.663424e-09
215	0x37ce0a5f	2.4561943e-05
216	0x36c38580	5.8269943e-06
217	0x34bd1ea6	3.5226293e-07
218	0x36d79561	6.4248893e-06
219	0x36c2f4b7	5.810139e-06
220	0x35077a93	5.046979e-07
221	0x36c8e7a6	5.987432e-06
222	0x37151ef8	8.888303e-06
223	0x2b4b60e5	7.2254556e-13
224	0x35f971c6	1.8585058e-06
225	0x36d65c2d	6.3884277e-06
226	0x34bd1ea6	3.5226293e-07
227	0x36b8d8c2	5.5088612e-06
228	0x36c0c331	5.744769e-06
229	0x30edb3a3	1.7295075e-09
230	0x36d3b6ac	6.309556e-06
231	0x36cd925b	6.126514e-06
232	0x34c6702e	3.6961995e-07
233	0x36b731da	5.4596285e-06
234	0x3712d6d8	8.7523e-06
235	0x2b5730f5	7.6451286e-13
236	0x35fdd64e	1.891234e-06
237	0x36d38bc6	6.304562e-06
238	0x30edb3a3	1.7295075e-09
239	0x36b72549	5.4581656e-06
240	0x36e3d91f	6.7904034e-06
241	0x3566fb2b	8.6047174e-07
242	0x373336c5	1.0681983e-05
243	0x3721b625	9.638757e-06
244	0x3599bf0b	1.1454989e-06
245	0x36e7379d	6.8908107e-06
246	0x371bb4e9	9.280841e-06
247	0x2bb44493	1.2808802e-12
248	0x363c04ff	2.8017091e-06
249	0x36f19501	7.199706e-06
250	0x3566fb2b	8.6047174e-07
251	0x36d85482	6.4471396e-06
252	0x36e1969f	6.723057e-06
253	0x31039763	1.9149062e-09
254	0x372f58a8	1.0451455e-05
255	0x372dc35c	1.0357089e-05

exp_avg f4 [128]
0	0xbacbbe1c	-0.0015544328
1	0xbab88fcc	-0.0014080941
2	0x3a5d436a	0.00084405264
3	0xbae89f1c	-0.0017747614
4	0xbaeee55c	-0.0018226313
5	0xb8ce0ae8	-9.824877e-05
6	0xb9b0e53b	-0.00033740126
7	0xbaa3ca81	-0.0012496264
8	0xbb2fce97	-0.0026826018
9	0x37d97372	2.5922174e-05
10	0xb8f17382	-0.000115132905
11	0x37e75740	2.7577975e-05
12	0xba957932	-0.0011403917
13	0x3a96a542	0.0011493342
14	0xba0acacf	-0.0005294503
15	0xb82e1c53	-4.151121e-05
16	0x394dbeaa	0.00019621351
17	0xbb0c659b	-0.0021422866
18	0xba0a9f68	-0.00052880356
19	0x3b034729	0.0020031428
20	0x39a1eab2	0.00030883175
21	0x39d1ba08	0.0004000219
22	0x3ab4871c	0.0013773176
23	0xbb8b6766	-0.0042542694
24	0x3b2b6f62	0.0026158919
25	0x3a50cccb	0.0007965087
26	0xba888c0b	-0.0010417713
27	0xbb06d2bf	-0.0020572392
28	0xb9dade35	-0.00041745757
29	0xbae94fb5	-0.0017800244
30	0x3b12854a	0.0022357279
31	0x3b03b6ff	0.0020098088
32	0xb923162f	-0.00015553155
33	0x39e74158	0.00044108438
34	0xbb8b1bc6	-0.004245254
35	0x3aab44e6	0.0013066798
36	0xb99f85f7	-0.00030426655
37	0xb9edf588	-0.00045387098
38	0xba094b5c	-0.00052373647
39	0xba983044	-0.0011611064
40	0xbae2dfa6	-0.0017309084
41	0x3a210984	0.00061430805
42	0xba5901bc	-0.00082781515
43	0xb8c0b160	-9.188312e-05
44	0x3b90d620	0.004420057
45	0x39ab12a8	0.00032629562
46	0x39ef3fe4	0.00045633235
47	0x3ae959b4	0.0017803223
48	0x3a9709f3	0.0011523351
49	0x3a87b4bf	0.0010353549
50	0x3af5c982	0.0018752071
51	0x39601fd0	0.00021374156
52	0x398fe9f2	0.00027449388
53	0x3a85ac34	0.0010198415
54	0x3add5407	0.0016886004
55	0x3b8a1177	0.0042135078
56	0x391f646e	0.00015200835
57	0x3b0556a5	0.0020345834
58	0xbb0d5567	-0.0021565796
59	0xb981de7a	-0.00024770555
60	0xb962bd6e	-0.00021623608
61	0xba177e7e	-0.00057790417
62	0x3a073c07	0.0005158786
63	0xb9cede9f	-0.00039457247
64	0x3a9dcb49	0.0012038733
65	0xbaaf14b4	-0.001335761
66	0x3ae34a65	0.0017340897
67	0xbb433971	-0.0029788876
68	0x3b10b904	0.0022082934
69	0xb92ffadc	-0.00016782753
70	0xbba97656	-0.0051715774
71	0x39880438	0.00025943085
72	0x3ab54865	0.0013830779
73	0x3bb12c91	0.005406924
74	0x3b734a42	0.0037123119
75	0xbbac5cc5	-0.0052600824
76	0xba807e58	-0.0009803278
77	0x3928475c	0.00016048312
78	0xbbbf2a5c	-0.005833907
79	0xbab32fc8	-0.0013670856
80	0xba7b766c	-0.00095925364
81	0xb9cfd7c1	-0.00039642866
82	0xba3b9f04	-0.0007157179
83	0x3ac5de58	0.0015096171
84	0x3a4185c0	0.0007382296
85	0xb9ec0c49	-0.0004502258
86	0xb9a14abf	-0.00030764003
87	0x3b2733ce	0.0025513056
88	0xba2996ad	-0.0006469291
89	0x3ba94194	0.005165288
90	0xba79b89c	-0.0009526105
91	0xba5be6f7	-0.00083886035
92	0x3b18ed52	0.0023334813
93	0x3975ddea	0.0002344769
94	0x3a0d575e	0.0005391742
95	0x39c9b112	0.00038469635
96	0xba14ad5d	-0.0005671585
97	0xb96ecc54	-0.00022773567
98	0xb93a3cf0	-0.00017761043
99	0xbb13e145	-0.002256469
100	0xb82c87ce	-4.1134474e-05
101	0xbaca0974	-0.0015414194
102	0x3a7b71cb	0.00095918466
103	0xba6a39a8	-0.0008934983
104	0xb8743c78	-5.823045e-05
105	0xbb4299dc	-0.0029693758
106	0xbb0bd88e	-0.0021338793
107	0xbb010e9a	-0.001969254
108	0x394e5090	0.00019675703
109	0x3ab33c59	0.0013674601
110	0x3a2bb480	0.0006550029
111	0x3a13139c	0.0005610527
112	0x3b65314f	0.0034972017
113	0x3a66f5e5	0.0008810445
114	0x3a830f60	0.0009999089
115	0x3abe3cd3	0.0014513977
116	0xba8eaf79	-0.0010886035
117	0x3aa555fa	0.0012614124
118	0xbacb1042	-0.0015492516
119	0x3a48cbd9	0.000765977
120	0xb885e0cc	-6.383806e-05
121	0x3a6e23a9	0.0009084293
122	0xb92d3fc4	-0.0001652232
123	0xb91b2893	-0.00014797067
124	0xbb069dc0	-0.0020540804
125	0x39dfc436	0.00042680063
126	0x3a0544b8	0.0005083787
127	0x396fb04f	0.00022858496
