Assets/trining/results/Test/AgentTest/AgentTest-28404.pt (torch, 498871 bytes, 41 tensors)

network_body.observation_encoder.processors.0.normalizer.running_mean f4 [24]
000000 00 00 d4 b4 7a a7 3c 40 9f 43 13 c0 1e 6e 23 c1
       -3.9488077e-07 2.947722 -2.3010023 -10.214384
000010 7a a7 bc 3f cf 4a 9a 3f fd ed 85 c0 00 00 00 00
       1.473861 1.205408 -4.1853013 0.0
000020 06 03 21 3e 00 00 d4 34 7a a7 3c 40 a1 43 13 c0
       0.1572381 3.9488077e-07 2.947722 -2.3010027
000030 00 00 58 b4 34 fe 3f 40 38 a8 15 c0 02 37 2a c1
       -2.0116568e-07 2.9998903 -2.3383923 -10.63843
000040 34 fe bf 3f 8c 1f 9c 3f 49 32 8b c0 00 00 00 00
       1.4999452 1.2197127 -4.3498883 0.0
000050 65 84 0d 3e 00 00 58 34 34 fe 3f 40 34 a8 15 c0
       0.13820036 2.0116568e-07 2.9998903 -2.3383913

network_body.observation_encoder.processors.0.normalizer.running_variance f4 [24]
000000 1a f9 32 4c eb d2 88 45 f8 74 09 4a d8 e7 77 4b
       4.691671e+07 4378.3647 2.252094e+06 1.6246744e+07
000010 eb ea 88 44 75 b8 64 4a 19 9c ea 4a 00 00 80 3f
       1095.3412 3.7473572e+06 7.6876925e+06 1.0
000020 21 3b fd 4a 1a f9 32 4c eb d2 88 45 fb 74 09 4a
       8.2978725e+06 4.691671e+07 4378.3647 2.2520948e+06
000030 11 24 36 4c a2 fe 1f 41 af 03 0c 4a 42 a9 82 4b
       4.774714e+07 9.999666 2.2939958e+06 1.712602e+07
000040 a2 fe 4f 40 30 4b 68 4a b6 42 ee 4a 00 00 80 3f
       3.2499166 3.8059e+06 7.807323e+06 1.0
000050 ef 5f 00 4b 11 24 36 4c a2 fe 1f 41 aa 03 0c 4a
       8.413167e+06 4.774714e+07 9.999666 2.2939945e+06

network_body.processors.0.normalizer.running_mean f4 [24]
000000 00 00 d4 b4 7a a7 3c 40 9f 43 13 c0 1e 6e 23 c1
       -3.9488077e-07 2.947722 -2.3010023 -10.214384
000010 7a a7 bc 3f cf 4a 9a 3f fd ed 85 c0 00 00 00 00
       1.473861 1.205408 -4.1853013 0.0
000020 06 03 21 3e 00 00 d4 34 7a a7 3c 40 a1 43 13 c0
       0.1572381 3.9488077e-07 2.947722 -2.3010027
000030 00 00 58 b4 34 fe 3f 40 38 a8 15 c0 02 37 2a c1
       -2.0116568e-07 2.9998903 -2.3383923 -10.63843
000040 34 fe bf 3f 8c 1f 9c 3f 49 32 8b c0 00 00 00 00
       1.4999452 1.2197127 -4.3498883 0.0
000050 65 84 0d 3e 00 00 58 34 34 fe 3f 40 34 a8 15 c0
       0.13820036 2.0116568e-07 2.9998903 -2.3383913

network_body.processors.0.normalizer.running_variance f4 [24]
000000 1a f9 32 4c eb d2 88 45 f8 74 09 4a d8 e7 77 4b
       4.691671e+07 4378.3647 2.252094e+06 1.6246744e+07
000010 eb ea 88 44 75 b8 64 4a 19 9c ea 4a 00 00 80 3f
       1095.3412 3.7473572e+06 7.6876925e+06 1.0
000020 21 3b fd 4a 1a f9 32 4c eb d2 88 45 fb 74 09 4a
       8.2978725e+06 4.691671e+07 4378.3647 2.2520948e+06
000030 11 24 36 4c a2 fe 1f 41 af 03 0c 4a 42 a9 82 4b
       4.774714e+07 9.999666 2.2939958e+06 1.712602e+07
000040 a2 fe 4f 40 30 4b 68 4a b6 42 ee 4a 00 00 80 3f
       3.2499166 3.8059e+06 7.807323e+06 1.0
000050 ef 5f 00 4b 11 24 36 4c a2 fe 1f 41 aa 03 0c 4a
       8.413167e+06 4.774714e+07 9.999666 2.2939945e+06

network_body._body_endoder.seq_layers.0.weight f4 [128, 24]
000000 e1 ec 02 3c 03 5a 7d 3d 88 39 33 be 22 9a bd bd
       0.007991047 0.06185342 -0.17502415 -0.09257914
000010 ae a1 6d 3d a5 45 9d bd 02 2d da 3d b0 0e b5 3d
       0.058015518 -0.07679299 0.10653116 0.08840692
000020 2c eb 40 3e 00 c2 16 3e ca 22 b2 3d 4d f7 b4 bd
       0.18839711 0.14722443 0.08698042 -0.088362314
000030 f0 27 30 be 4b 0e c7 3d b3 a1 c9 3d d5 96 84 be
       -0.17202735 0.09719523 0.09845295 -0.25896326
000040 ed 65 24 3d dd a1 ef bd 42 ac 11 3e 7d 39 8c 3e
       0.040136266 -0.11700795 0.14225867 0.2738761
000050 75 c6 be 3e 53 17 18 3d 59 11 75 3e 00 de 13 3e
       0.37260786 0.03713162 0.23932399 0.14440155
000060 f4 bb c9 3d 50 b8 ff bd dd 24 0b be 95 c6 94 be
       0.09850302 -0.12486327 -0.13588281 -0.29057756
000070 3b 9c 20 3e d2 3f cc bc 01 14 21 bd e0 44 7c be
       0.15684597 -0.024932776 -0.039325718 -0.24635649
000080 5d d5 b8 3e 00 f6 9b be 25 8d ae 3d 19 5c 11 3e
       0.36100283 -0.3046112 0.08523015 0.14195289
000090 dc f3 6d 3e d0 1b 99 3d 5d 3b 29 3d 69 4e d1 be
       0.23237556 0.07476008 0.04131638 -0.40880135
0000a0 c5 66 14 3f 9a 8d 41 3e 40 17 47 be eb 4c 22 3d
       0.57969314 0.18901673 -0.19442463 0.039624136
0000b0 7c 1e a0 3d 97 aa b0 3d dd a1 f3 bd 5c 6d 39 be
       0.078183144 0.086262874 -0.11896107 -0.18108124
0000c0 6b 2c 69 be 92 00 37 3e cd 2a 84 3d 08 94 dc bd
       -0.2277085 0.17871311 0.06453476 -0.10770422
0000d0 3e 7f 2a be 84 cc a2 bd b6 46 bd bd e0 d8 7d bd
       -0.16650102 -0.079491645 -0.09242003 -0.061974406
0000e0 a6 d3 34 be a8 36 c6 bd d4 d4 7c 3b 61 a9 1b be
       -0.17658862 -0.096783936 0.0038579004 -0.15201332
0000f0 ef 25 a1 bd a0 b6 9e 3c d7 d8 6b 3d cd 9c 40 3e
       -0.078685634 0.019374192 0.05757984 0.18809815
000100 90 8c c6 bc 64 ea a3 be ea 68 be bd 05 e8 ab 3c
       -0.024236947 -0.32014763 -0.092973545 0.020984659
000110 5b ab 33 3e c3 9a 46 3f 2b db b6 3d 84 da 19 be
       0.17545836 0.775799 0.08928522 -0.15024763
000120 26 43 84 3d fd 21 83 3e 8a fa 88 bd ca 27 32 3e
       0.0645812 0.25611869 -0.066884115 0.17397991
000130 56 f4 67 3e 8e 86 20 3d 58 a2 e7 bd 94 8f 42 3e
       0.226518 0.03919082 -0.113102615 0.19000083
000140 9d e7 cb bd 30 e3 ff be ce 53 a3 3e 9c d9 b6 3d
       -0.09956286 -0.49978018 0.31899875 0.089282244
000150 be 63 cb 3d 5d a8 06 be ed 93 97 3e 00 7d d6 3d
       0.09931134 -0.13150163 0.29605046 0.104730606
000160 64 bc ec 3e 59 2e 8d 3e 00 76 be 3d 4a 84 41 bd
       0.4623748 0.27574423 0.092998505 -0.0472453
000170 7f 4b 2b 3d 37 b9 54 be 34 db e5 bd 4e d4 20 bd
       0.041820046 -0.20773779 -0.1122345 -0.03926497
000180 70 66 42 3b ed 10 6b bc 79 c3 2e bd 01 d2 72 be
       0.0029663108 -0.014347297 -0.042666886 -0.23712923
000190 60 5c 15 be e0 ea 39 bc 50 90 1e 3d 81 20 69 be
       -0.1458602 -0.0113475025 0.038711846 -0.22766306
0001a0 4c 41 02 3d 91 35 98 be 61 ef 0d 3e c5 ad ec bb
       0.031800553 -0.29728368 0.13860847 -0.0072228634
0001b0 0c 53 ac 3e 0d 64 60 be 41 9e f0 bd d2 c9 e1 3c
       0.3365711 -0.21913166 -0.117489345 0.027562056
0001c0 f5 b9 c6 3e c8 4f 42 3d d0 fa 79 3e 41 09 9f 3e
       0.3881375 0.047439367 0.24412084 0.31061748
0001d0 e6 1b 3c bd 85 22 16 bd 5c 56 93 3d a4 2e da 3d
       -0.045925044 -0.036654014 0.07194206 0.10653427
0001e0 96 3b 51 3e 5f 49 8a bd 22 98 c1 3e 57 b2 90 3e
       0.20432886 -0.06752276 0.3781138 0.28261063
0001f0 98 40 97 bc c0 e4 44 be 5b 6c 29 3e f8 ee 8e 3e
       -0.018463418 -0.19227886 0.1654524 0.27916694
000200 9f 1b a7 3e fb 2c 9b 3e 76 fb 7e 3e 80 49 35 be
       0.3263826 0.30307755 0.24900612 -0.1770382
000210 cd 0d a7 be 7b f5 27 bd b5 82 62 be 1f a4 17 3e
       -0.32627717 -0.041005593 -0.22120173 0.14808701
000220 37 07 2c be 02 00 0a be 2c af e8 3d 9d 29 41 be
       -0.16799627 -0.13476565 0.113615364 -0.1886353
000230 64 4a d8 bc a2 e4 9c be 4b 45 56 bb bc 89 dd 3d
       -0.02640266 -0.30643183 -0.003269511 0.10817286
000240 e5 e5 df 3d a7 21 f2 3e fb 87 87 3d d2 bd 0d be
       0.10932521 0.472913 0.06617733 -0.13841942
000250 9f a6 c2 be b7 89 92 bc 82 ce e8 3d be f1 0a be
       -0.38017747 -0.017887933 0.11367513 -0.1356878
000260 c2 4a a0 bd 5b fa 7d bb 5a 4a 3f 3e 98 8c 63 3e
       -0.07826759 -0.003875396 0.18680707 0.22221601
000270 da 70 47 bd 76 99 45 3d 96 28 d1 be 89 33 bc 3e
       -0.048691608 0.048242055 -0.40851277 0.36758068
000280 4b 93 e1 3c d4 08 da 3d f1 50 a9 bc 95 8e 4b be
       0.027536055 0.10646215 -0.020668479 -0.1987861
000290 27 9b 10 be e4 76 ba 3e fd ef 2b 3e 31 9f 88 3c
       -0.14121686 0.3641883 0.16790767 0.01667747
0002a0 eb 8e 83 3e e1 31 1d 3e a5 0b df bd 96 84 8b 3e
       0.25694975 0.15351059 -0.10890893 0.27249593
0002b0 2c 9c 9a 3b 81 bd 45 3d 7d 2c b9 3e c4 57 ad 3e
       0.004718324 0.048276428 0.36166754 0.33856022
0002c0 4d 89 2e be e0 74 6d bc f3 cc a0 bd 71 ce fb bd
       -0.17044564 -0.014493197 -0.07851591 -0.12295235
0002d0 a4 70 ac be 20 7d a1 3e 11 ef 25 3b 61 8c 12 be
       -0.33679688 0.31540775 0.0025319497 -0.14311363
0002e0 be 8a a0 3e bf c6 a4 3d 17 20 e4 3c af 92 32 be
       0.31355852 0.0804572 0.027847333 -0.17438768
0002f0 68 e0 bd 3e 83 8e ce bc 41 dd aa be ca 9a 67 3e
       0.3708527 -0.02521444 -0.33371928 0.22617641
000300 46 f9 48 3c f4 44 c7 bb 1e 56 7a 3d 8b c4 6c be
       0.012266463 -0.006081218 0.061117284 -0.2312185
000310 4a ec 0f 3d 9b ad 9f 3e 86 a7 6f bd d4 87 0c 3b
       0.035137452 0.31187138 -0.058509372 0.0021443265
000320 22 6d 33 be 13 3d 98 bd b7 7c 7f bd 43 fc 65 bd
       -0.175221 -0.07433524 -0.062374797 -0.05614878
000330 4a 69 8e 3e 92 08 ed 3d dd 53 b0 3e fd 6c 55 3e
       0.27814704 0.115739 0.34438983 0.20842357
000340 36 86 99 3e 21 12 84 bd f1 74 84 bc bc 6d ba 3e
       0.29985207 -0.0644877 -0.016169043 0.36411846
000350 92 86 96 be 84 fb ab bd b8 ea 22 3e 2d c5 97 3d
       -0.29399544 -0.08397582 0.1590985 0.07410655
000360 e6 c8 27 3e 13 9b a3 3e 75 d0 43 be 45 cb 1a 3d
       0.1638523 0.3195425 -0.19122489 0.03779151
000370 50 81 af bd 93 97 34 be 60 ad 2b be 1d e6 6b 3e
       -0.08569586 -0.17635946 -0.16765356 0.23037
000380 ed 27 be bd a2 9d 9c 3d 0e e2 8b be ad d8 05 be
       -0.09284959 0.076472536 -0.27320904 -0.13070937
000390 4c ef 9e 3e 82 71 2b be 5f 67 39 3d 63 f9 8d 3e
       0.31041944 -0.16742519 0.045264598 0.2772933
0003a0 d4 28 2f 3e 27 93 cc 3d e8 ac 7c 3e 36 f7 3e be
       0.17105418 0.099890046 0.24675333 -0.18648991
0003b0 38 bb 7f bd 9d 3f 00 bd 8c 2e 87 3e ef f2 9e be
       -0.062434405 -0.031310666 0.264027 -0.3104472
0003c0 6a fd f3 bd 06 70 a7 3e f2 78 a9 be c1 e0 f8 3c
       -0.11913569 0.32702655 -0.33100086 0.030380609
0003d0 96 c3 e9 bd bb 42 6d be b8 0e 40 3e c8 a2 fe bd
       -0.11414258 -0.23169987 0.18755615 -0.12433392
0003e0 d0 c4 95 3e 39 f6 87 be e9 a7 63 3e bd 84 08 3d
       0.2925172 -0.2655504 0.22232021 0.033329714
0003f0 89 39 77 3e 29 33 72 bd 40 5a 5f be 7c 97 09 be
       0.24143042 -0.05913082 -0.21811771 -0.13436693

network_body._body_endoder.seq_layers.0.bias f4 [128]
000000 ce 3f c2 bc 3d 8b 30 bb 44 dc 85 3c 7b 96 df 3b
       -0.023712065 -0.0026938461 0.016340382 0.0068233586
000010 45 da 8c 3b d4 43 2e 3c 7c 13 93 3b 4c a0 8d bc
       0.0042984807 0.010636289 0.0044884067 -0.01728835
000020 10 50 b7 3c e9 2a 5a 3c 58 15 2c bb 9b 57 7e 3c
       0.022377044 0.013315895 -0.002625784 0.015523816
000030 3b 90 c5 bb cd f6 43 bc a7 10 03 ba 98 77 0b 3c
       -0.0060291565 -0.011960697 -0.0004999735 0.0085124
000040 4f 64 87 3c 6a b6 94 3c b8 13 87 bc 7c f7 91 ba
       0.016527323 0.018153388 -0.016488895 -0.0011136378
000050 63 03 29 bc c7 1d 55 3a 64 03 15 3c a8 27 13 3d
       -0.010315749 0.00081297423 0.009095047 0.03592649
000060 bf 21 0f 3c 50 d5 1c bc 8b 11 65 bc 40 54 08 b8
       0.008736073 -0.009572342 -0.013981233 -3.250339e-05
000070 84 1f fd 3b 18 e1 2e 3a 26 c1 d8 3b 44 81 7d 3c
       0.007724704 0.0006671115 0.006614822 0.015472714
000080 7d 82 bc 3b 43 b0 a3 bc 4d 2d a8 3a c3 a9 d5 bb
       0.00575286 -0.01998151 0.0012830883 -0.0065204813
000090 48 7a ba bb 8b d1 4b bc 7d 7f 28 bc 03 79 25 3c
       -0.0056908466 -0.012440096 -0.010284302 0.010099652
0000a0 9f 9d 93 bc 9f 8a c1 bb ea f9 15 3c c2 ce a0 3a
       -0.018019496 -0.0059064175 0.009153822 0.001226865
0000b0 e5 a7 5e ba f5 81 a0 bc 1f 08 8b 3c c5 2e 2b 3c
       -0.0008493646 -0.019593218 0.016971646 0.010448162
0000c0 81 39 b7 3c 08 75 1f bb 33 1d ef ba 7c 0e 4c bc
       0.022366287 -0.002433123 -0.0018242955 -0.012454625
0000d0 ec e2 bc 3b a9 cd 1b 3c 7a 72 80 3c 5c fb 51 bc
       0.005764356 0.009509482 0.015679587 -0.012816276
0000e0 d2 2c 5c 3c 19 d5 4a 3c 7b 50 ad 3c 14 35 6e bc
       0.01343842 0.012379908 0.02115654 -0.014539022
0000f0 b3 87 82 3b 83 96 21 bc 28 24 90 3a 74 84 a8 3c
       0.0039834618 -0.009862545 0.0010997104 0.020570971
000100 4a 22 86 3a fb 54 3e 3b e7 a4 7f 3c 11 13 45 bc
       0.0010233608 0.0029042352 0.015603281 -0.012028472
000110 9c 29 4b bc cc 12 a5 3b 45 20 dd 3b 16 db bf bb
       -0.012400057 0.005037641 0.0067482316 -0.0058549745
000120 00 d1 79 3c 78 4c 37 3c fd bf ee ba f4 9b 8f bb
       0.015247583 0.011187665 -0.0018215176 -0.0043826047
000130 8b 0a 3e bc 75 42 38 3c c2 14 d1 b9 42 6d bc bb
       -0.011599193 0.011246313 -0.00039879052 -0.0057503292
000140 be 24 4d bc 00 fe d2 bb 49 48 e3 3b 3c ce bd 3a
       -0.012520967 -0.0064389706 0.0069361073 0.0014481018
000150 5a c5 70 bb 14 96 5e 3c 04 92 22 3c 48 b9 10 bc
       -0.0036738724 0.013585586 0.009922508 -0.008833237
000160 23 1c 5d ba bd 2e 2f 3b 13 d3 60 3b b6 98 95 3b
       -0.00084346737 0.002673074 0.0034305498 0.0045653237
000170 1b 66 e1 ba 4c 38 35 bc e7 60 ad 3c 40 74 6a bb
       -0.0017196567 -0.0110607855 0.02116437 -0.0035774857
000180 b5 d1 49 bb 5d f0 14 bc 31 59 4d bc 48 1f ba 3c
       -0.003079516 -0.00909051 -0.012533472 0.022719994
000190 63 86 4c bc 23 b2 cf 3b 7c 70 53 3a 8f 56 0c ba
       -0.012483212 0.006338374 0.00080657727 -0.00053534744
0001a0 2b f0 95 3c ba 23 59 3c 9c 96 b2 bb 78 87 be bb
       0.018302998 0.013253147 -0.005450083 -0.005814489
0001b0 cd d2 c2 bb 6d 83 cb b9 55 18 95 bc 68 ec e6 bb
       -0.0059455396 -0.00038817097 -0.018200079 -0.007047225
0001c0 5e bc 29 3c 75 35 04 3b 39 71 5a 3b 2f 1f 98 3c
       0.010359852 0.0020173464 0.0033331646 0.018569557
0001d0 10 cc 41 bc 5e 98 8f bc d4 c1 0e bc 63 e3 e2 3c
       -0.011828437 -0.017528709 -0.008713204 0.027696317
0001e0 4b df 41 3b be ec 42 bb e1 fc 16 3c 99 58 c9 bb
       0.0029582556 -0.002974316 0.0092155645 -0.006144595
0001f0 36 0c fe 3b fc 9a 18 bb ae 85 25 3b 4c 94 4d bc
       0.0077529205 -0.0023285737 0.0025256681 -0.012547564

network_body._body_endoder.seq_layers.2.weight f4 [128, 128]
000000 e7 74 b4 3c 1f e3 9d bd 80 f1 3f bd 6c c8 83 3e
       0.0220284 -0.077093355 -0.04686117 0.25738847
000010 b6 b1 84 3d 2a 3f 70 bc 71 f2 24 3c e7 90 cd 3d
       0.06479208 -0.014663497 0.010067568 0.100374036
000020 36 36 ea 3c be 80 12 be 93 ef b2 3d fe c3 3f bc
       0.028590303 -0.14306924 0.087371014 -0.011704443
000030 6b b7 90 bd 9d fd f9 bb 2d a4 46 ba a2 3b 92 bd
       -0.07066234 -0.00762911 -0.00075775647 -0.0714028
000040 04 78 05 3a 15 48 fe 3c fc 8d f9 3c e8 2d b3 3d
       0.0005091431 0.03104023 0.030463211 0.0874899
000050 a4 99 7c bd 02 66 04 3c 37 d8 8c 3d 32 50 37 3e
       -0.06166996 0.008080961 0.06877177 0.17901686
000060 c1 57 a5 bd 66 ab c9 bc ca 60 ac bd c0 e6 2c be
       -0.08073378 -0.024617862 -0.084168985 -0.16884899
000070 aa a1 1a 3d 87 83 8d bc 75 0b 9c 3d 5c b2 bf bd
       0.03775183 -0.017274631 0.07619373 -0.09360191
000080 76 40 10 3e 04 eb fd bd 88 29 fd 3d a4 72 02 3d
       0.1408709 -0.12398341 0.12361437 0.03184761
000090 fb 80 98 bd 55 6e 0c bc d5 24 6e bd 00 17 9c bd
       -0.07446476 -0.008571227 -0.058140595 -0.076215744
0000a0 81 97 85 bd f8 39 35 3d 12 e6 11 3c be f5 69 3d
       -0.06523038 0.044244736 0.008904951 0.057119124
0000b0 83 2f c1 bc b6 6e 53 be e3 e6 65 bd 8f df fb 3d
       -0.023582226 -0.20647702 -0.056128394 0.122985
0000c0 10 3e 96 bd 52 bd 0d bd d3 03 73 3e 60 73 d8 3d
       -0.07336056 -0.034604378 0.23731928 0.10568881
0000d0 05 0f 0b bd 35 a5 fa 3d 15 16 2f 3e ad 56 c7 bc
       -0.03394987 0.12238542 0.17098267 -0.024333322
0000e0 04 e3 aa bc 21 54 fe bd 12 0d ee bd bf 04 65 bd
       -0.020860203 -0.1241839 -0.11623587 -0.05591273
0000f0 9c 38 24 be 55 28 a1 3c c8 86 2f 3d 53 1b bd bd
       -0.1603722 0.019672552 0.042853147 -0.09233727
000100 a5 79 49 bd f2 0f c3 3d 85 d3 80 3d d9 b7 e5 bd
       -0.049188275 0.09524526 0.06290344 -0.11216707
000110 5e 98 45 3e 42 58 86 3c 49 82 c0 bd 74 d7 03 3c
       0.19296405 0.016399506 -0.0939985 0.0080469735
000120 a7 3a a6 bc 6c 7b 9f bd c9 c3 3d be 2b ce 2a 3c
       -0.02029164 -0.07787213 -0.18531717 0.010425131
000130 1c 6d cc bc d3 c0 de 3d 34 1a d5 bd d3 16 0b bd
       -0.024954371 0.10876622 -0.104053885 -0.033957314
000140 15 b1 d7 3d 23 29 f5 bd f7 b0 96 3d 32 c4 e5 bd
       0.105318226 -0.11970737 0.07357972 -0.11219062
000150 32 2e 1b 3d 76 7e 7d 3d 26 2e 41 3d 01 d7 12 be
       0.037885852 0.06188818 0.04716315 -0.1433983
000160 a7 99 27 3e 3b b9 e7 3d 8f 9f 80 3c c7 f5 60 3d
       0.16367207 0.11314627 0.015701083 0.05492189
000170 41 7e 85 3e 86 75 34 3c 3e 4f 02 be f2 f0 09 3d
       0.26072887 0.011014348 -0.12725541 0.03367705
000180 8d ac bb 3d 7f ba c9 3d 42 1f 25 3d 98 cc 2d bc
       0.09163771 0.098500244 0.040313013 -0.010607861
000190 28 5c 92 3d 3a 7d a0 3d bb 06 bb 3b c7 76 96 bd
       0.07146484 0.07836385 0.0057075894 -0.07346874
0001a0 bf 99 2f be 2d 52 b0 bd 16 f1 02 3e 0c a0 8b bb
       -0.17148493 -0.08609424 0.1278728 -0.0042610224
0001b0 06 87 a1 3d e2 9b 08 be 5f d7 99 bc 35 96 de 3d
       0.07887082 -0.13340715 -0.018779455 0.108684935
0001c0 b5 1d fb bd 84 6c 0b 3d b7 aa 18 3e aa 22 a9 bd
       -0.122615255 0.034039035 0.14908873 -0.08258565
0001d0 a3 44 b8 3d 7c b6 f7 3b 7e 90 9e bc 03 c3 cf 3d
       0.089974664 0.0075595956 -0.019356009 0.101446174
0001e0 34 96 02 be 61 a7 3a be 5b 25 38 bd 35 37 8f bd
       -0.1275261 -0.18227912 -0.0449575 -0.06992952
0001f0 54 2a 86 3d 3e 6a 2b 3d fc d7 fb bd a9 77 a2 bd
       0.06551042 0.041849367 -0.12297055 -0.079329796
000200 6e 33 6a 3d 15 d0 b1 bc 7f 4a 30 bd d6 9e 16 3e
       0.057177953 -0.021705667 -0.043039795 0.14709029
000210 e9 e4 85 bd ae 1c 25 3d a8 fd 3f 3d d7 7a 0a 3e
       -0.06537802 0.040310554 0.046872765 0.13523422
000220 29 70 a6 bc 08 40 1f 3e 1d 5f 43 bd f9 d7 c6 bd
       -0.020317154 0.1555177 -0.04769813 -0.09709162
000230 1d 5e 25 3e df d2 9c bd 3c ab 11 3b f1 bf 8f 3d
       0.16149183 -0.07657408 0.0022227308 0.07019032
000240 19 62 d2 3c b4 9d 53 3d ef 1d 0f 3d d3 c5 3a 3d
       0.025681542 0.05166407 0.034940656 0.045598816
000250 48 b0 77 3d 50 75 62 bd 24 f7 5e 3d 24 b9 c5 bd
       0.06047085 -0.05528766 0.05443491 -0.096544534
000260 6a fd 57 3d 29 37 8a 3d 37 08 d7 bd e8 5b 9d bd
       0.05273191 0.06748802 -0.10499614 -0.07683545
000270 0b 5a bd 3c 2d 2f d5 3d 80 85 0c 3e 55 1a 52 3d
       0.023114225 0.10409389 0.13722801 0.051294643
000280 ac 3f 17 3d 13 f9 f7 3c 9c 9c 64 3d f1 14 ef bd
       0.036925957 0.030270135 0.055813417 -0.11673916
000290 3b 9b d5 3d 3c 86 b8 3c f3 1d 23 3e 1c 02 d0 bd
       0.104299985 0.022524945 0.15929393 -0.10156652
0002a0 ef e9 ec 3d 19 b3 34 3e 32 a3 f3 3d 01 d5 38 3d
       0.11568057 0.17646445 0.118963614 0.04512501
0002b0 43 bd 0e bd 59 59 9f bd a8 73 0a 3d 02 d3 44 be
       -0.034848463 -0.077807136 0.033801705 -0.19221118
0002c0 0a f5 d8 bd 90 95 02 be 78 4b 16 bd 87 66 07 be
       -0.105936125 -0.12752366 -0.036693066 -0.13222705
0002d0 09 16 4e bd e3 8c 75 3c 59 d6 fe bd 18 1e 04 bd
       -0.050313983 0.014987203 -0.12443227 -0.032255262
0002e0 92 a2 7a be 29 a7 46 3d a4 3f 41 3a 0e ff 7a 3d
       -0.24476078 0.04849926 0.0007371849 0.061278395
0002f0 2c 59 d7 3c ce 4e 80 3c 62 e1 59 3e 7d e2 9a 3b
       0.026287638 0.015662577 0.21277383 0.0047267065
000300 d4 a8 04 be 56 4e a1 bd a7 c6 3f 3e 35 14 42 bd
       -0.12955028 -0.078762695 0.18728124 -0.047382552
000310 00 fc 2e bc 4f 6a 0e bd 85 f1 c6 3c 2d 38 83 bd
       -0.010680199 -0.034769353 0.024285087 -0.06407199
000320 7d 44 b9 3c 32 4c 7a bd de 37 92 3b 1b c1 82 3d
       0.022615666 -0.06110782 0.0044622263 0.06384488
000330 a4 54 06 bc b3 30 be bd 9f 7e ff 3c c6 08 e7 bd
       -0.008198891 -0.092866324 0.031188307 -0.1128097
000340 c8 79 75 bc 32 62 a2 bd 4c 8b a8 3d c6 dc 84 3c
       -0.014982648 -0.079288855 0.08229694 0.016218554
000350 e7 35 37 3d 11 ea 00 be 5f 6d 07 be 9f 47 59 3d
       0.04472914 -0.12589289 -0.13225316 0.05304682
000360 ab 5d 62 bb 41 77 9e 3d 92 b9 dd bd 51 c7 99 3d
       -0.0034540694 0.0773759 -0.1082641 0.0750872
000370 c2 5a 07 3d 93 f0 e9 bc 0d fd 54 bd 05 51 ad 3c
       0.033045538 -0.028557098 -0.05199914 0.021156797
000380 c2 a7 2f bd f0 33 92 3d 00 fe c4 3c 72 c5 7b bd
       -0.042884596 0.071388125 0.024046898 -0.061467595
000390 34 0c a4 bb 93 12 7a 3e b7 0e 07 3e 95 77 7b 3c
       -0.0050063375 0.24421148 0.13189207 0.015348335
0003a0 c7 25 1d 3d 53 55 04 bd 93 cc fd bc 2d 2c a2 3d
       0.038366105 -0.032307934 -0.030981338 0.07918582
0003b0 ba d3 d4 3d 77 34 49 3d 3d e0 09 3e 74 73 01 bd
       0.10391946 0.0491223 0.13464446 -0.031604245
0003c0 12 38 ef 3c 80 06 61 bd 39 c6 03 3d 68 94 07 be
       0.029201541 -0.05493784 0.03217146 -0.13240206
0003d0 2c ae 6a bd a4 b3 43 be 3f 33 97 bc 65 fc 9a 3d
       -0.05729501 -0.19111496 -0.018457053 0.07567672
0003e0 ef 7b 55 3d 12 1d cc bd 0a d4 29 3d 68 be 1f 3d
       0.052120145 -0.09966482 0.04146198 0.038999945
0003f0 74 26 2b be f8 a6 0b 3e 98 27 61 bc fb 97 f8 bc
       -0.16713887 0.13637912 -0.01374235 -0.030345907

network_body._body_endoder.seq_layers.2.bias f4 [128]
000000 76 8c 4d 3a 86 62 d1 ba 0c eb 19 3b 98 45 9b ba
       0.00078410597 -0.0015974797 0.0023486046 -0.0011846302
000010 f4 24 82 3b 00 b2 4d ba 23 64 7c 3c 58 7f d0 ba
       0.0039716903 -0.00078466535 0.015404734 -0.0015907092
000020 60 a9 7d bc b3 e9 3f 3b 64 51 53 3c 38 8d 49 3c
       -0.015482277 0.0029283583 0.012897823 0.012301736
000030 41 3e 0e 3c d7 fe 88 bc b3 bc a2 bb 2f 13 31 bc
       0.008681835 -0.01672308 -0.0049663424 -0.010807796
000040 9c 63 a5 bc a1 3b 42 bc 50 4a 5f bc 0c 92 36 bc
       -0.020189099 -0.011855037 -0.013628557 -0.011143219
000050 6a 9c 86 3c 20 3c 27 bc 5a a8 d7 bb d7 da 90 bc
       0.016432006 -0.010207206 -0.0065813484 -0.017682476
000060 5e 4f 18 3c 76 9a 4c bc d4 04 4b 3c ee 8a 38 bc
       0.009296266 -0.012487998 0.012391288 -0.011263592
000070 c9 20 77 3c c9 5e 64 37 8c f4 bc 3c 5b 51 7b bc
       0.0150835 1.3611928e-05 0.023065828 -0.015339221
000080 9c 8a b6 bb c0 74 9f bb 21 16 71 3c 4d 98 55 bc
       -0.0055707227 -0.0048662126 0.014714749 -0.0130368
000090 9f c7 82 ba 87 bd 55 3c 16 01 5c 3c 22 97 b3 bc
       -0.0009977705 0.013045675 0.013427993 -0.021922652
0000a0 b0 bb 66 3c 9b 8c 5c bc 41 c6 ec ba 1e f1 dc 39
       0.014082834 -0.013461257 -0.0018064455 0.00042141316
0000b0 46 bd 9b 3c b5 8f 2c bc 4b 7b 11 3c 45 58 63 3c
       0.019011151 -0.010532309 0.008879493 0.013876026
0000c0 fb fc 8e 3b 0c 9a 47 bc d6 56 79 bc 76 cb 12 3c
       0.0043636537 -0.012182724 -0.015218457 0.008959642
0000d0 13 91 10 3c 4b 1f a9 3c 14 6d 2a 3c 92 bb 52 39
       0.008823651 0.020644804 0.010401983 0.00020097036
0000e0 04 ee 8b 3c 6c c2 a9 3a bb 7c a1 bb fc 51 8d bc
       0.017081268 0.0012951619 -0.004928199 -0.017251007
0000f0 7e 68 a7 bc 68 c7 99 3c ba 93 8d 3c e8 e6 26 3c
       -0.020435568 0.018771842 0.017282356 0.010186888
000100 f9 42 e5 3a 8b 63 00 3b 96 7b 9d bc 53 c8 b6 bb
       0.0017491273 0.0019590582 -0.01922397 -0.0055780797
000110 b0 85 98 bb f4 19 53 3c 53 c8 06 bc cb e4 61 bc
       -0.0046546087 0.012884606 -0.008226472 -0.013787459
000120 7b 89 16 bc 76 f5 a0 bc 8f 4b 5c 3c 61 65 92 bc
       -0.009188051 -0.019648295 0.013445749 -0.017870607
000130 66 99 b1 bb 96 03 12 3c af e2 04 bc 47 fd 4c bb
       -0.005419898 0.008911988 -0.008110686 -0.0031278895
000140 17 82 92 bb 35 1b 02 3c 9a 37 86 ba 33 b1 e5 3b
       -0.0044710743 0.007941057 -0.0010239959 0.007009649
000150 ef f0 68 3c 9c 96 1d 3c 30 50 38 3c b6 d8 88 39
       0.014217599 0.009618428 0.011249587 0.00026101404
000160 b8 4d c7 3c 14 f6 41 bc 76 da d2 bb 68 a7 d3 3a
       0.024329051 -0.011838455 -0.006434734 0.0016147913
000170 cb 46 25 ba 96 19 7c bc 75 fb 64 3c 98 8c d2 bb
       -0.00063047995 -0.01538696 0.013975968 -0.0064254515
000180 f8 39 3b bb 84 af 55 3c 8c 41 b2 3a 17 f2 0e 3b
       -0.0028568488 0.0130423345 0.0013599857 0.0021811777
000190 6b a5 49 bc 51 f2 83 3c 83 46 60 3a ed a2 ad 3b
       -0.012307505 0.016106756 0.0008555429 0.0052989633
0001a0 95 01 a3 bb d1 98 21 ba 93 80 74 3c 28 a5 84 bc
       -0.004974554 -0.0006164434 0.014923233 -0.016192034
0001b0 44 0c 9e bc ea 25 7e bc a3 e9 11 bc 36 a8 5c bb
       -0.019292958 -0.015511969 -0.008905801 -0.0033669597
0001c0 fe 4e d1 bb f1 c4 f5 3c 14 54 7b 3b 46 43 3e 3c
       -0.0063875904 0.030001136 0.0038349675 0.011612719
0001d0 f4 7d 82 bb ab 80 93 3c 98 18 fa b9 87 c8 03 3c
       -0.0039823 0.01800569 -0.0004770204 0.008043415
0001e0 c6 73 16 bc 14 2b db 3c f3 4b 86 bc 1a 72 00 bc
       -0.009182876 0.02675394 -0.016393637 -0.007839704
0001f0 b3 a5 a0 3c 19 c2 22 bc 57 ee 8b 3a d3 33 44 3c
       0.019610262 -0.009933972 0.0010675889 0.0119752465

action_model._discrete_distribution.branches.0.weight f4 [3, 128]
000000 67 fe 7a bc 4b e6 cb bb e4 c5 83 3c 26 e8 5e bb
       -0.015319443 -0.0062225214 0.016085573 -0.0034012883
000010 c3 70 c1 bc 6a 01 24 bc 2e f7 a8 bc 44 23 9e bc
       -0.02361334 -0.010010103 -0.020625677 -0.019303925
000020 6f d1 16 3c af e1 a0 bc f5 3d d7 3c 43 17 21 bc
       0.009205206 -0.019638864 0.02627466 -0.009832206
000030 98 f3 0c bc 42 5c 8e 3b 21 4f 25 ba ef 0d c5 bb
       -0.008602999 0.004344494 -0.00063060416 -0.006013624
000040 4d 0c 28 bb ae a2 7c 3c 67 63 6e bb 9d 09 2c 3b
       -0.0025642097 0.015419645 -0.0036375166 0.0026250847
000050 d9 7b 2b bc f0 b2 8d bb b7 53 1a 3c 2d 74 34 bc
       -0.010466539 -0.0043243095 0.009419373 -0.011014027
000060 a6 36 b9 ba ff 83 db 3c 48 8e bc bb a0 88 23 bc
       -0.0014130666 0.02679634 -0.005754266 -0.009981304
000070 d6 d7 98 3c 69 c8 d4 3c 50 95 6a 3b e9 cb 8b bc
       0.018657606 0.02597447 0.0035794564 -0.017065005
000080 10 b4 09 3b 44 69 b6 3b 58 32 22 3c 03 88 d5 3b
       0.0021011867 0.005566748 0.009899698 0.006516458
000090 89 83 e8 bb 77 f3 bf 3c 56 00 0d bc d8 e7 7d ba
       -0.0070957583 0.023431523 -0.008606037 -0.00096857315
0000a0 4a 76 1e 3b 30 e1 aa 3c f5 c1 80 bc 34 61 80 bc
       0.0024179392 0.02085933 -0.015717486 -0.01567135
0000b0 ef c9 18 bc 98 77 de bb 44 5a 29 bc 4d 3d 1b 3d
       -0.0093254885 -0.006789159 -0.010336462 0.037900258
0000c0 42 b7 f5 3c 1f 62 c2 bb 15 80 79 bc dc 2d 07 bb
       0.02999461 -0.005932107 -0.015228291 -0.00206267
0000d0 8f 90 b9 3b ff d4 99 3b 0a 91 87 3c d4 89 aa 3c
       0.0056629847 0.0046945806 0.016548652 0.020817675
0000e0 21 07 e3 3b 30 69 7b bc bd 6b 7f 3c 2d be 0a bc
       0.00692834 -0.015344903 0.015589652 -0.008468193
0000f0 f9 5e a2 3b cf 54 56 bc c5 32 5e bc 3d 49 4f 3c
       0.0049551693 -0.013081743 -0.013561909 0.012651739
000100 b0 c8 7c bc 79 e1 24 3a 48 24 0c bc 50 d2 31 3c
       -0.015428707 0.00062897016 -0.008553572 0.010853365
000110 e1 7e aa ba 28 10 4a 3c 57 7f fe 39 2e 48 a2 3b
       -0.0013007784 0.0123329535 0.0004854153 0.004952452
000120 aa 9f 73 3b 26 28 d1 39 20 2c 27 3c 3d d3 08 3c
       0.0037174025 0.000398935 0.010203391 0.008351144
000130 57 6e b5 bb bf 9d 93 3b 64 22 48 3b e6 a6 a1 bb
       -0.005536835 0.004504889 0.0030538077 -0.004933226
000140 79 37 26 bb f7 63 a3 bb 44 7b 58 3c 6e cf 8d 3c
       -0.0025362654 -0.004986282 0.013212983 0.017310824
000150 30 46 8e bb 20 f0 56 bc d6 ac 0b 3a 4e 69 6f bc
       -0.004341863 -0.013118774 0.0005328184 -0.014612509
000160 d7 c8 00 bc 88 02 14 3b f5 67 29 3c 05 38 c9 bc
       -0.007860384 0.0022584517 0.010339727 -0.024562845
000170 0f ba 25 3c cb d4 a1 3a ea 10 1d 3c f3 25 60 bc
       0.010115161 0.0012346742 0.009586552 -0.013680923
000180 11 67 33 bc 8b 90 8e bc 1d f8 ef ba a6 b6 39 3b
       -0.010949866 -0.017402908 -0.0018308196 0.0028337627
000190 ae c9 c3 3b 54 55 47 3b 99 51 d3 ba d5 d9 83 bc
       0.00597497 0.003041585 -0.001612234 -0.016095081
0001a0 e1 b7 4f bc cf f3 8a 3c d4 43 09 ba 41 49 fa 3b
       -0.0126781175 0.01696196 -0.00052362424 0.007638127
0001b0 9f fd 18 bc 83 f0 5f 3c 59 d8 0d 3c 42 13 93 bc
       -0.009337812 0.013668182 0.008657538 -0.017953519
0001c0 f7 c8 a9 bc 6c 82 1d 3b c9 2b e5 bc d2 75 b7 bb
       -0.02072571 0.0024034036 -0.02797498 -0.005598762
0001d0 d7 08 d6 3c 86 52 6c ba f1 ba b8 bc 46 be 07 bc
       0.026127262 -0.00090149825 -0.022550078 -0.008285111
0001e0 4a dd 8d bb 33 12 96 bc a6 d3 a8 3c ec ea 37 bc
       -0.004329358 -0.018319225 0.020608734 -0.011225443
0001f0 61 91 a2 bb a6 19 98 bb 29 30 13 3b 91 cc e6 3b
       -0.004961178 -0.0046417294 0.0022459126 0.007043429
000200 02 6e a9 3b 40 23 cc bb f6 2a 45 bb 24 3c e4 3c
       0.0051705847 -0.006229788 -0.0030085421 0.027860709
000210 e3 9d 9f 3b 37 c9 09 3d fe dc 8d bc fb ad 58 3c
       0.0048711165 0.03363916 -0.017317291 0.013225074
000220 64 e3 11 3c e2 14 65 bc c9 75 c7 bc 5f 12 af bc
       0.008904312 -0.01398203 -0.024348157 -0.021371065
000230 79 f9 21 bc 79 04 2f 3c 85 52 58 bc ea bd 30 3c
       -0.009886139 0.010682219 -0.013203268 0.010787467
000240 a6 be f0 bb d5 2b db 3c 7a fd 01 bb 95 91 91 3c
       -0.007346946 0.0267543 -0.0019834922 0.017769614
000250 8d b8 35 bb be 46 ac 3c 42 5c c9 39 1c 3f a0 3c
       -0.002772841 0.021029826 0.00038406445 0.019561343
000260 c5 f1 b2 bc 90 75 09 3c 6c 51 92 3b b5 db 8d 3c
       -0.0218438 0.0083898455 0.0044652727 0.017316679
000270 25 f9 c3 bc 7c d4 c1 bc cd b8 d4 bb c2 5a 4a 3c
       -0.023922512 -0.02366089 -0.0064917565 0.01235074
000280 c1 5d 4d bc 70 29 f4 bb 66 54 d3 bb 35 af b6 3b
       -0.01253456 -0.007451229 -0.00644927 0.0055750855
000290 fc 96 ec bb 66 5f dd bc 52 4e 20 bc a1 d0 89 3b
       -0.007220147 -0.027023029 -0.009784298 0.0042057787
0002a0 af 54 1b bc 79 95 32 3c 31 01 9f 3c fc 51 8c 3c
       -0.009480639 0.010899895 0.019409748 0.017128937
0002b0 3a 69 12 bb 8b d8 31 bb 74 23 78 3a 38 3f ba bc
       -0.0022340552 -0.0027137126 0.0009465732 -0.022735223
0002c0 28 03 69 bc 8b 7c 67 bb 86 6b 64 bb 1b 9c 2c bb
       -0.014221944 -0.0035322036 -0.0034854128 -0.0026338163
0002d0 8f 5e 88 bc 05 7c f3 bc 86 75 63 bc bd 34 8f bc
       -0.016646652 -0.029722223 -0.013883 -0.017481202
0002e0 b1 ea 95 bc 52 4b 3f 3b 7c 64 0f bb e5 a8 1f 3c
       -0.018300386 0.0029189182 -0.0021879962 0.009744857
0002f0 d0 81 59 3c b9 84 31 bc 44 ef c5 b9 d6 ba ca bb
       0.013275579 -0.010834866 -0.00037753035 -0.0061868234
000300 f7 11 3e ba 89 ce 70 3c 50 b6 dc 3b ae b4 ec 3a
       -0.0007250602 0.014697679 0.0067356005 0.0018059218
000310 e4 45 3a 3b 38 60 48 3b ce 3e 28 3c 99 21 70 3c
       0.0028423006 0.003057493 0.01026888 0.014656448
000320 5b d0 97 3b ae a5 39 3a 11 0f 8b bc 3c ef dd 3c
       0.004632992 0.0007081878 -0.016974958 0.027091615
000330 f8 8e d0 ba 2c e5 09 bb 49 f0 25 bb 0f 52 1e bc
       -0.0015911749 -0.0021041138 -0.0025320223 -0.009663119
000340 e2 fb 18 39 5e 7a 9a bc 97 6e 8e bb 4e b6 5f bc
       0.00014589683 -0.018857177 -0.0043466794 -0.013654305
000350 0a fc 01 bc 7d 6a 83 b9 c7 c3 1f bc 40 82 56 3b
       -0.007933626 -0.00025065607 -0.009751267 0.0032731444
000360 97 5d 8c bc c0 aa b6 3c 1e 92 a5 ba f7 b8 49 3c
       -0.01713447 0.022298217 -0.0012632047 0.012312165
000370 3b 83 49 3b c0 16 3e 3c 9a c5 2f bc 77 d8 02 ba
       0.0030748385 0.011602104 -0.010728264 -0.0004991362
000380 f2 28 9f bb 4e 79 22 bc 9e 27 91 3c 16 d8 e1 3b
       -0.004857176 -0.009916617 0.017719086 0.0068922145
000390 d3 6d 88 3c 43 b3 fd bb 89 82 ef bb cf 57 2f 3c
       0.01665393 -0.007742317 -0.007309262 0.010702088
0003a0 c9 04 0f 3c 51 62 b9 3a 51 74 4f bc 17 10 9b 3b
       0.008729168 0.001414368 -0.012662009 0.0047321427
0003b0 e3 fb 59 3c 05 b7 3a 3c bb f2 26 3d c9 63 ac 3c
       0.013304683 0.011396174 0.04075883 0.021043675
0003c0 33 5a 93 3c b0 81 9c bc 75 98 82 3c 72 a5 9b bc
       0.017987346 -0.019104809 0.015941838 -0.018999789
0003d0 d9 a7 f7 bb 7f 51 ad bc 71 3e ae 3b 50 5b de bb
       -0.007557851 -0.021157024 0.005317502 -0.0067857876
0003e0 9e 6a 10 bb 26 af d3 3b 4b 5f 85 3c 16 e5 89 3c
       -0.0022036205 0.0064600883 0.01628079 0.01683287
0003f0 05 b6 eb bc f5 8a c3 3c 16 01 37 bc 6c 71 d9 bc
       -0.028773317 0.02386997 -0.0111696925 -0.026543342

action_model._discrete_distribution.branches.0.bias f4 [3]
000000 4c 72 b8 b9 ed 2b 54 bc f6 f4 66 3c
       -0.00035180373 -0.012949926 0.014096489

exp_avg f4 [128, 24]
000000 d0 d7 65 39 d1 b2 7f b7 87 03 94 b8 f4 ba 2d 39
       0.00021919538 -1.5240818e-05 -7.057847e-05 0.00016568211
000010 a8 92 7f b7 28 b2 a7 37 2d 8c 82 39 00 00 00 00
       -1.52333305e-05 1.9990912e-05 0.0002489997 0.0
000020 c6 6c c1 38 d0 d7 65 b9 d1 b2 7f b7 c4 9d 51 38
       9.223218e-05 -0.00021919538 -1.5240818e-05 4.9976414e-05
000030 2b d6 64 39 f6 52 61 b5 53 2f 5d b8 b4 64 39 39
       0.00021823558 -8.3939756e-07 -5.273458e-05 0.0001768049
000040 18 9f 45 b5 b9 aa 1e 38 be 38 4e 39 00 00 00 00
       -7.361973e-07 3.7829133e-05 0.00019666829 0.0
000050 30 78 91 38 2b d6 64 b9 f6 52 61 b5 20 12 c3 37
       6.9365255e-05 -0.00021823558 -8.3939756e-07 2.3254252e-05
000060 f2 be 86 39 62 8a 6e b8 91 8c 8b 37 f8 0e 96 39
       0.00025700737 -5.68725e-05 1.6635548e-05 0.00028621382
000070 94 7b 6e b8 68 9e e3 b8 a0 3c 74 39 00 00 00 00
       -5.6858713e-05 -0.00010853709 0.00023292238 0.0
000080 fe 0d 31 39 f2 be 86 b9 62 8a 6e b8 39 f5 90 38
       0.00016885248 -0.00025700737 -5.68725e-05 6.912131e-05
000090 89 fb 83 39 18 d7 ca b5 80 d5 73 37 e9 40 9a 39
       0.00025173675 -1.5112773e-06 1.4533638e-05 0.0002942153
0000a0 e3 e6 b1 b5 ca e2 9e b8 74 12 68 39 00 00 00 00
       -1.3254725e-06 -7.57627e-05 0.00022132118 0.0
0000b0 0f 82 78 39 89 fb 83 b9 18 d7 ca b5 3b c9 88 38
       0.00023699574 -0.00025173675 -1.5112773e-06 6.5224674e-05
0000c0 99 bd 5f b9 0c 98 cb b7 b3 33 81 b9 4e 93 f6 39
       -0.00021337568 -2.4270288e-05 -0.00024643316 0.00047030527
0000d0 51 b5 cb b7 0a 1c 14 39 c9 c7 b1 b9 00 00 00 00
       -2.4283918e-05 0.00014124825 -0.00033908922 0.0
0000e0 e5 9c 32 b9 99 bd 5f 39 0c 98 cb b7 75 8a f5 b9
       -0.0001703385 0.00021337568 -2.4270288e-05 -0.000468332
0000f0 8a 0e 61 b9 9b 06 d6 35 8f 0c 92 b9 9b 4e e5 39
       -0.00021463088 1.5946165e-06 -0.00027856647 0.0004373685
000100 57 b6 bb 35 b2 d2 e9 38 3f e4 a9 b9 00 00 00 00
       1.3985654e-06 0.00011149551 -0.00032404248 0.0
000110 45 1d a4 b8 8a 0e 61 39 9b 06 d6 35 03 ab dc b9
       -7.825581e-05 0.00021463088 1.5946165e-06 -0.00042089084
000120 f1 64 c5 37 9b 81 ad 34 a3 2a 0f 37 38 2a d0 38
       2.3531235e-05 3.2318061e-07 8.533391e-06 9.926077e-05
000130 61 95 af 34 59 fd 80 b8 28 c3 09 39 00 00 00 00
       3.2704978e-07 -6.150705e-05 0.0001313804 0.0
000140 84 9c 42 b8 f1 64 c5 b7 9b 81 ad 34 7d 5c 28 b9
       -4.639897e-05 -2.3531235e-05 3.2318061e-07 -0.00016056183
000150 0f 80 cb 37 80 60 ee b4 e3 e0 1f 37 e7 46 df 38
       2.4259118e-05 -4.4401168e-07 9.529499e-06 0.00010646675
000160 ca 11 d1 b4 fc 1d 6b b8 38 d1 1d 39 00 00 00 00
       -3.8942227e-07 -5.605629e-05 0.00015050627 0.0
000170 d0 5b ab 38 0f 80 cb b7 80 60 ee b4 46 52 37 b9
       8.171017e-05 -2.4259118e-05 -4.4401168e-07 -0.00017482889
000180 e9 3a d4 38 46 9e 1c b9 df df aa b8 74 9e b8 39
       0.000101199206 -0.00014936281 -8.147931e-05 0.00035213272
000190 f6 9d 1c b9 e4 86 58 b6 f0 04 92 39 00 00 00 00
       -0.00014936164 -3.2265025e-06 0.0002785097 0.0
0001a0 f0 ec 17 b8 e9 3a d4 b8 46 9e 1c b9 54 22 8e b9
       -3.622187e-05 -0.000101199206 -0.00014936281 -0.00027109927
0001b0 7e b8 d2 38 f4 fa 57 33 0e 78 8e b8 b3 1e bd 39
       0.00010047945 5.028683e-08 -6.7934496e-05 0.00036071762
0001c0 2a 6d 3d 33 4f 01 45 37 65 30 78 39 00 00 00 00
       4.4104276e-08 1.174242e-05 0.00023669151 0.0
0001d0 b5 11 68 39 7e b8 d2 b8 f4 fa 57 33 01 8a a5 b9
       0.0002213184 -0.00010047945 5.028683e-08 -0.00031574073
0001e0 d5 4a 9d b8 8e 43 5c b7 b6 93 02 b9 1e 59 48 37
       -7.500282e-05 -1.3128751e-05 -0.00012452793 1.1941678e-05
0001f0 e6 3a 5c b7 e6 b3 4d b8 a2 65 eb b7 00 00 00 00
       -1.3126735e-05 -4.9043352e-05 -2.806151e-05 0.0
000200 cf 56 64 b9 d5 4a 9d 38 8e 43 5c b7 9e 7f 0d b9
       -0.00021776113 7.500282e-05 -1.3128751e-05 -0.00013494349
000210 07 61 97 b8 18 f5 66 b4 06 30 e6 b8 7e 39 22 37
       -7.218314e-05 -2.1509584e-07 -0.000109762 9.669338e-06
000220 e4 8f 4a b4 17 a1 98 b8 bf 38 0d b8 00 00 00 00
       -1.8865063e-07 -7.27793e-05 -3.366987e-05 0.0
000230 7c 2e 08 b9 07 61 97 38 18 f5 66 b4 c7 9f 01 b9
       -0.00012987287 7.218314e-05 -2.1509584e-07 -0.0001236192
000240 15 a4 92 b8 f4 8f 46 37 f2 64 a9 37 73 ee 1d b8
       -6.992385e-05 1.1835236e-05 2.0193376e-05 -3.765379e-05
000250 d3 84 46 37 73 e8 1c b8 12 d0 17 b8 00 00 00 00
       1.1832645e-05 -3.7409784e-05 -3.6194986e-05 0.0
000260 86 cf 8b 38 15 a4 92 38 f4 8f 46 37 8e 56 a5 38
       6.666691e-05 6.992385e-05 1.1835236e-05 7.883935e-05
000270 fe bf 8e b8 82 9f 97 34 7c 81 6a 37 4e 0d 22 b8
       -6.806849e-05 2.8242e-07 1.3977635e-05 -3.86362e-05
000280 50 fb 84 34 84 97 0c b8 d7 fb c6 b7 00 00 00 00
       2.476977e-07 -3.351971e-05 -2.3720711e-05 0.0
000290 20 f3 16 37 fe bf 8e 38 82 9f 97 34 2a c1 8d 38
       8.997304e-06 6.806849e-05 2.8242e-07 6.7593835e-05
0002a0 be 54 40 38 20 d9 ad 37 ae 26 b3 35 0b 00 1d b7
       4.585529e-05 2.0724314e-05 1.3347797e-06 -9.357939e-06
0002b0 8d d1 ad 37 40 86 94 b8 f4 d9 27 39 00 00 00 00
       2.0720787e-05 -7.082196e-05 0.00016007555 0.0
0002c0 a2 f0 26 39 be 54 40 b8 20 d9 ad 37 8a c9 21 39
       0.00015920636 -4.585529e-05 2.0724314e-05 0.00015429236
0002d0 60 1e 2f 38 d7 b9 ca 34 46 7a 99 35 6e 96 77 35
       4.175154e-05 3.7760648e-07 1.1434975e-06 9.2233574e-07
0002e0 39 cd b1 34 ff f0 51 b8 d8 d5 29 39 00 00 00 00
       3.3118138e-07 -5.0053928e-05 0.00016196759 0.0
0002f0 0a 9e ba 38 60 1e 2f b8 d7 b9 ca 34 9d e3 0d 39
       8.898608e-05 -4.175154e-05 3.7760648e-07 0.000135316
000300 9f 2d 55 b8 67 bb 2f b8 ac 3c bc b8 41 c8 2d 39
       -5.0825645e-05 -4.1897783e-05 -8.9758396e-05 0.00016573166
000310 7d bf 2f b8 e8 c0 14 38 98 b2 6b 37 00 00 00 00
       -4.190159e-05 3.5465608e-05 1.4048674e-05 0.0
000320 b9 e4 05 b9 9f 2d 55 38 67 bb 2f b8 de c0 4c b9
       -0.00012769074 5.0825645e-05 -4.1897783e-05 -0.00019526805
000330 b1 4d 2f b8 bb a2 02 35 57 32 af b8 3c fb 2a 39
       -4.1795607e-05 4.866558e-07 -8.354027e-05 0.00016306055
000340 34 26 e5 34 54 fb c0 37 a6 d3 9d 37 00 00 00 00
       4.268237e-07 2.3005217e-05 1.8814415e-05 0.0
000350 12 c4 a1 b8 b1 4d 2f 38 bb a2 02 35 58 5b 60 b9
       -7.713599e-05 4.1795607e-05 4.866558e-07 -0.00021396333
000360 b8 3d e1 b8 68 22 1c 37 38 72 23 38 3d 5e 70 36
       -0.00010740332 9.306335e-06 3.8968603e-05 3.581764e-06
000370 b3 18 1c 37 84 ff 46 38 c2 52 d2 b8 00 00 00 00
       9.304075e-06 4.7444846e-05 -0.00010028995 0.0
000380 ac 05 76 37 b8 3d e1 38 68 22 1c 37 95 5c 50 b8
       1.4664063e-05 0.00010740332 9.306335e-06 -4.967729e-05
000390 3d 9e e4 b8 bf f8 84 34 8a 03 01 38 5e ef 26 b6
       -0.000109013614 2.4767903e-07 3.0759293e-05 -2.4875258e-06
0003a0 24 3f 69 34 e2 6a 54 38 24 4f 92 b8 00 00 00 00
       2.1722786e-07 5.064428e-05 -6.9765636e-05 0.0
0003b0 8b 73 5d 38 3d 9e e4 38 bf f8 84 34 79 ea 2d b8
       5.2798114e-05 0.000109013614 2.4767903e-07 -4.1464784e-05
0003c0 69 c5 1f 37 56 95 a1 37 24 3b 75 b9 68 6f b3 39
       9.523102e-06 1.9262236e-05 -0.00023387052 0.00034224545
0003d0 1f 98 a1 37 b5 68 87 b8 61 50 f8 b8 00 00 00 00
       1.9263533e-05 -6.456805e-05 -0.00011840533 0.0
0003e0 db 7b 6d b9 69 c5 1f b7 56 95 a1 37 69 9a 9a b9
       -0.00022648221 -9.523102e-06 1.9262236e-05 -0.00029488213
0003f0 65 c3 27 37 23 48 38 b4 6b da 2c b9 39 ff aa 39
       9.9994695e-06 -1.7162579e-07 -0.00016484565 0.00032615082

exp_avg_sq f4 [128, 24]
000000 ea 60 12 34 c7 28 29 31 7b 67 f6 33 ab 0c ea 33
       1.3632567e-07 2.4615916e-09 1.1474091e-07 1.08987784e-07
000010 7b 05 29 31 59 70 05 34 a9 85 33 34 00 00 00 00
       2.4595852e-09 1.2427462e-07 1.67193e-07 0.0
000020 0d a4 b1 33 ea 60 12 34 c7 28 29 31 9c 7c de 33
       8.2720454e-08 1.3632567e-07 2.4615916e-09 1.0360347e-07
000030 c8 ff 0f 34 07 a9 b9 2c 08 bf f4 33 6c 59 f1 33
       1.3410965e-07 5.276782e-12 1.1396884e-07 1.1238703e-07
000040 6d d0 8e 2c a9 f6 06 34 25 30 30 34 00 00 00 00
       4.0590226e-12 1.2569457e-07 1.6408792e-07 0.0
000050 fc 57 a6 33 c8 ff 0f 34 07 a9 b9 2c 29 8c dc 33
       7.7459816e-08 1.3410965e-07 5.276782e-12 1.0270043e-07
000060 b8 9f 55 34 25 ce b5 31 b7 cf 25 34 ff 47 26 34
       1.9895276e-07 5.2912292e-09 1.5442389e-07 1.5486147e-07
000070 12 b6 b5 31 c9 70 18 34 9e 44 2f 34 00 00 00 00
       5.2884923e-09 1.4197134e-07 1.6323108e-07 0.0
000080 c7 1b 26 34 b8 9f 55 34 25 ce b5 31 f8 0b 23 34
       1.547006e-07 1.9895276e-07 5.2912292e-09 1.5184912e-07
000090 c1 2e 52 34 50 ba 03 2d b9 a0 26 34 25 f1 29 34
       1.9574783e-07 7.4878576e-12 1.5518425e-07 1.582708e-07
0000a0 f6 a7 ca 2c 70 6b 19 34 64 9b 2c 34 00 00 00 00
       5.7598327e-12 1.4288321e-07 1.6075279e-07 0.0
0000b0 b1 11 2c 34 c1 2e 52 34 50 ba 03 2d 6e f5 24 34
       1.6025184e-07 1.9574783e-07 7.4878576e-12 1.5362977e-07
0000c0 d0 3a 96 35 02 19 7c 35 b7 02 6a 35 f6 6a 86 35
       1.1192988e-06 9.3913707e-07 8.7175744e-07 1.0014908e-06
0000d0 ed 17 7c 35 4a 42 7f 35 6a 83 ae 35 00 00 00 00
       9.391213e-07 9.5091366e-07 1.3002257e-06 0.0
0000e0 57 09 45 35 d0 3a 96 35 02 19 7c 35 c9 6a 85 35
       7.340181e-07 1.1192988e-06 9.3913707e-07 9.940351e-07
0000f0 9f 92 98 35 9b ad 47 2e 7a bf 6d 35 29 9f 89 35
       1.1367555e-06 4.5401554e-11 8.8568015e-07 1.0253617e-06
000100 d2 98 19 2e 08 74 83 35 69 2e ad 35 00 00 00 00
       3.4923904e-11 9.79403e-07 1.2903012e-06 0.0
000110 0b b0 43 35 9f 92 98 35 9b ad 47 2e dc e6 85 35
       7.2899337e-07 1.1367555e-06 4.5401554e-11 9.976461e-07
000120 19 7a e0 34 1a d1 03 32 02 29 21 35 5d e6 55 35
       4.181209e-07 7.672748e-09 6.003685e-07 7.9683906e-07
000130 18 b2 03 32 ca ec da 34 b6 5b 27 35 00 00 00 00
       7.665697e-09 4.077795e-07 6.2345805e-07 0.0
000140 66 53 21 35 19 7a e0 34 1a d1 03 32 a1 7b 3a 35
       6.0098535e-07 4.181209e-07 7.672748e-09 6.9470303e-07
000150 33 ce dc 34 e4 35 a2 2d 25 d9 21 35 bb c6 5c 35
       4.1128223e-07 1.84412e-11 6.029316e-07 8.224558e-07
000160 47 8d 79 2d 08 07 d5 34 72 bd 27 35 00 00 00 00
       1.4185381e-11 3.9679458e-07 6.248803e-07 0.0
000170 ee e6 1b 35 33 ce dc 34 e4 35 a2 2d 67 df 36 35
       5.8078047e-07 4.1128223e-07 1.84412e-11 6.8125377e-07
000180 e7 c8 16 35 45 9f f7 33 c2 87 56 35 0f aa 79 35
       5.6171706e-07 1.1530805e-07 7.9918766e-07 9.3007196e-07
000190 b4 9a f7 33 1e ad 2e 35 1f 88 78 35 00 00 00 00
       1.1529974e-07 6.507197e-07 9.258528e-07 0.0
0001a0 d5 14 66 35 e7 c8 16 35 45 9f f7 33 ac a7 72 35
       8.571199e-07 5.6171706e-07 1.1530805e-07 9.039602e-07
0001b0 37 f0 13 35 eb 12 c0 2d 7b 03 59 35 73 3e 80 35
       5.5111326e-07 2.1836274e-11 8.0843864e-07 9.554918e-07
0001c0 6c bf 93 2d 4e 20 2c 35 53 01 7c 35 00 00 00 00
       1.6796974e-11 6.4122e-07 9.387924e-07 0.0
0001d0 ee 47 5f 35 37 f0 13 35 eb 12 c0 2d 97 90 6d 35
       8.3178645e-07 5.5111326e-07 2.1836274e-11 8.8499786e-07
0001e0 67 09 ce 33 bb 36 20 32 0d cb 01 34 76 74 1c 34
       9.594333e-08 9.32567e-09 1.208793e-07 1.4571e-07
0001f0 92 30 20 32 bb 8a f9 33 42 9d 18 34 00 00 00 00
       9.324269e-09 1.1620201e-07 1.4213313e-07 0.0
000200 ca 06 0d 34 67 09 ce 33 bb 36 20 32 c8 b1 14 34
       1.3134118e-07 9.594333e-08 9.32567e-09 1.384825e-07
000210 61 45 cb 33 d9 ca 8c 2c 1b 71 00 34 5f de 20 34
       9.465544e-08 4.00156e-12 1.1962076e-07 1.498206e-07
000220 cf 99 58 2c d0 93 fb 33 07 33 19 34 00 00 00 00
       3.0780827e-12 1.1714985e-07 1.4267799e-07 0.0
000230 cb 73 07 34 61 45 cb 33 d9 ca 8c 2c 04 34 16 34
       1.261498e-07 9.465544e-08 4.00156e-12 1.3988762e-07
000240 6d fc 85 33 82 81 9e 30 ea 44 b8 33 e5 ae e8 33
       6.239211e-08 1.1532821e-09 8.580703e-08 1.0835155e-07
000250 0a 5b 9e 30 ba 90 9a 33 ca 78 a9 33 00 00 00 00
       1.1521888e-09 7.1975094e-08 7.891647e-08 0.0
000260 de d7 a5 33 6d fc 85 33 82 81 9e 30 84 66 bd 33
       7.722677e-08 6.239211e-08 1.1532821e-09 8.819646e-08
000270 12 d2 83 33 14 f9 4d 2c 33 5c b8 33 49 aa ec 33
       6.1383744e-08 2.9270518e-12 8.5849386e-08 1.1020581e-07
000280 4c 70 1e 2c 44 82 94 33 0b 13 a8 33 00 00 00 00
       2.2515488e-12 6.915482e-08 7.8265735e-08 0.0
000290 29 14 9e 33 12 d2 83 33 14 f9 4d 2c 21 1c c3 33
       7.3611155e-08 6.1383744e-08 2.9270518e-12 9.085512e-08
0002a0 19 dc 05 34 5c 23 73 33 83 d9 12 34 91 9e 33 34
       1.2466661e-07 5.6610006e-08 1.367644e-07 1.672836e-07
0002b0 fe 21 73 33 c1 7a f8 33 bb 36 4b 34 00 00 00 00
       5.6608762e-08 1.1570729e-07 1.8925759e-07 0.0
0002c0 ac 95 e5 33 19 dc 05 34 5c 23 73 33 15 e3 21 34
       1.06908686e-07 1.2466661e-07 5.6610006e-08 1.5076905e-07
0002d0 88 93 03 34 81 c7 b0 2c 4b 1d 10 34 b2 de 38 34
       1.2253997e-07 5.0243702e-12 1.3421702e-07 1.7217351e-07
0002e0 83 fb 87 2c 62 c9 f6 33 79 dd 47 34 00 00 00 00
       3.864854e-12 1.1491899e-07 1.861389e-07 0.0
0002f0 4f 10 eb 33 88 93 03 34 81 c7 b0 2c d8 3b 20 34
       1.0946007e-07 1.2253997e-07 5.0243702e-12 1.4922932e-07
000300 96 55 6c 34 fa 98 8f 33 f5 4c 9d 34 f9 f2 c8 34
       2.2010349e-07 6.686783e-08 2.9299522e-07 3.742969e-07
000310 f0 96 8f 33 97 d8 6b 34 ab 80 8c 34 00 00 00 00
       6.686412e-08 2.1964875e-07 2.617065e-07 0.0
000320 bd de c3 34 96 55 6c 34 fa 98 8f 33 b5 70 b1 34
       3.6483644e-07 2.2010349e-07 6.686783e-08 3.3050824e-07
000330 4c d1 69 34 2a df 33 2d ac c3 9d 34 f5 59 cc 34
       2.1775958e-07 1.0224524e-11 2.93859e-07 3.8063413e-07
000340 79 5c 0a 2d d3 dc 55 34 8a 30 8b 34 00 00 00 00
       7.864925e-12 1.9917506e-07 2.5926084e-07 0.0
000350 f1 d7 c1 34 4c d1 69 34 2a df 33 2d 43 2e b0 34
       3.610617e-07 2.1775958e-07 1.0224524e-11 3.2816214e-07
000360 77 d0 94 33 82 1b 00 32 79 fb d7 33 78 fa fb 33
       6.9297066e-08 7.456835e-09 1.005746e-07 1.1733658e-07
000370 5a 16 00 32 6b 85 b3 33 ab a7 f3 33 00 00 00 00
       7.455663e-09 8.3596056e-08 1.1346068e-07 0.0
000380 59 b0 ee 33 77 d0 94 33 82 1b 00 32 21 89 f7 33
       1.1114816e-07 6.9297066e-08 7.456835e-09 1.15267774e-07
000390 6e 6c 93 33 dc 2e 53 2c 2d d6 d9 33 a4 a4 00 34
       6.864944e-08 3.0010916e-12 1.0143808e-07 1.1980825e-07
0003a0 5f 72 22 2c 8b dc ae 33 1b e1 f1 33 00 00 00 00
       2.3085073e-12 8.142623e-08 1.12633835e-07 0.0
0003b0 ff ff e6 33 6e 6c 93 33 dc 2e 53 2c b2 97 f1 33
       1.0756775e-07 6.864944e-08 3.0010916e-12 1.125003e-07
0003c0 1c fb 0d 35 10 73 6d 32 5e 3f 56 35 de ec 63 35
       5.2892005e-07 1.3821378e-08 7.9813424e-07 8.4908777e-07
0003d0 ee 4f 6d 32 71 6e 2c 35 b3 2a 71 35 00 00 00 00
       1.38133895e-08 6.4235707e-07 8.984163e-07 0.0
0003e0 4f 19 3e 35 1c fb 0d 35 10 73 6d 32 8f ad 57 35
       7.0817345e-07 5.2892005e-07 1.3821378e-08 8.03463e-07
0003f0 79 e2 0b 35 05 2d b4 2d da 1b 55 35 37 26 6a 35
       5.2111096e-07 2.0483623e-11 7.938921e-07 8.7227403e-07

exp_avg f4 [128]
000000 40 71 10 b9 7e 07 82 b9 22 33 89 39 51 cf 98 b8
       -0.00013775099 -0.00024801114 0.00026168773 -7.2865405e-05
000010 f3 73 0a 37 b3 0d 14 b8 d0 64 42 38 bc f4 81 38
       8.2524375e-06 -3.5298708e-05 4.6347093e-05 6.196785e-05
000020 73 7c a7 38 23 7b 2a 38 cc 43 ec b7 3e 47 0b 39
       7.986361e-05 4.064584e-05 -2.8164963e-05 0.00013282613
000030 c2 c5 25 b9 89 95 57 b6 9a 3d b5 38 81 8a 43 39
       -0.00015809297 -3.2124537e-06 8.642227e-05 0.00018648246
000040 6e c7 5d b7 39 da 86 b8 85 f0 29 b9 e1 2c c5 b8
       -1.321906e-05 -6.430265e-05 -0.00016206696 -9.4020514e-05
000050 56 18 fa b7 e2 11 02 3a 16 0e e6 39 9f 46 65 39
       -2.9813655e-05 0.0004961771 0.00043879513 0.0002186545
000060 90 04 f0 b9 7f 6b 6d 39 7c 69 fb b8 cf 55 88 38
       -0.00045779767 0.00022642127 -0.00011988261 6.5009684e-05
000070 b2 fe a3 b9 93 04 41 39 fa 51 f4 b7 f3 7e 39 38
       -0.00031279546 0.00018407618 -2.912524e-05 4.4225668e-05
000080 2d 2e 69 38 56 4c 0d b9 eb e0 8f 38 3f 6c 4c 37
       5.5594533e-05 -0.00013475245 6.8606656e-05 1.21845505e-05
000090 90 aa e5 39 39 cc 4a 39 8c 26 58 b8 59 96 1c b9
       0.00043805363 0.000193403 -5.1534313e-05 -0.00014933328
0000a0 9e a4 ae b7 b9 08 af 38 b6 6e 56 b8 de b7 9a b8
       -2.0819072e-05 8.346275e-05 -5.1124684e-05 -7.37754e-05
0000b0 2d 39 db 39 eb d9 4d 38 cd c4 ed 37 f8 fa b4 b8
       0.00041813534 4.907876e-05 2.8344244e-05 -8.6298154e-05
0000c0 5e d3 8e b9 5b e3 1b 38 08 86 81 38 1d 9c ad b5
       -0.0002724183 3.716662e-05 6.1761646e-05 -1.2934939e-06
0000d0 62 74 21 b9 a3 92 32 b9 c4 3a bc 37 42 98 6f 39
       -0.00015397512 -0.00017030029 2.2438711e-05 0.00022849537
0000e0 76 08 08 39 54 37 f0 39 c4 61 81 b9 4e 33 88 b8
       0.00012973123 0.0004581759 -0.00024677638 -6.4945416e-05
0000f0 f5 69 c9 b8 1e 6b 13 3a e6 57 de b7 f9 a3 5e b9
       -9.604163e-05 0.00056235667 -2.6505393e-05 -0.00021232654
000100 7c d4 79 b7 0e 3c f0 39 64 35 fa b7 bc a4 c8 b9
       -1.4891029e-05 0.0004582111 -2.9827184e-05 -0.0003826971
000110 40 e1 f2 b9 92 51 b0 b8 fc 56 c2 b8 89 47 f3 b9
       -0.0004632566 -8.407528e-05 -9.266843e-05 -0.0004640187
000120 b6 0e 30 b8 39 35 9a 39 48 35 1f 38 21 98 90 38
       -4.197537e-05 0.00029412823 3.7958176e-05 6.894791e-05
000130 11 49 64 38 57 71 18 37 c2 75 89 39 e5 9d e5 39
       5.4427484e-05 9.086295e-06 0.00026218413 0.00043795924
000140 2d f8 72 39 74 2d c9 39 d2 00 29 38 7e 95 b9 38
       0.00023171371 0.00038371573 4.0293504e-05 8.8493325e-05
000150 08 be fd b8 67 a5 80 38 11 99 45 38 9d 37 e2 39
       -0.00012099376 6.134324e-05 4.7111014e-05 0.00043147514
000160 03 be 1b 39 f1 59 f8 39 7a 12 3d b8 86 0d 8b b7
       0.00014852737 0.00047369258 -4.507832e-05 -1.6576389e-05
000170 a9 53 a6 38 dd 18 5f b9 05 6e c8 38 bd ad da b8
       7.93108e-05 -0.000212762 9.557236e-05 -0.00010427411
000180 37 cb f2 b7 82 f2 8f 37 6b 7a 64 b4 d0 d7 99 b8
       -2.8943277e-05 1.7159855e-05 -2.127869e-07 -7.335807e-05
000190 12 f4 07 39 2c ea ce b8 4a 98 51 39 58 4f 31 39
       0.00012965527 -9.8664634e-05 0.00019988525 0.00016909593
0001a0 da af 62 b9 9b 7b 2f 39 23 cb d1 39 d1 d2 42 39
       -0.0002161855 0.00016735347 0.00040014935 0.00018579817
0001b0 19 ee ef b7 eb de b8 37 10 ca 81 b8 0c 36 9f b9
       -2.8601893e-05 2.2038314e-05 -6.1888364e-05 -0.0003036711
0001c0 c1 a3 a4 38 cd 00 1b 38 e9 da 40 b9 ba 7e 1a b8
       7.850631e-05 3.6955626e-05 -0.00018392097 -3.6834484e-05
0001d0 14 17 f1 b8 21 01 bd 36 83 74 0f 3a 2c 50 19 b9
       -0.00011496074 5.6327704e-06 0.00054723787 -0.00014621083
0001e0 28 40 89 38 cf 54 76 b9 7c 2d 97 38 c0 f6 a8 b8
       6.544619e-05 -0.00023491982 7.208713e-05 -8.056825e-05
0001f0 4d 82 47 b9 2a 09 ee b8 a1 11 b7 b7 ec 15 65 39
       -0.0001902666 -0.00011350431 -2.1823509e-05 0.00021847308
