Assets/Trining/results/MassiveTraining/PingPongAgent/PingPongAgent-999936.pt (torch, 498871 bytes, 41 tensors)

network_body.observation_encoder.processors.0.normalizer.running_mean f4 [24]
000000 05 c2 3c bb 01 93 3e 40 03 8e c2 3f 2a dd f3 bf
       -0.0028802168 2.9777224 1.5199589 -1.9051869
000010 01 5b bd 3f 94 a7 43 3f ff 24 e2 be a4 c5 95 b3
       1.4793397 0.7642758 -0.4416885 -6.974304e-08
000020 39 dc ef 3c 7d 19 d8 3f 01 93 3e 40 66 49 02 3f
       0.029279815 1.6882778 2.9777224 0.5089325
000030 57 c1 3c bb b5 fe 3f 40 c9 2a c5 3f 05 e3 f9 bf
       -0.0028801763 2.999921 1.5403682 -1.9522406
000040 0d c7 be 3f 9e 0d 44 3f 85 22 f5 be 9e c7 95 b3
       1.4904495 0.7658328 -0.478779 -6.974663e-08
000050 20 12 c0 3b 99 54 d5 3f b5 fe 3f 40 5f e0 07 3f
       0.0058615357 1.6666442 2.999921 0.5307674

network_body.observation_encoder.processors.0.normalizer.running_variance f4 [24]
000000 cc 99 ef 4e 7e 57 81 47 ee 07 d9 4c 36 5d 17 4e
       2.0099169e+09 66222.984 1.1378674e+08 6.348671e+08
000010 e2 dd cd 46 7e f1 2e 4d b0 25 77 4e 00 00 80 3f
       26350.941 1.8344138e+08 1.03661056e+09 1.0
000020 af 2c 13 4e 2a ee 0f 50 7e 57 81 47 d5 3c f5 4e
       6.172948e+08 9.659001e+09 66222.984 2.0572023e+09
000030 4f 62 f1 4e db fe 1f 41 28 37 da 4c e2 3c 1b 4e
       2.0248759e+09 9.999721 1.1440774e+08 6.511146e+08
000040 74 66 1c 46 ec ed 2f 4d ac 2b 79 4e 00 00 80 3f
       10009.613 1.8447533e+08 1.0450972e+09 1.0
000050 84 09 14 4e 23 01 11 50 db fe 1f 41 c3 10 f7 4e
       6.209129e+08 9.731083e+09 9.999721 2.0725354e+09

network_body.processors.0.normalizer.running_mean f4 [24]
000000 05 c2 3c bb 01 93 3e 40 03 8e c2 3f 2a dd f3 bf
       -0.0028802168 2.9777224 1.5199589 -1.9051869
000010 01 5b bd 3f 94 a7 43 3f ff 24 e2 be a4 c5 95 b3
       1.4793397 0.7642758 -0.4416885 -6.974304e-08
000020 39 dc ef 3c 7d 19 d8 3f 01 93 3e 40 66 49 02 3f
       0.029279815 1.6882778 2.9777224 0.5089325
000030 57 c1 3c bb b5 fe 3f 40 c9 2a c5 3f 05 e3 f9 bf
       -0.0028801763 2.999921 1.5403682 -1.9522406
000040 0d c7 be 3f 9e 0d 44 3f 85 22 f5 be 9e c7 95 b3
       1.4904495 0.7658328 -0.478779 -6.974663e-08
000050 20 12 c0 3b 99 54 d5 3f b5 fe 3f 40 5f e0 07 3f
       0.0058615357 1.6666442 2.999921 0.5307674

network_body.processors.0.normalizer.running_variance f4 [24]
000000 cc 99 ef 4e 7e 57 81 47 ee 07 d9 4c 36 5d 17 4e
       2.0099169e+09 66222.984 1.1378674e+08 6.348671e+08
000010 e2 dd cd 46 7e f1 2e 4d b0 25 77 4e 00 00 80 3f
       26350.941 1.8344138e+08 1.03661056e+09 1.0
000020 af 2c 13 4e 2a ee 0f 50 7e 57 81 47 d5 3c f5 4e
       6.172948e+08 9.659001e+09 66222.984 2.0572023e+09
000030 4f 62 f1 4e db fe 1f 41 28 37 da 4c e2 3c 1b 4e
       2.0248759e+09 9.999721 1.1440774e+08 6.511146e+08
000040 74 66 1c 46 ec ed 2f 4d ac 2b 79 4e 00 00 80 3f
       10009.613 1.8447533e+08 1.0450972e+09 1.0
000050 84 09 14 4e 23 01 11 50 db fe 1f 41 c3 10 f7 4e
       6.209129e+08 9.731083e+09 9.999721 2.0725354e+09

network_body._body_endoder.seq_layers.0.weight f4 [128, 24]
000000 17 e5 b6 3d 69 fd ba 3c f5 d6 8a be ab 4d 87 bd
       0.08930414 0.022825914 -0.27117124 -0.06606611
000010 ce 17 05 be f9 9e 80 3e d9 5c 05 be e5 5c c9 bd
       -0.12997362 0.25121287 -0.130237 -0.09832171
000020 d4 a1 c0 3e 78 7f 1a 3e a2 5d 2c be 78 2a 4a 3e
       0.37623465 0.15087688 -0.16832593 0.19742763
000030 75 89 e8 bd 53 19 3d be 0e 0a bc be 2d a1 7a bd
       -0.11354343 -0.18466692 -0.3672642 -0.061188865
000040 b4 5e 88 be 8d cd d4 bd 1b b4 ee bd 88 a1 50 bd
       -0.26634753 -0.10390768 -0.11655446 -0.0509353
000050 51 8d f6 3b 7f 15 b6 bd 42 0a 1f 3d db 9a 1d 3e
       0.0075241704 -0.08890819 0.038828142 0.15391104
000060 7d 47 c8 bd dc 30 54 3e 0b 11 5c be fb fb 19 be
       -0.0977926 0.20721763 -0.21490876 -0.15037529
000070 ad 85 15 3e 29 b6 8c 3e ec 93 51 3e 0b e6 c5 bc
       0.14601775 0.27482727 0.20466584 -0.024157545
000080 69 ff 37 bd 73 3c 08 3e 13 66 2d bd 79 c3 30 3e
       -0.044921312 0.1330431 -0.042333674 0.17262067
000090 23 3f c3 bc 82 3a 9e 3e af 72 f3 bd f5 58 45 bc
       -0.023833817 0.30904013 -0.118871085 -0.012045135
0000a0 f4 29 04 3d ed 1e 19 3e 70 25 bf be 04 d6 53 be
       0.032266572 0.14953203 -0.3733325 -0.20687109
0000b0 82 44 79 3d cd 3c 46 be f9 94 23 be b6 16 b6 bd
       0.06085635 -0.19359131 -0.15974797 -0.088910505
0000c0 23 c4 de 3d 75 10 3c be 61 9c a6 be d3 d9 d1 3d
       0.10877254 -0.18365653 -0.32541183 0.10246625
0000d0 29 ad a7 3d 49 7f 42 3e d1 14 19 3f a3 49 b4 be
       0.081873246 0.18993868 0.5979739 -0.3521243
0000e0 71 f7 39 bd 11 7b 44 3c ed 37 92 3e 2c e2 b8 3b
       -0.045401994 0.011992232 0.28558293 0.005642196
0000f0 01 24 8c bd d9 43 b4 3c cd 41 39 be 8e f2 29 3d
       -0.06842805 0.022005009 -0.18091507 0.041491084
000100 e7 22 b0 bd 6f 6a d2 3d a9 e2 81 3e 79 ab 25 be
       -0.08600407 0.10274207 0.2536824 -0.16178693
000110 8f 12 68 3e 99 5a 78 be 20 7f 66 3e 26 40 06 be
       0.2266333 -0.2425331 0.22509432 -0.13110408
000120 93 42 bd 3e 32 fc a2 bd c2 b4 a8 be a5 9a bf 3e
       0.36964855 -0.07958259 -0.32950407 0.37422672
000130 d0 d5 c7 3c 0c e3 97 3e c8 91 a3 3e cb 01 7e bd
       0.024393946 0.2966541 0.3194716 -0.06201343
000140 67 d8 96 be 48 62 b6 3e b9 1c 14 3e fc a2 82 be
       -0.29461977 0.35621858 0.14464082 -0.25514972
000150 4b 94 02 3f 39 67 8a 3e 50 52 3c 3e d7 bd ad 3e
       0.5100753 0.27031878 0.18390775 0.339339
000160 59 1c 81 be 60 e9 8c 3a 6f 4f 47 bc 4d c8 20 3f
       -0.2521694 0.0010750704 -0.012164935 0.62805635
000170 02 c1 a2 3e ff 38 1f be a2 0e 2d 3e 46 a2 ac 3e
       0.31787878 -0.15549086 0.16900113 0.33717555
000180 3e 5b 74 3e f9 b7 9c 3e 22 79 9e bd f9 d8 df bd
       0.23862931 0.3060911 -0.07737948 -0.10930056
000190 9a d2 6f 3e f9 eb 3c 3e ac 0b 8c 3c 97 1d 47 bd
       0.23420182 0.18449391 0.01709541 -0.048612203
0001a0 de 13 b8 3e 28 4c 91 3e 23 a2 0a be 0e a2 94 3e
       0.35952657 0.28378415 -0.13538413 0.29029888
0001b0 6e 87 96 bd 31 3f 6c be 9d 97 a4 3d 93 75 e6 3c
       -0.0735005 -0.2307098 0.080367304 0.028132236
0001c0 a1 a6 c0 be 93 87 10 3e f9 21 83 3d 0b 74 01 3e
       -0.37627128 0.14114217 0.06402964 0.12641923
0001d0 82 85 a6 3d 21 f3 b1 bd bf 45 f1 bc 7e f9 eb 3d
       0.08130933 -0.08688951 -0.029452203 0.11522196
0001e0 c5 db 46 3d 98 bf ab 3d fa d7 83 be 8c c7 c8 bc
       0.048549432 0.08386153 -0.25750715 -0.024509214
0001f0 6d 17 20 be df 5a 04 3e 1f d6 fe 3d f0 46 37 be
       -0.15633936 0.1292529 0.12443184 -0.17898154
000200 45 3e 94 3e c3 50 79 3e a6 b5 5d 3d e1 d2 cf 3c
       0.28953758 0.24347214 0.05412831 0.02536911
000210 67 24 ae 3e ea e7 a0 be a0 10 5a 3b 0e ed 4f bd
       0.34012148 -0.31426936 0.003327407 -0.050763182
000220 af c1 06 be 55 43 86 3e 79 75 0c be eb e5 92 3d
       -0.13159822 0.26223245 -0.13716687 0.071727596
000230 4f b6 44 3e ba 68 7c bb 01 39 4f 3d 75 9f 80 bd
       0.1921017 -0.003851457 0.050591473 -0.06280414
000240 60 e8 4c 3e 59 ad a9 be 5f a5 94 3e 9c 44 3b bd
       0.20010519 -0.33140066 0.29032418 -0.045719728
000250 e7 2a 9b 3e 2b 10 27 3e 6a 18 76 3c 59 cf 15 bf
       0.3030617 0.16314761 0.015020469 -0.5851951
000260 51 72 05 3c 40 54 5e bd 26 31 06 bd 54 a5 d0 3d
       0.008144931 -0.054279566 -0.032761715 0.10187784
000270 6c 99 f3 be 82 ae 8f bd c8 4b c4 bd 25 01 de 3d
       -0.4757799 -0.070157066 -0.095847666 0.10840062
000280 bf da 77 3e 4e 49 23 3f 8d 33 1a be 8e e8 cd 3e
       0.24204539 0.6378373 -0.15058728 0.40216488
000290 ec d5 44 3e 2b 93 8f 3d b7 f1 5a be 4c 0c 51 bd
       0.1922223 0.07010492 -0.2138127 -0.051037118
0002a0 12 a9 ed be 69 20 9b be e8 a7 ac 3e 23 f1 6e be
       -0.46418053 -0.30298164 0.33721852 -0.23334174
0002b0 3a 45 f2 3d b8 47 ba 3e f4 e4 14 bd 61 8d 0a 3d
       0.1182961 0.36382842 -0.03635116 0.033826236
0002c0 9a f3 23 bd b4 37 39 bc 33 8f 18 3e 48 75 a0 bd
       -0.04002724 -0.011304785 0.14898376 -0.078348696
0002d0 9c 84 13 3d 2d f7 94 be 7d 99 a6 bd 91 f1 68 be
       0.036015138 -0.2909483 -0.08134744 -0.227484
0002e0 99 51 17 bd b3 2d 22 be 8a 19 52 3e e0 20 10 be
       -0.036943052 -0.15837745 0.20517555 -0.14075041
0002f0 e7 20 85 be 95 44 11 bd 04 38 0d be 47 3b 27 bd
       -0.26001665 -0.035465796 -0.137909 -0.040828016
000300 06 d0 46 3e 91 ad 48 3e 53 bd db bd b1 bf 89 3e
       0.19415292 0.1959746 -0.1072947 0.2690406
000310 35 7d 09 bf d7 37 b1 be a6 f9 c3 bd ea 93 61 bd
       -0.53706676 -0.34612915 -0.09569101 -0.055072702
000320 1d 28 92 3e 99 d2 38 bd 11 77 63 3e 30 1b 0d be
       0.2854623 -0.045122717 0.22213389 -0.13779902
000330 4f 09 44 3c 50 14 0b be 9b 5c f9 be 27 30 cf be
       0.01196511 -0.13581967 -0.48703465 -0.40466425
000340 44 8f 56 be 98 a7 1e 3e 9a ab 86 3e 5f e0 83 be
       -0.20953089 0.1549362 0.26302797 -0.2575712
000350 f7 3c ed bc 94 25 d0 3e 22 2c a4 be 09 13 e7 bc
       -0.028959734 0.4065367 -0.3206492 -0.028207319
000360 69 9b 02 3d 17 59 83 3e 2d 0d 6d 3d f8 0a 03 be
       0.031886492 0.25653908 0.057873894 -0.12797153
000370 1c f0 4e bd f8 fd 0e bd 6b e2 96 be 13 06 5a be
       -0.050521955 -0.034910172 -0.29469618 -0.2129138
000380 a0 ec 98 3e 20 44 5e 3d ab 71 24 be 1e 8a 47 3d
       0.2986803 0.054264188 -0.16058986 0.048715703
000390 41 94 83 3e 9b bf ec bd ae a0 a3 3e 4e d0 33 3e
       0.25699046 -0.11559983 0.31958526 0.1755993
0003a0 02 74 a4 be eb 04 1d bd f0 cb b8 bd c0 e2 4e bd
       -0.32119757 -0.03833477 -0.09023273 -0.050509214
0003b0 0e 68 ad be 54 3c 8f be d4 6f ec 3d 11 37 ae bd
       -0.3386845 -0.27975714 0.11544767 -0.08506597
0003c0 bd 5f 73 3e 0b 5b 0d be b3 fc ea 3d 44 41 08 3f
       0.2376699 -0.13804261 0.1147398 0.5322459
0003d0 af ea b1 3e b3 86 17 be 2d 8c fd 3e 68 72 3c 3c
       0.34749362 -0.14797477 0.49521008 0.011501886
0003e0 b5 8d e2 3d 87 8d 4c 3e b1 af 30 3d cd 72 8c be
       0.11062185 0.19975863 0.043136302 -0.27431336
0003f0 34 d9 df 3e 88 c0 87 be b9 8b 9a be 5a fe 86 bd
       0.437204 -0.26514077 -0.30184725 -0.065914825

network_body._body_endoder.seq_layers.0.bias f4 [128]
000000 f6 a9 d1 3c 59 02 3a 3c 86 46 45 3d a0 20 10 3d
       0.025593739 0.011353099 0.04816296 0.035187364
000010 45 04 20 be 8d 44 ab bd 4a fc df bc b9 5e c4 bd
       -0.15626629 -0.083626844 -0.02734198 -0.095883794
000020 ec 21 9a bc 2a e0 b6 bd 95 b0 cd 3d 38 1b bd 3a
       -0.018815003 -0.08929475 0.10043446 0.0014427667
000030 23 6e d6 bc 2b 75 61 bd b5 79 2b 3d bd 29 a0 3c
       -0.026175564 -0.05504338 0.041864116 0.019551152
000040 33 bc d1 bd ff b9 d5 3d 1b 4b 7f 3d af 8b be 3d
       -0.10240974 0.104358666 0.062327486 0.09303986
000050 a8 d8 39 3d e9 cb bd bc 93 b8 07 3e 0b 4b 22 be
       0.045372635 -0.023168521 0.13254003 -0.15848939
000060 53 11 c3 bd 5f e0 a8 3d 2e de 7a 3d f5 71 99 3b
       -0.09524789 0.082459204 0.061247043 0.004682774
000070 5b 87 7b bc 4d c9 05 bc 04 aa 79 3c 40 1f 80 3d
       -0.0153520955 -0.00816567 0.015238289 0.062559605
000080 07 ce 09 3d c8 20 fb b8 5c b7 b5 3d 9a 44 9c bd
       0.03364375 -0.00011974719 0.08872864 -0.07630272
000090 08 11 5c 3c f9 3c 1a bd 23 5d d9 bd b8 9a f2 bc
       0.013431795 -0.037655804 -0.106134675 -0.029614791
0000a0 18 11 2f 3d 68 93 3b bd 11 50 ea 3d a8 00 4a 3d
       0.04274091 -0.045794874 0.11441053 0.049317032
0000b0 6a 50 44 3e 2a 9c 6b 3d af a1 44 3d 84 44 7b bd
       0.191713 0.057521977 0.048005756 -0.06134464
0000c0 ae ea 1a bd 26 a4 40 3d 14 32 9a 3d 9a 0c 9f 3c
       -0.037821464 0.047031544 0.07529083 0.019415189
0000d0 2b 0b 85 3d 48 5b 95 bc 44 3f bc bc 3d 7d c7 bd
       0.06496271 -0.018232003 -0.022979386 -0.09740684
0000e0 b1 21 62 3d 7d 12 53 bd 61 7a ec bd 90 a9 1d 3c
       0.055207912 -0.051531304 -0.115467794 0.009622946
0000f0 90 2f c9 3d 98 a0 96 bd 19 4d 88 bd 91 e0 9e 3d
       0.09823525 -0.073548496 -0.0665533 0.077576764
000100 c0 00 ad bc 6c d4 25 3d 23 9e d0 3d 68 15 36 3d
       -0.021118522 0.040485784 0.10186412 0.04445401
000110 06 59 87 3c 4f ac 13 be a3 c4 ac 3c f6 53 bd bd
       0.016521942 -0.144212 0.021089857 -0.0924453
000120 10 33 2d 3d 7d 30 91 3b 05 b5 e3 3c c2 6c a0 3c
       0.042285025 0.004430829 0.027796278 0.01958311
000130 e0 de 4f 3d 0a 9b 3f be 05 98 bd ba dc 39 04 be
       0.05074966 -0.18711486 -0.0014464861 -0.12912697
000140 52 08 c4 bc 8c c5 aa bc 9b 4c 0d 3c b3 63 f0 3d
       -0.023929749 -0.02084615 0.008624221 0.11737766
000150 1e 4e a0 bd 05 71 67 3d b5 aa b9 3c 08 73 de 3c
       -0.078274 0.05650427 0.022664407 0.02715446
000160 dd 04 83 3d ff e6 82 3d 96 0a 86 3c 73 6e eb 3c
       0.06397412 0.06391715 0.01636247 0.02873919
000170 ed 95 5a 3d fa 37 bf bd fc 8f 98 3d 04 eb 9e bd
       0.053365637 -0.093368486 0.07449338 -0.077596694
000180 00 c1 82 bd 39 19 17 3b 5f ca 18 3d 3f 64 2c 3d
       -0.06384468 0.0023055805 0.03730237 0.04208779
000190 d3 f7 c7 bb 49 57 1d bd ae cd cd bd 64 d3 33 3d
       -0.006102541 -0.03841332 -0.10048996 0.04390277
0001a0 54 7b ba bc f4 80 b8 bb 96 79 93 3c 80 0c 3c 3c
       -0.022763886 -0.005630607 0.018002313 0.01147759
0001b0 5f 9e 37 bc 10 e7 e2 3d 68 d6 dd bc 52 27 ac bd
       -0.011207192 0.11079228 -0.027079776 -0.08405937
0001c0 50 f9 e2 bd b8 8d a7 3d 7e f1 6d bd 8e e0 27 be
       -0.11082709 0.081813276 -0.058091633 -0.16394255
0001d0 c6 32 3e 3c 69 64 48 bd 6f 59 86 3d e7 5c 53 bd
       0.011608785 -0.048923884 0.06560027 -0.05160227
0001e0 ab db 8c bc 48 f8 f0 39 bb 2c e2 3d a2 0c 8f 3c
       -0.01719459 0.0004596135 0.11043688 0.017462078
0001f0 3c 49 22 3b 03 af 34 3d b8 42 78 3c 06 a0 d8 3c
       0.002476289 0.044112217 0.015152626 0.026443493

network_body._body_endoder.seq_layers.2.weight f4 [128, 128]
000000 02 78 60 3c 22 46 fc bc 8d 31 8f bd d3 af 42 3c
       0.013700487 -0.03079516 -0.06991873 0.01188274
000010 59 11 11 3e 11 a0 7b bd 41 07 27 bd 9f a7 c6 3d
       0.14166774 -0.061431948 -0.040778402 0.0969994
000020 23 a7 49 bc 04 47 b7 3c e3 b7 c0 3c e7 51 2e 3e
       -0.012307915 0.02237273 0.023525184 0.17023431
000030 9f 90 30 bd 9d 09 cc bd d6 d7 c9 3c 79 81 ec 3c
       -0.04310667 -0.09962771 0.024639051 0.028870331
000040 d0 ba 01 bd 85 1b 7b bd 6a f4 29 bd 47 07 3e 3e
       -0.0316723 -0.06130554 -0.041492857 0.18557464
000050 44 84 c1 3d a3 f9 35 bd 67 5b f0 bc 81 1b 8c 3c
       0.09449056 -0.044427525 -0.029340459 0.017102959
000060 7c 9f 81 bd 0f 24 23 3e db c4 ec 3c 70 ce f4 3c
       -0.06329247 0.15931724 0.028902462 0.029883593
000070 90 99 f8 3d 9d 7f 07 3e 66 d7 8c bc b8 db 01 be
       0.12138665 0.13232274 -0.017192554 -0.12681472
000080 8f 4d 0a bd 22 98 ec 3d c5 3a 15 3d f0 23 c8 bd
       -0.033765372 0.115524545 0.036433 -0.097724795
000090 72 2f 79 bd f2 94 49 bd 2c 09 9b 3d 4e c1 79 3c
       -0.060836263 -0.04921431 0.07570109 0.015243841
0000a0 92 4a b9 bd a4 2e c9 3d fe d9 7f bd 24 72 31 bd
       -0.09047426 0.09823349 -0.062463753 -0.043321744
0000b0 23 ac e8 3d 50 1e 66 bc 8d 43 21 bb 29 74 2c bd
       0.113609575 -0.014045313 -0.0024606914 -0.042102966
0000c0 7b 49 09 3e 84 e5 d5 bd 22 f7 bb bd f2 07 e0 bd
       0.13406937 -0.10444167 -0.09177996 -0.109390154
0000d0 f3 6a 0e 3e 7f 92 b7 bc 7d 7a ff 3d 7c 90 06 3d
       0.13907985 -0.022408722 0.12474535 0.032852635
0000e0 90 67 4d 3d cf aa eb 3c a8 75 cc 3d 6c 13 e9 3b
       0.050147593 0.028767971 0.09983379 0.007112911
0000f0 06 f5 35 3e 68 3d c4 3d ea 84 24 3e b4 84 20 be
       0.1776925 0.09582025 0.16066328 -0.15675622
000100 a1 ea de bd 42 2b fd ba 58 0a ba 3d 3f 17 e1 39
       -0.10884596 -0.001931526 0.09084004 0.00042932664
000110 65 03 77 bd 4a 7d c2 3d 5a ce 1c 3b c8 1e d4 bd
       -0.06030597 0.09496553 0.0023926706 -0.103574336
000120 f8 7d 44 3d 7a 31 cf bd 58 cf 31 be b8 54 96 bd
       0.047971696 -0.10116859 -0.17364252 -0.073403776
000130 d6 b3 33 be 72 d7 22 3c 23 fc 3a be 72 4f c0 3d
       -0.1754907 0.0099390615 -0.18260245 0.09390153
000140 8c ac 31 bd 2e 88 c4 bb ff cd 3c be 30 ab 8a bd
       -0.043377444 -0.005997679 -0.18437956 -0.06770933
000150 a1 9e 69 3c 65 60 86 bd cd 40 17 3d 92 1d 13 3e
       0.0142590115 -0.065613545 0.036927033 0.14366749
000160 da 7d cb bd 30 c0 83 bd a1 7c 82 3d 6e 60 df bd
       -0.09936114 -0.06433141 0.06371427 -0.109070644
000170 07 26 f0 bd f8 3b f2 3d ee fa 79 be ef 69 19 3e
       -0.11726003 0.118278444 -0.24412128 0.14981817
000180 c2 3b 0d be a6 c1 d0 3c 13 d8 ef bd 3f 41 aa 3d
       -0.13792327 0.025482964 -0.11711135 0.08313226
000190 db 8d 25 3d ac 5a a2 bd 8b 35 e3 3d aa 6d e1 3c
       0.040418487 -0.079274505 0.11094197 0.027518112
0001a0 4c d3 91 bd e0 55 96 3d 8a 47 a3 3a b8 5f 27 be
       -0.0712038 0.07340598 0.0012457233 -0.16345108
0001b0 7c ff 40 3d aa 4a f5 3c 34 73 d7 bc 70 0b 0c 3e
       0.04711865 0.02994283 -0.02630005 0.13676238
0001c0 c9 00 8a bd a7 cb 24 be 1c ae 2b 3e e5 57 c7 bc
       -0.06738431 -0.16093312 0.16765636 -0.024333904
0001d0 40 8e 9f bc d3 8c 65 3c 09 98 8f bd b0 b6 82 be
       -0.01947701 0.014010626 -0.0701142 -0.25530005
0001e0 4b 7c 39 3e b6 33 c3 3d 60 7a 13 bd 70 8c 2e 3d
       0.1811382 0.095313475 -0.036005378 0.0426144
0001f0 ac c3 fc 38 57 1f ba bd e6 4d ba bc 52 1b 05 bd
       0.00012052743 -0.09088009 -0.022742223 -0.032496758
000200 18 26 8c bd 25 dd 0b be d8 ea 96 3d e7 46 9e bd
       -0.06843203 -0.13658579 0.07369012 -0.07728367
000210 78 fc 35 bd 0d 6e a9 bd 63 c5 f8 bc eb 09 16 3e
       -0.044430226 -0.08272944 -0.030367559 0.14652221
000220 af c3 75 bd ce 70 13 3e 59 79 5d 3d 7a 43 6b bd
       -0.06000107 0.143985 0.054070804 -0.057437398
000230 e0 2d 99 bd 79 90 e9 bd bb 22 01 be 0f af 16 3e
       -0.07479453 -0.11404509 -0.12610905 0.14715217
000240 3e ef 1e 3d ab 78 89 bd a2 f0 09 bd e4 7e 5a 3d
       0.038802378 -0.06712469 -0.03367675 0.05334367
000250 57 8d 13 be 17 08 ea bd 55 2e e7 3d 80 78 86 3d
       -0.14409386 -0.11427324 0.11288134 0.06565952
000260 67 63 bd 3d 4a 57 08 3e ad 06 07 b9 09 8f ac bb
       0.09247475 0.13314548 -0.0001287709 -0.0052660746
000270 b5 e9 23 3e 71 45 c7 3d 6e bb 17 bd c2 ff dd bc
       0.16007121 0.09730042 -0.03704398 -0.027099494
000280 62 b0 8e 3b 8a 4a 20 3d cf 73 cb bc e6 d4 0c be
       0.0043545226 0.039133586 -0.024835495 -0.1375309
000290 d6 46 fe bd 9a a6 18 be 3b 91 75 bd 76 1c 7d 3b
       -0.12415855 -0.14907303 -0.059952956 0.00386217
0002a0 6e 2c 01 be 1c 76 82 be 9a ec de 3c f9 05 cb 3c
       -0.12614605 -0.25480735 0.02721243 0.024783121
0002b0 43 91 73 3c 4a 03 a2 bd 0b d1 f0 3d 56 18 54 3d
       0.014866176 -0.079107836 0.11758622 0.05178102
0002c0 38 7a 81 bc 1e 0e 36 be 24 45 40 be f9 0e 8b bd
       -0.015805349 -0.17778823 -0.18776375 -0.06789965
0002d0 69 f6 12 3c 05 2c c4 bc cc b0 80 3e b9 e0 52 bc
       0.008969882 -0.023946771 0.25134885 -0.012870961
0002e0 31 1e 91 bd 09 e6 05 3e a3 ce 13 3e a9 a6 04 3e
       -0.07085837 0.13076033 0.14434294 0.12954201
0002f0 36 ab 30 be b4 27 86 3c 79 cc ad 3d f0 7e 62 bd
       -0.17252812 0.016376354 0.08486266 -0.05529684
000300 1c cb 6c bd be 61 13 3e 36 67 ae bd a3 ad b0 bd
       -0.057810888 0.14392754 -0.0851578 -0.086268686
000310 5f c5 fa bd a0 09 d4 3c ed c6 8d bd 8c 5a 19 bc
       -0.12244677 0.025883496 -0.06922708 -0.009359967
000320 67 af 5f 3c 40 f5 07 3e 17 31 26 bd 1b cd 4a 3c
       0.013652659 0.13277149 -0.04057416 0.0123780025
000330 ce 1f c1 bd 4e 50 83 3d 0d 82 0a bc 09 bd 9c 3d
       -0.094298944 0.06411801 -0.008453858 0.07653243
000340 7e 9c 4f be 39 cb 1a 3d 77 d5 13 bc 90 e4 92 bd
       -0.20274541 0.037791464 -0.009023062 -0.07172501
000350 90 27 b2 bd 10 30 77 3d e6 16 b4 bc d9 cb 02 bd
       -0.08698952 0.06034857 -0.021983575 -0.031932686
000360 50 1b ce bd 06 83 e3 bb 1c 13 00 3d dc 4d 56 bd
       -0.10063803 -0.0069431094 0.031268224 -0.052320346
000370 ce 21 3a 3c 49 8f 0d bc 1d 84 3e be f9 31 c0 bd
       0.011360599 -0.008640119 -0.18605085 -0.093845315
000380 6e a2 af bd 4c 22 85 3d 90 31 11 be cd 6b 98 3e
       -0.08575903 0.06500682 -0.14179063 0.29769745
000390 ea 4a 4c bd d8 19 10 3e bf de af bb 6e dd 45 3d
       -0.04987613 0.14072359 -0.0053671296 0.048306875
0003a0 2e 16 c5 3d 2a 98 a9 bd 4a bc c3 bc d9 20 b6 bd
       0.09623371 -0.08280976 -0.023893494 -0.08892984
0003b0 ad c5 41 3b af 2d e5 bc 67 07 c5 3d f4 f9 25 be
       0.0029567287 -0.027975885 0.096205525 -0.16208631
0003c0 ee 4a ae 3d 7f bb 56 be 95 71 f6 bc 92 d4 aa 3d
       0.085103855 -0.20969962 -0.030083457 0.08341326
0003d0 e8 b3 06 3c 24 e3 0f bc 4a 7a 21 3c f4 20 29 bd
       0.008221604 -0.008782182 0.009855816 -0.041291192
0003e0 18 60 eb 3d 1a 1a fc bc af 96 ab bd 2a 42 83 bd
       0.11492938 -0.030774165 -0.0837835 -0.06409104
0003f0 3f 02 67 3b 7f 72 7f 3b 95 37 85 bd e6 58 04 be
       0.0035249142 0.0038978157 -0.06504742 -0.12924537

network_body._body_endoder.seq_layers.2.bias f4 [128]
000000 ab fa 8d bd 3b d4 a0 bd 3c cc 17 3e a0 ce ab 3c
       -0.06932577 -0.0785298 0.14824003 0.02097255
000010 f7 0a 74 3d 0a 6d b0 bd cb ae b6 bb 11 ab 82 3d
       0.05958077 -0.086145476 -0.005575036 0.063802846
000020 fb a2 0e 3e c2 d8 96 3c 30 dc 98 bd 4c f3 6f 3d
       0.1392936 0.018413905 -0.074638724 0.058581635
000030 e8 dd f1 bc 33 ea f3 3d 14 29 34 bd 9e 8f 8a 3c
       -0.029524758 0.11909904 -0.043984488 0.016914185
000040 e6 7f da 3d 3b fc 90 3d c3 8d 02 3d 17 e0 fe 3c
       0.10668926 0.07079359 0.031873476 0.031112714
000050 b5 9d 97 3d e5 f0 da 3d a2 39 14 3e 20 b6 03 bd
       0.07403127 0.10690478 0.1447511 -0.03215611
000060 bd dc 9c 3c a3 9a fd bd 23 fe f8 3d 66 5e 2f 3c
       0.019148225 -0.1238301 0.12157848 0.010703659
000070 98 ec 3a 3d 59 69 66 bd 30 a1 d5 3d 92 35 84 3c
       0.04563579 -0.05625281 0.10431135 0.016138826
000080 0a 92 88 3d b3 0f ba 3c fd 82 62 3d 5e 38 68 3a
       0.0666848 0.022712564 0.0553007 0.0008858497
000090 64 d1 88 3d 1f 62 2c bd 68 f9 13 bd bf 4f 8e 3d
       0.06680563 -0.042085763 -0.036126524 0.06948804
0000a0 1d 7a cb bd 9d c3 83 bd 39 4f cd 3d bd 14 af bc
       -0.09935401 -0.06433795 0.10024876 -0.021372193
0000b0 d7 ee ae 3d 6c 82 24 bc 65 a0 4e bc b2 95 0e 3e
       0.08541649 -0.010040861 -0.012611483 0.13924292
0000c0 31 29 ae bc 42 b2 96 3d e5 69 16 bc e4 9f ba 3d
       -0.021259876 0.07358219 -0.009180521 0.09112528
0000d0 3d ca 9b bd 87 e5 01 3b c3 f6 6b 3d 62 cf 8d 3c
       -0.07606933 0.0019820647 0.057608377 0.017310802
0000e0 b3 48 cf bc c6 ac 83 bd 54 7b 4c bd 3a b0 26 bd
       -0.02530322 -0.06429438 -0.049922302 -0.040695406
0000f0 fb b8 3a 3d 02 70 84 bc da 2d ce bd e2 36 fa 3d
       0.045586567 -0.01616669 -0.10067339 0.12217499
000100 f9 81 b4 3d ef c3 f7 3c fd 2b d1 3d 6a 19 ac bc
       0.08813853 0.030244796 0.10213468 -0.021008212
000110 82 ff 67 bd 72 8a 83 3c 65 5d b8 bc 16 41 8f 3d
       -0.056640156 0.016057227 -0.022505471 0.06994836
000120 8e 8b ae 3c 7e a5 6e bd dd 11 d7 3d f6 d3 1a bb
       0.02130678 -0.058263294 0.10501454 -0.0023624874
000130 0f dc 9d 3d 00 35 55 3d 6c b7 4b 3c b8 41 81 3d
       0.077079885 0.052052498 0.012433868 0.06311363
000140 96 ae 30 bc 82 ee c9 3d 4d 8c b0 3c 9c 0c fb bc
       -0.010783812 0.09859945 0.021551276 -0.030645661
000150 91 46 2a bc 50 1c 22 bd 38 e0 d2 bd 39 1d 48 bc
       -0.010392801 -0.039577782 -0.102966726 -0.0122139985
000160 fa 9f d3 3d 9d 4a 78 3d 2e 52 9c bd 98 79 34 3a
       0.103332475 0.06061803 -0.07632862 0.0006884574
000170 92 a7 19 3c fa 7b b0 3d ad 7a 4a 3d 8e 11 19 3e
       0.009378331 0.08617397 0.0494334 0.14948103
000180 c9 4f f7 3b 68 39 3b 3d 20 78 af bc 67 c4 f4 3d
       0.007547353 0.045709044 -0.021419585 0.11951523
000190 9c 49 a8 bd 2f bd 89 bb 68 00 79 bd b0 71 d5 3a
       -0.08217165 -0.0042034606 -0.060791403 0.0016284492
0001a0 c2 bd 58 3d ae 75 31 bd da d7 02 3d 65 26 d9 3c
       0.052915342 -0.04332512 0.031944133 0.026507566
0001b0 28 de 0d 3a 2b cd 66 3d 5e 96 0e 3e ab 56 e3 bd
       0.0005411827 0.056348007 0.13924548 -0.11100515
0001c0 74 99 5e 3c 23 7e ba bd 94 b2 87 3c 70 6f 38 bd
       0.013586391 -0.0910609 0.016564645 -0.04502815
0001d0 44 9f 00 bc 8f e7 20 bc 16 f3 f1 3d 9a 81 7b bd
       -0.007850472 -0.009820833 0.11813943 -0.061402895
0001e0 c2 55 68 3c 09 6e ff 3d 88 ef 78 3c d9 ed 65 bc
       0.0141806025 0.124721594 0.015193827 -0.014033758
0001f0 9c 34 4d bd 92 f2 70 bc f3 d9 9a 3d da 99 4b bd
       -0.050099 -0.014706271 0.07561102 -0.04970727

action_model._discrete_distribution.branches.0.weight f4 [3, 128]
000000 84 a6 71 bd 1a 63 dc bc 6f c6 21 3d 38 dc 8d 3c
       -0.058996692 -0.026902724 0.03949588 0.017316923
000010 7e eb 18 3d 4c a8 47 bd 7b e4 e7 3c 61 be 10 3d
       0.037333958 -0.048744485 0.02830719 0.03533781
000020 cd 91 65 3d 29 93 0a bd 0e 1f 5b bd 89 04 6a 3b
       0.05604725 -0.03383175 -0.053496413 0.003570827
000030 06 55 1a 3d b5 96 bb 3c fb ce 17 bd b2 cd c4 3b
       0.03767874 0.022899011 -0.037062626 0.006005966
000040 4e 6a 35 3d f4 e3 56 3c 49 6c 85 3c 47 30 81 3c
       0.044290833 0.013115872 0.016286986 0.01577009
000050 38 5b f7 3c 89 64 3b bd 8c 5a 6b 3d f3 6e 39 3c
       0.030194864 -0.045750175 0.0574594 0.011317956
000060 2e 75 3b 3d fb 36 32 bc ae ca 70 3d 42 c1 6a 3d
       0.045766048 -0.010877366 0.05878704 0.05731321
000070 98 d7 cc 3c 3c 8d 31 ba d0 18 2b 3c 33 37 12 3d
       0.025005147 -0.000677306 0.0104429275 0.035697173
000080 75 1f 98 3d f8 64 2f 3b 15 ad c2 bc 9b e2 3b 3d
       0.07427875 0.0026763063 -0.023764173 0.045870405
000090 9e 89 38 3b 9d 4a b9 3c 31 d4 64 bc 21 ea 9e 3d
       0.0028158198 0.022618586 -0.013966606 0.077595
0000a0 e4 0d ee bc 63 be b0 bc 38 36 0b 3d bb 54 2a 3d
       -0.029059358 -0.021575158 0.033987254 0.04158471
0000b0 b9 88 89 3b 13 5b 69 3c 79 91 94 3d ba bb 65 3c
       0.004197207 0.014242905 0.07254309 0.014021808
0000c0 1c bc 3c 3b 71 1e a4 3b e2 fd 8b bc f5 c9 08 3d
       0.0028798645 0.0050085117 -0.017088834 0.033395726
0000d0 a1 98 5d bd 98 a3 93 3d 5f 41 81 3d 19 b2 4f 3c
       -0.054100636 0.072089374 0.06311297 0.012676739
0000e0 03 e2 94 bd a5 86 5a bc 4c ad 6a bd dd 09 d4 bc
       -0.07269671 -0.013337766 -0.057294175 -0.02588361
0000f0 0b c8 ae 3d 4c 94 ec 3c 08 a2 61 bc e0 83 0d 3d
       0.08534249 0.028879307 -0.013771541 0.034549594
000100 93 ec 34 3d da 9e 90 bd 35 76 57 3d e2 33 63 bc
       0.044170927 -0.070615485 0.052602965 -0.01386735
000110 5b f2 8e bd ff ad 12 3d 34 3e 47 3d d1 89 e8 3b
       -0.069798194 0.035810467 0.048643306 0.007096507
000120 f7 e4 7b 3d 26 d8 30 bd 4b 2a a9 3b b1 41 e5 3c
       0.061497655 -0.043174885 0.0051625124 0.027985426
000130 0b df 63 3d 23 ef 07 3b 3c dd f3 3b df 82 65 3d
       0.055632632 0.0020741902 0.0074421447 0.05603301
000140 72 e8 6c 3c d1 c6 3d 3c fc b5 57 3c 10 8a 45 3d
       0.014459716 0.011583046 0.013165947 0.04822737
000150 24 3f 01 3d 04 45 30 3c 17 8d 30 bd 11 af 21 bd
       0.031554356 0.010758642 -0.043103304 -0.039473597
000160 2c 35 27 3d 5f bf 45 3d fd f2 1a bd df 93 18 3c
       0.040822193 0.04827821 -0.037829388 0.009312599
000170 a1 19 34 3d 8b bb 0f 3d da 94 33 bc 63 0d da 3c
       0.043969754 0.035090964 -0.010960782 0.026617711
000180 bc 9e 96 3b b1 aa 1b 3d ba 63 83 bc 7c b2 dc 3c
       0.0045965593 0.03800458 -0.016038764 0.026940577
000190 ce 92 66 bd d0 78 8a 3d 98 d0 e3 bb 75 f4 36 bc
       -0.056292348 0.067613244 -0.0069523565 -0.011166682
0001a0 8e f8 85 3d e1 e2 b5 bb e5 98 3c 3c bc 0e 97 ba
       0.06541549 -0.0055507277 0.011511062 -0.0011524777
0001b0 16 ef 94 3c c1 de 30 3d 1e 27 31 3d 9c 88 63 bd
       0.018180411 0.043181185 0.043250196 -0.055550203
0001c0 41 97 de bc d1 9b ad bc 5f 00 c1 3c fd f0 57 bd
       -0.027171733 -0.021192463 0.023559747 -0.05272006
0001d0 1a 25 ce bc dc 18 86 3d 2a 5a 88 3d ee be 96 bd
       -0.025164176 0.0654771 0.066578224 -0.07360636
0001e0 64 c9 9c 3c c5 86 85 3d 67 a8 74 bb 1c a6 47 3c
       0.019139 0.06519846 -0.003733182 0.0121856
0001f0 82 41 37 bd 8c b8 5b bd 4a c3 90 ba 6e 0c b0 3b
       -0.044740207 -0.053642794 -0.0011044529 0.0053725755
000200 c0 e2 03 3d 9b 02 ee 3b 8b 25 1e be 33 ad a2 3c
       0.032198668 0.007263494 -0.15444009 0.019857978
000210 83 84 23 3e c8 5a 03 3d 4d 0b 96 bc a3 aa f2 bd
       0.15968518 0.032068998 -0.018315936 -0.118489526
000220 78 d1 34 be 7b b2 47 bd 75 50 30 3c b1 7c 2f bd
       -0.17658031 -0.048754197 0.01076137 -0.042843524
000230 d2 eb d8 3c 1e 61 37 be f7 89 e1 3d 4f de e0 3d
       0.026479635 -0.17908141 0.11012643 0.10979902
000240 b9 35 f2 bd 56 23 b6 bc 9d a8 3a bd 97 e3 10 3e
       -0.11826653 -0.022233646 -0.04557096 0.14149319
000250 e8 4b 9e bd 08 27 bc bd 1e f9 64 be 47 92 18 3e
       -0.07729322 -0.09187132 -0.22360656 0.1489955
000260 9d 00 6b bc fc 9d 64 3d 47 26 13 be c1 b1 4a 3d
       -0.014343408 0.05581473 -0.1437007 0.049485926
000270 7b ec ce bd 41 7c e3 3c 2e fb 18 be a3 15 40 3d
       -0.10103699 0.02776921 -0.14939567 0.046895634
000280 b2 52 7d bd 8a 13 45 3e 7e 9d 8b bd 1b 8e 8c 3d
       -0.061846443 0.19245735 -0.068171486 0.06863042
000290 a1 a7 31 3e 2e be dd 3d 5e cd ac 3c d2 f8 95 bd
       0.17349102 0.108272895 0.02109402 -0.07322849
0002a0 31 fb b9 3d e0 58 c8 3d 0b af cc bd 00 cb dc 3b
       0.09081114 0.097825766 -0.09994324 0.0067380667
0002b0 15 ce 0e be 3f fe fc 3d 03 9c 4c bc 7c ab 18 be
       -0.13945802 0.12353181 -0.012488368 -0.14909166
0002c0 39 94 b3 bb c9 8a 05 be c5 a6 ef bc f7 e7 df bd
       -0.005480316 -0.13041224 -0.029254327 -0.10932916
0002d0 3b ae 44 3d ce 74 71 bc 8a 82 5d bd 5c ef 2b 3e
       0.04801772 -0.014737321 -0.05407957 0.16790527
0002e0 43 26 a0 3c 73 06 b0 bc 57 06 3a 3c 1c 01 f1 3b
       0.019549495 -0.02148745 0.011354051 0.0073548686
0002f0 ff 9e d4 bc a7 28 f1 3d 35 10 9d 3d d0 ac cb bd
       -0.025954721 0.11775332 0.07669107 -0.09945071
000300 ee da eb bd cc 5d c2 bc 80 76 c0 bd 1b 85 e5 3d
       -0.11516367 -0.023726366 -0.09397602 0.112070285
000310 01 55 12 3d 76 7e 85 3c 4a 69 42 3d 7a b4 02 be
       0.035725597 0.016295653 0.047463693 -0.12764159
000320 07 f6 54 3b d4 da e8 bc 12 8a 21 be b1 66 35 3c
       0.0032495277 -0.028424658 -0.15775326 0.011071847
000330 45 fc db bd f9 69 46 3e 33 ce 07 3e c6 8b 26 bd
       -0.10741476 0.19376363 0.13262253 -0.040660642
000340 43 cb 13 3e ad e6 1e be 78 8a 0e 3e 91 c8 46 3d
       0.14433007 -0.15517683 0.13920009 0.04853112
000350 9d 0c 01 3e 50 ba b2 3d 7b e3 8f 3d c7 f9 11 3e
       0.12602468 0.087269425 0.0702581 0.14255439
000360 f9 de 40 be dd 25 1a be 37 f8 b0 3d 23 3b fa bc
       -0.18835057 -0.15053506 0.08641093 -0.030545777
000370 9e ea 81 3b 62 fa b6 bd 87 74 19 3e b9 c5 2e be
       0.003964736 -0.089344755 0.14985858 -0.17067613
000380 dd b9 a4 bc 85 ce 9a bd c0 e2 ab 3d c8 34 fa bd
       -0.020108158 -0.07558922 0.083928585 -0.122170985
000390 ed 4c e1 3d bc e4 ba 3c 7a 7e 9e 3d c7 90 2d 3e
       0.110010006 0.022814147 0.07738967 0.1694976
0003a0 39 ba a8 bd 76 44 31 3d 8d eb cd 3d fb a9 0f 3b
       -0.08238644 0.04327818 0.10054693 0.0021921385
0003b0 8b 30 77 bd 64 83 61 bc 0a cb 3b be e8 d7 99 3d
       -0.06034903 -0.013764236 -0.18339172 0.07511884
0003c0 91 c6 d7 bc b6 e1 97 3c 3f 9f 4c bc 1d b0 08 3d
       -0.026339801 0.018540245 -0.012489139 0.03337108
0003d0 91 73 d8 3d 6c 8b 5b 3d 18 ad 1a be 31 58 32 3b
       0.105689175 0.05359976 -0.15105093 0.002721321
0003e0 30 c1 41 bc 38 e1 07 be 7e fa 96 bd 37 b3 f2 3d
       -0.011825845 -0.13269508 -0.07371996 0.11850589
0003f0 10 59 ad 3c d2 ce 1b 3d 63 f5 25 be 1e 46 a0 3d
       0.021160632 0.038039036 -0.16206889 0.07825874

action_model._discrete_distribution.branches.0.bias f4 [3]
000000 fb f8 5c 3d ea 76 9e bd a6 89 58 3c
       0.053948384 -0.07737525 0.013216412

exp_avg f4 [128, 24]
000000 4b a9 05 3b c8 03 18 39 91 5e d7 ba 66 bc 2d 3b
       0.0020395096 0.00014497258 -0.0016431381 0.002651
000010 f3 60 6d 38 03 cd b1 ba eb c4 04 3b 08 ac e8 35
       5.6595494e-05 -0.0013565127 0.0020258974 1.7335415e-06
000020 84 b2 d7 38 c6 f3 f5 ba c8 03 18 39 87 6f c5 ba
       0.0001028525 -0.0018764667 0.00014497258 -0.0015063145
000030 e9 8d 04 3b d1 8d ea 37 ec 75 c4 ba 99 4d 32 3b
       0.0020226187 2.7961012e-05 -0.0014988757 0.0027206896
000040 4d 3d f2 38 1a b8 b0 ba 52 6e 31 3a b5 96 09 36
       0.000115508774 -0.0013482601 0.0006768453 2.0502314e-06
000050 99 ed ef 39 dc 29 f5 ba d1 8d ea 37 a5 bd ca ba
       0.00045762656 -0.0018704492 2.7961012e-05 -0.0015467895
000060 97 af bc 3a 36 74 0b 39 c6 08 f0 b9 37 b0 a8 3a
       0.0014395592 0.00013299365 -0.00045782904 0.0012869899
000070 c8 5f 0c 39 91 c2 6d b9 77 47 86 3a fa be 86 35
       0.00013387122 -0.00022674563 0.0010244687 1.003936e-06
000080 cf 03 1a b9 13 a7 b8 ba 36 74 0b 39 a6 d1 ed ba
       -0.00014688003 -0.0014087878 0.00013299365 -0.0018144145
000090 98 fa bb 3a 11 1e 20 38 ab 40 c9 b9 a9 59 ad 3a
       0.001434165 3.8174974e-05 -0.0003838589 0.0013225573
0000a0 8f 0e 08 39 f6 f1 83 b9 c3 63 89 35 2c b0 8f 35
       0.00012975394 -0.00025166542 1.023633e-06 1.0705603e-06
0000b0 0c 66 3c 39 96 ec b7 ba 11 1e 20 38 9a e2 f4 ba
       0.00017967093 -0.00140323 3.8174974e-05 -0.0018683255
0000c0 50 90 4d 3b 27 ed 79 39 9f 02 02 bb ba 36 13 3b
       0.0031366535 0.00023834837 -0.0019837988 0.002246304
0000d0 d3 36 b6 39 97 05 e4 ba 9e 67 4e 3b b6 ce ce 35
       0.00034754592 -0.0017396685 0.0031494866 1.5408357e-06
0000e0 f0 7f 8f 38 6f d8 b7 ba 27 ed 79 39 70 67 25 3a
       6.8426016e-05 -0.0014026294 0.00023834837 0.0006309664
0000f0 34 d9 4c 3b 44 1f 92 38 33 d8 fc ba fd 44 27 3b
       0.0031257393 6.967646e-05 -0.0019290507 0.0025523298
000100 ff 50 88 39 49 d1 e5 ba 3f 6e 0a 3b 6a 9e 13 36
       0.00026000288 -0.0017533685 0.002112284 2.1996916e-06
000110 9f ba 22 3a da 11 b7 ba 44 1f 92 38 01 d0 2a 3a
       0.0006207618 -0.0013967112 6.967646e-05 0.00065159803
000120 84 d6 f7 39 65 15 86 38 bc 05 94 3a 3e ba 13 3b
       0.00047271338 6.393603e-05 0.0011293213 0.002254143
000130 86 29 a1 38 1a 83 95 3a e4 88 90 3a bc 4c d7 35
       7.6848126e-05 0.0011406869 0.0011027125 1.6041081e-06
000140 9b f2 50 3a 12 1c 2b 3a 65 15 86 38 c2 6b 5f 3a
       0.00079707213 0.0006527315 6.393603e-05 0.0008522832
000150 0c c4 f6 39 c8 6b 96 37 eb 92 a3 3a 02 28 1a 3b
       0.00047066843 1.7931583e-05 0.0012479698 0.0023522382
000160 7b fe 87 38 da 57 9a 3a e8 85 00 3a ec 6c c9 34
       6.484702e-05 0.0011775449 0.0004902766 3.751842e-07
000170 95 1b 61 b9 a9 61 2a 3a c8 6b 96 37 20 87 59 3a
       -0.00021467947 0.0006499538 1.7931583e-05 0.0008298028
000180 d0 86 93 b9 31 92 66 b8 bd 5e 25 ba 43 bc 82 38
       -0.00028138468 -5.4972425e-05 -0.00063083676 6.2339495e-05
000190 10 6f 96 b8 fe 33 0a ba 04 b8 48 b8 51 0d d5 b3
       -7.1732444e-05 -0.00052720297 -4.7855094e-05 -9.921008e-08
0001a0 e9 c1 a4 b9 7a 65 86 39 31 92 66 b8 59 35 87 b9
       -0.00031424992 0.00025634078 -5.4972425e-05 -0.00025788954
0001b0 5e 29 92 b9 6a 71 61 b7 c4 1c 3f ba a7 a3 91 38
       -0.0002787811 -1.3437451e-05 -0.0007290358 6.9446214e-05
0001c0 a9 66 66 b8 d7 f2 11 ba 3c 4c 58 39 ed 57 45 34
       -5.4931883e-05 -0.0005567497 0.00020627765 1.8379042e-07
0001d0 20 d1 9d b8 64 da 85 39 6a 71 61 b7 49 85 94 b9
       -7.525296e-05 0.0002553045 -1.3437451e-05 -0.00028328065
0001e0 6c ef b5 39 58 98 57 b6 f3 ad 0d ba 7e 78 96 3a
       0.00034701393 -3.2126172e-06 -0.00054046436 0.0011480001
0001f0 d5 47 68 b8 d5 83 a9 b9 37 07 23 3a cd a9 23 35
       -5.538001e-05 -0.00032332414 0.00062190316 6.0969325e-07
000200 8b 8b 35 b9 0f a9 13 ba 58 98 57 b6 1b d3 53 ba
       -0.00017313489 -0.00056327967 -3.2126172e-06 -0.00080804684
000210 7c c2 b7 39 4e a2 d3 36 1a 48 1e ba 90 45 99 3a
       0.00035049382 6.307185e-06 -0.00060379656 0.0011693705
000220 a5 28 ac b7 bb 02 b5 b9 c4 8f 18 39 58 bb c5 35
       -2.0522924e-05 -0.00034525045 0.00014549406 1.4732168e-06
000230 3b f2 5a 38 6e cd 12 ba 4e a2 d3 36 1b 85 5d ba
       5.2200845e-05 -0.00056000694 6.307185e-06 -0.0008450315
000240 da 7d ad 3a bb 88 21 38 31 bd 37 b8 4f 7b 06 3b
       0.0013236359 3.851273e-05 -4.38068e-05 0.0020520275
000250 19 53 8f 38 d7 3d 74 39 c2 e5 b7 3a 6a 90 b2 35
       6.8342495e-05 0.0002329269 0.0014030265 1.3304063e-06
000260 d7 e6 d9 38 47 0a d2 ba bb 88 21 38 e4 94 02 bb
       0.000103903636 -0.0016024791 3.851273e-05 -0.0019925172
000270 0d df ac 3a 11 a8 3b 37 ba 8c ae 35 78 2b 0e 3b
       0.0013189033 1.11852e-05 1.3004967e-06 0.002169339
000280 71 5d 36 38 44 bd 9f 39 89 52 3e 3a 56 90 0e 36
       4.3479205e-05 0.00030467857 0.00072602235 2.1243663e-06
000290 24 91 2c 3a 99 41 d1 ba 11 a8 3b 37 c6 f7 08 bb
       0.0006582907 -0.0015964984 1.11852e-05 -0.0020899638
0002a0 fc 1f 58 39 38 5d a4 37 88 aa 7c 39 ef f2 62 37
       0.0002061128 1.9593732e-05 0.0002409612 1.3527212e-05
0002b0 4e a9 a4 36 33 20 8f 39 f0 04 99 39 7d d2 b8 b3
       4.9072905e-06 0.00027299076 0.00029186113 -8.606455e-08
0002c0 1b 75 99 b8 19 c1 3b b9 38 5d a4 37 db c3 c1 b9
       -7.317421e-05 -0.00017905644 1.9593732e-05 -0.00036957752
0002d0 48 66 55 39 aa 90 41 36 64 f9 91 39 61 84 86 37
       0.00020351366 2.8843447e-06 0.00027842366 1.6035689e-05
0002e0 3c 10 8a 37 d1 36 89 39 78 0a 46 b8 cc 1a f5 32
       1.6458442e-05 0.00026171518 -4.721663e-05 2.853394e-08
0002f0 b1 fc d8 b8 7e 4d 3b b9 aa 90 41 36 dd ec c4 b9
       -0.0001034675 -0.00017862578 2.8843447e-06 -0.0003756051
000300 de bd 4f 3b fb 24 6d 39 c4 48 22 bb 6b 77 96 3a
       0.0031698863 0.00022615858 -0.002476261 0.0011479681
000310 a4 83 07 39 01 05 11 bb ee 21 ed 3a 43 91 40 35
       0.00012923643 -0.0022128227 0.0018091777 7.173696e-07
000320 11 1e 89 b9 0f 4e 9d ba fb 24 6d 39 4c a8 87 ba
       -0.00026153077 -0.0012001413 0.00022615858 -0.0010349839
000330 0a e0 4d 3b bc 75 26 38 eb dc 1d bb 25 9a 9e 3a
       0.0031414055 3.9687133e-05 -0.0024087976 0.0012100382
000340 05 1e 46 39 a6 e0 12 bb cc 4b cd 39 86 ad bb 35
       0.00018893935 -0.0022411733 0.0003915712 1.3983088e-06
000350 9b 66 65 3a 70 2c 9d ba bc 75 26 38 87 da 86 ba
       0.0008750946 -0.0011991393 3.9687133e-05 -0.0010288515
000360 04 d9 b7 ba 6e 61 f4 b8 5b 63 4b 39 a4 ad 45 ba
       -0.0014026468 -0.00011652974 0.00019396601 -0.0007540828
000370 25 9c f0 b8 5e 38 0c b9 b4 05 a9 b8 43 61 2b b5
       -0.00011473176 -0.00013372439 -8.05961e-05 -6.3844e-07
000380 99 8c bd b8 78 7d dc 3a 6e 61 f4 b8 1b e4 41 3a
       -9.038411e-05 0.001682206 -0.00011652974 0.0007396356
000390 03 dd b7 ba 18 87 2e b8 6c 34 cd 38 20 ef 33 ba
       -0.0014027659 -4.161065e-05 9.784926e-05 -0.00068639405
0003a0 99 66 d7 b8 46 fe 01 b9 90 7b 5a 3a b7 9d 2e b5
       -0.00010271109 -0.00012397123 0.0008334452 -6.5049556e-07
0003b0 4a 2f d0 38 3d 74 db 3a 18 87 2e b8 dc 54 50 3a
       9.927021e-05 0.0016743016 -4.161065e-05 0.00079472153
0003c0 b3 80 2d 3b 7f c0 34 39 aa f7 d2 ba df 35 03 3b
       0.0026474416 0.00017237848 -0.0016095538 0.0020021123
0003d0 7a b8 85 39 02 7e d0 ba cd 31 1f 3b dc 8f fe 35
       0.00025505183 -0.0015906694 0.0024291158 1.8966343e-06
0003e0 c7 cb e1 39 f8 11 bd ba 7f c0 34 39 b1 68 c7 39
       0.0004306717 -0.0014424911 0.00017237848 0.0003803424
0003f0 76 d0 2c 3b 92 a5 4b 38 07 78 ca ba d8 6e 14 3b
       0.002636937 4.855317e-05 -0.0015447148 0.0022649076

exp_avg_sq f4 [128, 24]
000000 37 be 98 38 7e 7b 35 35 e5 a3 f3 38 f9 e6 b6 38
       7.283355e-05 6.760746e-07 0.00011617671 8.721458e-05
000010 ff 54 57 36 f2 0d c4 38 76 34 b0 38 0f 86 08 2e
       3.208697e-06 9.348606e-05 8.4021056e-05 3.1041888e-11
000020 f4 33 21 38 87 2f 7b 38 7e 7b 35 35 49 c0 91 38
       3.8433776e-05 5.9887327e-05 6.760746e-07 6.949955e-05
000030 87 ab 97 38 d7 38 39 33 90 00 f0 38 96 3a c1 38
       7.2321905e-05 4.3125365e-08 0.000114441966 9.2138696e-05
000040 ae 07 8a 35 fb 98 b8 38 d4 98 af 38 1d ca 02 2e
       1.0284036e-06 8.8022985e-05 8.373117e-05 2.973809e-11
000050 73 39 2e 38 9d 5f 79 38 d7 38 39 33 bf 3a 92 38
       4.1538337e-05 5.9455273e-05 4.3125365e-08 6.972765e-05
000060 43 ae 92 38 ca ca 0c 35 68 33 d4 38 42 f2 b8 38
       6.994281e-05 5.244916e-07 0.00010118523 8.818928e-05
000070 9b 69 c5 35 c8 50 cd 38 c2 27 a8 38 8b 5e e9 2d
       1.4708379e-06 9.7902084e-05 8.01827e-05 2.6531019e-11
000080 09 63 3b 38 a6 a9 5f 38 ca ca 0c 35 4d 60 91 38
       4.4676508e-05 5.332534e-05 5.244916e-07 6.932076e-05
000090 ec 93 91 38 00 70 34 33 74 f1 d2 38 c1 b3 c4 38
       6.9416914e-05 4.201138e-08 0.000100585545 9.37949e-05
0000a0 80 de 30 35 c0 52 c1 38 0d dd a7 38 be 7c fa 2d
       6.588889e-07 9.2183705e-05 8.0043545e-05 2.8477106e-11
0000b0 80 c4 47 38 8f fb 5d 38 00 70 34 33 96 e6 90 38
       4.7628302e-05 5.2924788e-05 4.201138e-08 6.909405e-05
0000c0 c4 41 33 38 60 28 a8 34 43 9e 85 38 cc aa 82 38
       4.2738175e-05 3.1321815e-07 6.371413e-05 6.2306965e-05
0000d0 56 0b 38 35 79 28 87 38 4d a0 4e 38 b3 b4 94 2d
       6.856184e-07 6.44484e-05 4.926352e-05 1.6905899e-11
0000e0 f6 ef f2 37 87 4d 27 38 60 28 a8 34 41 07 20 38
       2.8960389e-05 3.9888106e-05 3.1321815e-07 3.815373e-05
0000f0 b3 e4 31 38 50 46 d5 32 cf b2 89 38 e4 45 8c 38
       4.241308e-05 2.4828438e-08 6.565975e-05 6.688738e-05
000100 e9 93 cf 34 d4 26 7e 38 fc 06 49 38 f7 9f a7 2d
       3.8664373e-07 6.059448e-05 4.792864e-05 1.905674e-11
000110 89 bf f9 37 21 00 26 38 50 46 d5 32 01 b7 20 38
       2.9772304e-05 3.9577604e-05 2.4828438e-08 3.831741e-05
000120 66 20 bf 37 b7 97 51 34 2b ac 0c 38 a7 4d 2d 38
       2.2784061e-05 1.9519835e-07 3.3538945e-05 4.1318734e-05
000130 3b c3 da 34 0b 1e 16 38 2e 01 b7 37 29 8f 43 2d
       4.0747713e-07 3.5790767e-05 2.181585e-05 1.1116255e-11
000140 82 cb d9 37 ba 70 9a 37 b7 97 51 34 34 e0 e3 37
       2.5963182e-05 1.8410723e-05 1.9519835e-07 2.7164911e-05
000150 5f b8 bd 37 8f c6 69 32 1c ab 0e 38 bb 7a 33 38
       2.261641e-05 1.3607532e-08 3.4014796e-05 4.2791227e-05
000160 2f 93 7c 34 34 05 1b 38 5b 36 b1 37 df 24 95 2d
       2.3522874e-07 3.6959726e-05 2.1125355e-05 1.6955713e-11
000170 b1 40 d4 37 42 49 99 37 8f c6 69 32 66 a6 e3 37
       2.5302494e-05 1.8273135e-05 1.3607532e-08 2.7137994e-05
000180 0f 1a 94 36 80 cf 77 33 70 c7 ae 36 18 ad e2 36
       4.4137773e-06 5.769789e-08 5.2088217e-06 6.7554756e-06
000190 13 2f d6 33 15 d7 ca 36 29 8d ac 36 af f8 23 2c
       9.973714e-08 6.045108e-06 5.1424327e-06 2.330174e-12
0001a0 cd 5d 40 36 af 1f 60 36 80 cf 77 33 6a 2f a2 36
       2.8664829e-06 3.3397043e-06 5.769789e-08 4.833496e-06
0001b0 1a 22 93 36 a6 c3 30 31 8c 09 ad 36 c6 35 d9 36
       4.3849113e-06 2.5722584e-09 5.156913e-06 6.473364e-06
0001c0 6b 79 91 33 9a 5d c3 36 0c f3 ab 36 46 f0 2b 2c
       6.7741745e-08 5.8223495e-06 5.1244915e-06 2.443394e-12
0001d0 3f c5 2d 36 c8 5b 5e 36 a6 c3 30 31 1b a2 a1 36
       2.5893821e-06 3.3134002e-06 2.5722584e-09 4.8170455e-06
0001e0 67 82 e6 37 02 6c 8c 34 61 15 18 38 4c 38 1a 38
       2.747886e-05 2.6155618e-07 3.6259535e-05 3.676889e-05
0001f0 65 7b d7 35 9f bd 09 38 2f 31 e4 37 fc 4e 85 2d
       1.6054661e-06 3.2839944e-05 2.7202621e-05 1.5155426e-11
000200 3a 74 8f 37 2a f2 9b 37 02 6c 8c 34 46 d9 d6 37
       1.710105e-05 1.8590206e-05 2.6155618e-07 2.5611964e-05
000210 5c d3 e4 37 86 d3 87 32 75 cc 11 38 18 8a 25 38
       2.727814e-05 1.5812258e-08 3.476111e-05 3.9467675e-05
000220 60 3f c7 34 b8 0e fd 37 01 33 e3 37 6a e3 8b 2d
       3.711275e-07 3.0166804e-05 2.708426e-05 1.5903463e-11
000230 6c 80 9a 37 da b9 9a 37 86 d3 87 32 fa ca d7 37
       1.8418032e-05 1.8444774e-05 1.5812258e-08 2.5724516e-05
000240 84 eb 2d 39 7b 48 b3 35 02 72 86 39 43 42 8f 39
       0.00016586302 1.3357634e-06 0.00025643414 0.00027324454
000250 71 f7 45 36 2b 92 98 39 f0 a6 29 39 ec b5 ca 2e
       2.9499317e-06 0.00029100603 0.00016179285 9.218212e-11
000260 8c 98 26 39 0d 9d f9 38 7b 48 b3 35 46 a7 51 39
       0.00015887822 0.00011902498 1.3357634e-06 0.00019994107
000270 a1 9f 2c 39 4f 28 e1 33 cb f5 85 39 7e 15 94 39
       0.00016462665 1.0484711e-07 0.00025550867 0.00028244773
000280 d4 57 d9 35 37 e9 91 39 80 6f 2c 39 25 bc e7 2e
       1.6193321e-06 0.00027830314 0.00016444735 1.0538085e-10
000290 48 31 33 39 7f c2 f7 38 4f 28 e1 33 65 a1 51 39
       0.00017089129 0.000118141055 1.0484711e-07 0.00019991917
0002a0 d1 ab b7 36 bf e8 5d 33 16 7e 0a 37 8d 49 22 37
       5.473827e-06 5.1667254e-08 8.254798e-06 9.673077e-06
0002b0 ae 91 f0 33 4f bc 20 37 9f 3e 90 36 48 40 4c 2c
       1.120237e-07 9.580587e-06 4.2988245e-06 2.9025827e-12
0002c0 89 60 f2 36 60 59 67 36 bf e8 5d 33 b5 c2 9d 36
       7.2234e-06 3.4473705e-06 5.1667254e-08 4.7016315e-06
0002d0 a3 53 b6 36 65 97 64 31 00 85 00 37 3b a1 1f 37
       5.4337593e-06 3.3264425e-09 7.660361e-06 9.514678e-06
0002e0 29 05 84 33 5c c8 13 37 e5 92 90 36 c1 18 51 2c
       6.1476676e-08 8.808533e-06 4.308635e-06 2.9714428e-12
0002f0 57 6d ec 36 e3 9a 65 36 65 97 64 31 e0 70 a0 36
       7.046077e-06 3.4213815e-06 3.3264425e-09 4.781512e-06
000300 c1 a2 64 38 10 99 b4 35 62 4c d6 38 62 ca 8f 38
       5.4511012e-05 1.3455592e-06 0.000102185426 6.856468e-05
000310 6f d1 8e 36 85 00 b0 38 c0 91 8d 38 6f 25 c2 2d
       4.256311e-06 8.392431e-05 6.750552e-05 2.207187e-11
000320 cb a5 06 38 0a 4a 58 38 10 99 b4 35 8e ba 48 38
       3.2102496e-05 5.1567367e-05 1.3455592e-06 4.785746e-05
000330 39 3e 63 38 ae 36 0d 33 47 04 da 38 4d 04 98 38
       5.4178967e-05 3.287885e-08 0.00010395847 7.248726e-05
000340 b5 52 d9 35 a7 dc ac 38 04 d1 8d 38 e6 af c9 2d
       1.6191831e-06 8.242699e-05 6.762336e-05 2.2929169e-11
000350 7b 3c 07 38 03 23 57 38 ae 36 0d 33 e8 5d 49 38
       3.2242835e-05 5.12926e-05 3.287885e-08 4.800959e-05
000360 ab e5 0e 38 de 68 a7 34 cf f8 41 38 8b bd 51 38
       3.4069333e-05 3.1182475e-07 4.6246507e-05 5.000601e-05
000370 79 37 9e 35 8d 2a 56 38 9c 7c 15 38 99 1b 90 2d
       1.1788062e-06 5.1061204e-05 3.564042e-05 1.638316e-11
000380 2f 56 e5 37 ed d3 f0 37 de 68 a7 34 59 4d 1a 38
       2.733906e-05 2.8708915e-05 3.1182475e-07 3.6788497e-05
000390 17 ca 0d 38 99 b4 b7 32 03 3c 42 38 97 f0 5a 38
       3.380523e-05 2.138613e-08 4.6309095e-05 5.2199317e-05
0003a0 5d 21 e8 34 bc 02 4d 38 46 bf 16 38 5c 07 a4 2d
       4.3237642e-07 4.8878355e-05 3.5940924e-05 1.864791e-11
0003b0 22 da f0 37 68 fa ee 37 99 b4 b7 32 36 dd 19 38
       2.8711805e-05 2.8488415e-05 2.138613e-08 3.668406e-05
0003c0 59 38 23 38 11 af 9e 34 9a 89 70 38 85 ac 8b 38
       3.8914706e-05 2.955717e-07 5.734861e-05 6.660171e-05
0003d0 98 a9 2c 35 95 13 70 38 5c 71 2c 38 f2 c0 b0 2d
       6.4321785e-07 5.7238696e-05 4.111357e-05 2.0094568e-11
0003e0 7c e3 12 38 84 82 f9 37 11 af 9e 34 3c ec 2d 38
       3.5020974e-05 2.974389e-05 2.955717e-07 4.1466425e-05
0003f0 c9 01 22 38 5f a8 cb 32 a2 18 73 38 d6 80 91 38
       3.8625472e-05 2.3708877e-08 5.7958656e-05 6.938136e-05

exp_avg f4 [128]
000000 4e 0f 93 3a 96 c7 c8 3a ed 3a 37 3b ed 9e 3c 3a
       0.0011219771 0.001531827 0.0027958706 0.00071953126
000010 ee 58 0d ba 79 b0 84 39 f3 4f eb 39 b2 b8 f2 38
       -0.00053919747 0.00025308484 0.0004488226 0.000115738614
000020 99 bb d0 3a 76 d9 da ba 05 5d ff 3a cb 21 65 3b
       0.0015925049 -0.0016696888 0.0019482678 0.003496277
000030 0c c5 c5 ba 0a e4 5b 38 51 ce 1f 39 46 0e 07 3b
       -0.0015088632 5.2426047e-05 0.0001524028 0.0020607873
000040 5f f8 39 b9 95 17 1c bb e4 83 31 bb 99 94 b1 b9
       -0.000177355 -0.0023817767 -0.002708667 -0.00033870785
000050 2d 43 79 b8 e9 88 a3 3b 19 ba 67 3a bf 04 08 3a
       -5.942879e-05 0.004990686 0.00088396814 0.00051886955
000060 0e c2 71 39 50 8f 8c ba 2a c5 5b bb 23 eb 81 39
       0.00023055842 -0.0010723863 -0.0033534267 0.00024779988
000070 94 7e 64 bb 1a b7 1d 3a 9d 12 4f ba fb 7d 5a ba
       -0.0034865486 0.0006016359 -0.0007899197 -0.00083348126
000080 22 b0 1c bb 40 50 b6 ba 25 cb 84 b9 64 6b be 39
       -0.0023908694 -0.0013909414 -0.00025328356 0.00036319636
000090 02 7e a0 39 a7 59 a4 39 01 92 31 ba 76 00 8a 3a
       0.0003061146 0.00031347314 -0.00067737704 0.0010528702
0000a0 5e d7 e6 ba f8 02 0d 3b b4 ea a7 bb 8a eb 6c 3b
       -0.0017611792 0.0021516662 -0.0051244143 0.0036151134
0000b0 f5 c1 f3 bb a5 2c 3f ba 75 dc 73 bb 20 31 12 3a
       -0.007438893 -0.00072927243 -0.003721026 0.0005576778
0000c0 21 cc 83 b9 f4 4a eb 3a 93 d3 38 39 bf 94 9c 3a
       -0.00025138355 0.0017951415 0.00017626425 0.0011946185
0000d0 d5 45 ce b8 75 85 c6 3a 52 ff 06 ba 47 c1 83 b8
       -9.835853e-05 0.0015145974 -0.000514974 -6.2825675e-05
0000e0 64 a9 1b b9 5d c2 74 b8 79 8d 10 ba 97 54 14 ba
       -0.00014845055 -5.835515e-05 -0.0005514245 -0.0005658357
0000f0 72 79 9a ba 41 a2 e7 38 55 48 99 ba ec 9f 36 bb
       -0.0011785461 0.000110451605 -0.001169453 -0.0027866317
000100 2e 28 39 3a 21 e6 bb 3a d0 3f 66 bb 45 7a 0f 3b
       0.0007063177 0.0014335552 -0.003513325 0.0021892947
000110 f5 a5 1a ba 91 64 e8 38 d7 bd 43 3b db 0a 35 b9
       -0.00058993633 0.00011081354 0.0029867792 -0.00017265549
000120 d0 2d 5f ba 1c 39 d1 b9 48 35 c5 3a 2a f3 c0 3a
       -0.00085136015 -0.00039906136 0.0015045786 0.0014720906
000130 bb f2 f4 39 14 3e 1f ba 38 f9 4e b9 c1 c4 51 ba
       0.00046720155 -0.0006074619 -0.00019738532 -0.0008002036
000140 f5 52 61 3a 5f 5c 59 39 75 f3 a6 ba 46 1f 8e bb
       0.00085954304 0.00020729144 -0.0012737351 -0.004337224
000150 5e b6 5f b9 4b 77 03 b9 68 59 8e 3b 1d 80 f2 b9
       -0.00021334874 -0.00012537574 0.004344154 -0.0004625329
000160 37 17 a7 39 b8 39 e9 39 e8 22 6a ba 10 a8 b6 3a
       0.0003187002 0.00044484227 -0.0008931593 0.0013935585
000170 53 70 8f 3a 7b 35 11 bb da 28 15 bb 68 3c a2 ba
       0.0010943509 -0.002215712 -0.0022759945 -0.0012377622
000180 f6 ec 48 ba 8e 06 d7 3a 12 55 83 3b f7 0b ca b9
       -0.00076647045 0.0016405152 0.004007944 -0.00038537357
000190 ab 97 94 3a d0 73 4f ba 5e 96 ac b8 36 e1 20 3b
       0.0011336704 -0.0007913681 -8.229607e-05 0.0024548299
0001a0 7a ea 67 ba dd ef b6 ba 4b 53 c8 b8 43 5a e7 b9
       -0.00088468904 -0.0013956983 -9.552258e-05 -0.00044127004
0001b0 55 a1 fa 39 27 c8 89 3a da 83 93 ba 8f 43 87 ba
       0.00047803918 0.001051192 -0.0011254505 -0.0010319817
0001c0 d5 72 e4 39 8b d4 ec 3a d3 44 80 ba 5c a7 bd b8
       0.00043573105 0.0018068714 -0.0009786136 -9.0433954e-05
0001d0 c8 8d fb 3a 0d bd 37 b9 2f d6 2a 39 30 95 cd ba
       0.0019192034 -0.00017522667 0.00016292253 -0.001568472
0001e0 da e9 e0 ba cb 72 04 3b 2a 6b 99 ba c5 97 0c 3a
       -0.0017159537 0.0020210024 -0.0011704911 0.00053631916
0001f0 78 97 8b 3a bb 90 5f 3a cc 08 e5 39 4e 97 87 3b
       0.001065 0.00085283414 0.00043684838 0.00413791
