Assets/Trining/results/MassiveTraining/PingPongAgent/PingPongAgent-999936.onnx (onnx, 82986 bytes, 8 tensors)

49 f4 [24]
000000 84 55 33 42 e8 c2 83 3e c3 ad 2a 41 32 94 c9 41
       44.83351 0.2573464 10.667422 25.197361
000010 1b 3b 26 3e 30 b6 58 41 31 ca 00 42 7d 13 83 3a
       0.16233484 13.544479 32.197453 0.0010000315
000020 05 c5 c6 41 0e 91 c4 42 e8 c2 83 3e 69 6e 35 42
       24.8462 98.28331 0.2573464 45.357822
000030 0a 00 34 42 25 3f 4f 3b d5 24 2b 41 5b 24 cc 41
       45.00004 0.003162333 10.696492 25.517752
000040 a6 e7 cc 3d 52 52 59 41 e1 50 01 42 7d 13 83 3a
       0.10005121 13.582598 32.328983 0.0010000315
000050 ed 59 c7 41 79 4c c5 42 25 3f 4f 3b 2e 1b 36 42
       24.91891 98.64936 0.003162333 45.526543

action_model._discrete_distribution.branches.0.bias f4 [3]
000000 fb f8 5c 3d ea 76 9e bd a6 89 58 3c
       0.053948384 -0.07737525 0.013216412

action_model._discrete_distribution.branches.0.weight f4 [3, 128]
000000 84 a6 71 bd 1a 63 dc bc 6f c6 21 3d 38 dc 8d 3c
       -0.058996692 -0.026902724 0.03949588 0.017316923
000010 7e eb 18 3d 4c a8 47 bd 7b e4 e7 3c 61 be 10 3d
       0.037333958 -0.048744485 0.02830719 0.03533781
000020 cd 91 65 3d 29 93 0a bd 0e 1f 5b bd 89 04 6a 3b
       0.05604725 -0.03383175 -0.053496413 0.003570827
000030 06 55 1a 3d b5 96 bb 3c fb ce 17 bd b2 cd c4 3b
       0.03767874 0.022899011 -0.037062626 0.006005966
000040 4e 6a 35 3d f4 e3 56 3c 49 6c 85 3c 47 30 81 3c
       0.044290833 0.013115872 0.016286986 0.01577009
000050 38 5b f7 3c 89 64 3b bd 8c 5a 6b 3d f3 6e 39 3c
       0.030194864 -0.045750175 0.0574594 0.011317956
000060 2e 75 3b 3d fb 36 32 bc ae ca 70 3d 42 c1 6a 3d
       0.045766048 -0.010877366 0.05878704 0.05731321
000070 98 d7 cc 3c 3c 8d 31 ba d0 18 2b 3c 33 37 12 3d
       0.025005147 -0.000677306 0.0104429275 0.035697173
000080 75 1f 98 3d f8 64 2f 3b 15 ad c2 bc 9b e2 3b 3d
       0.07427875 0.0026763063 -0.023764173 0.045870405
000090 9e 89 38 3b 9d 4a b9 3c 31 d4 64 bc 21 ea 9e 3d
       0.0028158198 0.022618586 -0.013966606 0.077595
0000a0 e4 0d ee bc 63 be b0 bc 38 36 0b 3d bb 54 2a 3d
       -0.029059358 -0.021575158 0.033987254 0.04158471
0000b0 b9 88 89 3b 13 5b 69 3c 79 91 94 3d ba bb 65 3c
       0.004197207 0.014242905 0.07254309 0.014021808
0000c0 1c bc 3c 3b 71 1e a4 3b e2 fd 8b bc f5 c9 08 3d
       0.0028798645 0.0050085117 -0.017088834 0.033395726
0000d0 a1 98 5d bd 98 a3 93 3d 5f 41 81 3d 19 b2 4f 3c
       -0.054100636 0.072089374 0.06311297 0.012676739
0000e0 03 e2 94 bd a5 86 5a bc 4c ad 6a bd dd 09 d4 bc
       -0.07269671 -0.013337766 -0.057294175 -0.02588361
0000f0 0b c8 ae 3d 4c 94 ec 3c 08 a2 61 bc e0 83 0d 3d
       0.08534249 0.028879307 -0.013771541 0.034549594
000100 93 ec 34 3d da 9e 90 bd 35 76 57 3d e2 33 63 bc
       0.044170927 -0.070615485 0.052602965 -0.01386735
000110 5b f2 8e bd ff ad 12 3d 34 3e 47 3d d1 89 e8 3b
       -0.069798194 0.035810467 0.048643306 0.007096507
000120 f7 e4 7b 3d 26 d8 30 bd 4b 2a a9 3b b1 41 e5 3c
       0.061497655 -0.043174885 0.0051625124 0.027985426
000130 0b df 63 3d 23 ef 07 3b 3c dd f3 3b df 82 65 3d
       0.055632632 0.0020741902 0.0074421447 0.05603301
000140 72 e8 6c 3c d1 c6 3d 3c fc b5 57 3c 10 8a 45 3d
       0.014459716 0.011583046 0.013165947 0.04822737
000150 24 3f 01 3d 04 45 30 3c 17 8d 30 bd 11 af 21 bd
       0.031554356 0.010758642 -0.043103304 -0.039473597
000160 2c 35 27 3d 5f bf 45 3d fd f2 1a bd df 93 18 3c
       0.040822193 0.04827821 -0.037829388 0.009312599
000170 a1 19 34 3d 8b bb 0f 3d da 94 33 bc 63 0d da 3c
       0.043969754 0.035090964 -0.010960782 0.026617711
000180 bc 9e 96 3b b1 aa 1b 3d ba 63 83 bc 7c b2 dc 3c
       0.0045965593 0.03800458 -0.016038764 0.026940577
000190 ce 92 66 bd d0 78 8a 3d 98 d0 e3 bb 75 f4 36 bc
       -0.056292348 0.067613244 -0.0069523565 -0.011166682
0001a0 8e f8 85 3d e1 e2 b5 bb e5 98 3c 3c bc 0e 97 ba
       0.06541549 -0.0055507277 0.011511062 -0.0011524777
0001b0 16 ef 94 3c c1 de 30 3d 1e 27 31 3d 9c 88 63 bd
       0.018180411 0.043181185 0.043250196 -0.055550203
0001c0 41 97 de bc d1 9b ad bc 5f 00 c1 3c fd f0 57 bd
       -0.027171733 -0.021192463 0.023559747 -0.05272006
0001d0 1a 25 ce bc dc 18 86 3d 2a 5a 88 3d ee be 96 bd
       -0.025164176 0.0654771 0.066578224 -0.07360636
0001e0 64 c9 9c 3c c5 86 85 3d 67 a8 74 bb 1c a6 47 3c
       0.019139 0.06519846 -0.003733182 0.0121856
0001f0 82 41 37 bd 8c b8 5b bd 4a c3 90 ba 6e 0c b0 3b
       -0.044740207 -0.053642794 -0.0011044529 0.0053725755
000200 c0 e2 03 3d 9b 02 ee 3b 8b 25 1e be 33 ad a2 3c
       0.032198668 0.007263494 -0.15444009 0.019857978
000210 83 84 23 3e c8 5a 03 3d 4d 0b 96 bc a3 aa f2 bd
       0.15968518 0.032068998 -0.018315936 -0.118489526
000220 78 d1 34 be 7b b2 47 bd 75 50 30 3c b1 7c 2f bd
       -0.17658031 -0.048754197 0.01076137 -0.042843524
000230 d2 eb d8 3c 1e 61 37 be f7 89 e1 3d 4f de e0 3d
       0.026479635 -0.17908141 0.11012643 0.10979902
000240 b9 35 f2 bd 56 23 b6 bc 9d a8 3a bd 97 e3 10 3e
       -0.11826653 -0.022233646 -0.04557096 0.14149319
000250 e8 4b 9e bd 08 27 bc bd 1e f9 64 be 47 92 18 3e
       -0.07729322 -0.09187132 -0.22360656 0.1489955
000260 9d 00 6b bc fc 9d 64 3d 47 26 13 be c1 b1 4a 3d
       -0.014343408 0.05581473 -0.1437007 0.049485926
000270 7b ec ce bd 41 7c e3 3c 2e fb 18 be a3 15 40 3d
       -0.10103699 0.02776921 -0.14939567 0.046895634
000280 b2 52 7d bd 8a 13 45 3e 7e 9d 8b bd 1b 8e 8c 3d
       -0.061846443 0.19245735 -0.068171486 0.06863042
000290 a1 a7 31 3e 2e be dd 3d 5e cd ac 3c d2 f8 95 bd
       0.17349102 0.108272895 0.02109402 -0.07322849
0002a0 31 fb b9 3d e0 58 c8 3d 0b af cc bd 00 cb dc 3b
       0.09081114 0.097825766 -0.09994324 0.0067380667
0002b0 15 ce 0e be 3f fe fc 3d 03 9c 4c bc 7c ab 18 be
       -0.13945802 0.12353181 -0.012488368 -0.14909166
0002c0 39 94 b3 bb c9 8a 05 be c5 a6 ef bc f7 e7 df bd
       -0.005480316 -0.13041224 -0.029254327 -0.10932916
0002d0 3b ae 44 3d ce 74 71 bc 8a 82 5d bd 5c ef 2b 3e
       0.04801772 -0.014737321 -0.05407957 0.16790527
0002e0 43 26 a0 3c 73 06 b0 bc 57 06 3a 3c 1c 01 f1 3b
       0.019549495 -0.02148745 0.011354051 0.0073548686
0002f0 ff 9e d4 bc a7 28 f1 3d 35 10 9d 3d d0 ac cb bd
       -0.025954721 0.11775332 0.07669107 -0.09945071
000300 ee da eb bd cc 5d c2 bc 80 76 c0 bd 1b 85 e5 3d
       -0.11516367 -0.023726366 -0.09397602 0.112070285
000310 01 55 12 3d 76 7e 85 3c 4a 69 42 3d 7a b4 02 be
       0.035725597 0.016295653 0.047463693 -0.12764159
000320 07 f6 54 3b d4 da e8 bc 12 8a 21 be b1 66 35 3c
       0.0032495277 -0.028424658 -0.15775326 0.011071847
000330 45 fc db bd f9 69 46 3e 33 ce 07 3e c6 8b 26 bd
       -0.10741476 0.19376363 0.13262253 -0.040660642
000340 43 cb 13 3e ad e6 1e be 78 8a 0e 3e 91 c8 46 3d
       0.14433007 -0.15517683 0.13920009 0.04853112
000350 9d 0c 01 3e 50 ba b2 3d 7b e3 8f 3d c7 f9 11 3e
       0.12602468 0.087269425 0.0702581 0.14255439
000360 f9 de 40 be dd 25 1a be 37 f8 b0 3d 23 3b fa bc
       -0.18835057 -0.15053506 0.08641093 -0.030545777
000370 9e ea 81 3b 62 fa b6 bd 87 74 19 3e b9 c5 2e be
       0.003964736 -0.089344755 0.14985858 -0.17067613
000380 dd b9 a4 bc 85 ce 9a bd c0 e2 ab 3d c8 34 fa bd
       -0.020108158 -0.07558922 0.083928585 -0.122170985
000390 ed 4c e1 3d bc e4 ba 3c 7a 7e 9e 3d c7 90 2d 3e
       0.110010006 0.022814147 0.07738967 0.1694976
0003a0 39 ba a8 bd 76 44 31 3d 8d eb cd 3d fb a9 0f 3b
       -0.08238644 0.04327818 0.10054693 0.0021921385
0003b0 8b 30 77 bd 64 83 61 bc 0a cb 3b be e8 d7 99 3d
       -0.06034903 -0.013764236 -0.18339172 0.07511884
0003c0 91 c6 d7 bc b6 e1 97 3c 3f 9f 4c bc 1d b0 08 3d
       -0.026339801 0.018540245 -0.012489139 0.03337108
0003d0 91 73 d8 3d 6c 8b 5b 3d 18 ad 1a be 31 58 32 3b
       0.105689175 0.05359976 -0.15105093 0.002721321
0003e0 30 c1 41 bc 38 e1 07 be 7e fa 96 bd 37 b3 f2 3d
       -0.011825845 -0.13269508 -0.07371996 0.11850589
0003f0 10 59 ad 3c d2 ce 1b 3d 63 f5 25 be 1e 46 a0 3d
       0.021160632 0.038039036 -0.16206889 0.07825874

network_body._body_endoder.seq_layers.0.bias f4 [128]
000000 f6 a9 d1 3c 59 02 3a 3c 86 46 45 3d a0 20 10 3d
       0.025593739 0.011353099 0.04816296 0.035187364
000010 45 04 20 be 8d 44 ab bd 4a fc df bc b9 5e c4 bd
       -0.15626629 -0.083626844 -0.02734198 -0.095883794
000020 ec 21 9a bc 2a e0 b6 bd 95 b0 cd 3d 38 1b bd 3a
       -0.018815003 -0.08929475 0.10043446 0.0014427667
000030 23 6e d6 bc 2b 75 61 bd b5 79 2b 3d bd 29 a0 3c
       -0.026175564 -0.05504338 0.041864116 0.019551152
000040 33 bc d1 bd ff b9 d5 3d 1b 4b 7f 3d af 8b be 3d
       -0.10240974 0.104358666 0.062327486 0.09303986
000050 a8 d8 39 3d e9 cb bd bc 93 b8 07 3e 0b 4b 22 be
       0.045372635 -0.023168521 0.13254003 -0.15848939
000060 53 11 c3 bd 5f e0 a8 3d 2e de 7a 3d f5 71 99 3b
       -0.09524789 0.082459204 0.061247043 0.004682774
000070 5b 87 7b bc 4d c9 05 bc 04 aa 79 3c 40 1f 80 3d
       -0.0153520955 -0.00816567 0.015238289 0.062559605
000080 07 ce 09 3d c8 20 fb b8 5c b7 b5 3d 9a 44 9c bd
       0.03364375 -0.00011974719 0.08872864 -0.07630272
000090 08 11 5c 3c f9 3c 1a bd 23 5d d9 bd b8 9a f2 bc
       0.013431795 -0.037655804 -0.106134675 -0.029614791
0000a0 18 11 2f 3d 68 93 3b bd 11 50 ea 3d a8 00 4a 3d
       0.04274091 -0.045794874 0.11441053 0.049317032
0000b0 6a 50 44 3e 2a 9c 6b 3d af a1 44 3d 84 44 7b bd
       0.191713 0.057521977 0.048005756 -0.06134464
0000c0 ae ea 1a bd 26 a4 40 3d 14 32 9a 3d 9a 0c 9f 3c
       -0.037821464 0.047031544 0.07529083 0.019415189
0000d0 2b 0b 85 3d 48 5b 95 bc 44 3f bc bc 3d 7d c7 bd
       0.06496271 -0.018232003 -0.022979386 -0.09740684
0000e0 b1 21 62 3d 7d 12 53 bd 61 7a ec bd 90 a9 1d 3c
       0.055207912 -0.051531304 -0.115467794 0.009622946
0000f0 90 2f c9 3d 98 a0 96 bd 19 4d 88 bd 91 e0 9e 3d
       0.09823525 -0.073548496 -0.0665533 0.077576764
000100 c0 00 ad bc 6c d4 25 3d 23 9e d0 3d 68 15 36 3d
       -0.021118522 0.040485784 0.10186412 0.04445401
000110 06 59 87 3c 4f ac 13 be a3 c4 ac 3c f6 53 bd bd
       0.016521942 -0.144212 0.021089857 -0.0924453
000120 10 33 2d 3d 7d 30 91 3b 05 b5 e3 3c c2 6c a0 3c
       0.042285025 0.004430829 0.027796278 0.01958311
000130 e0 de 4f 3d 0a 9b 3f be 05 98 bd ba dc 39 04 be
       0.05074966 -0.18711486 -0.0014464861 -0.12912697
000140 52 08 c4 bc 8c c5 aa bc 9b 4c 0d 3c b3 63 f0 3d
       -0.023929749 -0.02084615 0.008624221 0.11737766
000150 1e 4e a0 bd 05 71 67 3d b5 aa b9 3c 08 73 de 3c
       -0.078274 0.05650427 0.022664407 0.02715446
000160 dd 04 83 3d ff e6 82 3d 96 0a 86 3c 73 6e eb 3c
       0.06397412 0.06391715 0.01636247 0.02873919
000170 ed 95 5a 3d fa 37 bf bd fc 8f 98 3d 04 eb 9e bd
       0.053365637 -0.093368486 0.07449338 -0.077596694
000180 00 c1 82 bd 39 19 17 3b 5f ca 18 3d 3f 64 2c 3d
       -0.06384468 0.0023055805 0.03730237 0.04208779
000190 d3 f7 c7 bb 49 57 1d bd ae cd cd bd 64 d3 33 3d
       -0.006102541 -0.03841332 -0.10048996 0.04390277
0001a0 54 7b ba bc f4 80 b8 bb 96 79 93 3c 80 0c 3c 3c
       -0.022763886 -0.005630607 0.018002313 0.01147759
0001b0 5f 9e 37 bc 10 e7 e2 3d 68 d6 dd bc 52 27 ac bd
       -0.011207192 0.11079228 -0.027079776 -0.08405937
0001c0 50 f9 e2 bd b8 8d a7 3d 7e f1 6d bd 8e e0 27 be
       -0.11082709 0.081813276 -0.058091633 -0.16394255
0001d0 c6 32 3e 3c 69 64 48 bd 6f 59 86 3d e7 5c 53 bd
       0.011608785 -0.048923884 0.06560027 -0.05160227
0001e0 ab db 8c bc 48 f8 f0 39 bb 2c e2 3d a2 0c 8f 3c
       -0.01719459 0.0004596135 0.11043688 0.017462078
0001f0 3c 49 22 3b 03 af 34 3d b8 42 78 3c 06 a0 d8 3c
       0.002476289 0.044112217 0.015152626 0.026443493

network_body._body_endoder.seq_layers.0.weight f4 [128, 24]
000000 17 e5 b6 3d 69 fd ba 3c f5 d6 8a be ab 4d 87 bd
       0.08930414 0.022825914 -0.27117124 -0.06606611
000010 ce 17 05 be f9 9e 80 3e d9 5c 05 be e5 5c c9 bd
       -0.12997362 0.25121287 -0.130237 -0.09832171
000020 d4 a1 c0 3e 78 7f 1a 3e a2 5d 2c be 78 2a 4a 3e
       0.37623465 0.15087688 -0.16832593 0.19742763
000030 75 89 e8 bd 53 19 3d be 0e 0a bc be 2d a1 7a bd
       -0.11354343 -0.18466692 -0.3672642 -0.061188865
000040 b4 5e 88 be 8d cd d4 bd 1b b4 ee bd 88 a1 50 bd
       -0.26634753 -0.10390768 -0.11655446 -0.0509353
000050 51 8d f6 3b 7f 15 b6 bd 42 0a 1f 3d db 9a 1d 3e
       0.0075241704 -0.08890819 0.038828142 0.15391104
000060 7d 47 c8 bd dc 30 54 3e 0b 11 5c be fb fb 19 be
       -0.0977926 0.20721763 -0.21490876 -0.15037529
000070 ad 85 15 3e 29 b6 8c 3e ec 93 51 3e 0b e6 c5 bc
       0.14601775 0.27482727 0.20466584 -0.024157545
000080 69 ff 37 bd 73 3c 08 3e 13 66 2d bd 79 c3 30 3e
       -0.044921312 0.1330431 -0.042333674 0.17262067
000090 23 3f c3 bc 82 3a 9e 3e af 72 f3 bd f5 58 45 bc
       -0.023833817 0.30904013 -0.118871085 -0.012045135
0000a0 f4 29 04 3d ed 1e 19 3e 70 25 bf be 04 d6 53 be
       0.032266572 0.14953203 -0.3733325 -0.20687109
0000b0 82 44 79 3d cd 3c 46 be f9 94 23 be b6 16 b6 bd
       0.06085635 -0.19359131 -0.15974797 -0.088910505
0000c0 23 c4 de 3d 75 10 3c be 61 9c a6 be d3 d9 d1 3d
       0.10877254 -0.18365653 -0.32541183 0.10246625
0000d0 29 ad a7 3d 49 7f 42 3e d1 14 19 3f a3 49 b4 be
       0.081873246 0.18993868 0.5979739 -0.3521243
0000e0 71 f7 39 bd 11 7b 44 3c ed 37 92 3e 2c e2 b8 3b
       -0.045401994 0.011992232 0.28558293 0.005642196
0000f0 01 24 8c bd d9 43 b4 3c cd 41 39 be 8e f2 29 3d
       -0.06842805 0.022005009 -0.18091507 0.041491084
000100 e7 22 b0 bd 6f 6a d2 3d a9 e2 81 3e 79 ab 25 be
       -0.08600407 0.10274207 0.2536824 -0.16178693
000110 8f 12 68 3e 99 5a 78 be 20 7f 66 3e 26 40 06 be
       0.2266333 -0.2425331 0.22509432 -0.13110408
000120 93 42 bd 3e 32 fc a2 bd c2 b4 a8 be a5 9a bf 3e
       0.36964855 -0.07958259 -0.32950407 0.37422672
000130 d0 d5 c7 3c 0c e3 97 3e c8 91 a3 3e cb 01 7e bd
       0.024393946 0.2966541 0.3194716 -0.06201343
000140 67 d8 96 be 48 62 b6 3e b9 1c 14 3e fc a2 82 be
       -0.29461977 0.35621858 0.14464082 -0.25514972
000150 4b 94 02 3f 39 67 8a 3e 50 52 3c 3e d7 bd ad 3e
       0.5100753 0.27031878 0.18390775 0.339339
000160 59 1c 81 be 60 e9 8c 3a 6f 4f 47 bc 4d c8 20 3f
       -0.2521694 0.0010750704 -0.012164935 0.62805635
000170 02 c1 a2 3e ff 38 1f be a2 0e 2d 3e 46 a2 ac 3e
       0.31787878 -0.15549086 0.16900113 0.33717555
000180 3e 5b 74 3e f9 b7 9c 3e 22 79 9e bd f9 d8 df bd
       0.23862931 0.3060911 -0.07737948 -0.10930056
000190 9a d2 6f 3e f9 eb 3c 3e ac 0b 8c 3c 97 1d 47 bd
       0.23420182 0.18449391 0.01709541 -0.048612203
0001a0 de 13 b8 3e 28 4c 91 3e 23 a2 0a be 0e a2 94 3e
       0.35952657 0.28378415 -0.13538413 0.29029888
0001b0 6e 87 96 bd 31 3f 6c be 9d 97 a4 3d 93 75 e6 3c
       -0.0735005 -0.2307098 0.080367304 0.028132236
0001c0 a1 a6 c0 be 93 87 10 3e f9 21 83 3d 0b 74 01 3e
       -0.37627128 0.14114217 0.06402964 0.12641923
0001d0 82 85 a6 3d 21 f3 b1 bd bf 45 f1 bc 7e f9 eb 3d
       0.08130933 -0.08688951 -0.029452203 0.11522196
0001e0 c5 db 46 3d 98 bf ab 3d fa d7 83 be 8c c7 c8 bc
       0.048549432 0.08386153 -0.25750715 -0.024509214
0001f0 6d 17 20 be df 5a 04 3e 1f d6 fe 3d f0 46 37 be
       -0.15633936 0.1292529 0.12443184 -0.17898154
000200 45 3e 94 3e c3 50 79 3e a6 b5 5d 3d e1 d2 cf 3c
       0.28953758 0.24347214 0.05412831 0.02536911
000210 67 24 ae 3e ea e7 a0 be a0 10 5a 3b 0e ed 4f bd
       0.34012148 -0.31426936 0.003327407 -0.050763182
000220 af c1 06 be 55 43 86 3e 79 75 0c be eb e5 92 3d
       -0.13159822 0.26223245 -0.13716687 0.071727596
000230 4f b6 44 3e ba 68 7c bb 01 39 4f 3d 75 9f 80 bd
       0.1921017 -0.003851457 0.050591473 -0.06280414
000240 60 e8 4c 3e 59 ad a9 be 5f a5 94 3e 9c 44 3b bd
       0.20010519 -0.33140066 0.29032418 -0.045719728
000250 e7 2a 9b 3e 2b 10 27 3e 6a 18 76 3c 59 cf 15 bf
       0.3030617 0.16314761 0.015020469 -0.5851951
000260 51 72 05 3c 40 54 5e bd 26 31 06 bd 54 a5 d0 3d
       0.008144931 -0.054279566 -0.032761715 0.10187784
000270 6c 99 f3 be 82 ae 8f bd c8 4b c4 bd 25 01 de 3d
       -0.4757799 -0.070157066 -0.095847666 0.10840062
000280 bf da 77 3e 4e 49 23 3f 8d 33 1a be 8e e8 cd 3e
       0.24204539 0.6378373 -0.15058728 0.40216488
000290 ec d5 44 3e 2b 93 8f 3d b7 f1 5a be 4c 0c 51 bd
       0.1922223 0.07010492 -0.2138127 -0.051037118
0002a0 12 a9 ed be 69 20 9b be e8 a7 ac 3e 23 f1 6e be
       -0.46418053 -0.30298164 0.33721852 -0.23334174
0002b0 3a 45 f2 3d b8 47 ba 3e f4 e4 14 bd 61 8d 0a 3d
       0.1182961 0.36382842 -0.03635116 0.033826236
0002c0 9a f3 23 bd b4 37 39 bc 33 8f 18 3e 48 75 a0 bd
       -0.04002724 -0.011304785 0.14898376 -0.078348696
0002d0 9c 84 13 3d 2d f7 94 be 7d 99 a6 bd 91 f1 68 be
       0.036015138 -0.2909483 -0.08134744 -0.227484
0002e0 99 51 17 bd b3 2d 22 be 8a 19 52 3e e0 20 10 be
       -0.036943052 -0.15837745 0.20517555 -0.14075041
0002f0 e7 20 85 be 95 44 11 bd 04 38 0d be 47 3b 27 bd
       -0.26001665 -0.035465796 -0.137909 -0.040828016
000300 06 d0 46 3e 91 ad 48 3e 53 bd db bd b1 bf 89 3e
       0.19415292 0.1959746 -0.1072947 0.2690406
000310 35 7d 09 bf d7 37 b1 be a6 f9 c3 bd ea 93 61 bd
       -0.53706676 -0.34612915 -0.09569101 -0.055072702
000320 1d 28 92 3e 99 d2 38 bd 11 77 63 3e 30 1b 0d be
       0.2854623 -0.045122717 0.22213389 -0.13779902
000330 4f 09 44 3c 50 14 0b be 9b 5c f9 be 27 30 cf be
       0.01196511 -0.13581967 -0.48703465 -0.40466425
000340 44 8f 56 be 98 a7 1e 3e 9a ab 86 3e 5f e0 83 be
       -0.20953089 0.1549362 0.26302797 -0.2575712
000350 f7 3c ed bc 94 25 d0 3e 22 2c a4 be 09 13 e7 bc
       -0.028959734 0.4065367 -0.3206492 -0.028207319
000360 69 9b 02 3d 17 59 83 3e 2d 0d 6d 3d f8 0a 03 be
       0.031886492 0.25653908 0.057873894 -0.12797153
000370 1c f0 4e bd f8 fd 0e bd 6b e2 96 be 13 06 5a be
       -0.050521955 -0.034910172 -0.29469618 -0.2129138
000380 a0 ec 98 3e 20 44 5e 3d ab 71 24 be 1e 8a 47 3d
       0.2986803 0.054264188 -0.16058986 0.048715703
000390 41 94 83 3e 9b bf ec bd ae a0 a3 3e 4e d0 33 3e
       0.25699046 -0.11559983 0.31958526 0.1755993
0003a0 02 74 a4 be eb 04 1d bd f0 cb b8 bd c0 e2 4e bd
       -0.32119757 -0.03833477 -0.09023273 -0.050509214
0003b0 0e 68 ad be 54 3c 8f be d4 6f ec 3d 11 37 ae bd
       -0.3386845 -0.27975714 0.11544767 -0.08506597
0003c0 bd 5f 73 3e 0b 5b 0d be b3 fc ea 3d 44 41 08 3f
       0.2376699 -0.13804261 0.1147398 0.5322459
0003d0 af ea b1 3e b3 86 17 be 2d 8c fd 3e 68 72 3c 3c
       0.34749362 -0.14797477 0.49521008 0.011501886
0003e0 b5 8d e2 3d 87 8d 4c 3e b1 af 30 3d cd 72 8c be
       0.11062185 0.19975863 0.043136302 -0.27431336
0003f0 34 d9 df 3e 88 c0 87 be b9 8b 9a be 5a fe 86 bd
       0.437204 -0.26514077 -0.30184725 -0.065914825

network_body._body_endoder.seq_layers.2.bias f4 [128]
000000 ab fa 8d bd 3b d4 a0 bd 3c cc 17 3e a0 ce ab 3c
       -0.06932577 -0.0785298 0.14824003 0.02097255
000010 f7 0a 74 3d 0a 6d b0 bd cb ae b6 bb 11 ab 82 3d
       0.05958077 -0.086145476 -0.005575036 0.063802846
000020 fb a2 0e 3e c2 d8 96 3c 30 dc 98 bd 4c f3 6f 3d
       0.1392936 0.018413905 -0.074638724 0.058581635
000030 e8 dd f1 bc 33 ea f3 3d 14 29 34 bd 9e 8f 8a 3c
       -0.029524758 0.11909904 -0.043984488 0.016914185
000040 e6 7f da 3d 3b fc 90 3d c3 8d 02 3d 17 e0 fe 3c
       0.10668926 0.07079359 0.031873476 0.031112714
000050 b5 9d 97 3d e5 f0 da 3d a2 39 14 3e 20 b6 03 bd
       0.07403127 0.10690478 0.1447511 -0.03215611
000060 bd dc 9c 3c a3 9a fd bd 23 fe f8 3d 66 5e 2f 3c
       0.019148225 -0.1238301 0.12157848 0.010703659
000070 98 ec 3a 3d 59 69 66 bd 30 a1 d5 3d 92 35 84 3c
       0.04563579 -0.05625281 0.10431135 0.016138826
000080 0a 92 88 3d b3 0f ba 3c fd 82 62 3d 5e 38 68 3a
       0.0666848 0.022712564 0.0553007 0.0008858497
000090 64 d1 88 3d 1f 62 2c bd 68 f9 13 bd bf 4f 8e 3d
       0.06680563 -0.042085763 -0.036126524 0.06948804
0000a0 1d 7a cb bd 9d c3 83 bd 39 4f cd 3d bd 14 af bc
       -0.09935401 -0.06433795 0.10024876 -0.021372193
0000b0 d7 ee ae 3d 6c 82 24 bc 65 a0 4e bc b2 95 0e 3e
       0.08541649 -0.010040861 -0.012611483 0.13924292
0000c0 31 29 ae bc 42 b2 96 3d e5 69 16 bc e4 9f ba 3d
       -0.021259876 0.07358219 -0.009180521 0.09112528
0000d0 3d ca 9b bd 87 e5 01 3b c3 f6 6b 3d 62 cf 8d 3c
       -0.07606933 0.0019820647 0.057608377 0.017310802
0000e0 b3 48 cf bc c6 ac 83 bd 54 7b 4c bd 3a b0 26 bd
       -0.02530322 -0.06429438 -0.049922302 -0.040695406
0000f0 fb b8 3a 3d 02 70 84 bc da 2d ce bd e2 36 fa 3d
       0.045586567 -0.01616669 -0.10067339 0.12217499
000100 f9 81 b4 3d ef c3 f7 3c fd 2b d1 3d 6a 19 ac bc
       0.08813853 0.030244796 0.10213468 -0.021008212
000110 82 ff 67 bd 72 8a 83 3c 65 5d b8 bc 16 41 8f 3d
       -0.056640156 0.016057227 -0.022505471 0.06994836
000120 8e 8b ae 3c 7e a5 6e bd dd 11 d7 3d f6 d3 1a bb
       0.02130678 -0.058263294 0.10501454 -0.0023624874
000130 0f dc 9d 3d 00 35 55 3d 6c b7 4b 3c b8 41 81 3d
       0.077079885 0.052052498 0.012433868 0.06311363
000140 96 ae 30 bc 82 ee c9 3d 4d 8c b0 3c 9c 0c fb bc
       -0.010783812 0.09859945 0.021551276 -0.030645661
000150 91 46 2a bc 50 1c 22 bd 38 e0 d2 bd 39 1d 48 bc
       -0.010392801 -0.039577782 -0.102966726 -0.0122139985
000160 fa 9f d3 3d 9d 4a 78 3d 2e 52 9c bd 98 79 34 3a
       0.103332475 0.06061803 -0.07632862 0.0006884574
000170 92 a7 19 3c fa 7b b0 3d ad 7a 4a 3d 8e 11 19 3e
       0.009378331 0.08617397 0.0494334 0.14948103
000180 c9 4f f7 3b 68 39 3b 3d 20 78 af bc 67 c4 f4 3d
       0.007547353 0.045709044 -0.021419585 0.11951523
000190 9c 49 a8 bd 2f bd 89 bb 68 00 79 bd b0 71 d5 3a
       -0.08217165 -0.0042034606 -0.060791403 0.0016284492
0001a0 c2 bd 58 3d ae 75 31 bd da d7 02 3d 65 26 d9 3c
       0.052915342 -0.04332512 0.031944133 0.026507566
0001b0 28 de 0d 3a 2b cd 66 3d 5e 96 0e 3e ab 56 e3 bd
       0.0005411827 0.056348007 0.13924548 -0.11100515
0001c0 74 99 5e 3c 23 7e ba bd 94 b2 87 3c 70 6f 38 bd
       0.013586391 -0.0910609 0.016564645 -0.04502815
0001d0 44 9f 00 bc 8f e7 20 bc 16 f3 f1 3d 9a 81 7b bd
       -0.007850472 -0.009820833 0.11813943 -0.061402895
0001e0 c2 55 68 3c 09 6e ff 3d 88 ef 78 3c d9 ed 65 bc
       0.0141806025 0.124721594 0.015193827 -0.014033758
0001f0 9c 34 4d bd 92 f2 70 bc f3 d9 9a 3d da 99 4b bd
       -0.050099 -0.014706271 0.07561102 -0.04970727

network_body._body_endoder.seq_layers.2.weight f4 [128, 128]
000000 02 78 60 3c 22 46 fc bc 8d 31 8f bd d3 af 42 3c
       0.013700487 -0.03079516 -0.06991873 0.01188274
000010 59 11 11 3e 11 a0 7b bd 41 07 27 bd 9f a7 c6 3d
       0.14166774 -0.061431948 -0.040778402 0.0969994
000020 23 a7 49 bc 04 47 b7 3c e3 b7 c0 3c e7 51 2e 3e
       -0.012307915 0.02237273 0.023525184 0.17023431
000030 9f 90 30 bd 9d 09 cc bd d6 d7 c9 3c 79 81 ec 3c
       -0.04310667 -0.09962771 0.024639051 0.028870331
000040 d0 ba 01 bd 85 1b 7b bd 6a f4 29 bd 47 07 3e 3e
       -0.0316723 -0.06130554 -0.041492857 0.18557464
000050 44 84 c1 3d a3 f9 35 bd 67 5b f0 bc 81 1b 8c 3c
       0.09449056 -0.044427525 -0.029340459 0.017102959
000060 7c 9f 81 bd 0f 24 23 3e db c4 ec 3c 70 ce f4 3c
       -0.06329247 0.15931724 0.028902462 0.029883593
000070 90 99 f8 3d 9d 7f 07 3e 66 d7 8c bc b8 db 01 be
       0.12138665 0.13232274 -0.017192554 -0.12681472
000080 8f 4d 0a bd 22 98 ec 3d c5 3a 15 3d f0 23 c8 bd
       -0.033765372 0.115524545 0.036433 -0.097724795
000090 72 2f 79 bd f2 94 49 bd 2c 09 9b 3d 4e c1 79 3c
       -0.060836263 -0.04921431 0.07570109 0.015243841
0000a0 92 4a b9 bd a4 2e c9 3d fe d9 7f bd 24 72 31 bd
       -0.09047426 0.09823349 -0.062463753 -0.043321744
0000b0 23 ac e8 3d 50 1e 66 bc 8d 43 21 bb 29 74 2c bd
       0.113609575 -0.014045313 -0.0024606914 -0.042102966
0000c0 7b 49 09 3e 84 e5 d5 bd 22 f7 bb bd f2 07 e0 bd
       0.13406937 -0.10444167 -0.09177996 -0.109390154
0000d0 f3 6a 0e 3e 7f 92 b7 bc 7d 7a ff 3d 7c 90 06 3d
       0.13907985 -0.022408722 0.12474535 0.032852635
0000e0 90 67 4d 3d cf aa eb 3c a8 75 cc 3d 6c 13 e9 3b
       0.050147593 0.028767971 0.09983379 0.007112911
0000f0 06 f5 35 3e 68 3d c4 3d ea 84 24 3e b4 84 20 be
       0.1776925 0.09582025 0.16066328 -0.15675622
000100 a1 ea de bd 42 2b fd ba 58 0a ba 3d 3f 17 e1 39
       -0.10884596 -0.001931526 0.09084004 0.00042932664
000110 65 03 77 bd 4a 7d c2 3d 5a ce 1c 3b c8 1e d4 bd
       -0.06030597 0.09496553 0.0023926706 -0.103574336
000120 f8 7d 44 3d 7a 31 cf bd 58 cf 31 be b8 54 96 bd
       0.047971696 -0.10116859 -0.17364252 -0.073403776
000130 d6 b3 33 be 72 d7 22 3c 23 fc 3a be 72 4f c0 3d
       -0.1754907 0.0099390615 -0.18260245 0.09390153
000140 8c ac 31 bd 2e 88 c4 bb ff cd 3c be 30 ab 8a bd
       -0.043377444 -0.005997679 -0.18437956 -0.06770933
000150 a1 9e 69 3c 65 60 86 bd cd 40 17 3d 92 1d 13 3e
       0.0142590115 -0.065613545 0.036927033 0.14366749
000160 da 7d cb bd 30 c0 83 bd a1 7c 82 3d 6e 60 df bd
       -0.09936114 -0.06433141 0.06371427 -0.109070644
000170 07 26 f0 bd f8 3b f2 3d ee fa 79 be ef 69 19 3e
       -0.11726003 0.118278444 -0.24412128 0.14981817
000180 c2 3b 0d be a6 c1 d0 3c 13 d8 ef bd 3f 41 aa 3d
       -0.13792327 0.025482964 -0.11711135 0.08313226
000190 db 8d 25 3d ac 5a a2 bd 8b 35 e3 3d aa 6d e1 3c
       0.040418487 -0.079274505 0.11094197 0.027518112
0001a0 4c d3 91 bd e0 55 96 3d 8a 47 a3 3a b8 5f 27 be
       -0.0712038 0.07340598 0.0012457233 -0.16345108
0001b0 7c ff 40 3d aa 4a f5 3c 34 73 d7 bc 70 0b 0c 3e
       0.04711865 0.02994283 -0.02630005 0.13676238
0001c0 c9 00 8a bd a7 cb 24 be 1c ae 2b 3e e5 57 c7 bc
       -0.06738431 -0.16093312 0.16765636 -0.024333904
0001d0 40 8e 9f bc d3 8c 65 3c 09 98 8f bd b0 b6 82 be
       -0.01947701 0.014010626 -0.0701142 -0.25530005
0001e0 4b 7c 39 3e b6 33 c3 3d 60 7a 13 bd 70 8c 2e 3d
       0.1811382 0.095313475 -0.036005378 0.0426144
0001f0 ac c3 fc 38 57 1f ba bd e6 4d ba bc 52 1b 05 bd
       0.00012052743 -0.09088009 -0.022742223 -0.032496758
000200 18 26 8c bd 25 dd 0b be d8 ea 96 3d e7 46 9e bd
       -0.06843203 -0.13658579 0.07369012 -0.07728367
000210 78 fc 35 bd 0d 6e a9 bd 63 c5 f8 bc eb 09 16 3e
       -0.044430226 -0.08272944 -0.030367559 0.14652221
000220 af c3 75 bd ce 70 13 3e 59 79 5d 3d 7a 43 6b bd
       -0.06000107 0.143985 0.054070804 -0.057437398
000230 e0 2d 99 bd 79 90 e9 bd bb 22 01 be 0f af 16 3e
       -0.07479453 -0.11404509 -0.12610905 0.14715217
000240 3e ef 1e 3d ab 78 89 bd a2 f0 09 bd e4 7e 5a 3d
       0.038802378 -0.06712469 -0.03367675 0.05334367
000250 57 8d 13 be 17 08 ea bd 55 2e e7 3d 80 78 86 3d
       -0.14409386 -0.11427324 0.11288134 0.06565952
000260 67 63 bd 3d 4a 57 08 3e ad 06 07 b9 09 8f ac bb
       0.09247475 0.13314548 -0.0001287709 -0.0052660746
000270 b5 e9 23 3e 71 45 c7 3d 6e bb 17 bd c2 ff dd bc
       0.16007121 0.09730042 -0.03704398 -0.027099494
000280 62 b0 8e 3b 8a 4a 20 3d cf 73 cb bc e6 d4 0c be
       0.0043545226 0.039133586 -0.024835495 -0.1375309
000290 d6 46 fe bd 9a a6 18 be 3b 91 75 bd 76 1c 7d 3b
       -0.12415855 -0.14907303 -0.059952956 0.00386217
0002a0 6e 2c 01 be 1c 76 82 be 9a ec de 3c f9 05 cb 3c
       -0.12614605 -0.25480735 0.02721243 0.024783121
0002b0 43 91 73 3c 4a 03 a2 bd 0b d1 f0 3d 56 18 54 3d
       0.014866176 -0.079107836 0.11758622 0.05178102
0002c0 38 7a 81 bc 1e 0e 36 be 24 45 40 be f9 0e 8b bd
       -0.015805349 -0.17778823 -0.18776375 -0.06789965
0002d0 69 f6 12 3c 05 2c c4 bc cc b0 80 3e b9 e0 52 bc
       0.008969882 -0.023946771 0.25134885 -0.012870961
0002e0 31 1e 91 bd 09 e6 05 3e a3 ce 13 3e a9 a6 04 3e
       -0.07085837 0.13076033 0.14434294 0.12954201
0002f0 36 ab 30 be b4 27 86 3c 79 cc ad 3d f0 7e 62 bd
       -0.17252812 0.016376354 0.08486266 -0.05529684
000300 1c cb 6c bd be 61 13 3e 36 67 ae bd a3 ad b0 bd
       -0.057810888 0.14392754 -0.0851578 -0.086268686
000310 5f c5 fa bd a0 09 d4 3c ed c6 8d bd 8c 5a 19 bc
       -0.12244677 0.025883496 -0.06922708 -0.009359967
000320 67 af 5f 3c 40 f5 07 3e 17 31 26 bd 1b cd 4a 3c
       0.013652659 0.13277149 -0.04057416 0.0123780025
000330 ce 1f c1 bd 4e 50 83 3d 0d 82 0a bc 09 bd 9c 3d
       -0.094298944 0.06411801 -0.008453858 0.07653243
000340 7e 9c 4f be 39 cb 1a 3d 77 d5 13 bc 90 e4 92 bd
       -0.20274541 0.037791464 -0.009023062 -0.07172501
000350 90 27 b2 bd 10 30 77 3d e6 16 b4 bc d9 cb 02 bd
       -0.08698952 0.06034857 -0.021983575 -0.031932686
000360 50 1b ce bd 06 83 e3 bb 1c 13 00 3d dc 4d 56 bd
       -0.10063803 -0.0069431094 0.031268224 -0.052320346
000370 ce 21 3a 3c 49 8f 0d bc 1d 84 3e be f9 31 c0 bd
       0.011360599 -0.008640119 -0.18605085 -0.093845315
000380 6e a2 af bd 4c 22 85 3d 90 31 11 be cd 6b 98 3e
       -0.08575903 0.06500682 -0.14179063 0.29769745
000390 ea 4a 4c bd d8 19 10 3e bf de af bb 6e dd 45 3d
       -0.04987613 0.14072359 -0.0053671296 0.048306875
0003a0 2e 16 c5 3d 2a 98 a9 bd 4a bc c3 bc d9 20 b6 bd
       0.09623371 -0.08280976 -0.023893494 -0.08892984
0003b0 ad c5 41 3b af 2d e5 bc 67 07 c5 3d f4 f9 25 be
       0.0029567287 -0.027975885 0.096205525 -0.16208631
0003c0 ee 4a ae 3d 7f bb 56 be 95 71 f6 bc 92 d4 aa 3d
       0.085103855 -0.20969962 -0.030083457 0.08341326
0003d0 e8 b3 06 3c 24 e3 0f bc 4a 7a 21 3c f4 20 29 bd
       0.008221604 -0.008782182 0.009855816 -0.041291192
0003e0 18 60 eb 3d 1a 1a fc bc af 96 ab bd 2a 42 83 bd
       0.11492938 -0.030774165 -0.0837835 -0.06409104
0003f0 3f 02 67 3b 7f 72 7f 3b 95 37 85 bd e6 58 04 be
       0.0035249142 0.0038978157 -0.06504742 -0.12924537

network_body.observation_encoder.processors.0.normalizer.running_mean f4 [24]
000000 05 c2 3c bb 01 93 3e 40 03 8e c2 3f 2a dd f3 bf
       -0.0028802168 2.9777224 1.5199589 -1.9051869
000010 01 5b bd 3f 94 a7 43 3f ff 24 e2 be a4 c5 95 b3
       1.4793397 0.7642758 -0.4416885 -6.974304e-08
000020 39 dc ef 3c 7d 19 d8 3f 01 93 3e 40 66 49 02 3f
       0.029279815 1.6882778 2.9777224 0.5089325
000030 57 c1 3c bb b5 fe 3f 40 c9 2a c5 3f 05 e3 f9 bf
       -0.0028801763 2.999921 1.5403682 -1.9522406
000040 0d c7 be 3f 9e 0d 44 3f 85 22 f5 be 9e c7 95 b3
       1.4904495 0.7658328 -0.478779 -6.974663e-08
000050 20 12 c0 3b 99 54 d5 3f b5 fe 3f 40 5f e0 07 3f
       0.0058615357 1.6666442 2.999921 0.5307674
