Assets/Trining/results/MassiveTraining/PingPongAgent/PingPongAgent-499998.onnx (onnx, 82986 bytes, 8 tensors)

49 f4 [24]
000000 75 e3 32 42 61 73 a9 3e eb bc 1d 41 33 86 c9 41
       44.722126 0.3309584 9.858623 25.190527
000010 b3 98 55 3e 18 8d 53 41 f6 3f f5 41 2e 5d b9 3a
       0.20859031 13.221947 30.65623 0.001414215
000020 2d 02 d1 41 c2 18 c4 42 61 73 a9 3e e1 5c 34 42
       26.126062 98.048355 0.3309584 45.090702
000030 00 00 34 42 82 8a 92 3b c0 71 1e 41 f2 be cd 41
       45.0 0.004472078 9.902771 25.718235
000040 a4 6a 04 3e 36 8a 54 41 e8 1b f7 41 2e 5d b9 3a
       0.12931305 13.283743 30.888626 0.001414215
000050 63 d8 d1 41 64 51 c5 42 82 8a 92 3b d6 7a 35 42
       26.230658 98.658966 0.004472078 45.369957

action_model._discrete_distribution.branches.0.bias f4 [3]
000000 fd 5d 2b 3d f5 1c 96 bd 46 ff ca 3c
       0.04183768 -0.07329742 0.024779927

action_model._discrete_distribution.branches.0.weight f4 [3, 128]
000000 fd f0 25 bd 08 da c7 bc f9 84 13 3d 2b f2 dc 3c
       -0.040513027 -0.024395958 0.036015484 0.026970943
000010 a4 18 21 3d 43 b7 4b bd c9 a1 37 3d 0b 72 76 3c
       0.03933014 -0.04973532 0.044832025 0.015041838
000020 99 66 42 3d 52 fe 4e bd 60 bc 46 bd 1d fa a8 3c
       0.047461126 -0.050535508 -0.048519492 0.020627076
000030 3d a6 d7 3c 38 8b 03 3c f0 20 1f bd cc 3c 44 3b
       0.026324386 0.008028798 -0.03884977 0.0029943464
000040 50 ff 12 3d f6 e2 16 bb 55 e4 0d 3c b7 fb 8e 3c
       0.035888016 -0.0023023463 0.008660396 0.017454011
000050 f6 27 ea 3c 1a 61 23 bd a4 55 22 3d 8d 71 13 3c
       0.028583508 -0.039887525 0.039632455 0.008999241
000060 03 41 e8 3c aa 9c 7a bc ec 72 30 3d d5 4b 85 3d
       0.028351313 -0.015296141 0.043078348 0.065086044
000070 84 1c 87 3b a4 3e 3c bc d2 87 ea 38 6e ae 07 3d
       0.0041232724 -0.011489544 0.00011183288 0.033125333
000080 91 a0 8a 3d 89 44 77 bc a5 dd a4 bc 80 29 21 3d
       0.06768907 -0.015092024 -0.02012522 0.039346218
000090 46 22 f4 bb 31 82 d0 3c 16 83 37 bc a5 77 93 3d
       -0.007450375 0.025452705 -0.011200687 0.07200555
0000a0 cb bd b3 bc da ba a2 bb cb 53 3a 3c 11 03 e6 3c
       -0.021941086 -0.004966122 0.011372517 0.028077634
0000b0 1f 43 85 ba 59 85 cb bb 1d 53 af 3d 79 74 5c 3c
       -0.0010167098 -0.0062109646 0.085607745 0.013455504
0000c0 60 65 8b b9 44 cc 1f bb 96 a0 16 bd 10 10 98 3c
       -0.00026587676 -0.0024383226 -0.03677424 0.018562347
0000d0 e9 43 5d bd f1 18 46 3d 15 96 0a 3d 37 7f 31 bb
       -0.054019842 0.04836363 0.033834536 -0.0027083883
0000e0 c9 bf 1e bd 47 ef 66 bc 6f f4 3f bd 10 f0 c7 bb
       -0.03875712 -0.014095134 -0.04686397 -0.0061016157
0000f0 ac 5d 90 3d cd c8 7a 3c a6 ef 63 bc d0 72 0c 3d
       0.070491165 0.015306664 -0.013912117 0.03428918
000100 3b 33 7c 3b 70 5d 64 bd f4 fb 83 3d 29 7a 2f bc
       0.0038482684 -0.05575317 0.064445406 -0.010710278
000110 dd 70 79 bd 2b 4e 23 3d 93 46 2c 3d 50 1c a7 bc
       -0.06089865 0.03986947 0.042059492 -0.020399243
000120 4c 41 92 3d a6 ad 0a bd 23 11 39 bc f4 c9 28 3d
       0.07141361 -0.03385701 -0.01129559 0.041208223
000130 63 87 d2 3c 02 0a ed ba c4 3d f5 ba ec 7d 52 3d
       0.025699323 -0.0018084648 -0.0018710424 0.05138962
000140 fb 2b 1c bb 04 48 33 3b 97 07 28 38 73 61 01 3d
       -0.0023829925 0.0027356157 4.006139e-05 0.031587075
000150 70 74 bf 3c b7 9a 1a 3c 45 ba 23 bd d8 68 4c bd
       0.023370951 0.009436301 -0.039972562 -0.049904674
000160 1a 2f a9 3c 11 79 dc 3c b6 e5 f3 bc 0b a2 e8 3a
       0.020652343 0.026913198 -0.02977262 0.0017748488
000170 bd 96 7d 3d 41 92 32 3d bd 3c 3a bc 9b a9 01 3d
       0.061911333 0.04359651 -0.01136702 0.03165589
000180 4b 7a 07 3c 0c 2f 16 3c ef 35 96 bc c0 89 9a 3c
       0.008268903 0.00916649 -0.018336264 0.018864512
000190 b2 9e c3 bc 8b 5f 5f 3d d0 75 f1 39 f8 8e b4 bc
       -0.023879383 0.054534476 0.0004605488 -0.022040829
0001a0 21 bd 96 3d 04 05 8f bb 24 ea 88 3c 90 42 e0 3c
       0.07360292 -0.0043646116 0.01671321 0.02737549
0001b0 ad 70 c3 3b 4c 9b 5a 3c b6 0d 9a 3c fe 68 03 bd
       0.0059643597 0.01334269 0.018805366 -0.03208255
0001c0 4c de e4 bc 2e fc f3 bc 36 9c 34 3c 94 3c 87 bc
       -0.02793803 -0.029783335 0.011023572 -0.016508378
0001d0 e8 25 97 bc 20 cb 7d 3d 49 0b 50 3d fb 1d 8f bd
       -0.018450692 0.061961293 0.050792012 -0.0698814
0001e0 99 39 27 3c 38 be 48 3d aa 6a 80 bc 5e c9 f0 3b
       0.010206603 0.04900953 -0.015675861 0.0073482236
0001f0 7d 52 d9 bc 0d e5 e5 bc c1 c1 1d bc 6f c1 b7 3a
       -0.026528591 -0.028063321 -0.009628714 0.001401944
000200 cc 11 af 3c 23 63 10 3c 1d 1c f3 bd 08 59 b5 3b
       0.02137079 0.008812699 -0.118705966 0.005534295
000210 58 ac 04 3e 06 16 d0 3c bc 4c 91 bc 22 2b 7c bd
       0.12956369 0.025401127 -0.017736785 -0.061564572
000220 5d 63 0c be 30 39 e9 bc 31 67 4c 3c 6b 62 18 bd
       -0.13709779 -0.028469652 0.012475775 -0.037203234
000230 f3 03 b8 3c b9 cb 04 be 03 74 bf 3d b0 c2 b8 3d
       0.02246282 -0.12968339 0.09348299 0.09021509
000240 02 6f bc bd ba 87 06 bc 95 b6 b8 bc 40 87 e3 3d
       -0.092008606 -0.008211071 -0.022548 0.11109781
000250 0f 17 5c bd 80 fd 95 bd 90 d3 2b be fe 08 e9 3d
       -0.053732928 -0.07323742 -0.16779923 0.11378668
000260 2b 1a b6 bc c7 e4 85 3d 55 0d b9 bd 8f f2 23 3d
       -0.022229275 0.065377764 -0.09035746 0.040026244
000270 e3 b9 7e bd a3 07 05 3d 0f af fb bd 90 80 30 3d
       -0.062188994 0.032477986 -0.12289249 0.043091357
000280 c4 b9 5e bd d5 5d 30 3e d1 85 41 bd e9 e0 4c 3d
       -0.05437638 0.17223294 -0.047246758 0.05001918
000290 35 9e 1c 3e 69 2d ac 3d 0b b3 b6 3c 4f af 5b bd
       0.15294726 0.08407099 0.022302171 -0.053633984
0002a0 0d 5c 84 3d 95 55 8a 3d 12 d0 a0 bd 62 61 1c bc
       0.0646287 0.06754605 -0.07852186 -0.009544702
0002b0 16 4e f4 bd 1b f5 d8 3d 64 20 3f bc a1 66 00 be
       -0.11928956 0.10593625 -0.011665437 -0.1253915
0002c0 a8 d6 3a bc c6 4d b9 bd d6 d0 8a 3b 63 d4 8f bd
       -0.011403717 -0.09048037 0.004236321 -0.070229314
0002d0 2d a6 66 3d 16 ba 6b bc e7 de 48 bd 8c 9e 19 3e
       0.05631082 -0.014387628 -0.0490407 0.15001887
0002e0 77 7d 32 bb 8a af 51 3c 26 c3 09 3d f5 63 08 3c
       -0.0027235427 0.012798199 0.033633374 0.008324613
0002f0 a9 3e 6e bd 88 c2 d6 3d a3 0e 74 3d c4 bc 9a bd
       -0.058165226 0.10486323 0.05958427 -0.075555354
000300 63 c1 84 bd 99 c7 b2 bc 6b 0c c1 bd 43 51 bf 3d
       -0.06482198 -0.021823691 -0.09426197 0.09341671
000310 91 de 0f 3d 19 19 f1 3b 59 0e 22 3d 48 4c a1 bd
       0.035124365 0.007357728 0.039564464 -0.078758776
000320 54 bf e0 38 ec b1 b9 bc bf 8a d4 bd 40 0e a8 3c
       0.0001071679 -0.022667848 -0.10378026 0.020514607
000330 67 6f cf bd 71 21 2c 3e 37 41 e8 3d 5b c7 ed bc
       -0.1012867 0.16809632 0.11340564 -0.029025724
000340 3d 9a f9 3d f5 99 e4 bd 5e fa ea 3d 99 12 84 3c
       0.12187622 -0.111621775 0.11473535 0.01612215
000350 ac 04 c8 3d 3d 0f 82 3d de 9e 54 3d 95 dc ee 3d
       0.09766516 0.06350563 0.05190932 0.116631664
000360 49 a4 f6 bd 7f 7b ad bd 51 02 7d 3d ed 71 ac bc
       -0.12043054 -0.08470821 0.061769787 -0.021050418
000370 c1 53 2d bc 9f 8e 92 bd 8e 31 f9 3d b3 6d 1c be
       -0.0105790505 -0.07156109 0.12167655 -0.15276222
000380 83 42 95 bc cb 46 ce bc eb b1 88 3d a1 95 bd bd
       -0.018220192 -0.025180241 0.0667456 -0.09257055
000390 3b 68 64 3d 4b fd c1 3c 66 56 5b 3d 7e 9a 14 3e
       0.055763464 0.02368035 0.053549193 0.14512059
0003a0 c7 73 93 bd 7b 14 93 3c aa 10 a5 3d c8 73 4f bc
       -0.07199817 0.017954102 0.08059819 -0.012661882
0003b0 be 6c ab bc da 43 87 bc 02 0d 1a be de f9 58 3d
       -0.020925876 -0.016511846 -0.15044025 0.052972667
0003c0 c2 eb 02 bd f6 6d 04 3d 21 a6 90 3b 0a c4 43 3c
       -0.031963117 0.03233143 0.0044143354 0.011948595
0003d0 9f c7 9d 3d 3f b6 4b 3d 9c 7f e0 bd 3a 60 fb 3c
       0.0770409 0.04973435 -0.109618396 0.030685533
0003e0 0c a8 13 bc b0 1e df bd 4b 34 5d bd 4c a6 d1 3d
       -0.0090122335 -0.10894525 -0.05400495 0.10236797
0003f0 b5 90 c6 3c f5 f2 0c 3d 52 71 0c be 8f 2e 7f 3d
       0.024238924 0.03441139 -0.13715103 0.06230026

network_body._body_endoder.seq_layers.0.bias f4 [128]
000000 1c ff 51 3c ed 2c 07 bc e0 a4 05 3d 41 52 18 b9
       0.0128171705 -0.008250457 0.03262794 -0.00014526492
000010 6c 8d e2 bd 8c 73 a2 bd 3c 8f 00 bd b7 ff c4 bd
       -0.1106213 -0.07932195 -0.0313866 -0.09619086
000020 c8 0a da bc b8 7b 9e bd 8a 19 7c 3d 00 6b 4f bc
       -0.026616469 -0.07738441 0.061547793 -0.012659788
000030 3c 04 a4 bc 6d 8f 13 bd 7d 92 cd 3c a2 a9 81 3a
       -0.02002155 -0.036025453 0.025094265 0.0009892473
000040 c0 9a a6 bd 25 48 cb 3d 8e 5c 9b 3d 73 fd ce 3d
       -0.08134985 0.0992587 0.07586013 0.10106935
000050 ce d7 45 3d cf 9a 36 bd f4 81 ea 3d 51 73 24 be
       0.04830151 -0.04458123 0.11450568 -0.16059615
000060 a6 ce 8c bd 39 f8 a7 3d 5d 2e 8b 3d 91 1b 5b bc
       -0.068753526 0.082016416 0.067959525 -0.013373272
000070 6a d8 04 bc 6b 7f cd bc 0d fc f1 3c fb d0 8c 3d
       -0.008108238 -0.025085172 0.029539132 0.06875797
000080 cd 84 2a 3d 17 10 6f 3c 2e 93 af 3d 7c dd 84 bd
       0.041630555 0.014591238 0.08572994 -0.06487557
000090 9e e6 ca 3c 91 2e 2e bd 62 29 85 bd 0d 49 03 bd
       0.02476817 -0.042524878 -0.06502034 -0.03205209
0000a0 16 49 6b 3d 79 6d 60 bd db 07 f4 3d 66 46 f0 3c
       0.057442747 -0.0547919 0.11915561 0.029330444
0000b0 87 9c 39 3e 34 f5 8c 3d a1 72 42 3d b0 b2 84 bd
       0.18126117 0.06882706 0.0474726 -0.064793944
0000c0 61 54 2e bd 29 69 de 3c 66 4e a8 3d fc 82 6f 3b
       -0.04256094 0.027149754 0.08218078 0.0036546579
0000d0 f5 f0 94 3d c2 ba 2c bd 25 e5 58 bc a9 8a 7a bd
       0.072725214 -0.042170294 -0.013238226 -0.061167393
0000e0 b8 9c 71 3d 48 f8 48 bd f5 f6 b2 bd 5d 16 c3 3c
       0.05898735 -0.049064904 -0.087385096 0.023814375
0000f0 26 64 da 3d c3 61 74 bd fc 97 74 bd 44 c4 bb 3d
       0.10663633 -0.059663545 -0.059715256 0.09168294
000100 fa 31 8f bc 0d 16 c1 3c bf a0 f1 3d 28 1e b9 3c
       -0.017479885 0.023570085 0.11798238 0.022597387
000110 54 26 fb 3c 48 4d 05 be 73 b8 02 3b da e9 83 bd
       0.030657925 -0.13017762 0.0019946366 -0.06441088
000120 a1 80 23 3d f0 cd ff 3b 88 50 9e 3a 8b 54 85 3b
       0.039917592 0.007806532 0.0012078444 0.004068916
000130 ac f9 44 3d d9 48 33 be a1 83 14 bb 73 9a a5 bd
       0.04808967 -0.17508258 -0.0022661465 -0.080860995
000140 19 43 65 bc 49 cf 9a bc c8 b1 a4 3c f2 5b fc 3d
       -0.013993048 -0.01889767 0.020104304 0.12322225
000150 e6 76 6c bd ec c9 60 3d a9 00 42 3c f0 86 09 3d
       -0.057730578 0.054880068 0.011840978 0.033575952
000160 2e f3 89 3d 79 8c 11 3d 51 58 bf 3c 81 84 9f 3c
       0.06735836 0.035534356 0.023357542 0.019472362
000170 69 6b bf 3c 34 6c 95 bd c1 c1 b4 3d f5 aa 99 bd
       0.023366647 -0.07296029 0.08826018 -0.075033106
000180 a0 76 66 bd 92 91 29 bc 09 c0 d0 3c 82 86 4c 3d
       -0.056265473 -0.010349648 0.025482194 0.049932964
000190 f9 8c 97 bc 75 2d 1b bd 9b ce c9 bd 34 59 cd 3c
       -0.018499838 -0.037885148 -0.0985386 0.02506695
0001a0 63 e6 2b bb 1f 6b 89 3b e8 c9 40 3d ac 36 5a bb
       -0.002622985 0.004193678 0.047067553 -0.0033296747
0001b0 33 4a ab bc 31 ef b0 3d 4e ec ca bb d8 ad 8a bd
       -0.020909404 0.08639372 -0.0061927205 -0.06771439
0001c0 95 da e9 bd d7 09 44 3d 57 69 07 bd 01 7f 2a be
       -0.11418644 0.047860947 -0.033059444 -0.1665001
0001d0 f7 e2 f4 b7 5e 22 05 bd 27 b2 85 3d 7f 01 2a bd
       -2.9192755e-05 -0.03250348 0.065281205 -0.041505333
0001e0 fc 19 04 bc 85 46 ab bc cf 51 ee 3d 1b 2c 27 bb
       -0.008062836 -0.02090765 0.116366975 -0.0025508467
0001f0 45 90 01 bc bd 96 34 3d fd fb 95 3b cd 61 4b 3c
       -0.007907932 0.044089068 0.0045771585 0.012413454

network_body._body_endoder.seq_layers.0.weight f4 [128, 24]
000000 77 79 9c 3d 4c 15 95 3c 49 5b 8b be b5 93 b7 bd
       0.07640355 0.018198632 -0.27218083 -0.0896372
000010 b7 e1 d5 bd e9 14 6f 3e e2 03 fd bd f3 9f b0 bd
       -0.10443442 0.2334782 -0.12354256 -0.08624258
000020 20 73 bf 3e 3f 73 1d 3e ce 1a 31 be 0b ea 4d 3e
       0.3739252 0.15375994 -0.17295381 0.20108812
000030 d1 7d 01 be eb 6c 4a be 9b f1 b6 be 2d 51 a7 bd
       -0.12645651 -0.19768111 -0.35731205 -0.0816978
000040 44 8e 87 be b5 7e ff bd 86 11 c9 bd 53 55 10 bd
       -0.26475728 -0.12475339 -0.098177955 -0.03523762
000050 7f 5f 8a bc a5 6b b0 bd 15 79 d3 3c cf 3a 21 3e
       -0.01689124 -0.086142816 0.025814572 0.1574509
000060 b6 3b c0 bd 8d 4c 40 3e 11 f7 4b be ab 4e 21 be
       -0.09386389 0.18779202 -0.19918467 -0.15752666
000070 1e 1c 20 3e b3 d7 88 3e 19 2c 4b 3e 7c 5a 7c bb
       0.15635726 0.26727065 0.1984104 -0.0038506081
000080 11 c6 fb bc 29 98 0a 3e 89 f7 7c bd 20 43 2a 3e
       -0.030734094 0.13534607 -0.061759505 0.16627169
000090 f4 e8 a2 bc 12 04 94 3e 6f b3 b5 bd b4 e7 a2 bc
       -0.019886471 0.28909355 -0.08872115 -0.019885875
0000a0 1e 94 5c 3c 6e 6f 12 3e 2e 33 c0 be ec f3 57 be
       0.013463048 0.1430032 -0.37539047 -0.21089143
0000b0 1c b7 53 3d 5b ed 43 be 36 02 38 be 94 c1 c3 bd
       0.0516883 -0.19133513 -0.17969593 -0.095584065
0000c0 38 c0 bf 3d d0 25 4e be aa ab a7 be 60 62 ba 3d
       0.09362835 -0.20131612 -0.32748157 0.09100795
0000d0 7c 95 9c 3d 4f 0f 31 3e 7a 4b 15 3f 74 db b3 be
       0.076456994 0.17290996 0.58318293 -0.35128367
0000e0 11 b1 04 bd 59 b2 ef 3b 1f 2d 89 3e 1b 52 77 3b
       -0.032395426 0.007314962 0.26792237 0.0037738148
0000f0 b8 1b ab bd 4c 31 cb 3b fc 2d 2a be 33 f0 e9 3c
       -0.08354896 0.006200945 -0.16619104 0.028556919
000100 e7 08 d7 bd 97 5c b1 3d ee 29 71 3e 63 f6 2b be
       -0.10499745 0.08660238 0.23551151 -0.16793208
000110 3b 75 62 3e c6 27 7d be 25 50 56 3e e9 82 09 be
       0.22115032 -0.24722204 0.2092901 -0.13428845
000120 33 82 ab 3e e3 87 f0 bd ce 77 a0 be 14 4a 9d 3e
       0.33497772 -0.11744668 -0.31341404 0.3072058
000130 43 ff cc bb 74 d9 91 3e 86 42 95 3e 7a 29 c7 bd
       -0.0062560155 0.28486216 0.29152316 -0.09724708
000140 ea f9 93 be ce ff b6 3e 68 ad da 3d ed 10 92 be
       -0.28901607 0.35742038 0.10677606 -0.28528538
000150 cf 30 f3 3e a2 01 70 3e 5a 7d 4e 3e 20 1a 8b 3e
       0.47498176 0.23438123 0.20165005 0.2716837
000160 e7 d6 99 be 5b d5 aa bb 81 8c 5a bd 9e 98 12 3f
       -0.3004677 -0.0052134222 -0.05335665 0.57264125
000170 c0 75 b4 3e cd 56 1d be 4c 42 08 3e 07 ad 9d 3e
       0.35246086 -0.15365143 0.1330654 0.30796072
000180 f8 2c 80 3e 6b 34 a4 3e 32 c4 a8 bd 1e c0 31 bd
       0.25034308 0.32071242 -0.08240546 -0.043396108
000190 ab aa 77 3e 78 48 2b 3e d4 ae 5b 3d 50 e2 89 3b
       0.24186198 0.16726863 0.053633526 0.0042078868
0001a0 b7 59 b6 3e 38 90 9e 3e 7a 52 f7 bd 45 db 97 3e
       0.35615322 0.30969405 -0.12076278 0.29659477
0001b0 b2 e9 7e bd ce ac 3c be 2e 66 94 3d b6 26 c6 3d
       -0.062234588 -0.18425295 0.07246052 0.09675352
0001c0 11 26 bd be 69 f8 ff 3d 4c f7 d0 3d 64 ff 53 3e
       -0.36943105 0.12498552 0.10203418 0.20702893
0001d0 06 24 d5 3d 23 a0 75 bd 6a 4d 8b 3c 2d 5a f7 3d
       0.104072616 -0.05996717 0.017004687 0.120777465
0001e0 77 46 4d 3d ae 8f 8d 3d 17 b9 6f be 98 24 ec bc
       0.05011603 0.0691217 -0.2341045 -0.028826043
0001f0 51 d4 f3 bd 25 2d 05 3e 42 0f 10 3e 43 00 16 be
       -0.119057305 0.13005503 0.1406832 -0.14648537
000200 ca a4 89 3e cb 29 83 3e e5 55 21 3d 12 ff 25 3d
       0.26883537 0.25617823 0.039388556 0.040526457
000210 7d 6b af 3e b5 ab 9e be c0 d0 28 3d 9b 98 58 bd
       0.34261695 -0.30990377 0.041214705 -0.05287991
000220 5a 02 12 be cd ac 86 3e c4 65 f2 bd 59 a8 98 3d
       -0.1425871 0.26303712 -0.118358165 0.07453985
000230 ae 28 39 3e 03 b1 1a 3c 65 1c 61 3d 1f b2 46 bd
       0.18081924 0.009441617 0.05495872 -0.048509713
000240 25 ee 69 3e 32 20 ac be 23 26 9c 3e 52 d8 2c bd
       0.22844751 -0.33618313 0.30497846 -0.042198487
000250 8c 58 9d 3e 86 1c 23 3e c3 40 80 ba d7 c9 10 bf
       0.30731618 0.1592885 -0.0009784925 -0.56557983
000260 23 f8 2f 3c 86 e1 8f bd 9b c7 19 bd 94 fc ce 3d
       0.010740313 -0.07025437 -0.037543874 0.10106769
000270 1c 19 e5 be 63 24 98 bd 00 34 8d bd ad 35 e0 3d
       -0.4474572 -0.07428815 -0.06894684 0.10947738
000280 1b 86 71 3e 58 8f 23 3f 7f 87 28 be dc 4b c3 3e
       0.23586313 0.638906 -0.16457938 0.38143814
000290 06 dc 44 3e 15 1c 5d 3d 9d 2c 5f be 29 e1 59 bd
       0.19224557 0.05398186 -0.21794362 -0.053193245
0002a0 dc 3d eb be 03 96 af be 3e 16 aa 3e 49 0b 68 be
       -0.45945632 -0.34294137 0.33220094 -0.22660555
0002b0 6c cd c5 3d e7 6d b1 3e 92 a1 95 bd 94 58 80 3d
       0.09658322 0.3465416 -0.07306208 0.06266895
0002c0 12 21 aa 3c 86 03 14 bc cd 48 df 3d ab 74 77 bd
       0.020767722 -0.009034043 0.109025575 -0.060413998
0002d0 75 6e 26 3d 48 26 95 be 02 1e 94 bd 79 9f 65 be
       0.040632684 -0.2913077 -0.07232286 -0.22424115
0002e0 f6 6a 9d bd 7d fa 2e be 78 e7 45 3e ea b4 14 be
       -0.07686417 -0.17087741 0.1932658 -0.14522138
0002f0 9e eb 82 be 17 e7 04 bd e8 96 0d be 63 cd bb bc
       -0.25570387 -0.032446947 -0.13827097 -0.022925084
000300 08 07 35 3e f3 22 56 3e 5a cc fa bd f4 e0 7e 3e
       0.17678463 0.2091177 -0.12246008 0.248905
000310 1b bf fb be 6b 8f be be 74 e7 b6 bd b4 11 3a bd
       -0.4916924 -0.37218794 -0.08930865 -0.04542704
000320 cf d8 8e 3e b4 5c 13 bd 73 ec 70 3e 88 30 06 be
       0.27899787 -0.03597708 0.23527698 -0.1310445
000330 97 f4 a6 bb 63 38 13 be d2 4d fc be a1 81 d8 be
       -0.0050950754 -0.14376979 -0.49278122 -0.422864
000340 c3 7c 3f be 85 ff 00 3e 3a 65 8b 3e bf bf 7c be
       -0.18699937 0.12597473 0.27225667 -0.2468252
000350 cf 66 37 bd 9c 47 d4 3e 03 3e a8 be 17 16 b3 bc
       -0.04477578 0.41460884 -0.3285981 -0.02186112
000360 6a 02 fa 3c 54 68 99 3e ef ce 11 3d 01 5d cc bd
       0.03051873 0.2996241 0.035597738 -0.099786766
000370 3e 6b 98 bd a2 da 26 bd 84 47 92 be 72 34 7e be
       -0.0744233 -0.04073585 -0.28570187 -0.24824694
000380 d1 4e 98 3e 84 9a 8b 3d 95 a5 f0 bd f5 e4 52 3d
       0.29747632 0.06816581 -0.11750332 0.05148788
000390 b5 76 82 3e 4c df d3 bd 03 69 91 3e e7 99 50 3e
       0.2548119 -0.10345325 0.2840043 0.20371209
0003a0 b9 9f 94 be 5b fb 35 bd a3 2b ae bd 46 ab ba bc
       -0.2902811 -0.044429164 -0.08504417 -0.022786748
0003b0 24 02 a7 be 8d 8f 88 be 07 a8 02 3e 70 7c a5 bd
       -0.3261882 -0.2667202 0.1275941 -0.08080375
0003c0 8a 80 43 3e e1 7e 32 be fa f9 d5 3d 57 c4 f0 3e
       0.19092003 -0.17431213 0.1044807 0.47024795
0003d0 52 5d 9f 3e 86 f2 27 be 14 1e e3 3e fd ed 0b bd
       0.31125885 -0.16401109 0.44358885 -0.03416251
0003e0 a4 06 e6 3d 21 4b 43 3e 48 0b e1 3b 7b e9 a2 be
       0.11231735 0.19071628 0.0068678 -0.31818756
0003f0 ad e4 c7 3e d2 00 9c be 83 63 9f be c6 46 06 be
       0.39041653 -0.30469376 -0.3113061 -0.13112935

network_body._body_endoder.seq_layers.2.bias f4 [128]
000000 42 df 85 bd 3f a0 65 bd 4b a3 0a 3e f0 a5 ec 3c
       -0.06536724 -0.056061026 0.13538854 0.028887719
000010 88 30 23 3d f3 70 92 bd 41 16 4f ba 2a 44 4f 3d
       0.039841205 -0.071504496 -0.00078997394 0.050602116
000020 68 cd fe 3d 7b 11 e2 3c 96 e7 79 bd 43 12 7a 3d
       0.12441522 0.027596226 -0.061011873 0.061052572
000030 39 56 22 bd db e1 e2 3d 67 d7 57 bd 89 3d ce ba
       -0.03963301 0.11078235 -0.052695658 -0.0015734892
000040 b3 e6 c9 3d 6e c7 88 3d 96 b1 11 3d 8a 42 4e 3c
       0.098584555 0.06678663 0.03556975 0.012589106
000050 e4 7d 91 3d e5 8e cc 3d 10 c0 03 3e 94 94 53 bd
       0.0710409 0.099881925 0.12866235 -0.051655367
000060 49 2f 4a 3c 8f 94 ec bd 25 af ce 3d 58 6a df 3b
       0.012340375 -0.11551773 0.10092 0.006818097
000070 af fe 1f 3d 9c 78 71 bd 25 bc d2 3d 59 34 f5 3b
       0.039061245 -0.058952913 0.10289792 0.007483047
000080 02 a2 74 3d c5 00 bc 3a 73 70 56 3d 10 22 c9 bc
       0.059724815 0.0014343491 0.052353334 -0.024552375
000090 d7 35 43 3d b8 87 91 bd 47 4d 66 bd ab 29 8c 3d
       0.047658768 -0.071059644 -0.05622604 0.06843885
0000a0 87 95 ee bd 50 94 98 bd 08 23 c7 3d 2d 25 ce bc
       -0.11649614 -0.07450163 0.097234786 -0.025164211
0000b0 de 47 90 3d 3f 40 dd bc 35 a1 90 bb 83 a0 02 3e
       0.070449576 -0.027008174 -0.0044137486 0.12756543
0000c0 b1 a8 65 bc ab b3 86 3d f9 51 b1 3b 12 da ac 3d
       -0.01401727 0.06577238 0.005411383 0.08440031
0000d0 43 37 86 bd d7 2e 89 b9 1b a7 42 3d 3a cc b1 3a
       -0.06553509 -0.00026165575 0.047522645 0.0013564893
0000e0 4f e3 a1 bc c8 8d 44 bd 16 89 30 bd 3b 68 47 bd
       -0.01976171 -0.047986776 -0.043099485 -0.048683386
0000f0 83 de ba 3c 85 06 15 bd e4 b4 d8 bd fa 58 e9 3d
       0.02281118 -0.03638317 -0.10581377 0.11393924
000100 c5 05 b1 3d 2f 32 9d 3c ff 03 c1 3d ae fc ef bc
       0.086436786 0.019188968 0.0942459 -0.029295292
000110 2d 88 48 bd 43 05 69 3c a6 38 13 bd c5 5f 97 3d
       -0.048957992 0.014222446 -0.035942696 0.073913135
000120 cb ea c4 3c c3 c5 3a bd 28 c6 d2 3d 87 f2 a8 3b
       0.02403774 -0.045598757 0.102917016 0.0051558646
000130 c2 2a 9a 3d 4a 86 05 3d 53 26 51 bc cf 88 5e 3d
       0.07527687 0.03259877 -0.012765485 0.05432969
000140 69 78 0b bd 86 ee b9 3d 47 24 17 bc 41 7f 3d bd
       -0.03405038 0.09078698 -0.009224958 -0.046263937
000150 25 a0 0b bd 4d 4b 65 bd b4 59 d7 bd 2c 73 c3 bc
       -0.034088273 -0.055980016 -0.105151564 -0.02385863
000160 9e d2 af 3d 80 1a 3d 3d cd 9d 9f bd 8b e5 11 3a
       0.08585094 0.04616785 -0.0779377 0.00055655156
000170 86 94 2c 3c 71 52 a8 3d ac 6b d0 3c 4a dd 06 3e
       0.010533458 0.082188495 0.025441967 0.13170353
000180 2b 69 4d 3c ac a6 1d 3d 9c 87 d3 bc a5 33 e2 3d
       0.012537281 0.03848903 -0.0258215 0.11045007
000190 1c fa cc bd 62 3c 96 bc c4 7f b4 bd 53 4f aa bc
       -0.10008642 -0.01833934 -0.08813432 -0.020789778
0001a0 95 33 42 3d c8 76 4b bd 30 a3 8b 3c 74 62 0f 3d
       0.047412474 -0.049673826 0.017045587 0.035006
0001b0 06 b2 eb ba 3f 18 2b 3d ec 75 02 3e 05 9e 08 be
       -0.0017982132 0.04177117 0.12740296 -0.1334153
0001c0 9a d2 cd 3c db 43 93 bd e0 f7 e5 3c 7f ed 3c bd
       0.025124837 -0.07190677 0.028072298 -0.04612493
0001d0 1f fd aa bc 5c 4f 9a bb 3e 0e d2 3d 45 8d 77 bd
       -0.02087265 -0.0047091674 0.10256623 -0.06043746
0001e0 76 a1 93 3c ed 54 ef 3d 35 eb d4 3c ce 0a 33 bd
       0.018021327 0.1168612 0.025991062 -0.043711476
0001f0 41 40 0b bd 36 a3 c2 bb 60 78 6a 3d ef 6e 81 bd
       -0.033996824 -0.0059398664 0.057243705 -0.06319987

network_body._body_endoder.seq_layers.2.weight f4 [128, 128]
000000 4d 8f 02 3d 67 87 39 bd 8c 88 91 bc e4 37 0b 3d
       0.031874944 -0.045295145 -0.017765306 0.03398885
000010 7e 36 17 3e 72 7c 54 bd 88 7c 98 bd a8 61 73 3d
       0.14766881 -0.051876493 -0.074456275 0.059419304
000020 79 d2 ae 3c ce c0 e2 3b 6f 95 b2 3d 21 ef 3c 3e
       0.021340596 0.0069199568 0.087199084 0.18450595
000030 b7 58 7d bd 7a ed 0e be b9 96 32 bb 8d d0 11 3d
       -0.061852183 -0.13957778 -0.0027250482 0.03559928
000040 3b 6d 6a bc 25 18 06 bd 0b 59 99 bd e0 bc 14 3e
       -0.014308269 -0.03273787 -0.07487687 0.14525175
000050 1c 79 bc 3d 67 6d 77 bd e7 e3 e7 bc 40 47 c4 3c
       0.09202787 -0.06040707 -0.028306914 0.023959756
000060 4f 23 3d bd c2 63 0f 3e 97 b4 9e 3b 0c df 04 3d
       -0.04617625 0.14002898 0.0048433053 0.032439277
000070 d4 23 a2 3d ac ae 1e 3e 7e da a9 bc a9 bd d3 bd
       0.0791699 0.1549632 -0.020734068 -0.10338909
000080 bc 14 2d bd ce 85 e3 3d c4 c1 8a 3d 05 fe ef bd
       -0.042256102 0.111095056 0.06775239 -0.11718372
000090 ee 0f 31 bd b1 49 a1 bc 95 ad 95 3d f3 ec 05 3c
       -0.043228082 -0.01968846 0.07308499 0.008174169
0000a0 b3 49 c1 bd 7b b6 ac 3d f5 f5 c5 bd eb 4c cb bc
       -0.09437885 0.08433243 -0.09666053 -0.02481695
0000b0 6e 5e c6 3d 28 ad fe bc 92 24 d3 bc 0c 81 46 bd
       0.0968598 -0.031088427 -0.025774274 -0.048462912
0000c0 96 e3 da 3d c8 df b3 bd 35 fd 75 bd da f9 ee bd
       0.1068794 -0.08782917 -0.06005593 -0.11668749
0000d0 18 07 16 3e 98 2d fc bb 9e 77 d6 3d e6 7d 23 3d
       0.14651144 -0.007695865 0.10472034 0.039914988
0000e0 99 87 6e 3c 5c 38 04 bc a8 a2 a9 3d a0 b5 5e 3c
       0.014558696 -0.008070078 0.08282977 0.013593107
0000f0 18 5e 39 3e 32 09 a9 3d 6f ed d9 3d 53 9a 21 be
       0.181023 0.08253707 0.1064099 -0.15781526
000100 36 40 05 be 62 a6 0f bd e6 16 9b 3d 84 90 9a 3c
       -0.13012776 -0.035070784 0.07572727 0.018867739
000110 4a 8a 8c bd e5 78 ef 3d 60 5c 94 bc 38 2d fa bd
       -0.06862314 0.11692981 -0.018110454 -0.12215656
000120 c3 63 3e 3d 7e bc b8 bd 8c 76 17 be 33 59 ac bd
       0.04648186 -0.09020327 -0.14791316 -0.08415451
000130 b9 78 2a be 2a d6 e9 3c 55 e8 37 be a3 f3 a7 3d
       -0.16647615 0.028544504 -0.17959721 0.08200767
000140 ef 1e bf bc d1 aa d8 bc 15 25 40 be 71 fa 98 bd
       -0.02333018 -0.02644864 -0.18764146 -0.07469643
000150 e6 51 2f 3d 22 33 79 bd 7e a6 73 3d c1 05 e6 3d
       0.042802714 -0.06083978 0.05948495 0.11231566
000160 bc c8 02 be 1c 02 98 bd 67 0f 8f 3d c1 33 e5 bd
       -0.12771887 -0.07422277 0.0698536 -0.11191512
000170 c3 1d e1 bd c5 d3 92 3d ac c9 6c be 77 73 18 3e
       -0.10992005 0.07169298 -0.23123807 0.14887796
000180 de be 25 be bc 72 2d bc bd 5e ec bd 5d c2 aa 3d
       -0.16186091 -0.010586437 -0.115415074 0.08337853
000190 c3 02 43 3d e5 27 b1 bd 79 35 b6 3d fc d5 19 3d
       0.047610056 -0.086501874 0.08896918 0.037557587
0001a0 04 e4 9b bd 81 0a 64 3d e0 56 a8 bc 4f 60 1f be
       -0.0761185 0.05567408 -0.020549238 -0.15564083
0001b0 d3 39 8b 3c d6 ae b3 3c 49 0d 89 bc 90 fd ec 3d
       0.016995346 0.021933954 -0.016729968 0.11571801
0001c0 70 8f 96 bd 73 c9 cf bd 28 58 0f 3e 97 7a d8 bd
       -0.07351577 -0.10145845 0.13998473 -0.10570257
0001d0 2b cb 4b bd 97 05 9a bc 1c a1 66 bd 98 b1 80 be
       -0.049754303 -0.018801494 -0.05630599 -0.25135493
0001e0 c2 5e 0c 3e c9 b6 56 3d 3f 31 2b bd e2 f2 c6 3c
       0.13708022 0.05242041 -0.04179501 0.024285737
0001f0 83 a1 14 bc 14 d8 b6 bd a6 10 58 bd f6 78 0c bc
       -0.0090717105 -0.089279324 -0.052750252 -0.008573761
000200 f2 40 fb bc 22 2c 1e be 12 97 03 3e a2 c7 31 bd
       -0.030670617 -0.15446523 0.12850598 -0.043403275
000210 be 27 4d bd 5a eb b6 bd f9 72 7c bd 9c 95 df 3d
       -0.05008673 -0.089316085 -0.061633084 0.109172076
000220 84 0a 2b bc 53 14 05 3e 07 a1 f2 3d d7 b1 c5 bb
       -0.010439519 0.12996034 0.1184712 -0.006033163
000230 c8 74 9d bd 01 7c f3 bd 82 4f 0c be 94 a3 24 3e
       -0.0768829 -0.11888886 -0.13702205 0.16078025
000240 ab ef fb 3c 43 24 22 bd aa f7 1d bd 31 f1 4d 3d
       0.030753931 -0.039585363 -0.03856627 0.050278846
000250 93 a8 24 be e2 12 04 be ef d6 03 3e 16 48 63 3d
       -0.16079931 -0.12897828 0.1287496 0.05548867
000260 84 a9 a8 3d e4 b4 f9 3d 7b 2a 9b 3b 64 06 0e 3b
       0.082354575 0.12192705 0.0047352887 0.002167129
000270 2c ed fc 3d f6 ac 00 3e 9e b2 aa bc 6b 54 87 3c
       0.123499244 0.1256598 -0.020837124 0.016519746
000280 8e e4 66 ba d2 a6 2a 3d fc de 52 3c 62 3a 0f be
       -0.0008807861 0.041663 0.012870546 -0.13987115
000290 f2 09 ac bd 01 94 ee bd 7d d8 8d bd 5d 28 09 3b
       -0.084003344 -0.11649323 -0.069260575 0.00209286
0002a0 fe 02 03 be 36 63 83 be cd 3c 04 3c 2e f8 7e 3d
       -0.1279411 -0.2566163 0.008071137 0.0622484
0002b0 2e 20 c6 3b 48 75 ab bd 3f 90 d2 3d df e3 75 3d
       0.0060463166 -0.08371979 0.10281419 0.060031768
0002c0 3d 2f c5 bc c3 b9 21 be 6b 67 15 be 4a 13 83 bd
       -0.024070377 -0.15793519 -0.14590232 -0.064001635
0002d0 ab 9c 20 3d 15 29 73 bc 7f 4f 7f 3e fe d0 b0 bb
       0.03921191 -0.014841338 0.24932669 -0.0053960076
0002e0 73 2a ad bd 28 69 df 3d b8 f1 f8 3d ad 86 06 3e
       -0.08455362 0.10908729 0.12155479 0.13137312
0002f0 da b3 20 be 67 59 b1 3c a4 e3 76 3d af af 0b bd
       -0.15693608 0.021649076 0.06027569 -0.03410309
000300 28 21 a6 bd f2 6f 11 3e 5b 1e 9b bd ca 88 80 bd
       -0.08111793 0.1420286 -0.07574149 -0.062760904
000310 a9 48 0f be f5 a8 4c 3c 24 cf 82 bd f4 90 ff bc
       -0.13992561 0.012491454 -0.06387165 -0.031197049
000320 2c 12 e9 bb b1 ba 0b 3e 69 8b 88 bc 0d 63 01 3c
       -0.007112762 0.13645436 -0.016668038 0.007897151
000330 1a 89 bc bd 07 66 8c 3d 44 14 26 3c 2a 92 53 3d
       -0.092058375 0.06855398 0.010136668 0.051653065
000340 88 21 2b be 1e c0 f8 3c 02 8b dd bc 64 16 93 bd
       -0.1671201 0.030365046 -0.027043823 -0.07182005
000350 8c 3a 83 bd 4f 92 90 3d 49 d0 20 3c d2 22 10 bd
       -0.06407651 0.07059156 0.009815284 -0.035189457
000360 c4 71 f9 bd 54 cb cc 3a 19 d7 30 3d e4 26 65 bd
       -0.12179902 0.0015624561 0.043173883 -0.055945292
000370 5a 79 c1 3c eb 45 31 bd f0 82 21 be 28 ff e5 bd
       0.023617435 -0.04327957 -0.15772605 -0.11230308
000380 d8 af ef bd 7b ee 10 3d c9 da 1d be b9 26 94 3e
       -0.117034614 0.035383683 -0.15415491 0.28935793
000390 a2 89 09 bd 57 54 15 3e f3 ad c5 bc 3b 25 99 3d
       -0.033578523 0.14582954 -0.024130797 0.07477804
0003a0 4e 80 95 3d 3f e1 b0 bd e5 ab 2a bd 78 fc 93 bd
       0.07299863 -0.08636712 -0.041667838 -0.07225889
0003b0 20 82 d6 bc d7 0a d5 bc 66 18 ac 3d 34 4a 3f be
       -0.026185095 -0.026006145 0.08403091 -0.1868065
0003c0 38 af 9b 3d 95 00 10 be 94 31 81 bd ff 1f 6f 3c
       0.0760178 -0.14062722 -0.063082844 0.014595031
0003d0 88 f5 91 bc 2a 7d 72 bc 12 34 74 3d bf a1 54 bd
       -0.017817274 -0.014800349 0.05961997 -0.051912066
0003e0 75 29 a6 3d e3 d7 58 bd cb ec b0 bd a7 b0 8f bd
       0.08113376 -0.05294026 -0.08638915 -0.07016116
0003f0 76 43 1e bc 6b bb 86 3c ba 7e 9d bd b9 f1 96 bd
       -0.009659639 0.01644679 -0.07690187 -0.07370324

network_body.observation_encoder.processors.0.normalizer.running_mean f4 [24]
000000 00 00 7a b3 5f a2 3d 40 ce e6 39 40 22 73 58 c0
       -5.820766e-08 2.9630353 2.9047122 -3.3820271
000010 0b 97 bb 3f 23 08 a9 3f f8 92 85 bf 39 11 ea b3
       1.465547 1.3205608 -1.0435476 -1.0899607e-07
000020 55 e4 9d 3d 53 3c dd 3f 5f a2 3d 40 c2 b0 f4 3f
       0.077095665 1.7284034 2.9630353 1.9116442
000030 00 00 fc 32 b5 fe 3f 40 5e 7a 3c 40 31 8b 5f c0
       2.9336661e-08 2.999921 2.9449687 -3.4928706
000040 9a f4 bd 3f f4 73 a9 3f 63 d0 90 bf 7d b2 ea b3
       1.4840271 1.3238511 -1.1313595 -1.0928941e-07
000050 60 06 e2 3c 50 55 d8 3f b5 fe 3f 40 16 e9 f9 3f
       0.02759093 1.6901035 2.999921 1.9524257
