Assets/3DBall/ent/results/Test1/3DBall/3DBall-72999.onnx (onnx, 73663 bytes, 7 tensors)

action_model._continuous_distribution.log_sigma f4 [1, 2]
00000000: 67a3 eebc 0192 15bc
-0.02913065 -0.009129048

action_model._continuous_distribution.mu.bias f4 [2]
00000000: 1e3b 29bb fdce 223b
-0.002582259 0.0024842613

action_model._continuous_distribution.mu.weight f4 [2, 128]
00000000: d202 aa3c 6a67 963c 80d4 debb 7ac2 593c
00000010: 25e7 8b3b 45fa 713b 43b9 723c b626 d43b
00000020: 4bb8 703b 6878 2abc b36a 0bbb 3363 aa3b
00000030: 0be7 7c3c a4bd 933a 66df 1abd 91f6 61bb
00000040: b158 b6bc afe5 623c f165 8e3c d235 093c
00000050: 15a3 51bb 19dc 8bbb 9089 57bc 1c38 8cba
00000060: 1da9 a3bc f558 a6bc e05d 4cbc 08e0 753d
00000070: 05f2 5ebc b673 e93c ecc0 e7bb d39c 81bc
00000080: 22d5 40bd 8968 7cbc 78ea 2b3c ac3e 383c
00000090: 3dba 7dbc 28e2 c5bb 3163 53bd b73b 833c
000000a0: 858b b63b ca97 783c ffa0 d93c 7ffa 8e3c
000000b0: 0bf7 203d a053 c93c 0d40 1fbc 5788 b23c
000000c0: 24fe 953b 5a1f 343d 569a 9d3b 7371 91bc
000000d0: a3fb 6e3c 17f0 c83b 3855 923b 042c ef3a
000000e0: 9366 e43c 1539 dfbc 0630 a2bc d30b 263d
000000f0: 5414 b53c 4dbc 96bb 627f 693c 3c12 ce3c
00000100: 662d 42bd 0942 d33c 5f7a 9cbc 940a af3c
00000110: 04d7 70bc 32bf 04bd d721 bfbc f27a 3bbc
00000120: 6e83 233d d3cf 24bd 4d9d 4d38 0b03 5b3c
00000130: e20f 103c 88ab be3c 5995 02bd 166d 953c
00000140: 37af 613c 40b4 e33c a118 203c 90cc 76bc
00000150: 7076 d1bc 7fe0 ac3c cb29 ca3c 2895 173c
00000160: dbac d3ba 57be 95ba bd5a 23bd f7e6 5d3c
00000170: e630 a03c 7155 823c dedc d13c 12a4 65bb
00000180: 330c a5bb 4977 ba3c 7589 e9bc de11 a53c
00000190: bc73 df3c 27e6 7dbc cd65 9e3c fc40 a3bc
000001a0: af55 463b ace6 0d3d 6a15 663c 816a 67bc
000001b0: 5607 bfbc 2e92 96bb 846d 4dbb 57d4 2dbd
000001c0: 2752 b5bc a181 6ebc c14d ed3c 013f a93c
000001d0: cde8 b9bc 9a80 be3c 9caa 273c a902 dc3b
000001e0: 625f 28bd af62 073c 3e47 18bb fe78 d53c
000001f0: 7828 d9bc 06f1 093d 4916 c63c 2733 993b
00000200: d12b 2a3c a374 993a e3fc 67bb cf45 e4b7
00000210: 516a c7bc fe7b a83c 00a7 edbc 2a13 573c
00000220: 393b 773c 20bf 19ba e1ab 863c 7d9f f23b
00000230: 9bbc dfbc 221f b73c 3358 18ba 9720 333c
00000240: 4fdc afbc 14f2 c1bc 5af6 62bd 6087 2fbb
00000250: be19 2a3d b2e9 a0bc 0879 ccbc 69f7 0ebd
00000260: 666a 03bb 3951 92bb 08dd dfbc 9876 c6bc
00000270: dc56 7abc d9dc 023d 45ec 62ba 8747 3cbc
00000280: 1eb4 6f3d ea45 c73c 8beb dcbc d150 453d
00000290: 33cc c8bc 2efa 3c3c d022 4abb 5fbd ecbb
000002a0: c03d fbbc 9fc3 b83b 37ff 1abc f1b2 d73c
000002b0: 1550 a33b 118f 63bd 6a13 383d 032a 1f3c
000002c0: a5b3 283d 581a 5cb9 d5c9 933c 6141 bc3c
000002d0: c808 c03b 906c 34bc 095b 163d ed6f 613c
000002e0: 5efc 6f3c 4956 0e3d 9e84 5abc 1067 673c
000002f0: 6218 46ba ad15 063c fcc3 56ba 3ce3 6e3b
00000300: afa2 d2bc 1ecc a53b 9700 86bc 8fa0 383d
00000310: 55b0 f1bc 64b7 28bc 1cdd 393a fd65 8e3d
00000320: 0c04 c4bc 3acd 293c b92a 96bb d5ac ccbc
00000330: b3db 48bb f3f2 5b3d 4991 92bc 7c06 113b
00000340: 9623 093d 7773 2c3d 7e8f 02bd ca46 d239
00000350: cf34 ce3b f7d6 66ba 873d cb3a dd5e ef3c
00000360: a83f f93c 7580 96bc 80d7 063c ac75 fdbb
00000370: 3567 03bd a7cc 0f3d 3a70 5fbb 6fa8 08bb
00000380: 0c1c 863b cfeb 873c ac21 823b 075b 1abc
00000390: 1fda 23bb 19b9 773c 64f6 543c 98ae 18bb
000003a0: 9a54 873c 79b4 1abd 6f7d d8bc b971 aebc
000003b0: 5e32 fe3b ea4b 783d aeae eebc c9f3 37bc
000003c0: 693e 2c3d 65c5 03bc 42ad 11bd 9418 24bc
000003d0: f8c5 ff3b f139 a0bc 4017 7b3c ff50 42bc
000003e0: a16c 093d 29fe 01bd fb49 5e3c 20cd 463c
000003f0: 6144 3abc d145 acbd bf0b 5cbc 3e9a c83c
0.020753298 0.018359859 -0.0068002343 0.013290996 0.004269498 0.0036922854 0.014814678 0.0064743413
0.003673094 -0.010404684 -0.0021273314 0.0051998137 0.015435944 0.0011271727 -0.037810706 -0.003447924
-0.022259088 0.013848706 0.017382594 0.008374648 -0.0031988074 -0.004268181 -0.013155356 -0.0010697874
-0.0199781 -0.02030609 -0.012473553 0.060028106 -0.013607507 0.028497558 -0.0070725586 -0.01582185
-0.04707826 -0.0154057825 0.010492913 0.011245411 -0.015486297 -0.006038923 -0.05160827 0.016019685
0.0055708312 0.015172908 0.026566027 0.01745343 0.0392981 0.024576008 -0.009719861 0.021793528
0.004577415 0.04397521 0.004809658 -0.017754292 0.014586362 0.0061321366 0.0044657253 0.0018247371
0.027880942 -0.027248899 -0.01979829 0.04053862 0.02210442 -0.004600084 0.014251562 0.02515518
-0.047406577 0.025788324 -0.01910132 0.021367349 -0.014699701 -0.0324089 -0.023331566 -0.011442887
0.039920263 -0.04023726 4.9022306e-05 0.013367425 0.008792849 0.023275152 -0.03188071 0.018240493
0.013774685 0.02779591 0.009771497 -0.01506342 -0.02556917 0.021103142 0.024678132 0.00925187
-0.0016149537 -0.0011424524 -0.039881457 0.013543836 0.019554567 0.015909882 0.025618013 -0.003504042
-0.0050368547 0.022761958 -0.028507927 0.020150121 0.027276866 -0.015496767 0.019335652 -0.019928448
0.0030263474 0.034643814 0.014043191 -0.014124514 -0.023318928 -0.0045950627 -0.0031345794 -0.04243883
-0.0221339 -0.014557273 0.02896774 0.020659925 -0.022694016 0.023254681 0.010233548 0.0067141843
-0.04110659 0.008263274 -0.0023235823 0.02605867 -0.026508555 0.033677123 0.024180548 0.0046752873
0.010386423 0.0011707734 -0.0035398535 -2.7212225e-05 -0.024342688 0.020566937 -0.029010296 0.013127128
0.015089803 -0.00058649667 0.01643938 0.0074042664 -0.027311614 0.022353712 -0.00058114826 0.010933063
-0.021467356 -0.023675002 -0.05541072 -0.002678357 0.041528456 -0.019642685 -0.024960056 -0.034903917
-0.0020052432 -0.004465249 -0.027327076 -0.024226472 -0.015279498 0.031948898 -0.0008656423 -0.011491663
0.058521383 0.02432533 -0.026967784 0.048172776 -0.024511432 0.011534257 -0.0030843504 -0.007224723
-0.030669093 0.005638554 -0.009460262 0.026330443 0.0049839118 -0.05555636 0.04494039 0.009714606
0.041186947 -0.00020990649 0.018040577 0.022980394 0.005860422 -0.011012211 0.03670791 0.013759595
0.014647571 0.034750257 -0.013337282 0.014123693 -0.0007556734 0.008183879 -0.0008192656 0.003645136
-0.02571234 0.005059733 -0.016357703 0.045074996 -0.029503027 -0.01029763 0.0007090138 0.069530465
-0.023927711 0.010363871 -0.0045827297 -0.024984756 -0.003064853 0.05369849 -0.017891543 0.002212911
0.033481203 0.042102303 -0.031875126 0.00040107063 0.0062929164 -0.0008805836 0.0015506007 0.029220039
0.030425861 -0.0183718 0.00823009 -0.007734975 -0.032080848 0.03510728 -0.0034093992 -0.0020852347
0.004092699 0.016591934 0.003971299 -0.009421117 -0.0025001836 0.015119814 0.012998197 -0.0023297425
0.016519833 -0.03776977 -0.026426999 -0.021294462 0.007757469 0.060619272 -0.029136028 -0.0112275565
0.042051706 -0.008042668 -0.035565622 -0.0100156255 0.007805582 -0.019558879 0.015325367 -0.011860131
0.033550862 -0.031736527 0.013567443 0.012133867 -0.011368842 -0.08411754 -0.013430535 0.02448761

network_body._body_endoder.seq_layers.0.bias f4 [128]
00000000: 083b c6ba 19b2 0f3d d0e7 223c ded0 883c
00000010: 1cc0 873c 8aa4 17bc 33b6 54bc 563c e9bb
00000020: 7c49 153d a27b 833c e999 7b3c a909 f1bb
00000030: fde2 963b 476f d83a 391a b7b9 74b2 2e3b
00000040: 1826 2a3c 22c1 8ebb c04e 303c 505a 0e3c
00000050: 52a4 c23a 146b 19bc 51ed 4abc a79c 8839
00000060: a2d1 05bc 878b 3a3c 40c7 6a3c 9a67 c63c
00000070: 3951 3abc 3e20 0f3c dc6f 49bb 9381 04bc
00000080: 2eba 7f3b ddbd dd3b b735 24bc 251c abbb
00000090: 07de ca3c 3415 543c 56db 2a3c 7497 f73b
000000a0: 433f 813a 407d 473c 7680 6e3c 9c70 ee39
000000b0: 785d e63c 668d 453c b27d 0e3b 9d35 85b9
000000c0: 9cfb c73c bb8a b5bb ef74 883c a34a 523c
000000d0: cf91 883c aad7 3c3c 2366 bc3b 6d0b 953b
000000e0: 41d3 fd3b 2313 323a 96a4 b33b 90c4 b83a
000000f0: 20a0 a5bc 8dad eebb 33d9 413c 6150 81bb
00000100: b707 b2bc 08ad 093c ccdc 9fbc 3777 87bc
00000110: 0fcc b93b 6d1b 8cbc 7295 afbb 4619 203c
00000120: 0d74 5b3c 43b4 04bb a0ae 65bb 179e 293d
00000130: 2630 8f3c 8fd2 57bb fb23 d13b 78d5 c23c
00000140: e027 893c 8eff b2bc b6fd 12bc d960 66bc
00000150: 5543 f3bb c1a0 b83c 09d5 49bc e617 29ba
00000160: d950 febb 96bd 903b 4de1 3e3d 6cd7 233d
00000170: 3270 3e3c d88f a0bb 5cca 4d3c 9066 20bd
00000180: d27d 963c 500d a7bc 92dc 48bb ba0c 253c
00000190: cce5 043c 4821 b3bb f8c2 7c3c 0f26 813b
000001a0: f813 0d3d 018f da3b d41c 793c 33e5 b83b
000001b0: e66e 29bb 5452 35bc 2cf8 38ba 3442 b5bb
000001c0: f74f 67bc 12fe 773b f079 ecbb 52ee a0bb
000001d0: 3936 a83b e220 473c fe4c 133c 0794 d1ba
000001e0: 5a51 b13c 363f ad3c f045 223c 8b4f 8bbb
000001f0: 41d8 b23c bced a83c 9022 773c 246e 8d3c
-0.0015123794 0.035081957 0.009942964 0.016701158 0.016571097 -0.009255538 -0.012982893 -0.0071177883
0.036447033 0.016050164 0.015356519 -0.007355888 0.004604696 0.0016512655 -0.00034924017 0.002665666
0.010385059 -0.0043565193 0.010760963 0.008688524 0.0014849997 -0.009363908 -0.012385682 0.00026056656
-0.008167656 0.011385805 0.014329731 0.024219323 -0.011371904 0.0087357145 -0.003073684 -0.0080875335
0.0039020884 0.006767018 -0.010022572 -0.005221861 0.024764074 0.012944508 0.01042827 0.0075558964
0.0009860772 0.012175858 0.014556995 0.00045478798 0.028120741 0.012057638 0.00217424 -0.00025407682
0.024411969 -0.0055402196 0.01665732 0.012835178 0.01667109 0.011526028 0.0057494803 0.004548481
0.0077461307 0.0006793013 0.0054822667 0.0014096666 -0.020217955 -0.0072838725 0.0118315695 -0.0039463495
-0.021732194 0.00840307 -0.019514464 -0.016536338 0.0056700776 -0.017102921 -0.0053583914 0.009771651
0.013394368 -0.0020249046 -0.0035046712 0.04141053 0.017479014 -0.00329319 0.006382463 0.02378343
0.016742647 -0.021850374 -0.008971622 -0.014061176 -0.007423798 0.022537591 -0.012318858 -0.00064503995
-0.0077611026 0.0044171317 0.046601582 0.040000364 0.011623429 -0.00489996 0.012560453 -0.03916031
0.018370543 -0.02039209 -0.0030649048 0.010073835 0.0081114285 -0.005466614 0.015427344 0.0039413045
0.03444287 0.0066698794 0.015204627 0.005642557 -0.0025853454 -0.011066992 -0.00070560235 -0.0055315737
-0.014118186 0.0037840647 -0.0072166845 -0.0049112225 0.005133417 0.012153836 0.008990524 -0.001598955
0.021645237 0.021148305 0.00990437 -0.0042514256 0.021831634 0.020621173 0.015083924 0.017264433

network_body._body_endoder.seq_layers.0.weight f4 [128, 8]
00000000: d1ba 96bd b465 693e 22fc eabd 037b 01bf
00000010: a15c 8fbe d900 a83d 6324 783c c202 db3c
00000020: c39d 6ebe 5937 2b3f d924 193e 2ac3 4fbe
00000030: 8635 f1bd bac0 2a3f 0918 da3e 5fb4 5b3f
00000040: 003a b23e 7389 26bf 6131 b23d 8e7d 693d
00000050: 6f11 a5be c138 babe 1046 20be 1f6e d2bd
00000060: 632c 1dbe f825 9cbe 92ac efbe 1520 4e3d
00000070: 74e4 7fbe 8477 0fbf a9ae 73bd b7fa b0be
00000080: 08be ae3d 38a0 b63e 12f8 1d3c 8c8c 13bf
00000090: c8cb 953e 5ef6 abbc 71bc d93e 8142 debd
000000a0: dabe 023f 4cae 003f f192 2fbf bc9a 8fbc
000000b0: 5766 e43d 677f adbe 6739 e93d bcd2 2d3e
000000c0: 204a 93be 3f2d ed3e 65b2 6bbe f276 21be
000000d0: 0c15 81bc 0dc1 abbe 153d 823e 9bfb d33d
000000e0: 65bb 403f 0f25 aebe eacf 3fbd a3a8 bbbe
000000f0: f8fa d93e 4723 ba3d 7a77 193e 65b8 293e
00000100: 0875 523d 2a96 e43c 50f4 c73e f260 923d
00000110: f140 82be 7988 39bf 3cfd c83e ce7f a1bd
00000120: a2e5 863d 5a97 bfbe 97eb e8be 2d74 18be
00000130: 5330 263e 6251 bfbe 149f 22be f8c6 8c3d
00000140: f61e 113f 0c76 ddbd 2285 9e3e 4d30 aabe
00000150: 1eab 553e f2f5 363d ccec 1f3f 4a5a bfbe
00000160: afb4 88bf 329e 353f e073 eebe abe5 b8be
00000170: 6f60 0b3d 06cd a7be f614 96bd 10b3 2c3d
00000180: 54a0 37be 9022 003e 658f e0be 18b7 1ebf
00000190: 045b 903e 7545 f4be 2cf1 523e f38f 92be
000001a0: 938d c5be 2199 373e fca5 a6bd fe81 573e
000001b0: d3b3 21bf 708f 0e3f 6984 383f a1f0 7bbd
000001c0: f183 993e beca 7b3e 7096 03bf 3825 a0be
000001d0: 9059 61bf 87f5 393e 0aff 283f af91 c8bd
000001e0: c16f 073f 230b ed3c b876 bd3e a7dc fe3e
000001f0: 56be 38bf fbcc 77bd 026e 03bd 0643 17bd
00000200: 5be3 ac3c 2c87 bb3d 85eb 4f3e 1489 1c3d
00000210: d3e8 2a3d f266 5e3d 12cf 95bc af8e c83e
00000220: 64da cbbe a111 7b3e f1ba e23e 4e81 433d
00000230: dc72 f4be 56ca bebe 652f 0b3d c752 a83a
00000240: f454 1abf 37c6 64bf 5576 bcbd 069d a2be
00000250: 4ef7 033f 3467 e8bd 7105 333e 7631 8c3d
00000260: f196 78bf 7b39 5ebe 434f 2c3f 98b5 24be
00000270: 96b0 83bc b3ef 663e 264b 133e 7cf1 23bd
00000280: 1d58 32be 3e28 e2be 971f 283f cbc5 f8be
00000290: 89dd 8dbc 66a0 06be 98a1 1ebf c8e5 96be
000002a0: 6995 ae3e 28f8 8bbe 710e f5be 3298 9abe
000002b0: 0b95 09bf 0a56 cebe c43c 8bbe 4ecd 7d3e
000002c0: d5bb b13d 21d2 4abd f519 443e 930a f8bc
000002d0: c575 323c 0633 b03e bae6 87bd 6feb 123e
000002e0: 22cf 08be 23d0 d33d 5e89 cfbd f659 f13e
000002f0: e623 c33e 2595 1c3f 94d6 a6bd e1b9 213e
00000300: ef7d b2be e531 e4be 05ea 6b3e fe7c 9fbd
00000310: cf88 a83e 8d9a 13be e1e2 2fbe 57cf 90bd
00000320: 664c 5f3e 4a0f b73d bfd1 703e 4e14 22bf
00000330: d876 cd3d c108 3ebe 32f0 d83e ff3a a4be
00000340: 7553 2c3f f0b2 aebe bf4f adbe 619c 43be
00000350: ae98 963e b6c8 cebe a0bf cd3d 7791 9a3d
00000360: 1425 a4bb 0841 cdbc 8b85 c1bd b067 09be
00000370: ca07 a8be f7b5 cabd 6b0e 6fbe fbcd d1be
00000380: 7c08 023e 2b87 233f 7cd1 86be 1d15 f3be
00000390: 292a b73d bdea 563d 9beb c43d 92ba 173f
000003a0: ea6f 50be 8555 ef3e a3dd e83d 5427 d23e
000003b0: 8dfa 67be 38c2 4e3e 0e05 cbbe 2edf 073e
000003c0: 75f7 983e ddd2 003f a1a4 1abf 65e1 433f
000003d0: b72f 6bbd a48f 55bd d78f 853e 71d4 283e
000003e0: 3f00 683e 6c06 d1bd df69 3f3e 944c 6a3e
000003f0: 8ce2 903e 5eec eabe d381 de3d bef6 903e
-0.07359851 0.22792703 -0.11473872 -0.50578326 -0.28000358 0.08203287 0.015145394 0.026734713
-0.23302369 0.6688133 0.14955463 -0.20289293 -0.11777787 0.6670033 0.42596462 0.858221
0.34809875 -0.6505348 0.087008245 0.057004504 -0.32239863 -0.36371425 -0.15651727 -0.1027491
-0.15348963 -0.30497718 -0.46811348 0.050323565 -0.24989492 -0.5604174 -0.05949274 -0.3456628
0.08532339 0.35669112 0.009641664 -0.5763633 0.29257035 -0.0209915 0.42526582 -0.10852528
0.51072466 0.50265956 -0.6858359 -0.017529838 0.11152332 -0.33886263 0.11387902 0.1697492
-0.2876749 0.46323583 -0.23017271 -0.1576803 -0.015757106 -0.33545724 0.25437227 0.10350724
0.7528594 -0.34012648 -0.04682914 -0.36652097 0.42574286 0.0908876 0.14986983 0.16574247
0.05138114 0.027903635 0.39053583 0.07147397 -0.2544017 -0.72473866 0.39255702 -0.07885705
0.06586768 -0.3742016 -0.4549224 -0.14888068 0.16229372 -0.37366778 -0.15880996 0.06873888
0.5668787 -0.10813531 0.30960947 -0.33239976 0.20866057 0.044668145 0.624707 -0.37373573
-1.068014 0.7094451 -0.4657278 -0.36112723 0.034027513 -0.32773608 -0.07328217 0.042162955
-0.17932254 0.12513185 -0.438594 -0.6199813 0.2819444 -0.47709242 0.20599812 -0.2862545
-0.38584575 0.17929508 -0.08137128 0.21045682 -0.63165015 0.5568762 0.7207704 -0.06150878
0.29983476 0.24589059 -0.51401424 -0.31278396 -0.88027287 0.18160067 0.6601416 -0.09793412
0.529049 0.028935974 0.37004638 0.4977772 -0.7216543 -0.06049822 -0.032087334 -0.036929153
0.021104505 0.09156641 0.20304687 0.038216665 0.041725945 0.054297395 -0.018287215 0.3917136
-0.39815056 0.24518444 0.4428325 0.047730736 -0.4774388 -0.37263745 0.033980746 0.0012842052
-0.6028588 -0.8936495 -0.092022575 -0.31760424 0.5154923 -0.113478094 0.17482544 0.068453714
-0.9710532 -0.21701615 0.67308444 -0.16084898 -0.016075414 0.22552375 0.14384136 -0.04002522
-0.17416425 -0.44171327 0.656732 -0.48588404 -0.01731755 -0.13147125 -0.6196532 -0.29472184
0.34098366 -0.27337766 -0.4786258 -0.3019424 -0.53743047 -0.40300018 -0.27194798 0.24785349
0.08678404 -0.0495168 0.19150527 -0.03027848 0.010892336 0.34413928 -0.066358045 0.14347623
-0.13360265 0.10342433 -0.101336226 0.47138947 0.38113326 0.61165076 -0.08146396 0.15793563
-0.34861705 -0.44569317 0.2303849 -0.07787512 0.32916877 -0.14414425 -0.17176391 -0.07070797
0.21806487 0.08938463 0.23517512 -0.6331223 0.10032433 -0.18558027 0.42370754 -0.3207626
0.67314845 -0.34120893 -0.33849904 -0.19102623 0.2941336 -0.40387505 0.10046315 0.075472765
-0.005009303 -0.025055423 -0.094492994 -0.1341846 -0.32818443 -0.09897988 -0.23345344 -0.40977463
0.12698549 0.63878125 -0.263317 -0.47477046 0.08943588 0.052469958 0.09615251 0.5926906
-0.20355192 0.46744934 0.11370399 0.4104563 -0.22654171 0.20191276 -0.39652294 0.1326873
0.29876295 0.5032175 -0.60407454 0.765158 -0.05741855 -0.05213894 0.26086304 0.1648729
0.22656344 -0.10206303 0.1869273 0.22880775 0.28297842 -0.4588346 0.10864606 0.2831325

network_body._body_endoder.seq_layers.2.bias f4 [128]
00000000: 775e 9a3c 6e4b 44bb 3d2f eebb 78eb 8039
00000010: a9df 30bb ae49 1d3c 019d 0cbb fd48 8ebb
00000020: 6a2c 0e3b dc22 bcba 39fe 983b 3dfe 25bc
00000030: 162d 8fbb b908 843c e026 553b 3982 55bb
00000040: 337a 94bb db7b be3b 1479 d63b 73b7 2ebc
00000050: b772 533c c24f 7e3b 4223 123c b4aa 90bb
00000060: 0e0e e5ba 208a 6e3b e29a 883a 7e87 a03c
00000070: b043 103c c2a7 6db8 e308 92bc f4a0 a33a
00000080: 6e70 663c 8a43 7e3b 5931 ccbb 0449 713c
00000090: 280b e73b bc45 803c f4c3 b33c 2e6e febb
000000a0: 41ab 24bb add6 d13b 7e12 3dbc faf7 043c
000000b0: 3b9a 30bb ee97 413c ff3c 293d 773c 8e3c
000000c0: 29e5 f73b 194d 973c cd87 293c 3b6f 893c
000000d0: dd35 293c 878c ccba 4aa5 2bbc 4856 57bc
000000e0: 02df 943c 36b6 9a3c 5c73 353c d9ff 563c
000000f0: a160 09bc 04f4 d43a 19a1 08bc b1d0 663b
00000100: b83d b93c 4c86 9fbb fa0e ba3b e867 7a3c
00000110: 74e6 db3b 9148 0a3c 85ed b73b 49f7 cd3a
00000120: 240d 603c a7e8 f3ba 1287 1a3a 5f84 61ba
00000130: 095e 28bc 237b 133c 1b58 e23b 92ad 94bb
00000140: eea0 5f3a 9bdc bb3c 7850 3b3b b83c b93b
00000150: 5eec 153b fbcf 26bb 3449 063c c955 3d3b
00000160: 635b e23b be58 88ba d1d0 9d3c 0d20 85bb
00000170: 8543 863b 69dd a23b add1 9fba d926 0dbb
00000180: 780c 82ba 4b7c 943b b2f5 663b eb29 65bb
00000190: 18b4 cb3b 7806 ae3b a621 c939 6fff 033c
000001a0: 39db 873b 1d77 3d3c ba05 ecbb c922 a2bb
000001b0: 1d77 843c 29af a33c a53c ee39 3d8a bc3b
000001c0: 7efa 273c a7fc a439 a3f1 203c 9f25 aa3b
000001d0: b6f8 863c 6e16 6abb 2f3e 2ebc a2f4 8fbc
000001e0: 07e6 d03c 6164 2d3c cf61 9a3a a0a1 db3a
000001f0: 706a 853c ccb2 a33c 74e2 8f3a 807d 823c
0.018843872 -0.0029952186 -0.007268815 0.000245895 -0.002698878 0.009600086 -0.0021455886 -0.004342197
0.0021693953 -0.0014353651 0.0046689776 -0.010131416 -0.0043693883 0.01611744 0.0032524392 -0.003257884
-0.004531169 0.0058131046 0.0065451954 -0.010663855 0.012905768 0.0038804864 0.008919539 -0.0044148806
-0.0017475502 0.0036398247 0.0010422135 0.019595858 0.0088052 -5.666144e-05 -0.017826503 0.0012483881
0.014064891 0.003879758 -0.0062314686 0.014726881 0.0070508905 0.015658252 0.021944024 -0.0077645993
-0.002512649 0.006403765 -0.011540053 0.008115763 -0.0026947397 0.011816008 0.041317936 0.017362816
0.00756516 0.01846938 0.010347319 0.016776672 0.010327783 -0.0015605845 -0.01047642 -0.01314313
0.018172745 0.018885713 0.011074867 0.013122522 -0.0083848545 0.0016247039 -0.00833919 0.0035219605
0.022612438 -0.0048683044 0.005678055 0.015283562 0.0067108218 0.008440153 0.0056130313 0.0015713956
0.013675008 -0.0018608765 0.0005894761 -0.00086027937 -0.010276326 0.009001526 0.0069074756 -0.0045372928
0.00085307553 0.022932341 0.0028581899 0.00565299 0.0022876482 -0.0025453556 0.008196164 0.0028890243
0.006907867 -0.0010402424 0.01926461 -0.0040626586 0.0040974044 0.004970242 -0.0012193226 -0.0021538048
-0.0009921929 0.0045314184 0.003524166 -0.0034967612 0.006216537 0.0053108297 0.00038362778 0.008056506
0.0041460064 0.011564043 -0.007202831 -0.0049479944 0.016170079 0.019980984 0.0004544008 0.005753784
0.010252593 0.00031468758 0.009823236 0.005192473 0.016476016 -0.0035718936 -0.010634943 -0.017572705
0.02550031 0.010583014 0.0011778417 0.0016756542 0.016286105 0.019982718 0.0010977522 0.015928984

network_body._body_endoder.seq_layers.2.weight f4 [128, 128]
00000000: 36d5 8e3d f5fc ce3d 9e39 27bd 6903 e53c
00000010: c63e 90be 7c16 01be e4f2 88be ad3e 843d
00000020: 0175 1ebe b8b9 8dbd c0f9 1c3d 69ba b73d
00000030: 0446 2cbe 7c9a 08bb de13 203c 825b a6bd
00000040: 446a 7fbc feb9 8bbd a7ce a93d 20c2 0e3e
00000050: bd6d 9ebb 1a74 06be 16a4 a5bd cf4e 993d
00000060: 25b9 0cbd 1530 553d 2dfe e3bd 2d30 5e3e
00000070: 0774 103d 80ca 00bc 09ae 9bbc 077c 79bd
00000080: fde9 193d b039 4cbe 3a44 b03c eee3 fdbd
00000090: 1055 003e 7e93 9b3b 524d c4bd 7a7d a0bc
000000a0: b20a 91bd 7119 78bd e907 dfbc 333a f9bb
000000b0: 9afa 3cbe 0ee1 8c3d ffee 043c 24f4 7f3d
000000c0: a622 d1bd ffc5 63be adff 213e 3932 ea3d
000000d0: ec09 8dbc 09e8 093d 7a96 8bbc 5917 c2bc
000000e0: f825 b5bc bb92 cfbd 7737 abbd 1fa4 53bc
000000f0: e4d4 eebd 1b52 1cbe 2a42 dabd 253b 5d3c
00000100: 8092 053e bc45 26bb 169d 6fbd b081 c7bc
00000110: 063a bdbd abe2 04be b420 313d a63a c93c
00000120: d3ef 65bd 9556 103d c7b7 ff3c 9c1c 4b3d
00000130: f6aa ec3c 5260 5b3d 6c9a e83b 153b 513e
00000140: 0d7e 223e ea9f a43c 4c68 75bd 3f3a 2ebd
00000150: 3b77 fa3b c1e7 2a3e 843c fa3d 8715 1fbd
00000160: 5f83 383d caf6 573d d43a dbbd 781e 73be
00000170: 762b 2dbc 02a2 c7bd 830c c73d c9e5 363e
00000180: 155e 6d3d e409 58bc 70f4 1e3d 7d6c 28bd
00000190: 6d9e 963c 1a3c 733d 166d 533e 35b4 36bd
000001a0: 8fb9 893d 28ff 28be 1d07 83bc 48a8 543d
000001b0: e66a 91bc c3be a1bd 672d 8ebd d5e8 c23c
000001c0: d98d e0bc b06d b8bd 47ff 8bbd 135f 16be
000001d0: 4f15 563d f352 a73d 05fd 1ebe aa19 693d
000001e0: d83d b5bd d4fe 29be deac c8bc 1b48 a4bd
000001f0: 0472 21bd e58c c63c cfc8 963d 77a0 80bc
00000200: df68 84bd 28e2 a83d 209d 60be 231b c1bb
00000210: 047c 99bd 10c9 2dbd 6762 f33c 2bbb 8c3d
00000220: e70f b8bd 0b65 803d e114 a4bd d530 363d
00000230: e70a 5b3d 986d ae3b de4a 00be a12e fabc
00000240: 7a48 66be dd70 18be 069c 49bd d22d dfbc
00000250: be0d 6c3d e1f3 95bd 601b 563d f0b3 25be
00000260: 50d0 f73c 5cde 143e 04e2 d93c 1287 ecbd
00000270: 4318 0e3e 798f 4cbc dfcb 5ebd 4569 25bd
00000280: 957f 21be 7192 7dbb 6b40 0ebd ee90 b13d
00000290: 257c e03d f8c6 b43c 9e02 723c 17a3 0b3e
000002a0: 0a8e 67bd 9c1e f03d fab8 103d 9e3b 193e
000002b0: 7811 dbbd c2eb 23be c3c2 873e 07c8 c83c
000002c0: fe4a 9ebc 3f86 cc3d ad15 583e c765 2ebc
000002d0: d2e1 053e d404 62bd 984c 943b 9a63 bdbd
000002e0: 75d6 ff3d 9ac0 1d3d 4413 b0bd 8540 c33d
000002f0: a472 343e cc3f e6bc 561e 9ebd e2dc f7bd
00000300: 9fb5 42be c18f 03be 7243 02be b6d9 8abd
00000310: 0a87 853c b70f 393b 1a6a 0c3d 9198 953c
00000320: 1bfc 823d 4b16 1c3e 92a9 53bb 21f8 d93d
00000330: 46bc e83c 7dae 99bd 1616 57bd ef25 c2bd
00000340: 2198 f23c 3fed 10bd 58d3 743e c2f8 14bd
00000350: 7ef7 653b cf81 2c3d 9c7a ffbd 5c6e 503c
00000360: a98e 223b 4ca3 c63d 76e9 743d 4fd4 a63c
00000370: 8961 f13d dc6d cfbc bd89 e83d 5ed5 973c
00000380: c461 ecbd 2eb4 023d 1941 3c3e ceba 8d3d
00000390: 1332 f7bc c61c 0c3d 5bd8 a2bb 3b86 d83d
000003a0: 6aa7 ad3c 8816 53bd 31dc 5e3d 7133 493d
000003b0: 4920 43bd 87d8 dd3b f7dd 7f3d 19de 34bc
000003c0: b5bc 94bd 4fb7 c1bd 4647 963d e718 053e
000003d0: 387c 89bd 7916 a0bd 1d39 0c3d 3dcf 35bb
000003e0: 7903 023d 965a 0dbd c5b9 153e 0d0c 67bd
000003f0: e194 9b3d c706 47be a145 9d3c 1bce 5e3d
0.069742605 0.101068415 -0.040826432 0.027955728 -0.28172892 -0.12606233 -0.2674781 0.06457267
-0.15474321 -0.06920189 0.038324118 0.08971102 -0.16823584 -0.0020844033 0.009770362 -0.081229225
-0.015589301 -0.068225846 0.08291369 0.1394124 -0.004834859 -0.13130227 -0.080879375 0.07485735
-0.034356255 0.052047808 -0.111324646 0.21698065 0.035266902 -0.00786078 -0.019003885 -0.060909297
0.037576664 -0.19943881 0.021516908 -0.1239699 0.12532449 0.004747807 -0.0958506 -0.019591082
-0.07082118 -0.060571138 -0.027225452 -0.007605815 -0.18454972 0.06878863 0.008113622 0.06248869
-0.10211687 -0.22243498 0.15820189 0.114353605 -0.017216645 0.03366855 -0.017039526 -0.023692774
-0.022112831 -0.101354085 -0.083601885 -0.0129175475 -0.116616994 -0.15265696 -0.10657151 0.013502871
0.13044167 -0.0025371155 -0.05849942 -0.024353832 -0.09239583 -0.12977092 0.04324408 0.024564099
-0.056136917 0.03523882 0.031215562 0.04958783 0.028890114 0.053558655 0.0070984866 0.20432694
0.15868397 0.020095784 -0.05991392 -0.042536017 0.007643608 0.1668997 0.12218574 -0.03883889
0.04504716 0.05272559 -0.1070458 -0.23742092 -0.010569444 -0.097476974 0.09719183 0.17861094
0.05795105 -0.013185952 0.038807333 -0.041119087 0.01838609 0.05938349 0.20647082 -0.044605453
0.067248456 -0.16503584 -0.015994603 0.051918298 -0.017751168 -0.07897713 -0.069422536 0.023792664
-0.027411388 -0.09005296 -0.068358 -0.14684705 0.052266415 0.08170118 -0.15526207 0.05690924
-0.088496864 -0.16601115 -0.024496492 -0.080215655 -0.039415374 0.024237106 0.0736252 -0.015701516
-0.06465315 0.08246261 -0.21934938 -0.0058931275 -0.07494357 -0.042428076 0.029710008 0.06871637
-0.08987408 0.062692724 -0.08011795 0.044480164 0.053477194 0.005323123 -0.1252856 -0.030539813
-0.22488585 -0.14886804 -0.04922106 -0.027243529 0.057630293 -0.07321907 0.0522722 -0.16181922
0.030250698 0.14537948 0.02659703 -0.115492 0.13876443 -0.012485378 -0.054393645 -0.040383596
-0.15771325 -0.0038692022 -0.034729403 0.08670221 0.10961179 0.022067532 0.014771132 0.13636433
-0.056531943 0.11724588 0.035332657 0.14964148 -0.10696691 -0.16007903 0.2651578 0.024509443
-0.019322868 0.09986543 0.21102019 -0.010644383 0.13074425 -0.055180386 0.0045257322 -0.09247513
0.12492076 0.038513757 -0.085974246 0.095337905 0.17621857 -0.028106593 -0.0772063 -0.12102677
-0.19014595 -0.12847807 -0.12721041 -0.06779806 0.016299743 0.0028238127 0.034280874 0.018261226
0.063957416 0.15242879 -0.0032297117 0.1064303 0.028410088 -0.07503984 -0.052511297 -0.094798915
0.029613556 -0.035382506 0.23908746 -0.036370046 0.0035090144 0.042115983 -0.12474558 0.012721624
0.002480427 0.09699115 0.05979296 0.020364909 0.117861815 -0.02532094 0.113543965 0.018534359
-0.11542085 0.031910114 0.18384208 0.06920396 -0.030175244 0.034207128 -0.0049696392 0.105724774
0.021197993 -0.05153516 0.05440921 0.049121324 -0.04763821 0.006770197 0.06246754 -0.01103928
-0.072625555 -0.094587915 0.07337813 0.1299778 -0.06713146 -0.07816786 0.034234155 -0.0027741932
0.031741593 -0.034510218 0.14621647 -0.056407977 0.07596756 -0.19436179 0.01919824 0.054395776
