Assets/Trining/results/Normal/PingPongAgent/checkpoint.pt (torch, 498871 bytes, 41 tensors)

network_body.observation_encoder.processors.0.normalizer.running_mean f4 [24]
0	0x3f08506b	0.5324771
1	0x403b499d	2.926368
2	0x40202931	2.5025141
3	0xc05ced0a	-3.4519677
4	0x3fb93a22	1.4470866
5	0x3fb957b7	1.4479893
6	0xbe98c076	-0.29834336
7	0xb3f1df0c	-1.1263009e-07
8	0x3dfd10a5	0.1235669
9	0xbfa53e8d	-1.2909714
10	0x403b499d	2.926368
11	0x3f076d0f	0.52900785
12	0x32cc0000	2.3748726e-08
13	0x403ffea8	2.999918
14	0x4024cc88	2.5749836
15	0xc061f33d	-3.530471
16	0x3fbde880	1.4836578
17	0x3fbcf8ca	1.4763424
18	0xbeaf63a4	-0.34255707
19	0xb3f43556	-1.1371837e-07
20	0x3dbd2a00	0.092365265
21	0xbf4796f1	-0.77964693
22	0x403ffea8	2.999918
23	0x3f9f00fc	1.2422175

network_body.observation_encoder.processors.0.normalizer.running_variance f4 [24]
0	0x4e92d8fa	1.2318467e+09
1	0x48033fc3	134399.05
2	0x4c7a8507	6.567222e+07
3	0x4dba54f1	3.907661e+08
4	0x47293de1	43325.88
5	0x4ccdf404	1.0797878e+08
6	0x4e0b79ba	5.850026e+08
7	0x3f800000	1.0
8	0x4dc5e76b	4.1503472e+08
9	0x4fadaece	5.8278287e+09
10	0x48033fc3	134399.05
11	0x4eac0a5c	1.44318e+09
12	0x4e968ef7	1.2629759e+09
13	0x411ffefc	9.999752
14	0x4c7fced8	6.705853e+07
15	0x4dc4f138	4.1301786e+08
16	0x46260d8a	10627.385
17	0x4cd23dbe	1.1022693e+08
18	0x4e0f810b	6.018997e+08
19	0x3f800000	1.0
20	0x4dc9d19c	4.2324467e+08
21	0x4fb059d7	5.9173555e+09
22	0x411ffefc	9.999752
23	0x4eb137a4	1.4866068e+09

network_body.processors.0.normalizer.running_mean f4 [24]
0	0x3f08506b	0.5324771
1	0x403b499d	2.926368
2	0x40202931	2.5025141
3	0xc05ced0a	-3.4519677
4	0x3fb93a22	1.4470866
5	0x3fb957b7	1.4479893
6	0xbe98c076	-0.29834336
7	0xb3f1df0c	-1.1263009e-07
8	0x3dfd10a5	0.1235669
9	0xbfa53e8d	-1.2909714
10	0x403b499d	2.926368
11	0x3f076d0f	0.52900785
12	0x32cc0000	2.3748726e-08
13	0x403ffea8	2.999918
14	0x4024cc88	2.5749836
15	0xc061f33d	-3.530471
16	0x3fbde880	1.4836578
17	0x3fbcf8ca	1.4763424
18	0xbeaf63a4	-0.34255707
19	0xb3f43556	-1.1371837e-07
20	0x3dbd2a00	0.092365265
21	0xbf4796f1	-0.77964693
22	0x403ffea8	2.999918
23	0x3f9f00fc	1.2422175

network_body.processors.0.normalizer.running_variance f4 [24]
0	0x4e92d8fa	1.2318467e+09
1	0x48033fc3	134399.05
2	0x4c7a8507	6.567222e+07
3	0x4dba54f1	3.907661e+08
4	0x47293de1	43325.88
5	0x4ccdf404	1.0797878e+08
6	0x4e0b79ba	5.850026e+08
7	0x3f800000	1.0
8	0x4dc5e76b	4.1503472e+08
9	0x4fadaece	5.8278287e+09
10	0x48033fc3	134399.05
11	0x4eac0a5c	1.44318e+09
12	0x4e968ef7	1.2629759e+09
13	0x411ffefc	9.999752
14	0x4c7fced8	6.705853e+07
15	0x4dc4f138	4.1301786e+08
16	0x46260d8a	10627.385
17	0x4cd23dbe	1.1022693e+08
18	0x4e0f810b	6.018997e+08
19	0x3f800000	1.0
20	0x4dc9d19c	4.2324467e+08
21	0x4fb059d7	5.9173555e+09
22	0x411ffefc	9.999752
23	0x4eb137a4	1.4866068e+09

network_body._body_endoder.seq_layers.0.weight f4 [128, 24]
0	0xbe18bb92	-0.14915302
1	0xbc9013c4	-0.01758755
2	0xbe17e827	-0.14834653
3	0xbe38b96f	-0.18039487
4	0xbeb2f650	-0.34953547
5	0xbf1af9ac	-0.6053722
6	0xbeea46ca	-0.45757133
7	0x3d950aa3	0.072774194
8	0xbdf9c88b	-0.12196454
9	0x3d4e4d56	0.050366722
10	0x3ec67d29	0.38767365
11	0xbea8a43c	-0.329378
12	0x3e315860	0.17318869
13	0xbdb42973	-0.08796968
14	0x3e978a79	0.29597834
15	0x3e90d018	0.28283763
16	0x3e1cfa21	0.15329792
17	0xbe43570b	-0.19076173
18	0xbd8742b5	-0.0660452
19	0xbd20f0ef	-0.039292272
20	0xbdb63831	-0.088974364
21	0x3ea16079	0.31518915
22	0xbe00e6fd	-0.12588115
23	0x3e361ad0	0.17783666
24	0x3e16fb8a	0.14744392
25	0x3ec5967a	0.38591367
26	0xbc7a2f35	-0.015270044
27	0x3e8c4b7e	0.27401346
28	0xbe5cb814	-0.21554595
29	0x3f1202e6	0.5703567
30	0xbe6c304a	-0.23065296
31	0x3e1603a0	0.1464982
32	0xbd5cc2a9	-0.05389658
33	0xbd8f9818	-0.070114315
34	0x3c02d592	0.007985489
35	0x3e286ff7	0.16448961
36	0x3cf25f3f	0.029586433
37	0xbc09d23d	-0.008411941
38	0xbe47b16f	-0.1950128
39	0x3d8ebf6d	0.06970105
40	0x3e06d3fe	0.13166806
41	0x3ec0f6c9	0.37688282
42	0xbe0e8114	-0.13916427
43	0xbda1f13d	-0.07907341
44	0xbe4b3550	-0.19844556
45	0xbe2ddf94	-0.1697982
46	0xbca30a28	-0.019902304
47	0xbe29456d	-0.1653039
48	0xbe2b6e66	-0.16741332
49	0x3d94a397	0.07257765
50	0xbdd62cbe	-0.10457753
51	0x3e5374fb	0.20650093
52	0x3e01d6e6	0.12679633
53	0xbe9f9184	-0.31165707
54	0x3c0d7785	0.008634453
55	0x3e1e1b36	0.15440068
56	0xbe6dc718	-0.2322048
57	0x3c8c8e0a	0.017157573
58	0x3ed9b52d	0.4252104
59	0x3e27d015	0.16387971
60	0xbe72551d	-0.2366528
61	0xbd976512	-0.073923245
62	0x3edbf01c	0.42956626
63	0xbe27f4d0	-0.16401982
64	0xbec9b299	-0.39394072
65	0xbd0ae13d	-0.03390621
66	0xbdd91769	-0.10600168
67	0xbcb899b7	-0.022534234
68	0x3dc86ca3	0.09786346
69	0xbea4b089	-0.32165936
70	0x3e519591	0.20467211
71	0x3e4be5dc	0.19911903
72	0xbe8d7ce1	-0.27634338
73	0x3e32b304	0.17451102
74	0x3c1c1c44	0.009528223
75	0xbda5ab69	-0.080893345
76	0xbdb5be0c	-0.08874139
77	0x3e5844ba	0.21119967
78	0xbcf9d467	-0.03049679
79	0x3e45e01d	0.19323774
80	0xbdcf31b4	-0.10116902
81	0x3dfe4ce7	0.12417012
82	0x3e8f372c	0.2797178
83	0x3c84eaf8	0.016225323
84	0xbdada5c1	-0.08478881
85	0xbbf711e3	-0.007539974
86	0xbe0ad9b7	-0.13559614
87	0x3e788f5b	0.24273436
88	0x3e2a9a78	0.16660488
89	0x3ec6cdda	0.38828927
90	0x3e1489ab	0.14505641
91	0x3ddf42e6	0.10901432
92	0x3e012787	0.12612735
93	0xbc3b6e9b	-0.011439945
94	0xbd3bc73c	-0.0458443
95	0x3d41c44e	0.04730635
96	0x3e6b38be	0.22970864
97	0x3dded8f5	0.10881225
98	0x3d76cd60	0.060254455
99	0xbe3f1064	-0.18658596
100	0xbeae4b47	-0.34041807
101	0x3c40e930	0.011774346
102	0x3c2e26a5	0.010629331
103	0xbeb1ce9f	-0.34727952
104	0xbe747394	-0.23872215
105	0x3e703842	0.2345896
106	0x3e96f196	0.2948119
107	0xbebbc615	-0.36674562
108	0xbdc0b995	-0.09410397
109	0x3e5ee1d1	0.2176583
110	0xbe6bc315	-0.23023637
111	0xbd1e3658	-0.038626045
112	0xbe913497	-0.28360435
113	0x3d10ed23	0.0353824
114	0x3c815dbb	0.015791764
115	0x3ee60731	0.44927362
116	0x3e6cd817	0.23129307
117	0x3e22eac0	0.15909863
118	0x3d3fcc9e	0.046825998
119	0x3e23dccc	0.16002196
120	0xbe1a0956	-0.15042624
121	0xbe8154a9	-0.25259903
122	0xbd920428	-0.07129699
123	0xbe53a032	-0.20666578
124	0xbda112c3	-0.07864907
125	0x3b0c3f71	0.0021400119
126	0xbeea4b5f	-0.4576063
127	0xbda6b9e5	-0.08140925
128	0x3e272797	0.16323696
129	0x3cfafdb5	0.030638555
130	0x3d79820a	0.06091503
131	0x3e04b85b	0.12960951
132	0xbe9c6b52	-0.3055063
133	0x3e79a685	0.24379928
134	0x3c886d29	0.016653614
135	0xbe9a059e	-0.3008241
136	0x3db27c0a	0.08715065
137	0xbe60e5c8	-0.21962655
138	0xbf071714	-0.5276959
139	0xbe285ebb	-0.16442387
140	0x3de1f06e	0.110321864
141	0xbe09ef1e	-0.13470122
142	0xbe813d17	-0.2524192
143	0x3e1fc51d	0.15602536
144	0xbea57efa	-0.32323438
145	0x3d976174	0.073916346
146	0xbc1280cc	-0.00894184
147	0xbe476a08	-0.19474041
148	0x3e545439	0.20735253
149	0xbe522198	-0.20520627
150	0xbeacdd7e	-0.33762735
151	0x3b910a02	0.004426242
152	0xbc6ae773	-0.014337408
153	0x3eb43330	0.35195303
154	0xbd940db0	-0.07229173
155	0x3ebc88a4	0.36823
156	0xbe7aa3c4	-0.24476534
157	0x3d890f2e	0.066923484
158	0x3e03e276	0.12879357
159	0x3eaaf16d	0.33387318
160	0xbbf64430	-0.007515453
161	0xbe399fb1	-0.18127324
162	0xbe87e544	-0.26542103
163	0xbea46def	-0.32115123
164	0xbeb7c21c	-0.3589028
165	0x3cdadd05	0.026716718
166	0xbea15367	-0.31508943
167	0xbdd2401b	-0.102661334
168	0xbe86b9ac	-0.2631353
169	0x3e851efc	0.26000202
170	0xbd4f2aff	-0.050578114
171	0xbf14590e	-0.57948387
172	0xbe0544c9	-0.1301452
173	0x3e2a5e04	0.16637427
174	0xbeaabc31	-0.33346704
175	0xbe851c19	-0.25998
176	0xbe11affe	-0.14227292
177	0xbeff6ee3	-0.49889287
178	0xbe3daa35	-0.1852196
179	0x3e804988	0.250561
180	0xbd9e4437	-0.07727855
181	0xbc96422b	-0.018342098
182	0x3ebb9714	0.366387
183	0xbe6acfe4	-0.22930866
184	0xbdab3ed2	-0.083615914
185	0xbee7049f	-0.45120713
186	0xbe9e3f07	-0.3090746
187	0x3dffef38	0.12496799
188	0xbd5774b9	-0.05260155
189	0xbc7b81a7	-0.015350736
190	0x3e72d2f4	0.23713285
191	0xbd35c8e6	-0.044381045
192	0xbd169ba4	-0.036769524
193	0xbe934b98	-0.2876861
194	0xbd98b717	-0.074567966
195	0x3d2bef2e	0.041976146
196	0xbe066c96	-0.1312736
197	0x3e36c6d4	0.17849284
198	0xbc36ed8a	-0.011165032
199	0xbcd7908b	-0.02631404
200	0xbc15681a	-0.009119058
201	0xbab8334f	-0.0014053377
202	0xbd8bc10c	-0.0682393
203	0xbe72ea8c	-0.23722285
204	0xbddea84c	-0.10871944
205	0x3d3af163	0.04564036
206	0xbeb65fbe	-0.3561992
207	0xbcd63a25	-0.026150772
208	0xbeb4b9c3	-0.35297975
209	0x3ebe0a1b	0.37117085
210	0x3e96a9c9	0.2942641
211	0x3cc84d4b	0.024450919
212	0x3e292384	0.16517454
213	0x3e880985	0.26569763
214	0xbe9aaa3c	-0.30208004
215	0x3d91c82d	0.071182586
216	0x3d450489	0.04810003
217	0xbed62f4b	-0.41832957
218	0x3dd96453	0.106148385
219	0xbefbbf49	-0.49169376
220	0xbe69023b	-0.22754757
221	0xbe0a9ab9	-0.13535585
222	0x3dc40aa1	0.0957234
223	0x3e6a91cb	0.22907178
224	0x3e9a5d2e	0.30149215
225	0xbe01ad6b	-0.1266381
226	0x3dba9a70	0.09111488
227	0x3c624ecb	0.013812731
228	0xbd944983	-0.07240584
229	0xbeb259e5	-0.3483421
230	0x3eaa63f1	0.33279374
231	0x3d926ae3	0.07149293
232	0x3d8fdd58	0.0702464
233	0x3e9d4dc7	0.30723402
234	0xbd108db4	-0.03529139
235	0x3e0f7305	0.1400872
236	0x3f1fd2cd	0.6243103
237	0x3ddb688a	0.107132986
238	0x3e172538	0.14760292
239	0xbf03b074	-0.5144112
240	0xbec33c27	-0.3813183
241	0xbebc2c39	-0.3675249
242	0x3ea1e4e5	0.31619945
243	0xbed855e8	-0.4225304
244	0xbd6e2057	-0.05813631
245	0x3e06857f	0.13136862
246	0xbce88377	-0.028383
247	0x3ccc6aa8	0.024953201
248	0xbeaa9c68	-0.33322453
249	0xbeb29138	-0.34876418
250	0xbd6df763	-0.058097254
251	0x3e85b12a	0.26111728
252	0xbe0fa5dd	-0.14028116
253	0x3d38c587	0.04511025
254	0xbdeddc44	-0.11614278
255	0xbe78776c	-0.24264306

network_body._body_endoder.seq_layers.0.bias f4 [128]
0	0x3d5adffc	0.053436264
1	0x3ace7ad7	0.0015753162
2	0xbc0f20f9	-0.008735889
3	0xbc05debf	-0.008170783
4	0xbcf7733b	-0.030206313
5	0x3d0ad20b	0.03389172
6	0x3d5904a4	0.05298294
7	0x3ce52655	0.02797238
8	0x3b8c7805	0.0042867684
9	0xbd00ff7b	-0.031493645
10	0x3d102b98	0.035197824
11	0xbc41cf94	-0.011829276
12	0x3d107b26	0.035273694
13	0xbce985a6	-0.028506111
14	0xbcdfd079	-0.027321087
15	0x3cd87f4c	0.026427887
16	0x3c47213f	0.012153923
17	0xbd996e20	-0.07491708
18	0x3d14dbce	0.036342435
19	0x3c92f9bb	0.017941346
20	0x3b5fe0f1	0.0034161175
21	0xbd952481	-0.07282353
22	0x3c9134a8	0.017725304
23	0xbcc23e3b	-0.023711314
24	0xbe03352a	-0.12813249
25	0xbc992f72	-0.018699382
26	0xbc5a235f	-0.013314097
27	0x3cc50bff	0.024053572
28	0x3c004e7f	0.007831215
29	0x3ce18147	0.027527465
30	0x3d5756d2	0.052573033
31	0xbdd52196	-0.10406797
32	0xbc80be46	-0.01571573
33	0x3d957457	0.07297581
34	0xbcebb357	-0.02877204
35	0x3c83b84b	0.016079089
36	0x3d286f9f	0.041122075
37	0xbaebda49	-0.0017994131
38	0x3d615b6b	0.055018824
39	0xbd2477c1	-0.04015327
40	0xbd61c6ce	-0.055121236
41	0x3d0e2bc8	0.03470972
42	0x3c9ac183	0.018891102
43	0xbda19e3a	-0.078915074
44	0x3d098fe1	0.03358448
45	0xbcafa287	-0.021439804
46	0x3cfb6165	0.03068609
47	0xbc9d4a4c	-0.019200467
48	0xbd211c51	-0.039333645
49	0x3c76ddca	0.015067527
50	0xbd2fc203	-0.042909633
51	0xbd228be6	-0.0396842
52	0xba2fbf83	-0.00067042577
53	0x3cf8c6c2	0.030368213
54	0xbd042fbe	-0.032272093
55	0xbcc3a922	-0.02388436
56	0xbba2387a	-0.00495058
57	0x3cb98bad	0.02264961
58	0x3de23946	0.1104608
59	0x3c9c73a8	0.019098118
60	0xbd1908e9	-0.037362013
61	0xbdc1d4c4	-0.0946441
62	0xbcd7d324	-0.026345797
63	0x3cecd7c3	0.028911477
64	0x3c37c27e	0.011215804
65	0xbb997365	-0.0046829456
66	0xbdc0d649	-0.09415872
67	0x396245f5	0.000215791
68	0xbd5394e3	-0.05165566
69	0x3cdd2b8c	0.026998304
70	0x3d0208b6	0.03174659
71	0xbcede6b1	-0.029040666
72	0xbc6b9953	-0.014379817
73	0xbd0bdd19	-0.034146402
74	0x3d687a51	0.056757275
75	0x3d372181	0.044709686
76	0x3c44888b	0.011995445
77	0xbd1b0a2f	-0.03785151
78	0xbd02074c	-0.03174524
79	0x3dcfba2e	0.10142933
80	0x3c1a0d79	0.009402626
81	0x3d3563aa	0.0442845
82	0xbcf33811	-0.02968982
83	0xbd1715d5	-0.036886055
84	0x3d677e93	0.056517195
85	0xbd8f605a	-0.070007995
86	0x3d004d27	0.03132358
87	0x3d80ff15	0.06298653
88	0x3da72b5f	0.08162569
89	0x3cc115ba	0.02356993
90	0x3d8399b0	0.06425798
91	0xbd5659b0	-0.052331626
92	0x3cb92e57	0.022605104
93	0x3c8cb2f7	0.01717518
94	0xbc591b52	-0.013251143
95	0x3c15ff16	0.0091550555
96	0x3c4b77d0	0.012418702
97	0x3cee8d64	0.029120155
98	0xbd9dc232	-0.077030554
99	0x3bdca402	0.0067334184
100	0x3d0e4e5c	0.034742698
101	0xbbe6ae7b	-0.0070398427
102	0xbd205591	-0.039144102
103	0xbd8aff01	-0.067869194
104	0x3c6c45f4	0.014420975
105	0x3d184538	0.037175387
106	0x3dac91a6	0.08426218
107	0xbca796c1	-0.020457627
108	0x3cbbd342	0.022927884
109	0x3d14477d	0.03620099
110	0x3c79e69c	0.0152527355
111	0x3d80ca7c	0.06288621
112	0xbd593235	-0.053026397
113	0x3bcb99e2	0.0062134126
114	0xbd92dbfc	-0.07170865
115	0xbcd84999	-0.026402282
116	0x3d0d56ac	0.034506485
117	0x3b0b378f	0.0021242832
118	0x3d9fa4b4	0.077950865
119	0xbc834b78	-0.016027197
120	0x3bcdfa62	0.0062859515
121	0xbd107d23	-0.03527559
122	0xbccd1b4f	-0.025037436
123	0xbd3ab70c	-0.045584723
124	0xbca97767	-0.020686818
125	0x3c16e406	0.009209638
126	0x3c4307b6	0.011903694
127	0xbd14342a	-0.03618256

network_body._body_endoder.seq_layers.2.weight f4 [128, 128]
0	0xbe129132	-0.143132
1	0xbd839280	-0.06424427
2	0xbd838769	-0.06422312
3	0x3e40e23f	0.18836306
4	0xbdb65ff3	-0.089050196
5	0x3d6983fa	0.05701063
6	0xbe39aa55	-0.18131383
7	0xbd10157a	-0.03517673
8	0xbce1f455	-0.027582327
9	0xbd8c0c0a	-0.06838234
10	0xbd5405c0	-0.051763296
11	0xbc37673b	-0.011194046
12	0x3da15499	0.07877464
13	0xbdec5c69	-0.11541063
14	0xbdd84ded	-0.10561738
15	0xbd879e5c	-0.066220015
16	0x3cccfb6a	0.025022227
17	0xbdd36801	-0.103225715
18	0x3e481b7d	0.19541736
19	0x3d5759f4	0.05257602
20	0xbe1b8650	-0.15187955
21	0x3d824ba9	0.06362087
22	0x3d2f64f1	0.042820875
23	0xbb8d8d47	-0.00431982
24	0xbd1e44c4	-0.0386398
25	0xbd1f49e9	-0.038888846
26	0xbc04978e	-0.008092774
27	0xbd888cb9	-0.06667466
28	0x3da8d8b4	0.08244458
29	0x3da4600c	0.08026132
30	0x3d342c2d	0.04398744
31	0xbd47efd4	-0.048812702
32	0xbdbe5663	-0.09293821
33	0xbddaeaf9	-0.10689349
34	0x3de87e9b	0.11352273
35	0xbc81a6d8	-0.015826628
36	0xbdffb423	-0.1248553
37	0xbce212c9	-0.027596848
38	0xbd0abc98	-0.033871263
39	0xbc2b4b55	-0.010454972
40	0x3dee69ac	0.11641249
41	0xbd26f095	-0.04075678
42	0xbd03b5d5	-0.03215583
43	0xbd252014	-0.040313795
44	0x3d1a7fb0	0.03771943
45	0x3cceba45	0.025235305
46	0xbbbcbea9	-0.005760033
47	0x3c920c91	0.017828258
48	0x3d895add	0.06706784
49	0x3b6ef697	0.0036462897
50	0xbd8ddcb3	-0.06926861
51	0xbd559aea	-0.05214969
52	0x3d4243c2	0.0474279
53	0xbd158e22	-0.0365125
54	0x3d69ed09	0.05711082
55	0x3c100cad	0.008792085
56	0xbdb730d5	-0.08944861
57	0x3cbe23a3	0.023210352
58	0x3d49483e	0.04914116
59	0xbd23c880	-0.039986134
60	0x3c0091f9	0.007847303
61	0x3d2077bd	0.03917669
62	0x3d934b80	0.07192135
63	0x3dd92bfe	0.10604094
64	0xbc61a6b2	-0.013772653
65	0xbe2c265f	-0.16811512
66	0xbde7e381	-0.1132269
67	0x3e25e487	0.16200458
68	0x3d6ae116	0.057343565
69	0xbc71dcf0	-0.014762148
70	0xbb83535a	-0.004007739
71	0x3d4ebbcb	0.050472062
72	0xbdf95132	-0.1217369
73	0xbd5a1964	-0.05324687
74	0x3e2aa58e	0.16664717
75	0xbd8fe868	-0.0702675
76	0xbe16e7bc	-0.14736837
77	0x3d8e5621	0.069500215
78	0x3d8bec4f	0.06832182
79	0xbe45d2f4	-0.19318753
80	0x3d14c16f	0.036317285
81	0xbd8cc823	-0.068741105
82	0xbd1285f6	-0.035772286
83	0xbcf8d650	-0.03037563
84	0xbde00ff0	-0.1094054
85	0xbe2456e6	-0.16048774
86	0xbd8f7e3c	-0.07006499
87	0xbda49c0b	-0.08037575
88	0x3cd9d37f	0.026590107
89	0x3d5d81bd	0.054078806
90	0x3dda00db	0.106446944
91	0x3bba3166	0.0056821583
92	0x3d8978e5	0.06712512
93	0xbe1e8a6a	-0.15482488
94	0x3d03a9b3	0.03214426
95	0xbd3f9bc6	-0.046779417
96	0xbb80ec6b	-0.003934433
97	0xbc5acd1c	-0.013354566
98	0x3db1c18f	0.086794965
99	0x3d0ffe91	0.035154883
100	0x3d519fa8	0.05117765
101	0x3de25b2f	0.11052548
102	0x3d61d2d9	0.05513272
103	0x3db9a46c	0.09064564
104	0xbd5a50c7	-0.05329969
105	0x3dde92c1	0.10867835
106	0xbd8eee47	-0.069790415
107	0x3e03984c	0.12851065
108	0xbd6d4d50	-0.05793506
109	0x3e5976c5	0.21236713
110	0xbdd965df	-0.106151335
111	0xbc8ced43	-0.017202979
112	0xbcda2e3e	-0.026633378
113	0x3d9dcf27	0.07705527
114	0x3d9a7252	0.07541336
115	0xbe0a1d74	-0.13487798
116	0xbd1e7db6	-0.038694106
117	0x3d4f420e	0.050600104
118	0x3d847065	0.0646675
119	0xbd860f78	-0.06545919
120	0x3d0c7b09	0.034297023
121	0x3c6d6fed	0.014492017
122	0x3e25867a	0.1616458
123	0xbde68a00	-0.1125679
124	0xbd70cce3	-0.058789145
125	0x3dd42426	0.10358457
126	0xbd84f791	-0.06492532
127	0x3d3d1c37	0.046169486
128	0xbe56d207	-0.20978557
129	0x3cae6c66	0.021291923
130	0xbd4d60ff	-0.05014133
131	0x3d2fcfc9	0.04292277
132	0x3ceef7f6	0.029170971
133	0x3dce1ad3	0.1006371
134	0xbe2737b1	-0.16329838
135	0x3c77a087	0.015113956
136	0xbd5803e1	-0.052738074
137	0xbdc8da41	-0.09807254
138	0x3dc0651a	0.093942836
139	0xbd4da6f0	-0.050208032
140	0x3ddcbc5f	0.107781164
141	0xbe24ebd7	-0.16105591
142	0xbcf55223	-0.029946392
143	0x3e1e0c1c	0.15434307
144	0xbccfe525	-0.02537782
145	0x3dcb3504	0.09922221
146	0x3e03cdc2	0.12871459
147	0x3c76b420	0.015057594
148	0x3d7da393	0.061923575
149	0x3d0cf4f0	0.034413278
150	0xbd48d827	-0.049034264
151	0x3e8b8b34	0.2725464
152	0xbe2f4c5b	-0.17118971
153	0xbdb7180d	-0.08940134
154	0x3de279a8	0.1105836
155	0x3dd0b2d4	0.10190359
156	0xbe0320a3	-0.12805419
157	0x3de21985	0.11040024
158	0x3da4d1f7	0.0804786
159	0xbb3bade9	-0.0028637594
160	0xbb392da7	-0.002825597
161	0x3dad0463	0.08448102
162	0xbdb392c2	-0.08768226
163	0x3e4a37fe	0.19747922
164	0x3e1373bf	0.14399622
165	0x3d842d14	0.064539105
166	0xbdef16f4	-0.116743
167	0x3dd7459f	0.10511326
168	0xbb949592	-0.0045344317
169	0x3c9f1c85	0.019422779
170	0x3d851fdd	0.06500218
171	0xbd1a6dcc	-0.037702367
172	0xbd3a078f	-0.045417365
173	0x3d809489	0.06278331
174	0x3d7066c2	0.058691747
175	0x3e5c27a6	0.214995
176	0xbc9d7d9b	-0.019224932
177	0x3e1a88df	0.15091275
178	0xbbd1f011	-0.006406792
179	0x3d156904	0.036477104
180	0xbdda7918	-0.10667628
181	0x3d9d26e9	0.07673437
182	0xbe391416	-0.18074068
183	0xbe097c6f	-0.13426374
184	0x3db9d3da	0.090736106
185	0xbd9660c7	-0.073426776
186	0x3e46cada	0.19413319
187	0x3d29b46c	0.04143183
188	0x3debaf52	0.11508049
189	0xbc042527	-0.008065498
190	0x3d37c962	0.044869788
191	0x3da5a88c	0.080887884
192	0x3c7826b1	0.0151459435
193	0x3d9f09b1	0.0776552
194	0x3e293ad8	0.16526353
195	0x3e0bbb47	0.1364566
196	0x3dd7ee43	0.10543492
197	0x3dfc64a6	0.12323885
198	0x3b4b2072	0.003099468
199	0x3dab7e58	0.083737075
200	0x3cfdab52	0.030965481
201	0x3d75a2ae	0.059969597
202	0xbddcdda9	-0.10784466
203	0x3c70134b	0.014653037
204	0xbc82e50b	-0.015978357
205	0x3deea6a4	0.11652878
206	0xbcaee2a8	-0.021348312
207	0x3e6b4821	0.22976734
208	0xbe5df69d	-0.21676107
209	0xbda87563	-0.08225515
210	0x3d4e58d2	0.050377674
211	0xbd886e0e	-0.06661616
212	0x3cda4488	0.026644006
213	0xbd8dd56d	-0.06925473
214	0x3d661862	0.056175597
215	0x3ced97a0	0.029002964
216	0x3dea32ca	0.114354685
217	0x3e1010eb	0.14068954
218	0xbd554965	-0.052071948
219	0xbd70ddd8	-0.058805317
220	0xbe3c9345	-0.18415554
221	0x3d46b80d	0.04851537
222	0x3e04e0d5	0.12976392
223	0xbdeb74cf	-0.11496889
224	0x3dea4fc6	0.11440997
225	0xbda19c2e	-0.07891117
226	0x3e21ead2	0.15812233
227	0x3de55b3e	0.11199044
228	0xbd934e4b	-0.071926676
229	0xbda47f09	-0.080320425
230	0xbcbbdc57	-0.022932215
231	0xbdedcf28	-0.116117775
232	0x3d8d188d	0.06889448
233	0xb96bac65	-0.00022475568
234	0xbdff0a53	-0.12453141
235	0xbe3df1f1	-0.18549325
236	0xbe02d0c9	-0.12774958
237	0xbd46f37a	-0.04857204
238	0x3d916b20	0.071005106
239	0x3e28dd1d	0.16490598
240	0x3e0269f3	0.12735729
241	0x3e2ca103	0.16858296
242	0xbba51892	-0.0050383294
243	0x3d3f4a3f	0.046701666
244	0xbe3085a1	-0.17238475
245	0x3db6f9cc	0.08934364
246	0xbe3dfb38	-0.18552864
247	0x3da7f65d	0.08201287
248	0x3de7c659	0.11317129
249	0xbdcf79e7	-0.10130673
250	0x3e54e719	0.20791282
251	0xbcba1f6c	-0.022720061
252	0xbc2c693d	-0.010523138
253	0x3df85fd0	0.1212765
254	0xbdd7895c	-0.10524246
255	0x3d628c11	0.05530936

network_body._body_endoder.seq_layers.2.bias f4 [128]
0	0xbc0bb69d	-0.008527425
1	0x3d53d31f	0.051715013
2	0xbd233621	-0.039846543
3	0xbc268f51	-0.010166005
4	0x3d20022d	0.039064575
5	0x3a6ab0b0	0.000895272
6	0x3ae81c1d	0.0017708574
7	0xbd3be002	-0.045867927
8	0x3cc8b6c6	0.024501216
9	0x3cd1ce71	0.025611134
10	0x3d2cfd79	0.042233918
11	0xbd6a9ea3	-0.057280194
12	0xb94a7a82	-0.00019309859
13	0x3cca09a0	0.024662793
14	0x3cb8fb19	0.02258067
15	0x3cfb04a4	0.030641861
16	0xbd352e16	-0.044233404
17	0xbd18e8ab	-0.037331264
18	0xbbf75dd1	-0.0075490256
19	0xbd810ad4	-0.063008934
20	0x3d23de3b	0.040006857
21	0x3dc21887	0.094773345
22	0xbd08fe6b	-0.033445757
23	0xbb00f79b	-0.0019678834
24	0xbd431af6	-0.047633134
25	0x3d781434	0.060566142
26	0x3d7cda6a	0.061731733
27	0xbc878f66	-0.01654787
28	0x3d101459	0.035175655
29	0x3cb296ed	0.021800483
30	0x3d234e3d	0.039869536
31	0xbcb5db44	-0.02219928
32	0x3c134727	0.008989132
33	0xbb280ffa	-0.0025644288
34	0x3d634ad3	0.05549128
35	0x3d239b79	0.039943192
36	0xbd078102	-0.033082016
37	0x3d6782c3	0.05652119
38	0x3d7ef1e2	0.062242396
39	0xbcbc80e1	-0.023010673
40	0x3d3af3f8	0.045642823
41	0x3d9081bc	0.07055995
42	0x3caa8d5f	0.020819364
43	0x3bcd2464	0.0062604416
44	0xbd6732d5	-0.05644496
45	0x3c4a2756	0.01233848
46	0x3d66596f	0.056237634
47	0xbc341c29	-0.010993042
48	0xbb2c7e1a	-0.002632028
49	0xb9cbcec4	-0.0003887323
50	0x3c92e805	0.017932901
51	0x3d4e27b2	0.050330825
52	0xbcaab10b	-0.020836374
53	0x3bccf892	0.006255218
54	0x3d4b3da0	0.049619317
55	0xbd565cfc	-0.05233477
56	0x3d19fe40	0.037595987
57	0x3cd1f0aa	0.025627453
58	0x3bb25ed2	0.0054434324
59	0x3cb1e7f5	0.021717051
60	0x3cc1b44a	0.023645539
61	0x3d884081	0.06652928
62	0x3d26d4f4	0.04073043
63	0xbcbb7fca	-0.022888083
64	0xbd472fdb	-0.048629623
65	0x3cddfa60	0.027096927
66	0xbd90778e	-0.07054053
67	0x3b485eb2	0.003057402
68	0x3caec850	0.02133575
69	0xbd224891	-0.039619986
70	0x3cc5e3e3	0.024156516
71	0xbc62ef62	-0.013851019
72	0x3c6e1caa	0.014533201
73	0xbc971415	-0.018442193
74	0x3d784349	0.060611043
75	0x3c1bed50	0.009517029
76	0x3d8cffdd	0.068847395
77	0x3d271262	0.040789016
78	0xbbce616a	-0.0062982338
79	0xbd1ae015	-0.037811358
80	0x3d870cbd	0.065942265
81	0x3d19422c	0.037416622
82	0x3d943eaf	0.072385184
83	0xbc9e7fbc	-0.019348018
84	0xbc10458c	-0.008805644
85	0x3c7b583e	0.015340863
86	0x3d9ff3d9	0.07810182
87	0xbb9e6a8f	-0.00483448
88	0x3ce7c2f8	0.02829121
89	0x3d16b63e	0.036794893
90	0x3d67affe	0.056564324
91	0x3cf8b777	0.03036092
92	0x3c5909c8	0.013246961
93	0x3da68a20	0.08131814
94	0x3cd65c44	0.026167043
95	0x3ce8b2aa	0.028405506
96	0x3bc72a39	0.0060780314
97	0x3d3e690f	0.04648691
98	0x3b4f1a3e	0.0031601335
99	0x3c98e725	0.018664906
100	0x3c9b501f	0.018959103
101	0x3d1faf48	0.03898552
102	0x3cc3fe77	0.02392505
103	0x3d398e9e	0.045302026
104	0xbceaf6bb	-0.028682103
105	0x3c1a3d1f	0.0094139865
106	0xbce90f07	-0.028449548
107	0x3cff5d86	0.031172525
108	0x3d32621b	0.043550592
109	0x3c0d2d2f	0.00861673
110	0xbd74187b	-0.05959366
111	0x3c9629ec	0.018330537
112	0xbc5326bc	-0.012887653
113	0x3a9918fc	0.001168042
114	0xbd142391	-0.03616673
115	0xbd8908d7	-0.06691139
116	0x3d4fd1fc	0.050737366
117	0xbd50b104	-0.050950065
118	0x3b8c23b6	0.004276718
119	0x3c7dcce5	0.015490745
120	0xbd3273b9	-0.043567393
121	0x3cd621ab	0.026139101
122	0x3d13db4a	0.036097802
123	0x3d2cd092	0.042191096
124	0x3c4b0b19	0.012392783
125	0x3bd5255e	0.0065046987
126	0x3cc50cdb	0.024053982
127	0x3cc43a5b	0.023953607

action_model._discrete_distribution.branches.0.weight f4 [3, 128]
0	0xba83b519	-0.0010048478
1	0xbd97229a	-0.073796466
2	0x3c2deff0	0.010616288
3	0x3cfd9f4d	0.03095975
4	0xbd36a166	-0.044587515
5	0x3c8451db	0.016152313
6	0xbc972d49	-0.01845421
7	0x3d28ac35	0.041179854
8	0x3d0e3a64	0.034723654
9	0x3d74fd38	0.0598118
10	0x3c3eea39	0.011652523
11	0x3bb2882b	0.0054483614
12	0x3c8906e7	0.016726924
13	0x3cc01dce	0.023451712
14	0x3d136e5e	0.035993926
15	0xbd80a3c3	-0.06281235
16	0x3d173910	0.036919653
17	0x3bade3fc	0.005306719
18	0x3d027f4e	0.03185969
19	0x3d09c9ea	0.033639826
20	0x3cea589c	0.028606705
21	0x3ca8ca99	0.020604419
22	0x3d3bfc90	0.04589516
23	0xbd2f6472	-0.0428204
24	0x3cea0840	0.028568387
25	0x3ce22c10	0.027608901
26	0x3c3a7252	0.011379795
27	0x3b181fdf	0.0023212356
28	0x3cb4a23c	0.022050016
29	0xbbfe2b4d	-0.0077566267
30	0xbd067e09	-0.03283504
31	0x3cb57b03	0.022153383
32	0x3d0ce60e	0.034399085
33	0x3d8c99bf	0.06865262
34	0x3cb7a0e3	0.022415584
35	0xbb62fddd	-0.0034636178
36	0x3d9ea206	0.07745747
37	0xbd095d80	-0.033536434
38	0xbc4f7c6e	-0.012663944
39	0x3d8b0c2d	0.06789432
40	0xbccf3763	-0.025294965
41	0x3c6806ac	0.014161747
42	0xbd9fee2e	-0.07809101
43	0xbcff7b0e	-0.031186607
44	0x3cca696b	0.02470847
45	0xbb9f820c	-0.0048677977
46	0x3c6a58d9	0.0143034095
47	0x3c9f3500	0.019434452
48	0x3cb26392	0.021775994
49	0x3d0f983b	0.035057288
50	0xbcaccd98	-0.021094128
51	0xbc9d6987	-0.019215358
52	0xbc937e51	-0.018004568
53	0x3c7f0564	0.01556525
54	0x3d2d3864	0.042290106
55	0x3d67be55	0.056578
56	0xbbd01cf7	-0.006351109
57	0xbba2ba84	-0.004966082
58	0xbd3bb11c	-0.0458232
59	0x3c827ea5	0.01592953
60	0x3b862939	0.0040942696
61	0x3d1958a5	0.037438054
62	0x3c86f90a	0.016476173
63	0x3d03ae74	0.032148793
64	0x3ca326fd	0.019916052
65	0xbc7fef28	-0.015620984
66	0x3d524a94	0.051340654
67	0xbbaedf46	-0.005336675
68	0xbd2a08d0	-0.04151231
69	0x3d3beeb5	0.045881946
70	0xbda04d78	-0.07827276
71	0x3c89a349	0.016801493
72	0xbbe1eec8	-0.00689492
73	0x3cde8c33	0.027166462
74	0xbc9e0e7e	-0.01929402
75	0x3a593e54	0.00082871807
76	0x3d2e6d1f	0.042584535
77	0xbd6544e4	-0.055973902
78	0x3c0ba37b	0.0085228635
79	0x3c2cc418	0.010544799
80	0x3d1dd569	0.038533602
81	0x3ccb5c7a	0.02482437
82	0xbc00b20b	-0.007854949
83	0x3d21aecb	0.039473336
84	0x3d416c10	0.047222197
85	0x3c0b1e07	0.008491046
86	0x3c8c517e	0.017128702
87	0x3d56b1e7	0.052415755
88	0x3d19ad52	0.037518807
89	0x3be2c459	0.006920379
90	0xbd385fad	-0.04501312
91	0xbbb3b4f6	-0.0054842187
92	0x3c1929c6	0.0093483385
93	0xbafd6a54	-0.0019334056
94	0x3c435dab	0.011924188
95	0x3a9d04ea	0.0011979614
96	0x3c870cab	0.016485533
97	0x3ab45ecd	0.0013761163
98	0x3ca4899f	0.020085154
99	0x3cbfaaa8	0.023396805
100	0x3ce32ab9	0.027730333
101	0xbd4ca2e0	-0.049960017
102	0x3cf73496	0.030176442
103	0x3d082c15	0.033245165
104	0x3d2d645c	0.04233204
105	0xbd6a5924	-0.057213917
106	0x3d15b97c	0.036553845
107	0xbc00fca2	-0.007872732
108	0xbd83a49c	-0.06427881
109	0xbcbbf688	-0.022944704
110	0x3d02b844	0.03191401
111	0x3ca1065d	0.019656355
112	0x3c5c20c2	0.013435544
113	0xbc51bbad	-0.012801093
114	0x3d289351	0.041156117
115	0x3d0f174a	0.03493432
116	0xbd85d86f	-0.06535422
117	0xbb73a028	-0.0037174318
118	0x3cbf470e	0.023349311
119	0xbd0f11c6	-0.03492906
120	0x3d43674b	0.04770593
121	0xbd138084	-0.036011234
122	0xbd951a6f	-0.072804324
123	0xbc96b563	-0.018397039
124	0x3d0491e6	0.032365702
125	0xbc86cd22	-0.016455237
126	0x3d1841ce	0.03717213
127	0x3cad9d0e	0.021193054
128	0xbb0dc026	-0.0021629422
129	0x3ccd8b89	0.02509095
130	0x3d683ef6	0.05670067
131	0xbc16dfdb	-0.009208645
132	0x3caa3fc7	0.020782365
133	0x3da65798	0.08122176
134	0xbc9eb7e0	-0.019374788
135	0x3bd4cb9a	0.0064939978
136	0xbde12c9e	-0.10994838
137	0xbdc3cd4e	-0.09560643
138	0xbdfae0f2	-0.12249936
139	0x3d54b7c1	0.051933054
140	0x3dbca942	0.09211971
141	0x3d863747	0.06553512
142	0xbddfd6b5	-0.10929624
143	0x3cf59b5f	0.029981313
144	0x3c4b9780	0.012426257
145	0x3d8f7723	0.070051454
146	0x3d2fbbca	0.0429037
147	0xbb5b6105	-0.0033474576
148	0xbdceefee	-0.10104357
149	0xbe39d423	-0.1814733
150	0xbcef0194	-0.029175557
151	0x3d27cf34	0.04096909
152	0x3d34c78e	0.044135623
153	0xbe18ecbd	-0.14934058
154	0xbe15c5dc	-0.14626259
155	0xbbc450d2	-0.00599108
156	0x3ded4834	0.11586037
157	0xbd7bee9e	-0.06150686
158	0xbbfada7b	-0.0076554394
159	0xbc156d5a	-0.00912031
160	0xbdd089d1	-0.101825364
161	0xbd93ba6a	-0.0721329
162	0x3dce54cc	0.100747675
163	0x3db465d7	0.08808487
164	0xbbb3feb6	-0.0054930104
165	0x3ddf3d3e	0.10900353
166	0x3e27d590	0.16390061
167	0x3b11a223	0.0022221885
168	0x3d71603b	0.058929663
169	0xbe2b7e0a	-0.16747299
170	0x3c80a891	0.015705379
171	0x3ce5efe4	0.02806849
172	0x3d10985c	0.03530155
173	0x3d5d0760	0.05396211
174	0x3ddbd0d2	0.10733189
175	0xbd766cac	-0.06016223
176	0xbd7819a0	-0.060571313
177	0xbd85daef	-0.06535899
178	0x3c19bf23	0.009383949
179	0xbb38fb2c	-0.0028225882
180	0x3cb38f21	0.021918835
181	0x3d480012	0.048828192
182	0xbe1a425c	-0.15064377
183	0xbacd474a	-0.0015661505
184	0x3d9e6922	0.07734896
185	0xbd1dff99	-0.038573835
186	0x3bd399a0	0.0064575225
187	0x3e0123b2	0.12611273
188	0xbda38b3f	-0.079855435
189	0xbe05b606	-0.13057718
190	0x3dfa0de2	0.12209679
191	0xbd9009eb	-0.07033142
192	0x3d064ad4	0.032786205
193	0x3d001b70	0.031276166
194	0xba917d3c	-0.0011099945
195	0x3cf0ff8c	0.02941873
196	0xbc19a43c	-0.009377535
197	0xbd440b0a	-0.04786209
198	0x3c815d09	0.015791433
199	0xbd1c19b5	-0.038110454
200	0x3be108fb	0.0068675256
201	0xbc958a74	-0.018254496
202	0xbbf8d8e6	-0.0075942157
203	0xbd3249d4	-0.04352744
204	0xbe37d88d	-0.17953701
205	0x3d19765f	0.037466403
206	0x3d129dd5	0.03579505
207	0xbcd38d7f	-0.025824307
208	0xbe1e3f4c	-0.15453833
209	0xbe15b865	-0.14621122
210	0xbe23a026	-0.1597906
211	0x3cab9b56	0.020948093
212	0xbbebd6c8	-0.007197235
213	0x3d70ed23	0.0588199
214	0xbe0b060d	-0.13576527
215	0x3dc69e1c	0.09698126
216	0x3da761e9	0.08172972
217	0xbe0398c3	-0.12851243
218	0xbd894c41	-0.067039974
219	0x3d38fa9e	0.045160882
220	0x3df4bf0f	0.11950504
221	0xbe0559c7	-0.13022529
222	0x3d3a1ebf	0.045439478
223	0xbd69ed53	-0.057111096
224	0x3dfca54c	0.123362154
225	0x3e232bbf	0.15934657
226	0xbd630b41	-0.055430654
227	0xbde23a8c	-0.11046323
228	0x3d851e23	0.06499889
229	0x3d4e2673	0.050329637
230	0x3db0d6bb	0.086347066
231	0x3ddfb480	0.109230995
232	0x3d147747	0.036246564
233	0x3cd74a14	0.02628044
234	0xbd837ce0	-0.064203024
235	0xbd63177a	-0.05544231
236	0xbd0442e3	-0.03229035
237	0x3d4572a3	0.04820503
238	0xbd013a21	-0.031549577
239	0xbc5bb704	-0.013410334
240	0x3d6f12a8	0.0583674
241	0xbd20041f	-0.03906643
242	0x3d0f6564	0.035008803
243	0xbc4b7479	-0.012417906
244	0x3c7e4bde	0.015521018
245	0xbc978b21	-0.018498959
246	0x3ca6c57c	0.02035784
247	0x3d922dd2	0.07137646
248	0xbc4896f9	-0.012243026
249	0x3d04295c	0.032266006
250	0x3cdb741f	0.02678877
251	0xbdaa46d6	-0.08314292
252	0xbdc62c48	-0.09676415
253	0xbd08c3cc	-0.03338985
254	0xbe0197cd	-0.12655564
255	0x3d8e1c3d	0.0693898

action_model._discrete_distribution.branches.0.bias f4 [3]
0	0xbd558fc1	-0.052139048
1	0x3ca80018	0.020507857
2	0x3cf77e49	0.030211585

exp_avg f4 [128, 24]
0	0x3b1acd86	0.0023621037
1	0x3a83dbcf	0.0010060015
2	0xbc2a752b	-0.010403912
3	0xbb1b2dae	-0.002367835
4	0x3abd4c32	0.0014442264
5	0xbc0f204a	-0.008735726
6	0x3a9c5880	0.001192823
7	0x35a836f4	1.2532969e-06
8	0x3b883829	0.0041570854
9	0x3a96724a	0.0011478153
10	0x3a83dbcf	0.0010060015
11	0xbb944d3e	-0.0045258095
12	0x3b1b038e	0.0023653242
13	0x391d6f75	0.00015014208
14	0xbc2b47e5	-0.010454153
15	0xbb135ecb	-0.002248692
16	0x3a807c1d	0.0009802614
17	0xbc049f54	-0.008094627
18	0x3aa3ec60	0.0012506358
19	0xb48ce7a3	-2.624557e-07
20	0x3b868725	0.004105466
21	0x3a934dc8	0.001123839
22	0x391d6f75	0.00015014208
23	0xbb961d17	-0.0045811045
24	0xbc1a1ae2	-0.009405823
25	0xbaa777f2	-0.0012776835
26	0xbb82af9c	-0.0039882194
27	0xbba8a290	-0.005146332
28	0xbacfd62b	-0.0015856674
29	0xbb9f99eb	-0.0048706434
30	0xbbcb5d56	-0.006206195
31	0xb6121ca6	-2.177237e-06
32	0x3b138d18	0.0022514518
33	0x3b83954d	0.004015601
34	0xbaa777f2	-0.0012776835
35	0xbb7fb7e9	-0.003901953
36	0xbc19e268	-0.009392358
37	0xb93028d1	-0.00016799873
38	0xbb7eac46	-0.0038860007
39	0xbbbe3e4c	-0.005805766
40	0xba8195aa	-0.0009886522
41	0xbb94338e	-0.0045227474
42	0xbbcff105	-0.0063458704
43	0xb5ef8d40	-1.7847997e-06
44	0x3afb803e	0.0019188
45	0x3b84110f	0.004030354
46	0xb93028d1	-0.00016799873
47	0xbb6d1dbc	-0.0036181053
48	0x3b807f1e	0.0039214035
49	0x3a2a67da	0.00065004604
50	0xba9da8b7	-0.001202843
51	0x39532edd	0.00020139986
52	0x3a58cef4	0.00082705845
53	0xba076677	-0.000516511
54	0x3b10bc0f	0.0022084748
55	0x356f302c	8.910454e-07
56	0x398dacd7	0.0002702239
57	0xbb2a6897	-0.0026002282
58	0x3a2a67da	0.00065004604
59	0xb93fff25	-0.00018310228
60	0x3b805fe8	0.003917683
61	0x38a5ede2	7.912122e-05
62	0xba92f8d1	-0.0011213069
63	0x3a04b6a8	0.00050626183
64	0x3a009d9e	0.00049062993
65	0xb9cb73ab	-0.00038805357
66	0x3b21f01a	0.0024709762
67	0x33c2aa35	9.0647895e-08
68	0x399b6e32	0.00029646006
69	0xbb2a952d	-0.0026028857
70	0x38a5ede2	7.912122e-05
71	0xb96d0536	-0.00022604023
72	0xbb9dc1f7	-0.004814382
73	0xba641a31	-0.00087014126
74	0x397fc6df	0.0002439278
75	0xbb22607d	-0.002477675
76	0xba9b45b7	-0.0011846338
77	0xba2c43cb	-0.0006571381
78	0xbbac41c5	-0.005256864
79	0xb58dab98	-1.0555259e-06
80	0x38cb41df	9.692064e-05
81	0x3aa4c0c3	0.0012569655
82	0xba641a31	-0.00087014126
83	0xb863d17b	-5.431611e-05
84	0xbb9e38d9	-0.004828554
85	0xb8f0b17c	-0.00011477151
86	0x3951493b	0.00019959074
87	0xbb48655c	-0.0030577993
88	0xba34140f	-0.0006869444
89	0xba3b94b0	-0.000715564
90	0xbbaa5584	-0.0051981825
91	0xb58b4549	-1.0376472e-06
92	0xb8544d43	-5.0616694e-05
93	0x3aa79a05	0.001278699
94	0xb8f0b17c	-0.00011477151
95	0x38e8882b	0.00011087985
96	0xba07ac41	-0.0005175509
97	0xb984a26d	-0.0002529802
98	0x39b7733d	0.0003499034
99	0xba2584b8	-0.0006314027
100	0xb9807f5c	-0.00024508953
101	0x398b02c6	0.00026514212
102	0xba267b90	-0.00063508097
103	0xb4a5f732	-3.0913503e-07
104	0xb8bcbbb9	-8.999505e-05
105	0x3916d1c6	0.00014383261
106	0xb984a26d	-0.0002529802
107	0x3932c6e3	0.00017049494
108	0xba0c49c3	-0.00053515675
109	0xb7210580	-9.597628e-06
110	0x39543a44	0.00020239601
111	0xba44f5df	-0.0007513444
112	0xb8a54180	-7.8800134e-05
113	0x397b5efe	0.00023972613
114	0xba2f51e8	-0.0006687925
115	0xb49df789	-2.9423634e-07
116	0x37a9e90b	2.0254889e-05
117	0x39247401	0.00015683474
118	0xb7210580	-9.597628e-06
119	0x39697b50	0.00022266549
120	0xb9d59d99	-0.00040743945
121	0xba5af24e	-0.0008352146
122	0x3a75ce89	0.00093767844
123	0x3a946bb2	0.00113236
124	0xba745d87	-0.0009321798
125	0x3a84ae32	0.0010122715
126	0xba00f882	-0.0004919843
127	0xb31bfac6	-3.6316827e-08
128	0xba979360	-0.0011564307
129	0xbacc7414	-0.0015598559
130	0xba5af24e	-0.0008352146
131	0x3a68f786	0.00088869815
132	0xb9efd9bb	-0.00045747854
133	0xb7837db1	-1.5674947e-05
134	0x3a8de8c2	0.0010826814
135	0x3a5ff686	0.000854351
136	0xb9aa05b1	-0.00032429167
137	0x3a637633	0.0008676976
138	0xba2f7465	-0.00066930644
139	0xb42921ef	-1.5751696e-07
140	0xbaa0c409	-0.0012265454
141	0xbac7464a	-0.0015203443
142	0xb7837db1	-1.5674947e-05
143	0x3a8da17f	0.0010805576
144	0x3a1553ad	0.00056963676
145	0x3939bd85	0.00017713576
146	0xbad7364e	-0.0016419382
147	0xb9abe3e9	-0.00032785468
148	0x399ea078	0.00030255667
149	0xba86d0dc	-0.0010285634
150	0xbaa616cb	-0.0012671588
151	0x34c57a8b	3.678327e-07
152	0xb906736c	-0.00012822234
153	0x387aeb93	5.982404e-05
154	0x3939bd85	0.00017713576
155	0xba211125	-0.00061442173
156	0x3a156a9f	0.00056997867
157	0x37f4ea78	2.919625e-05
158	0xbadd8c9a	-0.0016902864
159	0xba058ec3	-0.00050948205
160	0x39390ac0	0.0001764698
161	0xba8d40bc	-0.0010776739
162	0xbaa03a1e	-0.0012224352
163	0xb3a5701b	-7.703803e-08
164	0xb98baf3f	-0.00026642715
165	0x38660aed	5.484645e-05
166	0x37f4ea78	2.919625e-05
167	0xba1df7e8	-0.00060260156
168	0x3a9302e7	0.0011216075
169	0x398baf08	0.00026642554
170	0xba4e6267	-0.00078729395
171	0xba556b1d	-0.00081412663
172	0x3981053d	0.000246087
173	0xb9e47c30	-0.00043580076
174	0xba1870a4	-0.00058151246
175	0x33556dfa	4.969295e-08
176	0xb9a4ee38	-0.00031458004
177	0xbaafba36	-0.0013406936
178	0x398baf08	0.00026642554
179	0x3a18cd62	0.0005828944
180	0x3a92e209	0.001120628
181	0x37d77a14	2.5686844e-05
182	0xba48a7fc	-0.0007654426
183	0xba539e7e	-0.00080726284
184	0x391b95f8	0.0001483782
185	0xb9eb473a	-0.0004487576
186	0xba1ca60f	-0.00059756724
187	0xb4aed8ad	-3.2567678e-07
188	0xb9ae4bf9	-0.0003324447
189	0xbab007ce	-0.001343006
190	0x37d77a14	2.5686844e-05
191	0x3a166371	0.0005736864
192	0xbb6b7733	-0.0035929203
193	0xba464ad1	-0.0007564249
194	0x3b728062	0.0037002792
195	0xbad4ec12	-0.0016244671
196	0xba8efbc2	-0.001090877
197	0x3b2ad916	0.0026069335
198	0xbbb3e312	-0.0054897154
199	0xb58478b5	-9.869897e-07
200	0xbae851f8	-0.0017724624
201	0x3a499b02	0.00076906395
202	0xba464ad1	-0.0007564249
203	0x3b17e7b5	0.002317888
204	0xbb64a80b	-0.00348902
205	0xb901f960	-0.00012395298
206	0x3b7b4d6a	0.0038345703
207	0xbb187a7c	-0.0023266366
208	0xba7187ec	-0.00092136743
209	0x3b217546	0.002463655
210	0xbbafb849	-0.0053625447
211	0xb577b21d	-9.227386e-07
212	0xbab7a3e3	-0.0014010634
213	0x3a4527b8	0.0007520872
214	0xb901f960	-0.00012395298
215	0x3b207d43	0.0024488724
216	0x3a697c46	0.0008906763
217	0x3a1fa795	0.00060903403
218	0xbb278de8	-0.002556676
219	0xba972c38	-0.0011533564
220	0x3a3fdcb5	0.00073189597
221	0xbb18ff88	-0.0023345668
222	0x3af962a3	0.0019026588
223	0x33fe1081	1.1830799e-07
224	0x3aee6e4c	0.001819083
225	0x3a9504b9	0.0011369205
226	0x3a1fa795	0.00060903403
227	0xba2ce6da	-0.0006595679
228	0x3a69c580	0.00089176744
229	0x38439a94	4.6635585e-05
230	0xbb32ad80	-0.0027264059
231	0xba720db7	-0.0009233611
232	0x39e68989	0.0004397149
233	0xbb06c432	-0.002056372
234	0x3ad9fa45	0.0016630372
235	0xb482a37a	-2.4333332e-07
236	0x3afeba99	0.0019434273
237	0x3a9307ce	0.0011217536
238	0x38439a94	4.6635585e-05
239	0xba4a7a1a	-0.0007723883
240	0x37c66cf1	2.365417e-05
241	0xb95d9e55	-0.00021135186
242	0xb948eb03	-0.00019161035
243	0x396709df	0.00022033554
244	0xb9851008	-0.0002537968
245	0xb959f9aa	-0.0002078774
246	0xb9a21058	-0.00030911225
247	0x33e3de5a	1.0610957e-07
248	0x385ec6a8	5.3113938e-05
249	0xb9d6116c	-0.0004083024
250	0xb95d9e55	-0.00021135186
251	0x390a2a0f	0.00013176374
252	0x35a639db	1.2384802e-06
253	0x358d6548	1.0534795e-06
254	0xb8e69fee	-0.00010997044
255	0x38d97c80	0.00010370556

exp_avg_sq f4 [128, 24]
0	0x395df4e8	0.00021167437
1	0x381dfff7	3.7670103e-05
2	0x3990c4ce	0.0002761245
3	0x39616a0e	0.0002149718
4	0x38773ca1	5.8945854e-05
5	0x395572f3	0.00020356085
6	0x3995327a	0.00028457103
7	0x2ea0f52f	7.319511e-11
8	0x38bf3c95	9.118874e-05
9	0x3980801e	0.00024509517
10	0x381dfff7	3.7670103e-05
11	0x39639086	0.00021702246
12	0x395766be	0.00020542272
13	0x33adb317	8.0885165e-08
14	0x398d03af	0.0002689636
15	0x397612a7	0.00023467337
16	0x36a15060	4.807531e-06
17	0x3938cfd7	0.00017625034
18	0x398ca25e	0.00026823854
19	0x2e456902	4.488588e-11
20	0x38d21deb	0.00010019153
21	0x397b8070	0.00023985072
22	0x33adb317	8.0885165e-08
23	0x39616a79	0.00021497336
24	0x398a516a	0.0002638207
25	0x36ff1233	7.601711e-06
26	0x39870ba2	0.00025757874
27	0x39ac82a7	0.0003290374
28	0x38119366	3.470797e-05
29	0x39818496	0.00024703582
30	0x39bb6919	0.00035745723
31	0x2eceb01f	9.399081e-11
32	0x38d9e6ef	0.00010390381
33	0x39822d41	0.0002482925
34	0x36ff1233	7.601711e-06
35	0x3979a64a	0.00023808438
36	0x39889476	0.00026050553
37	0x33e3099c	1.0572259e-07
38	0x39819e10	0.00024722563
39	0x39bd8d87	0.00036154335
40	0x36e5f4e1	6.8532395e-06
41	0x395e78a0	0.00021216506
42	0x39b46f38	0.0003441514
43	0x2e976ff0	6.886569e-11
44	0x38e640c7	0.0001097932
45	0x3980b2c9	0.00024547268
46	0x33e3099c	1.0572259e-07
47	0x39718452	0.00023032844
48	0x38b6a41a	8.7090026e-05
49	0x3647621b	2.9710416e-06
50	0x38d42f3e	0.00010117747
51	0x38ce8e6c	9.8493736e-05
52	0x37136e14	8.787512e-06
53	0x38b3c1d5	8.571489e-05
54	0x38f0678b	0.00011463378
55	0x2e014e89	2.9400957e-11
56	0x3829517d	4.036863e-05
57	0x38c42aa9	9.3539544e-05
58	0x3647621b	2.9710416e-06
59	0x38bb0984	8.918627e-05
60	0x38b10d54	8.4425e-05
61	0x33131eeb	3.4254224e-08
62	0x38cef762	9.868924e-05
63	0x38e1982e	0.00010757182
64	0x35f3471d	1.8125608e-06
65	0x389c18ea	7.4433e-05
66	0x38e2d2f0	0.0001081581
67	0x2daa37d2	1.9351552e-11
68	0x383c7948	4.4935645e-05
69	0x38c1548d	9.218706e-05
70	0x33131eeb	3.4254224e-08
71	0x38b46fb9	8.603879e-05
72	0x390d1f66	0.00013458505
73	0x36938c44	4.3972705e-06
74	0x3907e905	0.0001296141
75	0x392882b5	0.0001607042
76	0x373bfd2d	1.1205016e-05
77	0x38ef91c1	0.00011423557
78	0x393eab13	0.00018183542
79	0x2e252ffe	3.7559282e-11
80	0x385aaabc	5.213426e-05
81	0x390b7239	0.00013298624
82	0x36938c44	4.3972705e-06
83	0x39031964	0.00012502592
84	0x39094318	0.00013090333
85	0x3363c107	5.3028113e-08
86	0x3902dd95	0.00012480312
87	0x393a4185	0.0001776275
88	0x3622bce8	2.424984e-06
89	0x38cfaae0	9.902357e-05
90	0x39355cc8	0.00017296069
91	0x2e00727e	2.920552e-11
92	0x38650c39	5.4609238e-05
93	0x39090b5e	0.00013069573
94	0x3363c107	5.3028113e-08
95	0x38fdbd4c	0.000120992394
96	0x361c5702	2.3296457e-06
97	0x356b6def	8.7704296e-07
98	0x366f57c8	3.566487e-06
99	0x362a26df	2.53546e-06
100	0x3695754e	4.454202e-06
101	0x363c35ae	2.8045429e-06
102	0x365138d1	3.1176498e-06
103	0x2c2a8aea	2.4235566e-12
104	0x358dfa38	1.0578142e-06
105	0x3634e38a	2.6954535e-06
106	0x356b6def	8.7704296e-07
107	0x36101b7c	2.147367e-06
108	0x36197274	2.2865397e-06
109	0x3086b280	9.800516e-10
110	0x3674fd91	3.6506428e-06
111	0x3637d026	2.7390283e-06
112	0x359adb13	1.1537653e-06
113	0x3632c092	2.6636158e-06
114	0x36511eb7	3.1161305e-06
115	0x2c1ef032	2.2586486e-12
116	0x358bd9ee	1.0419733e-06
117	0x36315c1a	2.6428665e-06
118	0x3086b280	9.800516e-10
119	0x360f66b8	2.136845e-06
120	0x3738deef	1.101916e-05
121	0x37beb114	2.2732223e-05
122	0x3770e56c	1.4358531e-05
123	0x373c2a11	1.1215468e-05
124	0x37c73219	2.3745977e-05
125	0x37421bee	1.1569804e-05
126	0x376bfce8	1.4065976e-05
127	0x2cad9373	4.933326e-12
128	0x36b9a396	5.5324736e-06
129	0x37423325	1.1575209e-05
130	0x37beb114	2.2732223e-05
131	0x373c3255	1.1217392e-05
132	0x373f3dae	1.1398848e-05
133	0x319b706a	4.5238737e-09
134	0x378289fa	1.5561458e-05
135	0x375eb91d	1.3275331e-05
136	0x36a9acd8	5.056714e-06
137	0x3741dd24	1.1555185e-05
138	0x37647eaf	1.3619355e-05
139	0x2c898379	3.9083706e-12
140	0x36fe057c	7.5704284e-06
141	0x3741f991	1.1561803e-05
142	0x319b706a	4.5238737e-09
143	0x3744b349	1.1724253e-05
144	0x382ec52a	4.1668456e-05
145	0x364a929a	3.018568e-06
146	0x384e121c	4.9131093e-05
147	0x38345d94	4.3002496e-05
148	0x36a7f2ca	5.005252e-06
149	0x38218d49	3.8516973e-05
150	0x3876b8cf	5.8823087e-05
151	0x2d619796	1.2823428e-11
152	0x37940172	1.7643648e-05
153	0x385d63d1	5.2783467e-05
154	0x364a929a	3.018568e-06
155	0x383b3627	4.4634708e-05
156	0x38277689	3.9926297e-05
157	0x328ad09f	1.6160184e-08
158	0x384ac499	4.834365e-05
159	0x3840e68d	4.5991084e-05
160	0x3544d316	7.332286e-07
161	0x38109292	3.446878e-05
162	0x386c57d4	5.634858e-05
163	0x2d05f889	7.615361e-12
164	0x379b1dd9	1.8491339e-05
165	0x385861b8	5.158942e-05
166	0x328ad09f	1.6160184e-08
167	0x38377bd4	4.3745924e-05
168	0x37fe1dcc	3.0293035e-05
169	0x37ea9872	2.7965962e-05
170	0x3822e233	3.8834474e-05
171	0x381a49e1	3.6785266e-05
172	0x38115a45	3.4654764e-05
173	0x3810b96e	3.450497e-05
174	0x382627a8	3.9614417e-05
175	0x2d8519a5	1.5131738e-11
176	0x37a45fed	1.9594992e-05
177	0x37f4b21d	2.9170007e-05
178	0x37ea9872	2.7965962e-05
179	0x3801573e	3.0837247e-05
180	0x37fb2320	2.9937888e-05
181	0x325966c3	1.2654428e-08
182	0x38280ce9	4.0066345e-05
183	0x382ec51b	4.16684e-05
184	0x36093ade	2.0448856e-06
185	0x3806939b	3.2085558e-05
186	0x382032c1	3.819424e-05
187	0x2d359202	1.0321079e-11
188	0x37c1d44e	2.3106255e-05
189	0x37f0cd84	2.870593e-05
190	0x325966c3	1.2654428e-08
191	0x380145d1	3.082102e-05
192	0x38cde782	9.8182834e-05
193	0x391c4c87	0.00014905828
194	0x38e0ac59	0.000107132546
195	0x38efce72	0.000114348615
196	0x392b7857	0.00016352661
197	0x38abd004	8.192661e-05
198	0x390f98d8	0.00013694481
199	0x2df76fb7	2.813026e-11
200	0x380b744c	3.3248492e-05
201	0x38c2c653	9.2875816e-05
202	0x391c4c87	0.00014905828
203	0x38b17c3a	8.463157e-05
204	0x38d30bc0	0.00010063453
205	0x332c18c8	4.006941e-08
206	0x38eb0f33	0.00011208504
207	0x390c19d8	0.00013361068
208	0x375628ac	1.2764864e-05
209	0x38a591f0	7.894996e-05
210	0x390dbb0c	0.00013516488
211	0x2e0b4488	3.166581e-11
212	0x382af569	4.0759714e-05
213	0x38c08714	9.180434e-05
214	0x332c18c8	4.006941e-08
215	0x38bd55b6	9.028187e-05
216	0x373997da	1.1062215e-05
217	0x36dfc88f	6.669266e-06
218	0x372c301f	1.0263203e-05
219	0x37462248	1.1809701e-05
220	0x37018cf6	7.721819e-06
221	0x3717325c	9.012027e-06
222	0x37653776	1.3662377e-05
223	0x2c854048	3.787224e-12
224	0x36cad1dc	6.0445e-06
225	0x37323780	1.0622549e-05
226	0x36dfc88f	6.669266e-06
227	0x373ec0ed	1.13698015e-05
228	0x37384378	1.0982963e-05
229	0x31905da9	4.2015995e-09
230	0x372e8cfb	1.0404033e-05
231	0x375774f4	1.2842229e-05
232	0x363d838a	2.823976e-06
233	0x37109732	8.618272e-06
234	0x375bc5aa	1.30994395e-05
235	0x2c5f7d22	3.1759669e-12
236	0x36dbecec	6.55429e-06
237	0x3731febf	1.0609335e-05
238	0x31905da9	4.2015995e-09
239	0x373e5a3f	1.1345895e-05
240	0x366a9ecc	3.496115e-06
241	0x36d3f7c7	6.317135e-06
242	0x36acdcb5	5.151693e-06
243	0x36927f1a	4.3659356e-06
244	0x36e7c976	6.9077896e-06
245	0x369e9810	4.7264693e-06
246	0x36823bc2	3.8812586e-06
247	0x2c046f40	1.8820084e-12
248	0x36658602	3.4201662e-06
249	0x3639ddc0	2.7696224e-06
250	0x36d3f7c7	6.317135e-06
251	0x3653f78f	3.1585548e-06
252	0x366cf1ca	3.530748e-06
253	0x30c35617	1.4212586e-09
254	0x36bc2bac	5.6079207e-06
255	0x36a1cbe4	4.82191e-06

exp_avg f4 [128]
0	0x3bf031e3	0.0073301657
1	0xbc06617e	-0.008201955
2	0x3b7d2757	0.0038628185
3	0xbbb79c10	-0.005603321
4	0xb9f5aa82	-0.0004685708
5	0xba489cb9	-0.0007652748
6	0x3abad4ac	0.0014254055
7	0x3aa45fa4	0.001254071
8	0xbbc64c47	-0.0060515734
9	0x3b1536b6	0.0022768206
10	0x3857b93f	5.143252e-05
11	0x3bd42582	0.006474198
12	0x3b861f24	0.0040930677
13	0xbc0b3089	-0.008495458
14	0x3b22a5da	0.0024818094
15	0x3aa05ded	0.0012235023
16	0x3b2e237c	0.0026571443
17	0x3b05aa85	0.0020395827
18	0xbacef592	-0.0015789738
19	0xbc0835e4	-0.00831363
20	0xbaffb951	-0.0019510185
21	0x3b513dc0	0.0031927675
22	0x3ae6ddb7	0.0017613684
23	0x381c7060	3.7297956e-05
24	0x3a1bc886	0.0005942661
25	0xbc0ccfb6	-0.008594444
26	0xbb018212	-0.0019761366
27	0x3b246d93	0.0025089725
28	0xbbb09aac	-0.005389532
29	0x3ade757b	0.0016972268
30	0x3c175b22	0.009238036
31	0xb9b5cb75	-0.00034674598
32	0x3ba66d6f	0.0050789635
33	0x3be961e5	0.0071222656
34	0x38526551	5.016226e-05
35	0xb99296ea	-0.0002795973
36	0x3b024b7c	0.0019881418
37	0xbba7d259	-0.005121511
38	0x3b9d765d	0.00480537
39	0x3b2f6d7b	0.0026768136
40	0x39981281	0.00029005486
41	0x3c2ab78a	0.010419736
42	0x38a2a962	7.756312e-05
43	0xba694d3b	-0.0008899753
44	0x395a0753	0.00020792829
45	0x3bb53f4d	0.0055312277
46	0x3b653c42	0.0034978543
47	0x3b38074a	0.0028080516
48	0x3b05da21	0.0020424204
49	0x3b2adb5b	0.0026070687
50	0xba513823	-0.00079810823
51	0xbb0c5894	-0.0021415101
52	0xbabdb219	-0.0014472633
53	0x3b1470b6	0.0022650189
54	0xbb352bfc	-0.0027644625
55	0x3b8ae1a2	0.0042383233
56	0x39d26c31	0.0004013493
57	0xbbd985a4	-0.0066382457
58	0x3c2e3eb7	0.01063507
59	0xbc0bd5f4	-0.008534897
60	0xbb30b30f	-0.0026962196
61	0x39f60a09	0.00046928253
62	0xbb463da2	-0.0030249138
63	0xbb282e05	-0.0025662195
64	0xbb98c5b2	-0.004662239
65	0x3b417f01	0.0029525163
66	0xb9833a22	-0.0002502958
67	0x3b8ac0af	0.0042343955
68	0x3b12b1a7	0.002238372
69	0xbbab72f0	-0.0052322075
70	0xbbbbe23d	-0.005733757
71	0xba11fdfe	-0.0005569159
72	0xbad1c67e	-0.001600459
73	0x3b4b2c42	0.0031001722
74	0xbc1fce4d	-0.009753776
75	0x3b9c26ad	0.0047653527
76	0xba884713	-0.0010397158
77	0xbb76e434	-0.003767264
78	0xbb4a9680	-0.003091246
79	0xbad92f0a	-0.0016569805
80	0x3b751939	0.0037399067
81	0x3ae9559a	0.0017802
82	0x3b0d0a9c	0.0021521216
83	0x3a8fd0cb	0.0010972259
84	0x3be1d62b	0.006891986
85	0xbaba47fe	-0.0014212129
86	0x3c1a8499	0.009431028
87	0x3ab884f0	0.0014077704
88	0x3be04fd0	0.006845452
89	0xba91bea9	-0.0011119443
90	0x3b9c317d	0.0047666417
91	0x315fc349	3.2561778e-09
92	0xbbc84cd0	-0.0061126724
93	0xbb6794ad	-0.003533642
94	0xbb346994	-0.002752875
95	0x3aef46f8	0.0018255403
96	0xbba01f72	-0.004886561
97	0xbb8ef685	-0.0043628835
98	0xbb301765	-0.0026869413
99	0xbab90c24	-0.0014117998
100	0xbb23ca0b	-0.0024992253
101	0x3b2152b0	0.0024615936
102	0x3afe9d3a	0.0019425519
103	0xbad6a24b	-0.0016375271
104	0x3bdbf947	0.006713066
105	0xbb4a1975	-0.0030837927
106	0x3c164fec	0.009174328
107	0xba129051	-0.0005590963
108	0xba3ab412	-0.00071221695
109	0x3b00e7eb	0.0019669484
110	0xbc250177	-0.01007115
111	0x3b60348a	0.0034211003
112	0x3a06f8e3	0.00051487813
113	0xbae8840d	-0.001773955
114	0xba8716f7	-0.0010306527
115	0x3b9ba690	0.0047500804
116	0xbc2df6dc	-0.010617938
117	0xbb1c44a3	-0.0023844622
118	0x3b8fd5c8	0.0043894984
119	0x3ae6f8af	0.0017621721
120	0xbc024586	-0.007951146
121	0x36ec9877	7.0510973e-06
122	0xbb441955	-0.0029922326
123	0xba95a4e4	-0.0011416939
124	0xbb13b452	-0.00225379
125	0x3b35feee	0.0027770358
126	0xbbde4429	-0.0067830277
127	0xba971ecf	-0.0011529567
