Assets/Trining/results/Normal/PingPongAgent/PingPongAgent-499978.pt (torch, 498871 bytes, 41 tensors)

network_body.observation_encoder.processors.0.normalizer.running_mean f4 [24]
00000000: 7821 0a3f bfea 3a40 3dcc 3240 f806 7dc0
00000010: 388d b83f 7bb9 d23f f0f4 f3be 9eaf 07b4
00000020: ec19 213e fccb adbf bfea 3a40 7129 503f
00000030: 91c0 bc3b a8fe 3f40 7329 3840 c2dc 81c0
00000040: c299 bd3f 6339 d73f a4af 0abf 181f 09b4
00000050: 9910 fd3d 5c6e 57bf a8fe 3f40 0e47 c43f
0.5395732 2.9205778 2.7937157 -3.9535503 1.4418097 1.6462854 -0.4764781 -1.2636744e-07
0.15732545 -1.3577876 2.9205778 0.81313235 0.0057602604 2.999918 2.8775299 -4.058198
1.4812548 1.6814388 -0.54174256 -1.2770431e-07 0.123566814 -0.8415277 2.999918 1.5334184

network_body.observation_encoder.processors.0.normalizer.running_variance f4 [24]
00000000: cbf7 6a4e cf89 e247 c705 424c 9233 954d
00000010: d0e8 1347 8634 a24c fc09 de4d 0000 803f
00000020: ee3d 9d4d 77f5 8a4f cf89 e247 d19a 884e
00000030: b463 714e fcfe 1f41 4561 464c d1ae 9e4d
00000040: 1a38 1846 ffce a54c adfc e44d 0000 803f
00000050: 0e91 a04d 9f5c 8d4f fcfe 1f41 ab00 8d4e
9.85527e+08 115987.62 5.0861852e+07 3.128981e+08 37864.812 8.504222e+07 4.6564954e+08 1.0
3.297602e+08 4.662685e+09 115987.62 1.1459237e+09 1.0124608e+09 9.999752 5.2004116e+07 3.327821e+08
9742.025 8.693145e+07 4.8022058e+08 1.0 3.367326e+08 4.743315e+09 9.999752 1.1828156e+09

network_body.processors.0.normalizer.running_mean f4 [24]
00000000: 7821 0a3f bfea 3a40 3dcc 3240 f806 7dc0
00000010: 388d b83f 7bb9 d23f f0f4 f3be 9eaf 07b4
00000020: ec19 213e fccb adbf bfea 3a40 7129 503f
00000030: 91c0 bc3b a8fe 3f40 7329 3840 c2dc 81c0
00000040: c299 bd3f 6339 d73f a4af 0abf 181f 09b4
00000050: 9910 fd3d 5c6e 57bf a8fe 3f40 0e47 c43f
0.5395732 2.9205778 2.7937157 -3.9535503 1.4418097 1.6462854 -0.4764781 -1.2636744e-07
0.15732545 -1.3577876 2.9205778 0.81313235 0.0057602604 2.999918 2.8775299 -4.058198
1.4812548 1.6814388 -0.54174256 -1.2770431e-07 0.123566814 -0.8415277 2.999918 1.5334184

network_body.processors.0.normalizer.running_variance f4 [24]
00000000: cbf7 6a4e cf89 e247 c705 424c 9233 954d
00000010: d0e8 1347 8634 a24c fc09 de4d 0000 803f
00000020: ee3d 9d4d 77f5 8a4f cf89 e247 d19a 884e
00000030: b463 714e fcfe 1f41 4561 464c d1ae 9e4d
00000040: 1a38 1846 ffce a54c adfc e44d 0000 803f
00000050: 0e91 a04d 9f5c 8d4f fcfe 1f41 ab00 8d4e
9.85527e+08 115987.62 5.0861852e+07 3.128981e+08 37864.812 8.504222e+07 4.6564954e+08 1.0
3.297602e+08 4.662685e+09 115987.62 1.1459237e+09 1.0124608e+09 9.999752 5.2004116e+07 3.327821e+08
9742.025 8.693145e+07 4.8022058e+08 1.0 3.367326e+08 4.743315e+09 9.999752 1.1828156e+09

network_body._body_endoder.seq_layers.0.weight f4 [128, 24]
00000000: a319 1abe 4e92 8cbc de2d 1ebe ae61 38be
00000010: bea4 b3be ad50 1cbf d533 eabe b63a 753d
00000020: 2305 e3bd 9d4e 533d 39b5 c63e 1c1a a9be
00000030: 01ee 2f3e 0bc1 b8bd b6b5 923e db1f 903e
00000040: 183d 1f3e 0b4f 47be 5982 8abd be22 35bd
00000050: b0d9 a5bd d60a a23e 8c32 03be 6d45 353e
00000060: ed8d 103e c554 c53e fdbc 84bc 5227 8a3e
00000070: c126 5cbe 0691 103f 967c 70be 8174 1f3e
00000080: ffa7 5cbd 96e4 7fbd 2443 f53b 9add 273e
00000090: 05d3 be3c 28e8 00bc 25b7 40be 00e9 853d
000000a0: 7074 043e 1b23 be3e 077c 16be 3ae4 9fbd
000000b0: 0acb 44be 1508 26be 3295 9ebc 9734 2abe
000000c0: ee54 28be 87a4 8c3d 0035 d9bd 5407 523e
000000d0: f52b fa3d a152 9fbe 5e32 1a3c caf5 0a3e
000000e0: d25c 70be e45a 923c a2b5 d73e 14d0 263e
000000f0: 3e52 6fbe c9b3 a4bd 1e2c d83e 4c23 29be
00000100: a9bb c9be 1274 08bd a6d3 d5bd 6f66 fabc
00000110: 4201 ca3d 2e48 a4be 47ee 4a3e 9d11 4b3e
00000120: 6380 90be 172f 323e d66a 4a3c d9ed a8bd
00000130: e856 b8bd 5681 573e b04c 08bd 6ea1 503e
00000140: f81a d0bd 9e22 073e 30f5 8e3e b588 883c
00000150: c9c8 b9bd 6d00 cebb 2908 00be 379e 763e
00000160: b61e 2a3e 7c77 c63e 28cc 0f3e 4d01 e83d
00000170: a4c5 053e 9d3f 67bb 1aa5 36bd 2830 423d
00000180: 1b50 6b3e 2f32 e83d a40b 773d ef7b 46be
00000190: a95e afbe 7079 263c 850d aa3b f418 b6be
000001a0: e6d8 78be d245 6b3e ef47 993e a682 bdbe
000001b0: d395 bfbd 9008 633e 8d86 68be a962 33bd
000001c0: 2ef8 91be 9d78 0c3d 896e 523c ec02 e33e
000001d0: 2047 6f3e 4c90 1c3e 3667 503d 2fe6 1e3e
000001e0: 61a7 02be d9da 84be 087e 87bd bdd2 3fbe
000001f0: 6176 a7bd 71e7 943b f610 e3be e3b1 6dbd
00000200: e2ef 1a3e a7a7 e83c b64f 5d3d 3301 0c3e
00000210: f54c 92be cf85 713e 7dda aa3c b66b 8ebe
00000220: 77c1 ba3d 6c6e 61be 2dbd 02bf e737 15be
00000230: 428e d83d 41f0 0cbe 934d 85be 5360 293e
00000240: 0927 a4be 25a4 8b3d d97a 60bc 2267 45be
00000250: da90 513e a4c8 57be 29ec a9be 4177 a5bb
00000260: cffb 29bc 8488 b53e ffca 9fbd 1cd3 bb3e
00000270: 220f 78be ee7d 743d fc57 f73d 72f6 ab3e
00000280: 7dc4 0ebc 1802 3fbe e768 84be 5dc3 a4be
00000290: 8552 b6be baff f03c 5d07 a5be 5e4e d4bd
000002a0: c8bc 83be 1a71 823e 4107 56bd 8c84 13bf
000002b0: b14d 07be 2f92 2a3e 53f2 a6be eecd 89be
000002c0: c57a 14be 0401 00bf 6506 43be 49a0 7e3e
000002d0: 7a6b 93bd d5bf a7bc f090 b93e d4f7 68be
000002e0: 3b67 94bd c9e6 e6be 98f4 99be 3ac7 013e
000002f0: e23b 55bd ee5e 7cbc 45a3 703e c6bb 35bd
00000300: ac05 26bd 9ed5 92be 4474 94bd 0f71 1a3d
00000310: 96d3 07be c210 363e 0372 3fbc 3f45 d5bc
00000320: 38f2 22bc 8c5e 9d3b a0e8 89bd 8cea 74be
00000330: 5a54 e5bd 9083 3e3d 8802 b2be 7d09 ddbc
00000340: 8248 b8be ac6e bd3e effb 953e 1fe9 b03c
00000350: 84d7 2e3e 9f99 8a3e 0938 9abe 6aa3 8b3d
00000360: cb15 153d f42b d5be 0152 c73d 3431 fdbe
00000370: d690 67be beac 0fbe 0c0f a43d 1415 5f3e
00000380: e507 9c3e 0416 fcbd c4a7 be3d cf55 eb3b
00000390: 1b35 aabd 4c6d b3be 6868 a53e 3074 883d
000003a0: 0acc 833d 185b 9b3e 6954 4dbd 6eba 073e
000003b0: 8ba0 1e3f 4e29 e33d 4cfe 143e 47c0 05bf
000003c0: 2268 c5be 8432 bfbe ae38 a13e 3d81 d6be
000003d0: 6971 77bd 5ab3 063e 774c b1bc 0368 c93c
000003e0: 2677 acbe 99f7 afbe 3414 83bd 02e9 873e
000003f0: 285a 15be c543 3f3d 41e7 fabd f424 75be
-0.15048842 -0.017159607 -0.15447184 -0.18006012 -0.35086626 -0.610606 -0.4574267 0.059870444
-0.11084964 0.051588643 0.38810137 -0.33027732 0.17180635 -0.09021195 0.2865426 0.28149304
0.15550649 -0.19463746 -0.06763143 -0.044222586 -0.08098161 0.31648892 -0.12812251 0.17702265
0.1411664 0.38541237 -0.016203398 0.26983124 -0.21499158 0.5647129 -0.23485026 0.15571786
-0.05387115 -0.062473856 0.0074848104 0.16393128 0.023293981 -0.00786785 -0.18819864 0.06538582
0.12935042 0.37136158 -0.1469575 -0.07807203 -0.19218078 -0.1621402 -0.019358251 -0.16621624
-0.16438648 0.068673186 -0.10605812 0.20510608 0.122154154 -0.31117728 0.009411423 0.13570324
-0.23472908 0.017865606 0.42130762 0.16290313 -0.23371217 -0.08042104 0.4222116 -0.16517371
-0.39400986 -0.03331382 -0.10440759 -0.030566422 0.09863521 -0.3208632 0.19817458 0.19830938
-0.2822295 0.17400776 0.012354573 -0.08248491 -0.09000951 0.21045431 -0.03327626 0.2037408
-0.10161394 0.13196799 0.27921438 0.01666675 -0.090715 -0.006286672 -0.12503113 0.24083792
0.16613278 0.38763034 0.14042723 0.11328373 0.13063675 -0.003528572 -0.044591047 0.047409207
0.22979777 0.11337697 0.060313836 -0.19383214 -0.34251907 0.010160789 0.0051896 -0.35565913
-0.2430149 0.22975853 0.29937693 -0.3701374 -0.093547486 0.22171235 -0.22707577 -0.04379526
-0.2850966 0.034294713 0.012843736 0.44338167 0.23366976 0.1528942 0.05087968 0.15517496
-0.12759162 -0.25948218 -0.066158354 -0.18732734 -0.08176876 0.0045441915 -0.44348878 -0.058030974
0.1513057 0.028400255 0.054031096 0.13672332 -0.2857434 0.235862 0.020856136 -0.27816552
0.09118932 -0.22014779 -0.5106991 -0.14572106 0.105740085 -0.13763525 -0.26035747 0.16540651
-0.3206103 0.068184175 -0.013701164 -0.19277623 0.20465413 -0.21072632 -0.33187988 -0.0050496166
-0.010374977 0.35455716 -0.0780239 0.366845 -0.24224523 0.05969041 0.120773286 0.3358646
-0.008713839 -0.18653142 -0.25861284 -0.321803 -0.35609832 0.029418815 -0.3223218 -0.1036651
-0.25729966 0.25476915 -0.05225301 -0.57624125 -0.1321323 0.16657327 -0.32606754 -0.26914924
-0.14499958 -0.5000155 -0.19045408 0.24865831 -0.07198234 -0.020477215 0.3624339 -0.22750789
-0.07246252 -0.4509795 -0.30069423 0.12673655 -0.05205906 -0.015403492 0.23499782 -0.044368528
-0.040532753 -0.28678602 -0.072487384 0.037705477 -0.13264307 0.1777983 -0.011684897 -0.026033996
-0.009945445 0.0048025306 -0.06733823 -0.23917598 -0.111977294 0.046512187 -0.34767556 -0.026982063
-0.3599282 0.36998498 0.29293773 0.021595536 0.170744 0.2707033 -0.30120876 0.06818278
0.036397737 -0.41635096 0.09732438 -0.49451602 -0.22613844 -0.1403074 0.080106825 0.21785384
0.30474773 -0.12308887 0.093093425 0.00718186 -0.0831091 -0.35044324 0.32306218 0.06662786
0.06435402 0.30342937 -0.050129328 0.13254711 0.6196372 0.110918626 0.14550132 -0.52246517
-0.3855601 -0.37343228 0.31488556 -0.41895476 -0.06041089 0.13154355 -0.021642907 0.02458573
-0.33684653 -0.3436859 -0.06400338 0.26544958 -0.14585173 0.04669549 -0.122511394 -0.23939878

network_body._body_endoder.seq_layers.0.bias f4 [128]
00000000: b9e6 513d c917 0b3b 667d 77bc e14d e3bb
00000010: a4d6 d6bc 4df1 d53c d902 3c3d 830f d43c
00000020: 4679 a83b 277f 09bd cf79 163d b482 81bc
00000030: b547 003d dd46 e1bc bfaa f2bc 745e 903c
00000040: 3b2c 413c f95e a6bd 69bc 1a3d aed5 a03c
00000050: 584a 8f39 0501 95bd 1095 563c cbe8 a1bc
00000060: b7c8 f0bd dd9e 9cbc d8a8 71bc 6b40 b73c
00000070: e6e2 383c 5a96 c63c b56e 543d e391 cabd
00000080: e972 a2bc 56bf 8d3d a439 0abd de48 753c
00000090: 2407 113d 7c2b 103b c8d7 4a3d c8e0 37bd
000000a0: abdb 50bd 00f0 033d 7755 8a3c 2e86 94bd
000000b0: 873f ff3c 311d c6bc a1bb d43c d0ae 9cbc
000000c0: 576f 0ebd 6604 1e3c 205b 17bd f083 14bd
000000d0: bb1d bf39 8217 c73c 81f9 01bd fa5f bebc
000000e0: bc56 31bc 3127 b53c e674 d43d 1ca9 9b3c
000000f0: 1438 1bbd 957d c7bd 4848 dbbc b1b9 013d
00000100: 6ef2 3f3c f927 ccbb 6e19 c0bd 0758 80bb
00000110: 79d9 60bd 4ae0 d93c 1999 f13c 897d d4bc
00000120: 9a45 7abc eb25 13bd 87e2 703d 68a9 263d
00000130: 0ea3 083c 7b32 2dbd 0af6 e5bc 7e26 c33d
00000140: 849b 3c3c 4b3d 263d 684f 0cbd 41e7 1bbd
00000150: 2f90 5b3d b314 83bd 42c9 d33c 72ad 703d
00000160: eedf 9d3d d6e0 b03c e5de 663d 4d7e 78bd
00000170: c804 bf3c efcb b83c 1fbd 35bc 9fa5 143c
00000180: 3b91 753c 9741 043d 43ec 97bd 8830 03bb
00000190: 8810 153d 6f22 19bc dbeb 29bd 5dd7 86bd
000001a0: 48f9 3b3c 9600 233d 772c a03d 3026 e5bc
000001b0: 2dab e63c 9ed5 043d ac77 9a3c 8955 743d
000001c0: a292 50bd cfb1 143b f175 91bd 146f d7bc
000001d0: 175d 0a3d a761 d73b ddfe 983d 5309 80bc
000001e0: 0b96 123c c52e 03bd 002a b1bc 6d7a 1cbd
000001f0: bc3a a8bc c725 0d3c d3ee 303c bb41 f2bc
0.051245425 0.0021223894 -0.015105581 -0.006936774 -0.026225396 0.026116038 0.045901153 0.025886303
0.00514141 -0.033568528 0.03673726 -0.015809394 0.031318385 -0.02749961 -0.029622434 0.017623164
0.0117903305 -0.08123583 0.03777734 0.01963314 0.00027330476 -0.07275585 0.013097063 -0.019764325
-0.11757033 -0.01911872 -0.014749728 0.022369584 0.011284566 0.024241615 0.05186339 -0.09891107
-0.019830184 0.0692126 -0.033746377 0.014970986 0.0354072 0.0021998575 0.04952219 -0.044892102
-0.05099074 0.032211304 0.016886456 -0.07252155 0.031158222 -0.024183841 0.025968375 -0.019126326
-0.03477415 0.009644603 -0.036952138 -0.036258638 0.0003645251 0.024303202 -0.031732086 -0.023239125
-0.010823902 0.022113414 0.10373859 0.019001536 -0.037895277 -0.0974075 -0.026767865 0.03167123
0.011715515 -0.006230351 -0.0937985 -0.0039167437 -0.054894898 0.026596207 0.029491948 -0.025938766
-0.015275383 -0.035924833 0.058809783 0.040688902 0.0083396565 -0.04228447 -0.028071422 0.09528826
0.011511687 0.040585797 -0.034255415 -0.038062338 0.0536043 -0.064004324 0.025852803 0.05875916
0.07708727 0.021591585 0.056364913 -0.060667325 0.02331771 0.02255818 -0.011092453 0.00907269
0.014988239 0.032289114 -0.0741811 -0.002001794 0.03639272 -0.0093465885 -0.041484695 -0.06584046
0.0114730075 0.03979548 0.07820981 -0.02797231 0.028157795 0.032430284 0.018855892 0.059651885
-0.05092109 0.002268899 -0.07102574 -0.026298083 0.033780184 0.0065729204 0.07470486 -0.015629446
0.008946906 -0.032027025 -0.021626472 -0.03820269 -0.02053582 0.008614964 0.010799128 -0.029572358

network_body._body_endoder.seq_layers.2.weight f4 [128, 128]
00000000: bdf3 12be 8068 86bd e475 87bd 09a3 353e
00000010: c92e b3bd e88e 623d 41f8 39be 5ff8 11bd
00000020: 6f44 fabc 923d 8ebd 314e 6fbd 120e 91bb
00000030: a695 a73d 9845 dcbd 8c7d e2bd 60b3 77bd
00000040: eaeb ad3c e4aa c3bd d2eb 433e c76c 5a3d
00000050: 23df 13be 3034 8f3d 94cb 2b3d 545e d7bb
00000060: 19e1 2bbd 22dd 40bd 4490 31bc 740f 77bd
00000070: 1b73 a93d 0180 993d d3e7 343d 965e 53bd
00000080: 7d82 b0bd 109c dfbd a752 dd3d 0a4b a1bc
00000090: faf3 01be 9fdd a4bc 58bf 05bd 2e25 743b
000000a0: 31e8 e83d 5371 2dbd 2b03 19bd ec3e 19bd
000000b0: 10a7 0e3d fe1e 123d 171a 003b 9c17 223c
000000c0: e75b 853d 6fa3 ba3b 9e1c 6dbd c9a5 35bd
000000d0: 831b 2a3d 7643 00bd 55b4 493d 885b 873c
000000e0: f248 c3bd 4e55 c33c f7f3 4f3d fcf1 2dbd
000000f0: 22ca 613c 14ee 2a3d 2854 853d 29c4 d23d
00000100: f685 95bc de86 2ebe 1b62 fbbd 02d5 283e
00000110: 69e5 873d 66d5 6cbc 9ee8 33bb e4dd 5b3d
00000120: 929e 00be a78e 37bd 228a 2c3e 93ff 87bd
00000130: 5b2f 13be 3d0e 923d 296a 943d 265f 48be
00000140: 1164 263d f1b7 8dbd a9b2 d4bc d912 dfbc
00000150: ce67 e9bd 27dc 2bbe b97e 82bd e257 aabd
00000160: 2f2c cb3c 8c08 5e3d 50b7 d23d dc58 1c3c
00000170: 0644 8e3d f600 27be 5a55 183d 2387 52bd
00000180: 72fa 453b fd0d 88bc 2263 b33d 33ac 2e3d
00000190: d5f3 583d 1812 de3d 5aab 7d3d 83fe b83d
000001a0: 8e0c 4cbd ff0a da3d b054 93bd f6c4 0e3e
000001b0: d623 65bd 1bbb 4f3e ecfa ccbd 59a0 8bbc
000001c0: 78f1 cabc ba89 a63d 61a6 943d 5666 06be
000001d0: 4b81 3ebd 8eec 203d 7a59 8a3d 75b5 5ebd
000001e0: cb55 d03c 90ce bb3c 10a1 2d3e 714f eebd
000001f0: bf48 70bd db23 d83d b079 9bbd c2c8 703d
00000200: 82e2 54be cea1 b03c 548b 48bd 84e6 4b3d
00000210: 532a eb3c 249b df3d 930c 23be d147 d03c
00000220: 12c9 3abd 5688 bbbd 8307 e03d 56da 75bd
00000230: 66bc e23d 5602 2fbe 841f 99bc 5fba 1b3e
00000240: 417c 93bc efcf ba3d dd2c 073e 811d 9d3c
00000250: 99e0 6b3d 3d01 eb3c c514 3cbd cf9f 8b3e
00000260: dbfb 2cbe a748 aabd 1c7b f23d a3e1 c43d
00000270: 457f febd 38eb f73d e0a4 ad3d ab9d 963b
00000280: b0f4 13bc 20f3 bd3d b650 9bbd 6a1e 543e
00000290: 2c44 153e e029 763d 3f91 f4bd 9ee0 bd3d
000002a0: da36 0ebc fa5c ab3c fe58 a93d 5dbd 21bd
000002b0: 854a 1dbd 8f2e 513d 5525 553d da17 633e
000002c0: 1e99 53bc 2632 103e b5d2 5cbc 304a e63c
000002d0: 481d cbbd 9c4c 933d 7361 2bbe 00fd 13be
000002e0: 9ddb c33d 4a65 8cbd 63b9 423e 4989 403d
000002f0: ce29 e93d cfcf adbb 813a 433d aa17 aa3d
00000300: 384b be3c 9843 9f3d 2a38 283e db37 0d3e
00000310: e749 c03d 5dab ff3d a48f c53a a331 ae3d
00000320: 281f fd3c 9923 783d 73f1 dbbd 71f2 243c
00000330: 87c6 7cbc 5d85 f03d 1ae4 ecbc 0af4 693e
00000340: a711 60be 6efd 9dbd 0862 103d 51df 94bd
00000350: 1fec f03c 8882 6fbd a58f 3b3d 8ed3 263d
00000360: 3a0f e33d eb96 0c3e fbdf 46bd ad9f 84bd
00000370: 8df8 3bbe 0c64 6e3d a900 033e fbd4 dcbd
00000380: 57d1 e33d 7cea 8ebd c529 2a3e a603 d93d
00000390: 4185 74bd a4f0 a3bd 1a0c c2bc 2b6a d9bd
000003a0: f31b 743d bb3b 2e3c c4db fdbd 1897 49be
000003b0: 09f6 fabd 4780 3bbd 491b 943d 8b06 263e
000003c0: 74f2 033e 4538 283e 5235 45bb 6b74 403d
000003d0: 20d4 27be 4f98 d13d 51be 44be adff 973d
000003e0: 1239 003e 26f2 d8bd 5db3 493e fbca 31bc
000003f0: bac1 1bbc 51c0 f33d 94fe c6bd b681 213d
-0.14350791 -0.065629005 -0.06614283 0.17737974 -0.08749158 0.055312067 -0.18161108 -0.035637256
-0.03055021 -0.06945337 -0.05842418 -0.004426726 0.0818284 -0.107554615 -0.110591024 -0.0604738
0.021230657 -0.09554079 0.19132927 0.053326394 -0.14440589 0.06992376 0.041942194 -0.006572524
-0.041962717 -0.04708589 -0.010837618 -0.06031747 0.08273908 0.07495118 0.044166397 -0.051603876
-0.08618639 -0.109184384 0.1080678 -0.019689102 -0.12690726 -0.020125208 -0.032653183 0.0037253606
0.11372412 -0.042344403 -0.037356537 -0.037413523 0.034827292 0.035674088 0.00195468 0.009893324
0.065116696 0.0056957523 -0.05788862 -0.04434756 0.041530143 -0.031314336 0.049244244 0.016523138
-0.095353976 0.023844387 0.050769772 -0.042467102 0.013781102 0.041730955 0.06510192 0.10291321
-0.018252354 -0.17043635 -0.122745715 0.16487506 0.066355534 -0.014455175 -0.0027451883 0.05367841
-0.1256049 -0.04481378 0.16849568 -0.06640544 -0.14373533 0.07131622 0.07246811 -0.19567546
0.040622775 -0.0691985 -0.025964098 -0.027230667 -0.11396752 -0.167832 -0.06371827 -0.083175436
0.024801342 0.05420737 0.1028887 0.00954267 0.06946568 -0.1630896 0.037190773 -0.051398408
0.0030209091 -0.016608233 0.087591425 0.04264469 0.05296691 0.10843295 0.06193099 0.09032919
-0.04981666 0.106466286 -0.07193887 0.13942322 -0.05594238 0.20286219 -0.10008797 -0.017044233
-0.024773344 0.08131738 0.07258297 -0.13124976 -0.046510022 0.039288096 0.067553475 -0.05437227
0.025431534 0.022925645 0.16955972 -0.11636246 -0.058663126 0.10553714 -0.075915694 0.058785208
-0.20789531 0.02156153 -0.048961 0.049780384 0.028706705 0.109182626 -0.15922765 0.02542487
-0.04560191 -0.091568634 0.10938933 -0.060022675 0.110710904 -0.17090735 -0.018691786 0.15207814
-0.018003585 0.091216914 0.13200708 0.019179108 0.05758724 0.028687114 -0.045918245 0.27270362
-0.1689295 -0.083146386 0.118398875 0.09613349 -0.124266185 0.12105411 0.08478713 0.004596432
-0.009030506 0.09274888 -0.07583754 0.20714727 0.14576787 0.06009853 -0.11941766 0.09271358
-0.00868007 0.020918358 0.08268927 -0.03948723 -0.038401145 0.051069792 0.052037556 0.22177067
-0.012914924 0.1408163 -0.013477971 0.028111547 -0.09917694 0.071923465 -0.16736393 -0.1445198
0.09563372 -0.06855257 0.19016032 0.047005925 0.11384927 -0.0053043137 0.047663216 0.08305295
0.023229226 0.07776564 0.16427675 0.13790838 0.09389096 0.12483857 0.0015072715 0.08505561
0.030898646 0.060580824 -0.10739412 0.010067568 -0.015428192 0.11744187 -0.028917361 0.22847
-0.21881734 -0.077143535 0.03524974 -0.07269157 0.029409466 -0.058474094 0.045791287 0.040729098
0.110868886 0.13729446 -0.04855345 -0.06475768 -0.18356533 0.05820088 0.1279322 -0.1078281
0.11123913 -0.06978318 0.16617496 0.10596399 -0.059697393 -0.08004883 -0.023687411 -0.10615953
0.059596967 0.010634358 -0.123954326 -0.19686544 -0.12253959 -0.04577663 0.07231767 0.16213433
0.12885457 0.16427715 -0.0030091596 0.046986025 -0.16389513 0.10234129 -0.19213225 0.07421813
0.1252177 -0.10593061 0.19697328 -0.010851617 -0.009506637 0.11901916 -0.09716526 0.039430343

network_body._body_endoder.seq_layers.2.bias f4 [128]
00000000: 89a6 c3bb 6aff 4b3d d530 1dbd 424b edbb
00000010: 3c29 1d3d 124d 143b 383e b23b 73f8 32bd
00000020: 8001 be3c 0ee8 a13c 60e0 103d 7a7f 50bd
00000030: 7e26 9cba 0152 ef3c f545 9b3c 6b8f e43c
00000040: 4e26 14bd a6b8 1dbd ef62 fabb 5358 6fbd
00000050: 757b 0d3d e8f6 b43d 0aa5 f1bc 04eb 42bb
00000060: 5bc6 3fbd a6a2 5b3d 9906 683d c840 c1bc
00000070: 7f70 0b3d 2126 683c 997a 0e3d 0531 8dbc
00000080: b4b6 e03b 54ac 4cbb 31a6 603d 3377 293d
00000090: 3fb7 edbc f81a 7a3d e095 823d bd97 c8bc
000000a0: 804a 3b3d dd88 863d 8251 733c 9821 aab9
000000b0: 535a 55bd 4277 6c3c 833c 673d 5e14 72bc
000000c0: 182c 6ebb 9be7 a2ba ccf6 843c 697b 353d
000000d0: aa10 a7bc d542 2d3c 3490 393d 10cb 50bd
000000e0: 2734 1a3d 3bc4 af3c 7169 11bb 10a0 b03c
000000f0: 4f5b 9c3c 3944 7d3d 8ed7 1f3d d248 c2bc
00000100: 3a90 43bd c82e ef3c 4c79 78bd 2c29 f23b
00000110: 9fdb 433c c27c 03bd c910 413c 1da5 94bc
00000120: 1e05 6b3c 252c 8abc 02fe 673d e7f1 d03b
00000130: 2605 813d bc86 263d 8f20 fab9 37d6 2cbd
00000140: 4bb4 813d 5f74 073d c13d 873d a1dd 67bc
00000150: 5faf afbb 0653 933c c4e7 903d 1d3c b1bb
00000160: 2a1e e13c bc34 f73c 7983 4f3d 8a49 0a3d
00000170: 62d2 513c 52ff 9c3d 5dce e13c e540 c53c
00000180: 329c 083c 533b 3e3d 1aaa 1eba 11f7 6e3c
00000190: c361 ae3c 8e8f 1f3d 97d5 cd3c 5856 3a3d
000001a0: 784b edbc daf7 d13b e182 f2bc 0395 ee3c
000001b0: fed3 0d3d c10b 4c3c 8196 63bd 23ad 793c
000001c0: 5582 49bc 8dda b6bb f0ff ffbc e97f 80bd
000001d0: 450b 3e3d 255b 60bd 8b42 083c 6a1c 943c
000001e0: e680 1ebd c55a e03c b8d3 fd3c 964e 173d
000001f0: 6d89 023c 8fb0 963a eb4d ac3c 1d1b d03c
-0.0059707803 0.04980413 -0.038376648 -0.0072416374 0.038369402 0.0022628945 0.005439546 -0.04369397
0.023194075 0.019763973 0.03537023 -0.05090282 -0.0011913327 0.029213907 0.018954257 0.027900418
-0.036169343 -0.038506173 -0.0076411883 -0.058433842 0.034541566 0.08836156 -0.029497642 -0.002974213
-0.046820026 0.05362191 0.056646917 -0.02359046 0.03404283 0.014169247 0.034784887 -0.017235288
0.0068577174 -0.0031230645 0.054845992 0.041373443 -0.029018043 0.061060876 0.06376243 -0.024486417
0.045725346 0.06569073 0.014850976 -0.00032449956 -0.052088093 0.01443273 0.056454193 -0.014775364
-0.00363422 -0.0012428643 0.016230963 0.044307146 -0.020393688 0.010575016 0.04530354 -0.050974905
0.037647393 0.021455875 -0.0022188092 0.021560699 0.019086508 0.06183264 0.03902393 -0.023716364
-0.047744967 0.029197112 -0.060662553 0.007390162 0.011954217 -0.0321014 0.011783787 -0.018145138
0.014344482 -0.016866753 0.056638725 0.0063764933 0.0629981 0.040655836 -0.00047707974 -0.04219648
0.06333216 0.033069964 0.066035755 -0.014151962 -0.005361482 0.017983925 0.07075456 -0.0054087774
0.027480204 0.030176513 0.05066249 0.03376154 0.012806507 0.07665886 0.027564222 0.024078796
0.008338021 0.046443295 -0.0006052569 0.014585272 0.02128685 0.038955264 0.025126262 0.0454925
-0.02896665 0.00640772 -0.029603424 0.029123789 0.034626 0.012453974 -0.055563454 0.015239033
-0.01229914 -0.0055802525 -0.03124997 -0.06274397 0.046397466 -0.054774422 0.008316646 0.018079955
-0.038697146 0.027387032 0.030984744 0.03694018 0.007967335 0.001149671 0.021033248 0.025403554

action_model._discrete_distribution.branches.0.weight f4 [3, 128]
00000000: 87d8 0d3a 3f28 9abd 7b04 183c 7d15 af3c
00000010: e31e 41bd 59e3 e23b 9236 febc 3522 0a3d
00000020: bb53 253d 9030 613d 01a6 3a3c 5fa5 c53b
00000030: a095 393c 330d c73c a30a 253d b62d 7abd
00000040: 42f1 2a3d 5b6a 1d3c e315 c43c 595f 083d
00000050: d658 9a3c 9ec8 503c 4ecf 3d3d 5baf 10bd
00000060: cae7 ea3c d34e b63c 3320 083c af74 003c
00000070: 334c 5d3c 628f 1ebc 1860 01bd e6d0 e93c
00000080: f234 093d 7238 953d f783 813c aea5 13bc
00000090: d57b 9d3d a97d 04bd 3eef 23bb ffc2 513d
000000a0: 55dd a6bc 28d6 073c af44 9dbd e07f a5bc
000000b0: a8c9 d13c 07e5 19bc 5122 093c 66af c73c
000000c0: 3023 d83c 33b4 143d 2e24 b5bc a8b1 88bc
000000d0: 3bd2 6bbc 682b b03c 40a0 133d 87ba 5e3d
000000e0: 6245 2ebc 4ae1 2bbc 6c12 2abd 653d 743c
000000f0: a2b2 473a ed22 2d3d 0f5b 8c3c 9715 143d
00000100: 93dc 723c ed1f 99bc 01aa 3a3d d4aa 6cbc
00000110: c319 f0bc f0ef 503d a7bb 8fbd 9e93 973c
00000120: fba1 36bc a0e1 063d 8e4f b1bc fc10 973b
00000130: a5b0 0d3d db86 62bd fb63 713c 4381 5c3c
00000140: 975d 183d 5ba5 d53c fb06 8bbc 049e 1b3d
00000150: ffc8 413d 3e04 503b 1f3f 443c ae62 373d
00000160: bbf0 2b3d a340 5abb 800e 28bd e192 efbb
00000170: 4733 1c3c d7c0 24bb 8bb1 b13b a284 703b
00000180: 999e 6d3c 283b c8bb 70b8 9b3c bcc5 b73c
00000190: 2c9f c13c 58a1 4dbd 758e d43c 7bc1 d23c
000001a0: ccba 043d ae0a 62bd 3531 1a3d 4f7b 8abc
000001b0: a5ad 7ebd 6bdf e7bc ff7d 1e3d c1b8 883c
000001c0: 09b3 743c 6962 edbb bc53 243d bafb e93c
000001d0: 8c59 82bd bb34 9b3b d874 b93b 9c25 00bd
000001e0: 748d 4d3d 8bc5 29bd 2511 90bd e218 90bc
000001f0: ab92 063d 0952 a2bb d43b 033d 4ed6 4a3c
00000200: 8eb7 adbb 934d da3c 8cf4 343d f496 00bc
00000210: 08e9 ac3c 8253 9c3d 12e0 95bc ac7e 353c
00000220: 8275 e9bd aed6 aabd b689 ebbd 0fc6 4d3d
00000230: b4c6 a03d 67d9 7f3d 9796 d6bd 72b7 fa3c
00000240: bf06 df3b ad83 4d3d 18cf 0d3d 7018 abbb
00000250: 57bb bcbd a845 2abe 7690 0abd 927c 2c3d
00000260: 33e6 0a3d a09d 0cbe 3fc6 09be 61ac 22bc
00000270: f8f4 df3d 8ad9 53bd cc76 e5bb 5b6c 1cbc
00000280: 2d91 cbbd fa8f 8cbd 8a06 c43d 3316 a73d
00000290: 6817 1fbb a40c d73d eab5 173e d042 183c
000002a0: 5449 623d ef27 22be cd59 633c 7689 d13c
000002b0: 1a99 cf3c 8146 523d b305 ce3d a5df 6ebd
000002c0: 036c 7dbd 66f8 86bd a0b5 653b 076a 20ba
000002d0: 17de af3c 0106 233d b6ee 11be 2ac1 80bb
000002e0: cded 8b3d 1b41 04bd ffbf 033c 5fcc e73d
000002f0: 7c4d 91bd 35b6 02be dcd2 dc3d d4d0 89bd
00000300: 6b52 c13c eb62 d13c 23cf 313a 4d49 ec3c
00000310: 8c6f 3ebc 755d 54bd a1ca a63c 0412 0dbd
00000320: 9ff9 f53b 506d b0bc 6937 04bc b8fa 48bd
00000330: f83e 27be ab81 0d3d 7ae3 e83c 117b d7bc
00000340: ea9c 1abe 1f78 0fbe fa6a 14be 79f2 813c
00000350: 0581 21bc 22c1 6a3d 9048 f8bd 2186 af3d
00000360: 5699 8a3d 3f90 edbd db9a 85bd 726f 383d
00000370: bf0d df3d 2d74 02be f870 253d 2059 6cbd
00000380: eddb ea3d 9d32 193e e969 56bd 0eae d2bd
00000390: 729a 803d a2b6 443d 0868 a63d b09a d73d
000003a0: 6dac 113d 1011 ba3c 2a70 67bd c593 46bd
000003b0: e5b7 02bd be7c 423d a72d 07bd 5759 55bc
000003c0: dfd3 453d f340 12bd 889b e73c b85a 40bc
000003d0: aa9a 823c 9ea7 c3bc 174a d13c f1f2 8b3d
000003e0: b5f7 56bc 755a 073d f231 e93c 55a4 9fbd
000003f0: 531c bebd 9846 20bd f933 f0bd 875b 853d
0.0005410988 -0.075272076 0.009278412 0.021372551 -0.047148596 0.0069240746 -0.03103188 0.03372403
0.040363055 0.054977953 0.0113921175 0.0060316767 0.011327177 0.024298286 0.040293347 -0.06107875
0.041733988 0.009607877 0.023936218 0.033294056 0.018841188 0.012743143 0.04634028 -0.035323482
0.028674979 0.022254383 0.008308458 0.00784032 0.013506937 -0.00967774 -0.031585783 0.028541993
0.03349776 0.07286157 0.015809996 -0.009011669 0.07689635 -0.0323464 -0.0025014426 0.051211353
-0.020369211 0.008290805 -0.07679116 -0.020202577 0.025608853 -0.009392983 0.008369998 0.024375629
0.026383966 0.036304664 -0.022111978 -0.016686276 -0.014393385 0.021505073 0.0360415 0.054377105
-0.010636659 -0.010490725 -0.041521475 0.014907216 0.0007617866 0.042269636 0.017133264 0.036153402
0.014823097 -0.018691981 0.045572285 -0.0144450255 -0.02930916 0.051010072 -0.07018214 0.018503007
-0.011147018 0.032930017 -0.02164438 0.004610179 0.03459229 -0.05530439 0.01473331 0.013458553
0.03719863 0.026079824 -0.016971102 0.037992492 0.047310825 0.003174081 0.01197794 0.044771843
0.041977625 -0.0033302687 -0.041029453 -0.0073112105 0.00953371 -0.0025139356 0.005422776 0.003670015
0.014503145 -0.0061105676 0.019008845 0.022433154 0.02363547 -0.050202698 0.025946835 0.025727024
0.032404706 -0.055185966 0.037644584 -0.016904501 -0.06217732 -0.028304776 0.038694378 0.01668966
0.014935263 -0.0072443974 0.040118918 0.028562415 -0.06364736 0.0047365106 0.005659681 -0.031285867
0.05018373 -0.041448157 -0.0703452 -0.01758999 0.032854717 -0.004953627 0.03203948 0.012380196
-0.0053014224 0.026648318 0.04417853 -0.00784849 0.021107212 0.07633115 -0.018295322 0.011077564
-0.11399366 -0.08341728 -0.11500876 0.05023771 0.078503996 0.06246319 -0.104779415 0.030605052
0.006806224 0.050174404 0.034621328 -0.005221419 -0.0921542 -0.16628134 -0.033829175 0.042110987
0.03391094 -0.13732004 -0.13454531 -0.009928794 0.10935396 -0.051721133 -0.007002687 -0.009547318
-0.099397995 -0.06863399 0.0957156 0.08158531 -0.0024275426 0.10500458 0.14815488 0.009293273
0.055245712 -0.15835546 0.013876391 0.025578242 0.02534156 0.05133677 0.10059681 -0.058318753
-0.061870586 -0.06590347 0.0035050884 -0.0006119315 0.021468205 0.039800648 -0.14251217 -0.003929277
0.06832466 -0.032288652 0.008041381 0.113182776 -0.07094857 -0.12764819 0.10782406 -0.06729284
0.02359887 0.025559863 0.000678288 0.028843546 -0.011623275 -0.05184694 0.020360293 -0.03444101
0.007506564 -0.0215365 -0.008069851 -0.04906723 -0.16332614 0.03454749 0.028428782 -0.0263038
-0.1509892 -0.14010666 -0.14493933 0.01586269 -0.009857421 0.057313092 -0.12123215 0.08570505
0.06767528 -0.115997784 -0.06523677 0.045028158 0.10891294 -0.1273963 0.04039094 -0.057702184
0.11467729 0.14960714 -0.052347098 -0.102871045 0.06279458 0.048025735 0.08125311 0.10527551
0.03556483 0.022713214 -0.056503452 -0.048480768 -0.031913657 0.047482245 -0.03300252 -0.013021789
0.04829776 -0.03570647 0.028272405 -0.011740379 0.01594289 -0.023883637 0.025548024 0.06833447
-0.013120581 0.03304525 0.028466199 -0.07795016 -0.09282746 -0.039129823 -0.11728663 0.06511598

action_model._discrete_distribution.branches.0.bias f4 [3]
00000000: 73d4 45bd 5a46 c13c c214 c23c
-0.04829831 0.023593117 0.023691539

exp_avg f4 [128, 24]
00000000: 84c0 abba dcd3 cfb6 d459 07bb df8e ceb8
00000010: 363f 283a e3ba 3abb 6ff1 9e3b e25e ca30
00000020: 8843 193b d5f9 b639 dcd3 cfb6 c1c2 86ba
00000030: 283f a1ba 18c6 8db8 c5f0 0bbb 72f9 053a
00000040: 5553 9db9 3079 2cbb bc68 9b3b 3f64 8e35
00000050: 3252 0c3a c96b ad39 18c6 8db8 5360 93ba
00000060: bf3c 323b d238 a03a c036 083c 51b4 ea3a
00000070: 6f5c 8b3a 78cd 113c 9129 26bc 3fb2 f931
00000080: 753a a3bb 0166 0d3a d238 a03a 504d 923a
00000090: db45 363b 51b5 f738 e1ac 083c cf8c 1e3a
000000a0: 674d 9d3a 01c1 0f3c 5d03 29bc 717b 2933
000000b0: 0995 33ba 0bc7 013a 51b5 f738 0a8c 923a
000000c0: 33db 25b9 addd e3b9 5d54 c8ba d4fb fb3a
000000d0: d456 c2b7 64aa f1ba 7915 bc3b cd65 2335
000000e0: a1bf 533a 995a 55ba addd e3b9 0b37 153a
000000f0: 733c 60b9 cb4a cbb7 0e54 acba 477a 233b
00000100: b28a 5f37 55f7 e6ba 763c b33b a348 7435
00000110: 892d 5e3a 005f 4dba cb4a cbb7 222f 283a
00000120: 9f02 ed3a 8f85 093a 90f5 4f3b da9e 2638
00000130: f3b8 a438 2c69 8d3b 6738 d6bb e050 a0b4
00000140: 1d8a 71bb dc52 b53a 8f85 093a d52c 503a
00000150: 6331 f03a 2eef 4838 378d 433b b864 34ba
00000160: 8e22 8a39 ad69 893b 1b00 d3bb c0d0 7ab5
00000170: 1c12 7bba 7684 af3a 2eef 4838 0672 3f3a
00000180: 2811 f3b8 5610 00ba 74eb 223a 87b0 7cb9
00000190: 992b 06ba 4a88 4e3a 6b9a 43ba 56d6 03b5
000001a0: fbeb 15ba a0fe a639 5610 00ba 34f5 bc39
000001b0: fec9 5bb9 61f3 9736 e26d 3b3a 5daf a8b9
000001c0: 270b 21b9 5af6 483a a63d 42ba 9089 07b5
000001d0: a300 3eb8 df75 c739 61f3 9736 d586 003a
000001e0: fca4 2337 0d09 15ba a166 6d39 63d1 903a
000001f0: fbe2 ebb9 b8b5 9139 49ae 3aba 451f 2f35
00000200: aa15 013a 9a82 55b8 0d09 15ba 47ea 4738
00000210: 72fe e3b8 104c 2137 00a5 8439 939f 773a
00000220: 9543 8539 a8d7 8939 367b 0dba 4419 eb34
00000230: b525 a839 419a 7738 104c 2137 83cb 7939
00000240: d141 9fb9 7889 e0b9 41be d2b9 0985 2039
00000250: f9cb 4bb9 c10a 76ba d333 e43a ce3f 8d34
00000260: 9317 983a 3d94 0739 7889 e0b9 74d6 5139
00000270: 9552 b2b9 face 20b8 108a e0b9 9cc8 b539
00000280: a7b3 cdb9 3384 50ba 97bb d33a 1274 c134
00000290: 77ae 183a a682 1f39 face 20b8 ea7d 9439
000002a0: 9853 283a fa1b a239 bdca b0ba 9499 ca3a
000002b0: 05aa 2c3a e3b5 d5ba da6b 2f3b 29dd 9535
000002c0: d907 4e3a cba1 be3a fa1b a239 29a7 75b9
000002d0: 57ff 443a 3ea5 31b8 07b6 baba 1fb7 f03a
000002e0: 6239 b436 209e b8ba 5dac 313b 2e33 8135
000002f0: bc56 5e3a c5ca ad3a 3ea5 31b8 5693 bab9
00000300: 5209 343a 3d8f b8ba dc57 d83a af90 24ba
00000310: 5e0b fbba 29c4 163b 3b1b 8abb b428 22b5
00000320: 4556 39bb ef63 173b 3d8f b8ba 4d45 ad3a
00000330: ed61 ce39 d1f7 7037 55ca a73a c1ed 9cba
00000340: 0d36 ad33 9b65 0b3b 10b3 8fbb 7e07 d9b5
00000350: ad76 11ba bc9c 243b d1f7 7037 dbfa ea3a
00000360: 817f 9c38 1b69 a7b9 9774 18ba 7d0b d7b9
00000370: 089d 62b9 ef66 f7b9 e771 8a3a ae5d 16b4
00000380: 7249 153a ed00 7538 1b69 a7b9 d6ae 34ba
00000390: 983e 8636 2297 3e34 c3b7 f0b9 76f8 89b9
000003a0: 6e0b 17ba 4441 cbb9 bde7 633a 3a70 88b4
000003b0: 180c a739 9e14 8338 2297 3e34 1fe3 2aba
000003c0: 7edd 0b3a f9b9 ea39 2db9 afb9 199c 193a
000003d0: 2302 373a 902a 07ba 6fa5 533a 09f0 0f35
000003e0: 1551 bd39 6f99 143a f9b9 ea39 6fc3 1c39
000003f0: a183 253a 293a 82b7 0ccf dbb9 4ac5 313a
-0.0013103639 -6.1937444e-06 -0.0020652907 -9.849457e-05 0.00064181106 -0.002849274 0.0048505585 1.4724402e-09
0.00233862 0.00034899884 -6.1937444e-06 -0.001028143 -0.0012302147 -6.760302e-05 -0.0021353227 0.00051107176
-0.0003000746 -0.002631735 0.00474271 1.0609e-06 0.0005352824 0.00033077438 -6.760302e-05 -0.0011243917
0.0027196852 0.0012223965 0.008313835 0.0017906522 0.0010632406 0.008899085 -0.010141746 7.267118e-09
-0.004981334 0.0005393923 0.0012223965 0.0011161957 0.0027812633 0.000118116506 0.008341999 0.0006048204
0.0012001217 0.008774043 -0.010315743 3.9460648e-08 -0.0006850516 0.0004950619 0.000118116506 0.0011180651
-0.00015817284 -0.00043461975 -0.0015283931 0.0019224831 -2.3167035e-05 -0.0018437621 0.0057398644 6.087037e-07
0.0008077566 -0.0008138805 -0.00043461975 0.0005692101 -0.00021384824 -2.4234314e-05 -0.0013147609 0.002494471
1.3324128e-05 -0.0017621318 0.005469854 9.1002784e-07 0.0008475413 -0.00078342855 -2.4234314e-05 0.0006415715
0.0018082446 0.0005246037 0.003173206 3.9725426e-05 7.854579e-05 0.004315516 -0.0065374854 -2.9861167e-07
-0.0036856004 0.0013833898 0.0005246037 0.0007941251 0.0018325265 4.790647e-05 0.002983881 -0.00068814633
0.00026347156 0.0041935057 -0.0064392216 -9.343603e-07 -0.00095775886 0.0013390917 4.790647e-05 0.00073030626
-0.000115903385 -0.0004885247 0.0006214895 -0.00024098354 -0.0005118191 0.0007878585 -0.000746167 -4.91132e-07
-0.0005719063 0.00031851698 -0.0004885247 0.00036040845 -0.00020960715 4.5284837e-06 0.00071498577 -0.00032174113
-0.00015358311 0.0007666104 -0.0007409699 -5.04916e-07 -4.5300123e-05 0.0003804406 4.5284837e-06 0.0004902904
9.7539705e-06 -0.00056852476 0.00022640314 0.001104873 -0.00044991806 0.00027791946 -0.00071213074 6.5238083e-07
0.00049241877 -5.090479e-05 -0.00056852476 4.7663485e-05 -0.000108715976 9.6140575e-06 0.00025299937 0.00094460807
0.0002541809 0.00026291353 -0.0005397083 4.3790544e-07 0.0003207155 5.903305e-05 9.6140575e-06 0.00023822305
-0.0003037588 -0.00042827032 -0.00040196071 0.00015308349 -0.00019435574 -0.0009385758 0.0017410464 2.630972e-07
0.0011603705 0.00012929826 -0.00042827032 0.00020011683 -0.00034012334 -3.8339735e-05 -0.00042827474 0.00034672476
-0.00039234498 -0.00079542695 0.0016153929 3.6033504e-07 0.0005824337 0.00015212092 -3.8339735e-05 0.00028322573
0.0006421148 0.00030919892 -0.0013488155 0.0015457147 0.0006586614 -0.0016304817 0.0026767165 1.1165731e-06
0.0007859446 0.0014544068 0.00030919892 -0.00023427293 0.0007514855 -4.2353982e-05 -0.0014244922 0.0018365121
5.3710983e-06 -0.0014085211 0.0027110793 9.626144e-07 0.00084815524 0.0013259283 -4.2353982e-05 -0.00035586458
0.0006867844 -0.0014080774 0.0016505676 -0.0006277663 -0.0019153168 0.0023005104 -0.004214672 -6.0408934e-07
-0.002828018 0.0023100337 -0.0014080774 0.0013219506 0.00039364342 1.4362814e-05 0.0012801389 -0.0011972712
8.065772e-08 0.0021270278 -0.0043853596 -1.616994e-06 -0.0005548995 0.0025117835 1.4362814e-05 0.0017927544
7.462409e-05 -0.00031931032 -0.0005815713 -0.00041016555 -0.00021611538 -0.00047188203 0.001056251 -1.4003919e-07
0.0005694843 5.8413414e-05 -0.00031931032 -0.00068925077 4.000798e-06 1.7750111e-07 -0.0004591328 -0.00026315794
-0.0005761896 -0.00038767804 0.00086938945 -2.541363e-07 0.00031861733 6.250407e-05 1.7750111e-07 -0.0006518829
0.0005335434 0.00044770518 -0.00033516568 0.0005859747 0.00069812144 -0.00051561836 0.0008073663 5.362095e-07
0.000361093 0.00056686153 0.00044770518 0.00014950124 0.0006313865 -1.552429e-05 -0.00041925197 0.00067814125

exp_avg_sq f4 [128, 24]
00000000: 2e81 1839 4269 fe37 bc30 6b39 e772 1739
00000010: ec25 6038 6d5e 2639 61a4 5339 d61c 312e
00000020: fb30 7c38 c5be 1b39 4269 fe37 5f8e 1c39
00000030: fcef 1439 1158 4233 f7da 6d39 68eb 2439
00000040: b2fa dd36 d339 1539 bfc8 4c39 c8f0 d12d
00000050: 3eae 8138 f2fa 1839 1158 4233 10b8 1a39
00000060: 8865 7339 6c05 df36 4728 7839 f544 a339
00000070: 9021 0538 fed3 6c39 30fa a639 d070 5d2e
00000080: 2b7e f238 4552 7239 6c05 df36 1e8c 4e39
00000090: 95e6 6e39 d249 9833 a8af 6d39 5c2a ae39
000000a0: de5d f036 f902 5b39 fce7 9f39 99a6 6c2e
000000b0: 3836 f238 2926 6f39 d249 9833 2a9a 4739
000000c0: 3c1a 8438 70a0 1136 2a58 9c38 a3a8 a538
000000d0: 70b3 0a37 cc93 8438 c5b7 a438 996f 6d2d
000000e0: e520 2238 7a15 7838 70a0 1136 2aa1 6c38
000000f0: 9216 7f38 5fd4 a932 6a20 9a38 dec6 ae38
00000100: 90be 3b36 f25d 8238 7daa 9c38 8e64 932d
00000110: 19fb 1f38 045f 7438 5fd4 a932 a1f2 6038
00000120: 382a 0c39 b452 8836 18db 1839 a495 3239
00000130: 553e 5737 bb9c 0439 86d3 3439 ed05 e72d
00000140: 0d6e 9938 fb01 0039 b452 8836 10d0 f838
00000150: 7ed3 0739 c150 2c33 2e02 1439 b2d1 3d39
00000160: e01f 6336 1615 fd38 26b2 2e39 b6a1 032e
00000170: eff0 9538 d14a fb38 c150 2c33 83cd ed38
00000180: 9cff 4c36 9e7c 5d35 0e83 9536 da27 5536
00000190: 220d ce36 7ddb 7636 0a11 8236 148d 082c
000001a0: 7823 de35 16b0 8336 9e7c 5d35 7343 5636
000001b0: 4fc6 4736 a77e 8130 0b8d 9b36 97bb 6236
000001c0: f29a dc35 8c4d 6e36 d1fa 8336 db22 1f2c
000001d0: eaf0 d835 6deb 8036 a77e 8130 fc59 5436
000001e0: 3f14 bd36 14f4 9037 ec7a f036 dcb2 c936
000001f0: 7c69 9937 b196 cb36 1883 d736 9b44 d72b
00000200: cf74 8036 c2a4 ce36 14f4 9037 abb2 be36
00000210: dcb6 ca36 4db4 0131 44b2 fc36 bdad dd36
00000220: f837 0537 787a ca36 7c31 ed36 05e6 5d2c
00000230: 7b03 8b36 3dfa d936 4db4 0131 7d41 d036
00000240: 857e 1738 7a48 0d36 08e3 4738 979b 1c38
00000250: 8678 8f36 3956 1838 e2a7 4538 16c3 0a2d
00000260: 69dd a137 ff00 3338 7a48 0d36 3641 1538
00000270: 2df5 1038 4fa0 4232 85b6 4c38 2e79 2038
00000280: 6cc2 5a35 86a3 1538 0a71 4138 b491 cf2c
00000290: fee0 a537 9a21 2f38 4fa0 4232 2348 0f38
000002a0: e093 0338 bb5a 7237 4116 2738 6912 2838
000002b0: 4ddd a837 1873 1938 e3f1 1138 f87c 242d
000002c0: dc8c e337 dfe5 e637 bb5a 7237 3ecb cc37
000002d0: 1855 0138 fc80 2b32 79d5 2638 2e29 3038
000002e0: df7a 3f36 6c76 1738 14e1 0e38 b7f9 332d
000002f0: 5950 e837 0b71 e437 fc80 2b32 ec30 cb37
00000300: 8860 af38 feb7 b338 9c8b dd38 17cb ce38
00000310: 5a4c d238 b4f1 a538 06c9 ec38 53ab 982d
00000320: 5529 1538 b131 a238 feb7 b338 5f38 9a38
00000330: e78e b038 ae9f df32 0c4f e338 8e31 e738
00000340: 83e1 6337 505d a038 9651 ee38 bd66 c22d
00000350: 0381 1838 a956 a038 ae9f df32 86f9 9d38
00000360: 5dcf d236 41bf ff36 1c8e f636 558d e836
00000370: b4c2 2137 369a e936 f8b7 0137 acc5 ca2b
00000380: 1a92 9a36 e7ac d536 41bf ff36 7d93 f236
00000390: a9ba d836 7db3 0c31 f24b f436 e1cb ed36
000003a0: 445e c936 424d e136 06e7 0237 6481 4a2c
000003b0: e2bd a036 3acf d936 7db3 0c31 5494 f336
000003c0: 5a17 e136 e963 ba36 deb9 1a37 368d 0b37
000003d0: 701d d236 e1e5 1637 9cf9 df36 18bb 192c
000003e0: 98ac d136 e01f cd36 e963 ba36 a71e b636
000003f0: db0c dd36 17e8 0e31 659c 1a37 9f76 1237
0.00014543973 3.0328174e-05 0.00022429501 0.00014443287 5.344108e-05 0.0001586617 0.00020183764 4.0270752e-11
6.01271e-05 0.00014853019 3.0328174e-05 0.00014930357 0.00014203781 4.524924e-08 0.00022683652 0.00015727954
6.615498e-06 0.00014231289 0.0001952974 2.3867477e-11 6.1836545e-05 0.00014589334 4.524924e-08 0.00014755153
0.00023212109 6.646549e-06 0.00023666128 0.0003114116 3.174093e-05 0.00022585687 0.00031848392 5.034978e-11
0.0001156296 0.00023109566 6.646549e-06 0.00019697889 0.00022783347 7.0914794e-08 0.00022667518 0.00033219426
7.163485e-06 0.00020886575 0.00030499685 5.3808156e-11 0.00011549558 0.00022807032 7.0914794e-08 0.0001903555
6.299137e-05 2.170007e-06 7.4550815e-05 7.899224e-05 8.2672195e-06 6.32178e-05 7.854359e-05 1.349667e-11
3.8654445e-05 5.914781e-05 2.170007e-06 5.641688e-05 6.0817758e-05 1.9770765e-08 7.34933e-05 8.3340085e-05
2.7976093e-06 6.216382e-05 7.4704156e-05 1.675662e-11 3.8142407e-05 5.8262623e-05 1.9770765e-08 5.3631727e-05
0.00013367168 4.0627438e-06 0.00014577468 0.00017031148 1.2829511e-05 0.00012646888 0.00017244936 2.6264291e-11
7.316107e-05 0.00012207769 4.0627438e-06 0.00011864316 0.0001295339 4.0120316e-08 0.00014115192 0.00018102562
3.384419e-06 0.00012067908 0.00016660299 2.992958e-11 7.149751e-05 0.00011982548 4.0120316e-08 0.0001133932
3.0547153e-06 8.251026e-07 4.455803e-06 3.176267e-06 6.1408073e-06 3.6784616e-06 3.8762855e-06 1.9405077e-12
1.6550612e-06 3.9246033e-06 8.251026e-07 3.1927746e-06 2.9768742e-06 9.421982e-10 4.6357795e-06 3.3785816e-06
1.6436372e-06 3.5509902e-06 3.933303e-06 2.2614608e-12 1.6163369e-06 3.8421044e-06 9.421982e-10 3.164284e-06
5.634996e-06 1.7279795e-05 7.1668674e-06 6.0110888e-06 1.8288141e-05 6.0674142e-06 6.4227606e-06 1.5295711e-12
3.8282956e-06 6.1584587e-06 1.7279795e-05 5.683241e-06 6.0413568e-06 1.887446e-09 7.530938e-06 6.606539e-06
7.940449e-06 6.0343264e-06 7.068911e-06 3.1533675e-12 4.142928e-06 6.4962355e-06 1.887446e-09 6.206507e-06
3.6119036e-05 2.1052824e-06 4.7656737e-05 3.7338203e-05 4.275763e-06 3.6319925e-05 4.7124813e-05 7.88771e-12
1.9295798e-05 4.2677853e-05 2.1052824e-06 3.55851e-05 3.4560613e-05 1.1328736e-08 4.8807375e-05 3.825983e-05
8.149425e-07 3.567666e-05 4.612006e-05 5.89947e-12 1.9774303e-05 4.1754545e-05 1.1328736e-08 3.416104e-05
3.1370553e-05 1.4445449e-05 3.983663e-05 4.0071467e-05 2.0130212e-05 3.6585232e-05 3.479597e-05 9.350069e-12
2.7126101e-05 2.7525179e-05 1.4445449e-05 2.4413337e-05 3.0835246e-05 9.982838e-09 3.9776296e-05 4.200002e-05
2.8532738e-06 3.6111494e-05 3.406506e-05 1.023042e-11 2.769397e-05 2.7232358e-05 9.982838e-09 2.4222267e-05
8.3626306e-05 8.569656e-05 0.000105641055 9.860674e-05 0.00010027802 7.912834e-05 0.000112908005 1.7356483e-11
3.556286e-05 7.734018e-05 8.569656e-05 7.353792e-05 8.4189516e-05 2.603323e-08 0.00010838927 0.000110241686
1.358276e-05 7.646775e-05 0.00011363921 2.2100871e-11 3.6359776e-05 7.645536e-05 2.603323e-08 7.532821e-05
6.282628e-06 7.621857e-06 7.347915e-06 6.930592e-06 9.641681e-06 6.9618936e-06 7.731833e-06 1.4407828e-12
4.606566e-06 6.368023e-06 7.621857e-06 7.229332e-06 6.4590317e-06 2.0474709e-09 7.280608e-06 7.086885e-06
6.0012408e-06 6.7145165e-06 7.802393e-06 2.8777753e-12 4.790477e-06 6.4912283e-06 2.0474709e-09 7.259232e-06
6.708241e-06 5.554863e-06 9.222391e-06 8.317924e-06 6.2619147e-06 8.99422e-06 6.6749762e-06 2.1846466e-12
6.248778e-06 6.113187e-06 5.554863e-06 5.427591e-06 6.58781e-06 2.0795647e-09 9.215529e-06 8.729897e-06

exp_avg f4 [128]
00000000: 1f4b 73bb c98a d43b 7c6e aeba 9168 2c3b
00000010: fe60 8239 ff65 0a3a acfa 09bb 076d 18bb
00000020: 47c2 4e3a 7588 2337 8e7a 5fba e19c b739
00000030: e411 84bb 7839 4f39 9709 c1ba 7866 d4b8
00000040: 25d1 92ba 12b4 4c3a 98d6 c13a bd39 6c3b
00000050: fcf9 b239 adcc ba39 2c26 18bb 3b77 d836
00000060: f4db 16b9 c46d ee39 ebc5 8a3a 0cfb 7fba
00000070: 6d39 843b ec3c 1ebb 38bb caba c540 aa39
00000080: aaef ac39 34ce a6bb 189b c9b8 c6da c239
00000090: 0463 e5b8 ee40 9e3a 5274 41ba dcce 273a
000000a0: 9d7a 6db8 bbde 8fba 0103 ea37 83b7 3939
000000b0: 88a9 ceb9 2686 1aba eba0 bdb8 14a8 7eb9
000000c0: 2d7c 97b9 2cc4 f5b9 aa49 8f39 f323 e2b9
000000d0: 3963 043b 97de f5b6 82ed 143b 5edf 8339
000000e0: 276b f837 31af 833a 6b11 40ba 8b0a 323a
000000f0: 7e84 273a d7df 59b9 d5bc cb3a faf8 0f39
00000100: d9c4 aa3b f49c ea39 6e90 9e39 af98 9db9
00000110: 991e 6b39 cc90 213b 3fa5 643a 98ec 263a
00000120: 0df4 473a 4c48 b339 e5a0 6c3b 638f 3bbb
00000130: 88f8 073a 2ccd 86b9 9cf9 56ba d55e 0e39
00000140: a289 a7ba 62e5 c2ba abfd 8439 5b33 f239
00000150: b739 dabb 29ed d83a 9e1e 12bb 6aba efba
00000160: b70c 95bb 14df 50b9 44fb f6ba e14e c939
00000170: 8047 1e3a e273 113a 89ca 8239 b36d 8eb9
00000180: 6410 2cb8 b62b 7e3b 48e2 063a 5a25 53b7
00000190: 4d4c 7b3a ce26 89b9 8b0f e639 0b4b a73a
000001a0: ff9b 0ebb e5de 8c3a 9ce8 e6bb e89f 4f39
000001b0: 607e 0fba 6789 99ba c35a cd3a 9de7 b239
000001c0: 2cfb 5039 729c 56b8 9535 9f39 b62f 44b9
000001d0: 3f5c f33a 259a 483a 162b a5bb 75f3 1c39
000001e0: 60cf 153b 6d06 c7b7 1bfb 123a 134f 9d39
000001f0: c3c2 143a ac61 d8b9 43a5 7e3b 97a8 0c39
-0.0037123633 0.006486271 -0.0013308073 0.0026307444 0.00024867797 0.0005279481 -0.0021053953 -0.0023258345
0.0007887226 9.7473285e-06 -0.0008525037 0.00035021364 -0.004030453 0.00019762467 -0.001472759 -0.00010128034
-0.0011201246 0.0007808815 0.0014788685 0.0036045157 0.00034137059 0.0003562918 -0.0023216112 6.451182e-06
-0.00014387054 0.0004547668 0.0010587549 -0.0009764887 0.004035166 -0.00241452 -0.0015467172 0.00032473184
0.0003298496 -0.0050904993 -9.613315e-05 0.00037165562 -0.00010938014 0.0012073794 -0.0007379699 0.0006401369
-5.6619396e-05 -0.0010976413 2.7896373e-05 0.00017711338 -0.00039417692 -0.00058946235 -9.0421956e-05 -0.00024285942
-0.00028893483 -0.000468762 0.0002732997 -0.00043132863 0.0020200743 -7.327482e-06 0.0022724574 0.0002515269
2.96138e-05 0.0010046718 -0.0007326814 0.0006791732 0.00063902873 -0.0002077812 0.0015543947 0.00013730294
0.0052114544 0.00044748897 0.00030243717 -0.00030059132 0.00022422745 0.0024652956 0.00087221334 0.00063676527
0.0007627614 0.00034195406 0.0036106643 -0.00286194 0.00051868754 -0.00025711337 -0.0008200647 0.00013577503
-0.0012782107 -0.0014869387 0.00025366 0.000461961 -0.006659712 0.0016550171 -0.0022296081 -0.0018289809
-0.004548635 -0.00019919529 -0.0018843194 0.00038396477 0.0006037876 0.0005548579 0.00024946433 -0.00027166083
-4.102326e-05 0.0038783378 0.0005145413 -1.2585277e-05 0.000958626 -0.00026159588 0.000438806 0.0012763453
-0.0021760461 0.001074758 -0.007046772 0.00019800628 -0.00054738484 -0.0011713923 0.0015667308 0.0003412337
0.00019929995 -5.1167277e-05 0.00030366765 -0.0001870979 0.001856692 0.0007652364 -0.0050405366 0.00014968014
0.00228592 -2.372564e-05 0.00056068756 0.00030004288 0.0005674774 -0.00041271502 0.0038855828 0.00013414245

exp_avg_sq f4 [128]
00000000: 5437 1439 1ceb 6639 a7fc 8038 98af 0239
00000010: 175b 4536 a01f c636 dec3 1438 169f 0238
00000020: 49a1 a938 585f d636 167b db36 dca4 8e38
00000030: a608 1139 169b c238 3f26 4337 1bda 3537
00000040: 0397 0338 26f1 9e36 cf11 4737 91db 0e39
00000050: 7cf0 0437 05f8 5737 1b6b 0938 d693 2036
00000060: 5ad2 7036 2541 fa38 9e68 cf36 98a5 2f37
00000070: a025 cf38 bbe3 4738 b1db 4639 2797 0b36
00000080: e688 0738 0d2e 4a39 4aca 0835 dbac 9935
00000090: 381a a637 fd7d 3c38 f7ed fb37 abf0 8c36
000000a0: 474d a935 9e66 7139 f85e 2a36 ed6d 4736
000000b0: dbeb 3f36 f0f7 0a38 9055 5e37 9274 1f37
000000c0: c99f b836 de7b 6137 4b87 b236 52ba 5a36
000000d0: 435d 8c37 0224 1037 2303 5938 bb3a 5837
000000e0: 0137 4735 b825 a738 cf03 3639 4714 ee38
000000f0: 04ad b337 e830 1336 645f 1138 5401 9e37
00000100: ce85 1539 5f33 e437 2626 1737 fa76 a537
00000110: 9268 2336 f136 6c38 e59f 0d38 66fd 0437
00000120: a9a2 1637 45df cf36 c188 6439 6fdb 9138
00000130: 8522 fe36 e088 a937 8ca0 b937 c71d dd36
00000140: 7abe 2e38 d708 a437 4691 7236 069b 9637
00000150: 5db9 3539 da67 7d37 32a1 c538 b1c9 d037
00000160: 2833 7739 3fa9 1a37 7d4a 8a38 7e0e 9b35
00000170: bb65 1a39 1bd9 8b38 0653 8237 3b23 1737
00000180: 36d0 6338 6973 ef38 f31f 9237 d36c 6f36
00000190: d467 9537 cea3 9837 37f8 5336 47e9 4e37
000001a0: e761 a438 8d56 a437 95c3 bd39 cc01 ab36
000001b0: a28f ee35 47cb 9837 a5d8 4639 e804 4038
000001c0: e1e9 a835 caf5 9537 9b9f 7f36 f2cf e037
000001d0: 54e0 9a39 4f3c 8c38 4b63 2239 73fb 3636
000001e0: 467b 0039 473c d235 744a c037 2edf 1e36
000001f0: eca9 d236 b967 aa37 5abe 3539 a2da d436
0.00014134991 0.00022022094 6.150576e-05 0.0001246318 2.9408309e-06 5.9045415e-06 3.5468365e-05 3.1142576e-05
8.08859e-05 6.3887965e-06 6.5410377e-06 6.801795e-05 0.000138315 9.279528e-05 1.1631811e-05 1.0839222e-05
3.1373474e-05 4.7368403e-06 1.1865471e-05 0.0001362397 7.923805e-06 1.2872745e-05 3.2763095e-05 2.392791e-06
3.5885228e-06 0.00011933063 6.18126e-06 1.0469368e-05 9.8775374e-05 4.7657388e-05 0.00018964593 2.0800596e-06
3.2314005e-05 0.00019281376 5.095832e-07 1.1449696e-06 1.9800951e-05 4.494003e-05 3.0032343e-05 4.2003426e-06
1.2613972e-06 0.00023021779 2.5387253e-06 2.9717296e-06 2.8598504e-06 3.3132674e-05 1.3252153e-05 9.50428e-06
5.5022288e-06 1.3439885e-05 5.3205636e-06 3.2592984e-06 1.6732729e-05 8.591453e-06 5.1739753e-05 1.28882775e-05
7.421332e-07 7.970206e-05 0.00017358291 0.00011352501 2.141903e-05 2.1933174e-06 3.4659533e-05 1.8835686e-05
0.00014259593 2.720364e-05 9.0091835e-06 1.9724936e-05 2.434976e-06 5.6317953e-05 3.3765933e-05 7.926812e-06
8.978569e-06 6.1950727e-06 0.00021794719 6.9550115e-05 7.5738085e-06 2.0210107e-05 2.2128479e-05 6.58978e-06
4.1662228e-05 1.955444e-05 3.614537e-06 1.7953582e-05 0.00017330558 1.5104155e-05 9.423717e-05 2.4889452e-05
0.00023574813 9.218521e-06 6.594227e-05 1.1552618e-06 0.00014724482 6.6684755e-05 1.5535868e-05 9.008504e-06
5.431493e-05 0.00011417905 1.7419434e-05 3.567712e-06 1.7810533e-05 1.819609e-05 3.158593e-06 1.2332871e-05
7.838365e-05 1.9590627e-05 0.0003619461 5.0964063e-06 1.7774184e-06 1.821447e-05 0.00018963458 4.5780936e-05
1.2585043e-06 1.7876639e-05 3.8090864e-06 2.6799713e-05 0.00029540306 6.6869536e-05 0.00015486513 2.7266476e-06
0.00012252954 1.5663762e-06 2.2922854e-05 2.3673742e-06 6.278269e-06 2.0313879e-05 0.00017332417 6.3435446e-06
