Assets/Trining/results/Normal/PingPongAgent/PingPongAgent-499978.onnx (onnx, 82986 bytes, 8 tensors)

49 f4 [24]
000000 06 97 31 42 97 9a f6 3e 60 60 21 41 ae 21 c8 41
       44.397484 0.48164818 10.086029 25.016445
000010 7b e6 8c 3e b1 ab 50 41 86 24 f4 41 21 5e b9 3a
       0.27519593 13.041917 30.517834 0.0014142432
000020 0f 74 cd 41 d5 23 c1 42 97 9a f6 3e 3b 7f 3f 42
       25.68167 96.569984 0.48164818 47.87425
000030 13 00 34 42 51 8b 92 3b b3 2d 23 41 80 64 ce 41
       45.000072 0.004472174 10.198657 25.799072
000040 36 f0 0e 3e cb f9 52 41 df ee f7 41 21 5e b9 3a
       0.1395882 13.185985 30.991636 0.0014142432
000050 31 9d cf 41 81 cd c2 42 51 8b 92 3b 1c 8e 42 42
       25.951754 97.401375 0.004472174 48.63878

action_model._discrete_distribution.branches.0.bias f4 [3]
000000 73 d4 45 bd 5a 46 c1 3c c2 14 c2 3c
       -0.04829831 0.023593117 0.023691539

action_model._discrete_distribution.branches.0.weight f4 [3, 128]
000000 87 d8 0d 3a 3f 28 9a bd 7b 04 18 3c 7d 15 af 3c
       0.0005410988 -0.075272076 0.009278412 0.021372551
000010 e3 1e 41 bd 59 e3 e2 3b 92 36 fe bc 35 22 0a 3d
       -0.047148596 0.0069240746 -0.03103188 0.03372403
000020 bb 53 25 3d 90 30 61 3d 01 a6 3a 3c 5f a5 c5 3b
       0.040363055 0.054977953 0.0113921175 0.0060316767
000030 a0 95 39 3c 33 0d c7 3c a3 0a 25 3d b6 2d 7a bd
       0.011327177 0.024298286 0.040293347 -0.06107875
000040 42 f1 2a 3d 5b 6a 1d 3c e3 15 c4 3c 59 5f 08 3d
       0.041733988 0.009607877 0.023936218 0.033294056
000050 d6 58 9a 3c 9e c8 50 3c 4e cf 3d 3d 5b af 10 bd
       0.018841188 0.012743143 0.04634028 -0.035323482
000060 ca e7 ea 3c d3 4e b6 3c 33 20 08 3c af 74 00 3c
       0.028674979 0.022254383 0.008308458 0.00784032
000070 33 4c 5d 3c 62 8f 1e bc 18 60 01 bd e6 d0 e9 3c
       0.013506937 -0.00967774 -0.031585783 0.028541993
000080 f2 34 09 3d 72 38 95 3d f7 83 81 3c ae a5 13 bc
       0.03349776 0.07286157 0.015809996 -0.009011669
000090 d5 7b 9d 3d a9 7d 04 bd 3e ef 23 bb ff c2 51 3d
       0.07689635 -0.0323464 -0.0025014426 0.051211353
0000a0 55 dd a6 bc 28 d6 07 3c af 44 9d bd e0 7f a5 bc
       -0.020369211 0.008290805 -0.07679116 -0.020202577
0000b0 a8 c9 d1 3c 07 e5 19 bc 51 22 09 3c 66 af c7 3c
       0.025608853 -0.009392983 0.008369998 0.024375629
0000c0 30 23 d8 3c 33 b4 14 3d 2e 24 b5 bc a8 b1 88 bc
       0.026383966 0.036304664 -0.022111978 -0.016686276
0000d0 3b d2 6b bc 68 2b b0 3c 40 a0 13 3d 87 ba 5e 3d
       -0.014393385 0.021505073 0.0360415 0.054377105
0000e0 62 45 2e bc 4a e1 2b bc 6c 12 2a bd 65 3d 74 3c
       -0.010636659 -0.010490725 -0.041521475 0.014907216
0000f0 a2 b2 47 3a ed 22 2d 3d 0f 5b 8c 3c 97 15 14 3d
       0.0007617866 0.042269636 0.017133264 0.036153402
000100 93 dc 72 3c ed 1f 99 bc 01 aa 3a 3d d4 aa 6c bc
       0.014823097 -0.018691981 0.045572285 -0.0144450255
000110 c3 19 f0 bc f0 ef 50 3d a7 bb 8f bd 9e 93 97 3c
       -0.02930916 0.051010072 -0.07018214 0.018503007
000120 fb a1 36 bc a0 e1 06 3d 8e 4f b1 bc fc 10 97 3b
       -0.011147018 0.032930017 -0.02164438 0.004610179
000130 a5 b0 0d 3d db 86 62 bd fb 63 71 3c 43 81 5c 3c
       0.03459229 -0.05530439 0.01473331 0.013458553
000140 97 5d 18 3d 5b a5 d5 3c fb 06 8b bc 04 9e 1b 3d
       0.03719863 0.026079824 -0.016971102 0.037992492
000150 ff c8 41 3d 3e 04 50 3b 1f 3f 44 3c ae 62 37 3d
       0.047310825 0.003174081 0.01197794 0.044771843
000160 bb f0 2b 3d a3 40 5a bb 80 0e 28 bd e1 92 ef bb
       0.041977625 -0.0033302687 -0.041029453 -0.0073112105
000170 47 33 1c 3c d7 c0 24 bb 8b b1 b1 3b a2 84 70 3b
       0.00953371 -0.0025139356 0.005422776 0.003670015
000180 99 9e 6d 3c 28 3b c8 bb 70 b8 9b 3c bc c5 b7 3c
       0.014503145 -0.0061105676 0.019008845 0.022433154
000190 2c 9f c1 3c 58 a1 4d bd 75 8e d4 3c 7b c1 d2 3c
       0.02363547 -0.050202698 0.025946835 0.025727024
0001a0 cc ba 04 3d ae 0a 62 bd 35 31 1a 3d 4f 7b 8a bc
       0.032404706 -0.055185966 0.037644584 -0.016904501
0001b0 a5 ad 7e bd 6b df e7 bc ff 7d 1e 3d c1 b8 88 3c
       -0.06217732 -0.028304776 0.038694378 0.01668966
0001c0 09 b3 74 3c 69 62 ed bb bc 53 24 3d ba fb e9 3c
       0.014935263 -0.0072443974 0.040118918 0.028562415
0001d0 8c 59 82 bd bb 34 9b 3b d8 74 b9 3b 9c 25 00 bd
       -0.06364736 0.0047365106 0.005659681 -0.031285867
0001e0 74 8d 4d 3d 8b c5 29 bd 25 11 90 bd e2 18 90 bc
       0.05018373 -0.041448157 -0.0703452 -0.01758999
0001f0 ab 92 06 3d 09 52 a2 bb d4 3b 03 3d 4e d6 4a 3c
       0.032854717 -0.004953627 0.03203948 0.012380196
000200 8e b7 ad bb 93 4d da 3c 8c f4 34 3d f4 96 00 bc
       -0.0053014224 0.026648318 0.04417853 -0.00784849
000210 08 e9 ac 3c 82 53 9c 3d 12 e0 95 bc ac 7e 35 3c
       0.021107212 0.07633115 -0.018295322 0.011077564
000220 82 75 e9 bd ae d6 aa bd b6 89 eb bd 0f c6 4d 3d
       -0.11399366 -0.08341728 -0.11500876 0.05023771
000230 b4 c6 a0 3d 67 d9 7f 3d 97 96 d6 bd 72 b7 fa 3c
       0.078503996 0.06246319 -0.104779415 0.030605052
000240 bf 06 df 3b ad 83 4d 3d 18 cf 0d 3d 70 18 ab bb
       0.006806224 0.050174404 0.034621328 -0.005221419
000250 57 bb bc bd a8 45 2a be 76 90 0a bd 92 7c 2c 3d
       -0.0921542 -0.16628134 -0.033829175 0.042110987
000260 33 e6 0a 3d a0 9d 0c be 3f c6 09 be 61 ac 22 bc
       0.03391094 -0.13732004 -0.13454531 -0.009928794
000270 f8 f4 df 3d 8a d9 53 bd cc 76 e5 bb 5b 6c 1c bc
       0.10935396 -0.051721133 -0.007002687 -0.009547318
000280 2d 91 cb bd fa 8f 8c bd 8a 06 c4 3d 33 16 a7 3d
       -0.099397995 -0.06863399 0.0957156 0.08158531
000290 68 17 1f bb a4 0c d7 3d ea b5 17 3e d0 42 18 3c
       -0.0024275426 0.10500458 0.14815488 0.009293273
0002a0 54 49 62 3d ef 27 22 be cd 59 63 3c 76 89 d1 3c
       0.055245712 -0.15835546 0.013876391 0.025578242
0002b0 1a 99 cf 3c 81 46 52 3d b3 05 ce 3d a5 df 6e bd
       0.02534156 0.05133677 0.10059681 -0.058318753
0002c0 03 6c 7d bd 66 f8 86 bd a0 b5 65 3b 07 6a 20 ba
       -0.061870586 -0.06590347 0.0035050884 -0.0006119315
0002d0 17 de af 3c 01 06 23 3d b6 ee 11 be 2a c1 80 bb
       0.021468205 0.039800648 -0.14251217 -0.003929277
0002e0 cd ed 8b 3d 1b 41 04 bd ff bf 03 3c 5f cc e7 3d
       0.06832466 -0.032288652 0.008041381 0.113182776
0002f0 7c 4d 91 bd 35 b6 02 be dc d2 dc 3d d4 d0 89 bd
       -0.07094857 -0.12764819 0.10782406 -0.06729284
000300 6b 52 c1 3c eb 62 d1 3c 23 cf 31 3a 4d 49 ec 3c
       0.02359887 0.025559863 0.000678288 0.028843546
000310 8c 6f 3e bc 75 5d 54 bd a1 ca a6 3c 04 12 0d bd
       -0.011623275 -0.05184694 0.020360293 -0.03444101
000320 9f f9 f5 3b 50 6d b0 bc 69 37 04 bc b8 fa 48 bd
       0.007506564 -0.0215365 -0.008069851 -0.04906723
000330 f8 3e 27 be ab 81 0d 3d 7a e3 e8 3c 11 7b d7 bc
       -0.16332614 0.03454749 0.028428782 -0.0263038
000340 ea 9c 1a be 1f 78 0f be fa 6a 14 be 79 f2 81 3c
       -0.1509892 -0.14010666 -0.14493933 0.01586269
000350 05 81 21 bc 22 c1 6a 3d 90 48 f8 bd 21 86 af 3d
       -0.009857421 0.057313092 -0.12123215 0.08570505
000360 56 99 8a 3d 3f 90 ed bd db 9a 85 bd 72 6f 38 3d
       0.06767528 -0.115997784 -0.06523677 0.045028158
000370 bf 0d df 3d 2d 74 02 be f8 70 25 3d 20 59 6c bd
       0.10891294 -0.1273963 0.04039094 -0.057702184
000380 ed db ea 3d 9d 32 19 3e e9 69 56 bd 0e ae d2 bd
       0.11467729 0.14960714 -0.052347098 -0.102871045
000390 72 9a 80 3d a2 b6 44 3d 08 68 a6 3d b0 9a d7 3d
       0.06279458 0.048025735 0.08125311 0.10527551
0003a0 6d ac 11 3d 10 11 ba 3c 2a 70 67 bd c5 93 46 bd
       0.03556483 0.022713214 -0.056503452 -0.048480768
0003b0 e5 b7 02 bd be 7c 42 3d a7 2d 07 bd 57 59 55 bc
       -0.031913657 0.047482245 -0.03300252 -0.013021789
0003c0 df d3 45 3d f3 40 12 bd 88 9b e7 3c b8 5a 40 bc
       0.04829776 -0.03570647 0.028272405 -0.011740379
0003d0 aa 9a 82 3c 9e a7 c3 bc 17 4a d1 3c f1 f2 8b 3d
       0.01594289 -0.023883637 0.025548024 0.06833447
0003e0 b5 f7 56 bc 75 5a 07 3d f2 31 e9 3c 55 a4 9f bd
       -0.013120581 0.03304525 0.028466199 -0.07795016
0003f0 53 1c be bd 98 46 20 bd f9 33 f0 bd 87 5b 85 3d
       -0.09282746 -0.039129823 -0.11728663 0.06511598

network_body._body_endoder.seq_layers.0.bias f4 [128]
000000 b9 e6 51 3d c9 17 0b 3b 66 7d 77 bc e1 4d e3 bb
       0.051245425 0.0021223894 -0.015105581 -0.006936774
000010 a4 d6 d6 bc 4d f1 d5 3c d9 02 3c 3d 83 0f d4 3c
       -0.026225396 0.026116038 0.045901153 0.025886303
000020 46 79 a8 3b 27 7f 09 bd cf 79 16 3d b4 82 81 bc
       0.00514141 -0.033568528 0.03673726 -0.015809394
000030 b5 47 00 3d dd 46 e1 bc bf aa f2 bc 74 5e 90 3c
       0.031318385 -0.02749961 -0.029622434 0.017623164
000040 3b 2c 41 3c f9 5e a6 bd 69 bc 1a 3d ae d5 a0 3c
       0.0117903305 -0.08123583 0.03777734 0.01963314
000050 58 4a 8f 39 05 01 95 bd 10 95 56 3c cb e8 a1 bc
       0.00027330476 -0.07275585 0.013097063 -0.019764325
000060 b7 c8 f0 bd dd 9e 9c bc d8 a8 71 bc 6b 40 b7 3c
       -0.11757033 -0.01911872 -0.014749728 0.022369584
000070 e6 e2 38 3c 5a 96 c6 3c b5 6e 54 3d e3 91 ca bd
       0.011284566 0.024241615 0.05186339 -0.09891107
000080 e9 72 a2 bc 56 bf 8d 3d a4 39 0a bd de 48 75 3c
       -0.019830184 0.0692126 -0.033746377 0.014970986
000090 24 07 11 3d 7c 2b 10 3b c8 d7 4a 3d c8 e0 37 bd
       0.0354072 0.0021998575 0.04952219 -0.044892102
0000a0 ab db 50 bd 00 f0 03 3d 77 55 8a 3c 2e 86 94 bd
       -0.05099074 0.032211304 0.016886456 -0.07252155
0000b0 87 3f ff 3c 31 1d c6 bc a1 bb d4 3c d0 ae 9c bc
       0.031158222 -0.024183841 0.025968375 -0.019126326
0000c0 57 6f 0e bd 66 04 1e 3c 20 5b 17 bd f0 83 14 bd
       -0.03477415 0.009644603 -0.036952138 -0.036258638
0000d0 bb 1d bf 39 82 17 c7 3c 81 f9 01 bd fa 5f be bc
       0.0003645251 0.024303202 -0.031732086 -0.023239125
0000e0 bc 56 31 bc 31 27 b5 3c e6 74 d4 3d 1c a9 9b 3c
       -0.010823902 0.022113414 0.10373859 0.019001536
0000f0 14 38 1b bd 95 7d c7 bd 48 48 db bc b1 b9 01 3d
       -0.037895277 -0.0974075 -0.026767865 0.03167123
000100 6e f2 3f 3c f9 27 cc bb 6e 19 c0 bd 07 58 80 bb
       0.011715515 -0.006230351 -0.0937985 -0.0039167437
000110 79 d9 60 bd 4a e0 d9 3c 19 99 f1 3c 89 7d d4 bc
       -0.054894898 0.026596207 0.029491948 -0.025938766
000120 9a 45 7a bc eb 25 13 bd 87 e2 70 3d 68 a9 26 3d
       -0.015275383 -0.035924833 0.058809783 0.040688902
000130 0e a3 08 3c 7b 32 2d bd 0a f6 e5 bc 7e 26 c3 3d
       0.0083396565 -0.04228447 -0.028071422 0.09528826
000140 84 9b 3c 3c 4b 3d 26 3d 68 4f 0c bd 41 e7 1b bd
       0.011511687 0.040585797 -0.034255415 -0.038062338
000150 2f 90 5b 3d b3 14 83 bd 42 c9 d3 3c 72 ad 70 3d
       0.0536043 -0.064004324 0.025852803 0.05875916
000160 ee df 9d 3d d6 e0 b0 3c e5 de 66 3d 4d 7e 78 bd
       0.07708727 0.021591585 0.056364913 -0.060667325
000170 c8 04 bf 3c ef cb b8 3c 1f bd 35 bc 9f a5 14 3c
       0.02331771 0.02255818 -0.011092453 0.00907269
000180 3b 91 75 3c 97 41 04 3d 43 ec 97 bd 88 30 03 bb
       0.014988239 0.032289114 -0.0741811 -0.002001794
000190 88 10 15 3d 6f 22 19 bc db eb 29 bd 5d d7 86 bd
       0.03639272 -0.0093465885 -0.041484695 -0.06584046
0001a0 48 f9 3b 3c 96 00 23 3d 77 2c a0 3d 30 26 e5 bc
       0.0114730075 0.03979548 0.07820981 -0.02797231
0001b0 2d ab e6 3c 9e d5 04 3d ac 77 9a 3c 89 55 74 3d
       0.028157795 0.032430284 0.018855892 0.059651885
0001c0 a2 92 50 bd cf b1 14 3b f1 75 91 bd 14 6f d7 bc
       -0.05092109 0.002268899 -0.07102574 -0.026298083
0001d0 17 5d 0a 3d a7 61 d7 3b dd fe 98 3d 53 09 80 bc
       0.033780184 0.0065729204 0.07470486 -0.015629446
0001e0 0b 96 12 3c c5 2e 03 bd 00 2a b1 bc 6d 7a 1c bd
       0.008946906 -0.032027025 -0.021626472 -0.03820269
0001f0 bc 3a a8 bc c7 25 0d 3c d3 ee 30 3c bb 41 f2 bc
       -0.02053582 0.008614964 0.010799128 -0.029572358

network_body._body_endoder.seq_layers.0.weight f4 [128, 24]
000000 a3 19 1a be 4e 92 8c bc de 2d 1e be ae 61 38 be
       -0.15048842 -0.017159607 -0.15447184 -0.18006012
000010 be a4 b3 be ad 50 1c bf d5 33 ea be b6 3a 75 3d
       -0.35086626 -0.610606 -0.4574267 0.059870444
000020 23 05 e3 bd 9d 4e 53 3d 39 b5 c6 3e 1c 1a a9 be
       -0.11084964 0.051588643 0.38810137 -0.33027732
000030 01 ee 2f 3e 0b c1 b8 bd b6 b5 92 3e db 1f 90 3e
       0.17180635 -0.09021195 0.2865426 0.28149304
000040 18 3d 1f 3e 0b 4f 47 be 59 82 8a bd be 22 35 bd
       0.15550649 -0.19463746 -0.06763143 -0.044222586
000050 b0 d9 a5 bd d6 0a a2 3e 8c 32 03 be 6d 45 35 3e
       -0.08098161 0.31648892 -0.12812251 0.17702265
000060 ed 8d 10 3e c5 54 c5 3e fd bc 84 bc 52 27 8a 3e
       0.1411664 0.38541237 -0.016203398 0.26983124
000070 c1 26 5c be 06 91 10 3f 96 7c 70 be 81 74 1f 3e
       -0.21499158 0.5647129 -0.23485026 0.15571786
000080 ff a7 5c bd 96 e4 7f bd 24 43 f5 3b 9a dd 27 3e
       -0.05387115 -0.062473856 0.0074848104 0.16393128
000090 05 d3 be 3c 28 e8 00 bc 25 b7 40 be 00 e9 85 3d
       0.023293981 -0.00786785 -0.18819864 0.06538582
0000a0 70 74 04 3e 1b 23 be 3e 07 7c 16 be 3a e4 9f bd
       0.12935042 0.37136158 -0.1469575 -0.07807203
0000b0 0a cb 44 be 15 08 26 be 32 95 9e bc 97 34 2a be
       -0.19218078 -0.1621402 -0.019358251 -0.16621624
0000c0 ee 54 28 be 87 a4 8c 3d 00 35 d9 bd 54 07 52 3e
       -0.16438648 0.068673186 -0.10605812 0.20510608
0000d0 f5 2b fa 3d a1 52 9f be 5e 32 1a 3c ca f5 0a 3e
       0.122154154 -0.31117728 0.009411423 0.13570324
0000e0 d2 5c 70 be e4 5a 92 3c a2 b5 d7 3e 14 d0 26 3e
       -0.23472908 0.017865606 0.42130762 0.16290313
0000f0 3e 52 6f be c9 b3 a4 bd 1e 2c d8 3e 4c 23 29 be
       -0.23371217 -0.08042104 0.4222116 -0.16517371
000100 a9 bb c9 be 12 74 08 bd a6 d3 d5 bd 6f 66 fa bc
       -0.39400986 -0.03331382 -0.10440759 -0.030566422
000110 42 01 ca 3d 2e 48 a4 be 47 ee 4a 3e 9d 11 4b 3e
       0.09863521 -0.3208632 0.19817458 0.19830938
000120 63 80 90 be 17 2f 32 3e d6 6a 4a 3c d9 ed a8 bd
       -0.2822295 0.17400776 0.012354573 -0.08248491
000130 e8 56 b8 bd 56 81 57 3e b0 4c 08 bd 6e a1 50 3e
       -0.09000951 0.21045431 -0.03327626 0.2037408
000140 f8 1a d0 bd 9e 22 07 3e 30 f5 8e 3e b5 88 88 3c
       -0.10161394 0.13196799 0.27921438 0.01666675
000150 c9 c8 b9 bd 6d 00 ce bb 29 08 00 be 37 9e 76 3e
       -0.090715 -0.006286672 -0.12503113 0.24083792
000160 b6 1e 2a 3e 7c 77 c6 3e 28 cc 0f 3e 4d 01 e8 3d
       0.16613278 0.38763034 0.14042723 0.11328373
000170 a4 c5 05 3e 9d 3f 67 bb 1a a5 36 bd 28 30 42 3d
       0.13063675 -0.003528572 -0.044591047 0.047409207
000180 1b 50 6b 3e 2f 32 e8 3d a4 0b 77 3d ef 7b 46 be
       0.22979777 0.11337697 0.060313836 -0.19383214
000190 a9 5e af be 70 79 26 3c 85 0d aa 3b f4 18 b6 be
       -0.34251907 0.010160789 0.0051896 -0.35565913
0001a0 e6 d8 78 be d2 45 6b 3e ef 47 99 3e a6 82 bd be
       -0.2430149 0.22975853 0.29937693 -0.3701374
0001b0 d3 95 bf bd 90 08 63 3e 8d 86 68 be a9 62 33 bd
       -0.093547486 0.22171235 -0.22707577 -0.04379526
0001c0 2e f8 91 be 9d 78 0c 3d 89 6e 52 3c ec 02 e3 3e
       -0.2850966 0.034294713 0.012843736 0.44338167
0001d0 20 47 6f 3e 4c 90 1c 3e 36 67 50 3d 2f e6 1e 3e
       0.23366976 0.1528942 0.05087968 0.15517496
0001e0 61 a7 02 be d9 da 84 be 08 7e 87 bd bd d2 3f be
       -0.12759162 -0.25948218 -0.066158354 -0.18732734
0001f0 61 76 a7 bd 71 e7 94 3b f6 10 e3 be e3 b1 6d bd
       -0.08176876 0.0045441915 -0.44348878 -0.058030974
000200 e2 ef 1a 3e a7 a7 e8 3c b6 4f 5d 3d 33 01 0c 3e
       0.1513057 0.028400255 0.054031096 0.13672332
000210 f5 4c 92 be cf 85 71 3e 7d da aa 3c b6 6b 8e be
       -0.2857434 0.235862 0.020856136 -0.27816552
000220 77 c1 ba 3d 6c 6e 61 be 2d bd 02 bf e7 37 15 be
       0.09118932 -0.22014779 -0.5106991 -0.14572106
000230 42 8e d8 3d 41 f0 0c be 93 4d 85 be 53 60 29 3e
       0.105740085 -0.13763525 -0.26035747 0.16540651
000240 09 27 a4 be 25 a4 8b 3d d9 7a 60 bc 22 67 45 be
       -0.3206103 0.068184175 -0.013701164 -0.19277623
000250 da 90 51 3e a4 c8 57 be 29 ec a9 be 41 77 a5 bb
       0.20465413 -0.21072632 -0.33187988 -0.0050496166
000260 cf fb 29 bc 84 88 b5 3e ff ca 9f bd 1c d3 bb 3e
       -0.010374977 0.35455716 -0.0780239 0.366845
000270 22 0f 78 be ee 7d 74 3d fc 57 f7 3d 72 f6 ab 3e
       -0.24224523 0.05969041 0.120773286 0.3358646
000280 7d c4 0e bc 18 02 3f be e7 68 84 be 5d c3 a4 be
       -0.008713839 -0.18653142 -0.25861284 -0.321803
000290 85 52 b6 be ba ff f0 3c 5d 07 a5 be 5e 4e d4 bd
       -0.35609832 0.029418815 -0.3223218 -0.1036651
0002a0 c8 bc 83 be 1a 71 82 3e 41 07 56 bd 8c 84 13 bf
       -0.25729966 0.25476915 -0.05225301 -0.57624125
0002b0 b1 4d 07 be 2f 92 2a 3e 53 f2 a6 be ee cd 89 be
       -0.1321323 0.16657327 -0.32606754 -0.26914924
0002c0 c5 7a 14 be 04 01 00 bf 65 06 43 be 49 a0 7e 3e
       -0.14499958 -0.5000155 -0.19045408 0.24865831
0002d0 7a 6b 93 bd d5 bf a7 bc f0 90 b9 3e d4 f7 68 be
       -0.07198234 -0.020477215 0.3624339 -0.22750789
0002e0 3b 67 94 bd c9 e6 e6 be 98 f4 99 be 3a c7 01 3e
       -0.07246252 -0.4509795 -0.30069423 0.12673655
0002f0 e2 3b 55 bd ee 5e 7c bc 45 a3 70 3e c6 bb 35 bd
       -0.05205906 -0.015403492 0.23499782 -0.044368528
000300 ac 05 26 bd 9e d5 92 be 44 74 94 bd 0f 71 1a 3d
       -0.040532753 -0.28678602 -0.072487384 0.037705477
000310 96 d3 07 be c2 10 36 3e 03 72 3f bc 3f 45 d5 bc
       -0.13264307 0.1777983 -0.011684897 -0.026033996
000320 38 f2 22 bc 8c 5e 9d 3b a0 e8 89 bd 8c ea 74 be
       -0.009945445 0.0048025306 -0.06733823 -0.23917598
000330 5a 54 e5 bd 90 83 3e 3d 88 02 b2 be 7d 09 dd bc
       -0.111977294 0.046512187 -0.34767556 -0.026982063
000340 82 48 b8 be ac 6e bd 3e ef fb 95 3e 1f e9 b0 3c
       -0.3599282 0.36998498 0.29293773 0.021595536
000350 84 d7 2e 3e 9f 99 8a 3e 09 38 9a be 6a a3 8b 3d
       0.170744 0.2707033 -0.30120876 0.06818278
000360 cb 15 15 3d f4 2b d5 be 01 52 c7 3d 34 31 fd be
       0.036397737 -0.41635096 0.09732438 -0.49451602
000370 d6 90 67 be be ac 0f be 0c 0f a4 3d 14 15 5f 3e
       -0.22613844 -0.1403074 0.080106825 0.21785384
000380 e5 07 9c 3e 04 16 fc bd c4 a7 be 3d cf 55 eb 3b
       0.30474773 -0.12308887 0.093093425 0.00718186
000390 1b 35 aa bd 4c 6d b3 be 68 68 a5 3e 30 74 88 3d
       -0.0831091 -0.35044324 0.32306218 0.06662786
0003a0 0a cc 83 3d 18 5b 9b 3e 69 54 4d bd 6e ba 07 3e
       0.06435402 0.30342937 -0.050129328 0.13254711
0003b0 8b a0 1e 3f 4e 29 e3 3d 4c fe 14 3e 47 c0 05 bf
       0.6196372 0.110918626 0.14550132 -0.52246517
0003c0 22 68 c5 be 84 32 bf be ae 38 a1 3e 3d 81 d6 be
       -0.3855601 -0.37343228 0.31488556 -0.41895476
0003d0 69 71 77 bd 5a b3 06 3e 77 4c b1 bc 03 68 c9 3c
       -0.06041089 0.13154355 -0.021642907 0.02458573
0003e0 26 77 ac be 99 f7 af be 34 14 83 bd 02 e9 87 3e
       -0.33684653 -0.3436859 -0.06400338 0.26544958
0003f0 28 5a 15 be c5 43 3f 3d 41 e7 fa bd f4 24 75 be
       -0.14585173 0.04669549 -0.122511394 -0.23939878

network_body._body_endoder.seq_layers.2.bias f4 [128]
000000 89 a6 c3 bb 6a ff 4b 3d d5 30 1d bd 42 4b ed bb
       -0.0059707803 0.04980413 -0.038376648 -0.0072416374
000010 3c 29 1d 3d 12 4d 14 3b 38 3e b2 3b 73 f8 32 bd
       0.038369402 0.0022628945 0.005439546 -0.04369397
000020 80 01 be 3c 0e e8 a1 3c 60 e0 10 3d 7a 7f 50 bd
       0.023194075 0.019763973 0.03537023 -0.05090282
000030 7e 26 9c ba 01 52 ef 3c f5 45 9b 3c 6b 8f e4 3c
       -0.0011913327 0.029213907 0.018954257 0.027900418
000040 4e 26 14 bd a6 b8 1d bd ef 62 fa bb 53 58 6f bd
       -0.036169343 -0.038506173 -0.0076411883 -0.058433842
000050 75 7b 0d 3d e8 f6 b4 3d 0a a5 f1 bc 04 eb 42 bb
       0.034541566 0.08836156 -0.029497642 -0.002974213
000060 5b c6 3f bd a6 a2 5b 3d 99 06 68 3d c8 40 c1 bc
       -0.046820026 0.05362191 0.056646917 -0.02359046
000070 7f 70 0b 3d 21 26 68 3c 99 7a 0e 3d 05 31 8d bc
       0.03404283 0.014169247 0.034784887 -0.017235288
000080 b4 b6 e0 3b 54 ac 4c bb 31 a6 60 3d 33 77 29 3d
       0.0068577174 -0.0031230645 0.054845992 0.041373443
000090 3f b7 ed bc f8 1a 7a 3d e0 95 82 3d bd 97 c8 bc
       -0.029018043 0.061060876 0.06376243 -0.024486417
0000a0 80 4a 3b 3d dd 88 86 3d 82 51 73 3c 98 21 aa b9
       0.045725346 0.06569073 0.014850976 -0.00032449956
0000b0 53 5a 55 bd 42 77 6c 3c 83 3c 67 3d 5e 14 72 bc
       -0.052088093 0.01443273 0.056454193 -0.014775364
0000c0 18 2c 6e bb 9b e7 a2 ba cc f6 84 3c 69 7b 35 3d
       -0.00363422 -0.0012428643 0.016230963 0.044307146
0000d0 aa 10 a7 bc d5 42 2d 3c 34 90 39 3d 10 cb 50 bd
       -0.020393688 0.010575016 0.04530354 -0.050974905
0000e0 27 34 1a 3d 3b c4 af 3c 71 69 11 bb 10 a0 b0 3c
       0.037647393 0.021455875 -0.0022188092 0.021560699
0000f0 4f 5b 9c 3c 39 44 7d 3d 8e d7 1f 3d d2 48 c2 bc
       0.019086508 0.06183264 0.03902393 -0.023716364
000100 3a 90 43 bd c8 2e ef 3c 4c 79 78 bd 2c 29 f2 3b
       -0.047744967 0.029197112 -0.060662553 0.007390162
000110 9f db 43 3c c2 7c 03 bd c9 10 41 3c 1d a5 94 bc
       0.011954217 -0.0321014 0.011783787 -0.018145138
000120 1e 05 6b 3c 25 2c 8a bc 02 fe 67 3d e7 f1 d0 3b
       0.014344482 -0.016866753 0.056638725 0.0063764933
000130 26 05 81 3d bc 86 26 3d 8f 20 fa b9 37 d6 2c bd
       0.0629981 0.040655836 -0.00047707974 -0.04219648
000140 4b b4 81 3d 5f 74 07 3d c1 3d 87 3d a1 dd 67 bc
       0.06333216 0.033069964 0.066035755 -0.014151962
000150 5f af af bb 06 53 93 3c c4 e7 90 3d 1d 3c b1 bb
       -0.005361482 0.017983925 0.07075456 -0.0054087774
000160 2a 1e e1 3c bc 34 f7 3c 79 83 4f 3d 8a 49 0a 3d
       0.027480204 0.030176513 0.05066249 0.03376154
000170 62 d2 51 3c 52 ff 9c 3d 5d ce e1 3c e5 40 c5 3c
       0.012806507 0.07665886 0.027564222 0.024078796
000180 32 9c 08 3c 53 3b 3e 3d 1a aa 1e ba 11 f7 6e 3c
       0.008338021 0.046443295 -0.0006052569 0.014585272
000190 c3 61 ae 3c 8e 8f 1f 3d 97 d5 cd 3c 58 56 3a 3d
       0.02128685 0.038955264 0.025126262 0.0454925
0001a0 78 4b ed bc da f7 d1 3b e1 82 f2 bc 03 95 ee 3c
       -0.02896665 0.00640772 -0.029603424 0.029123789
0001b0 fe d3 0d 3d c1 0b 4c 3c 81 96 63 bd 23 ad 79 3c
       0.034626 0.012453974 -0.055563454 0.015239033
0001c0 55 82 49 bc 8d da b6 bb f0 ff ff bc e9 7f 80 bd
       -0.01229914 -0.0055802525 -0.03124997 -0.06274397
0001d0 45 0b 3e 3d 25 5b 60 bd 8b 42 08 3c 6a 1c 94 3c
       0.046397466 -0.054774422 0.008316646 0.018079955
0001e0 e6 80 1e bd c5 5a e0 3c b8 d3 fd 3c 96 4e 17 3d
       -0.038697146 0.027387032 0.030984744 0.03694018
0001f0 6d 89 02 3c 8f b0 96 3a eb 4d ac 3c 1d 1b d0 3c
       0.007967335 0.001149671 0.021033248 0.025403554

network_body._body_endoder.seq_layers.2.weight f4 [128, 128]
000000 bd f3 12 be 80 68 86 bd e4 75 87 bd 09 a3 35 3e
       -0.14350791 -0.065629005 -0.06614283 0.17737974
000010 c9 2e b3 bd e8 8e 62 3d 41 f8 39 be 5f f8 11 bd
       -0.08749158 0.055312067 -0.18161108 -0.035637256
000020 6f 44 fa bc 92 3d 8e bd 31 4e 6f bd 12 0e 91 bb
       -0.03055021 -0.06945337 -0.05842418 -0.004426726
000030 a6 95 a7 3d 98 45 dc bd 8c 7d e2 bd 60 b3 77 bd
       0.0818284 -0.107554615 -0.110591024 -0.0604738
000040 ea eb ad 3c e4 aa c3 bd d2 eb 43 3e c7 6c 5a 3d
       0.021230657 -0.09554079 0.19132927 0.053326394
000050 23 df 13 be 30 34 8f 3d 94 cb 2b 3d 54 5e d7 bb
       -0.14440589 0.06992376 0.041942194 -0.006572524
000060 19 e1 2b bd 22 dd 40 bd 44 90 31 bc 74 0f 77 bd
       -0.041962717 -0.04708589 -0.010837618 -0.06031747
000070 1b 73 a9 3d 01 80 99 3d d3 e7 34 3d 96 5e 53 bd
       0.08273908 0.07495118 0.044166397 -0.051603876
000080 7d 82 b0 bd 10 9c df bd a7 52 dd 3d 0a 4b a1 bc
       -0.08618639 -0.109184384 0.1080678 -0.019689102
000090 fa f3 01 be 9f dd a4 bc 58 bf 05 bd 2e 25 74 3b
       -0.12690726 -0.020125208 -0.032653183 0.0037253606
0000a0 31 e8 e8 3d 53 71 2d bd 2b 03 19 bd ec 3e 19 bd
       0.11372412 -0.042344403 -0.037356537 -0.037413523
0000b0 10 a7 0e 3d fe 1e 12 3d 17 1a 00 3b 9c 17 22 3c
       0.034827292 0.035674088 0.00195468 0.009893324
0000c0 e7 5b 85 3d 6f a3 ba 3b 9e 1c 6d bd c9 a5 35 bd
       0.065116696 0.0056957523 -0.05788862 -0.04434756
0000d0 83 1b 2a 3d 76 43 00 bd 55 b4 49 3d 88 5b 87 3c
       0.041530143 -0.031314336 0.049244244 0.016523138
0000e0 f2 48 c3 bd 4e 55 c3 3c f7 f3 4f 3d fc f1 2d bd
       -0.095353976 0.023844387 0.050769772 -0.042467102
0000f0 22 ca 61 3c 14 ee 2a 3d 28 54 85 3d 29 c4 d2 3d
       0.013781102 0.041730955 0.06510192 0.10291321
000100 f6 85 95 bc de 86 2e be 1b 62 fb bd 02 d5 28 3e
       -0.018252354 -0.17043635 -0.122745715 0.16487506
000110 69 e5 87 3d 66 d5 6c bc 9e e8 33 bb e4 dd 5b 3d
       0.066355534 -0.014455175 -0.0027451883 0.05367841
000120 92 9e 00 be a7 8e 37 bd 22 8a 2c 3e 93 ff 87 bd
       -0.1256049 -0.04481378 0.16849568 -0.06640544
000130 5b 2f 13 be 3d 0e 92 3d 29 6a 94 3d 26 5f 48 be
       -0.14373533 0.07131622 0.07246811 -0.19567546
000140 11 64 26 3d f1 b7 8d bd a9 b2 d4 bc d9 12 df bc
       0.040622775 -0.0691985 -0.025964098 -0.027230667
000150 ce 67 e9 bd 27 dc 2b be b9 7e 82 bd e2 57 aa bd
       -0.11396752 -0.167832 -0.06371827 -0.083175436
000160 2f 2c cb 3c 8c 08 5e 3d 50 b7 d2 3d dc 58 1c 3c
       0.024801342 0.05420737 0.1028887 0.00954267
000170 06 44 8e 3d f6 00 27 be 5a 55 18 3d 23 87 52 bd
       0.06946568 -0.1630896 0.037190773 -0.051398408
000180 72 fa 45 3b fd 0d 88 bc 22 63 b3 3d 33 ac 2e 3d
       0.0030209091 -0.016608233 0.087591425 0.04264469
000190 d5 f3 58 3d 18 12 de 3d 5a ab 7d 3d 83 fe b8 3d
       0.05296691 0.10843295 0.06193099 0.09032919
0001a0 8e 0c 4c bd ff 0a da 3d b0 54 93 bd f6 c4 0e 3e
       -0.04981666 0.106466286 -0.07193887 0.13942322
0001b0 d6 23 65 bd 1b bb 4f 3e ec fa cc bd 59 a0 8b bc
       -0.05594238 0.20286219 -0.10008797 -0.017044233
0001c0 78 f1 ca bc ba 89 a6 3d 61 a6 94 3d 56 66 06 be
       -0.024773344 0.08131738 0.07258297 -0.13124976
0001d0 4b 81 3e bd 8e ec 20 3d 7a 59 8a 3d 75 b5 5e bd
       -0.046510022 0.039288096 0.067553475 -0.05437227
0001e0 cb 55 d0 3c 90 ce bb 3c 10 a1 2d 3e 71 4f ee bd
       0.025431534 0.022925645 0.16955972 -0.11636246
0001f0 bf 48 70 bd db 23 d8 3d b0 79 9b bd c2 c8 70 3d
       -0.058663126 0.10553714 -0.075915694 0.058785208
000200 82 e2 54 be ce a1 b0 3c 54 8b 48 bd 84 e6 4b 3d
       -0.20789531 0.02156153 -0.048961 0.049780384
000210 53 2a eb 3c 24 9b df 3d 93 0c 23 be d1 47 d0 3c
       0.028706705 0.109182626 -0.15922765 0.02542487
000220 12 c9 3a bd 56 88 bb bd 83 07 e0 3d 56 da 75 bd
       -0.04560191 -0.091568634 0.10938933 -0.060022675
000230 66 bc e2 3d 56 02 2f be 84 1f 99 bc 5f ba 1b 3e
       0.110710904 -0.17090735 -0.018691786 0.15207814
000240 41 7c 93 bc ef cf ba 3d dd 2c 07 3e 81 1d 9d 3c
       -0.018003585 0.091216914 0.13200708 0.019179108
000250 99 e0 6b 3d 3d 01 eb 3c c5 14 3c bd cf 9f 8b 3e
       0.05758724 0.028687114 -0.045918245 0.27270362
000260 db fb 2c be a7 48 aa bd 1c 7b f2 3d a3 e1 c4 3d
       -0.1689295 -0.083146386 0.118398875 0.09613349
000270 45 7f fe bd 38 eb f7 3d e0 a4 ad 3d ab 9d 96 3b
       -0.124266185 0.12105411 0.08478713 0.004596432
000280 b0 f4 13 bc 20 f3 bd 3d b6 50 9b bd 6a 1e 54 3e
       -0.009030506 0.09274888 -0.07583754 0.20714727
000290 2c 44 15 3e e0 29 76 3d 3f 91 f4 bd 9e e0 bd 3d
       0.14576787 0.06009853 -0.11941766 0.09271358
0002a0 da 36 0e bc fa 5c ab 3c fe 58 a9 3d 5d bd 21 bd
       -0.00868007 0.020918358 0.08268927 -0.03948723
0002b0 85 4a 1d bd 8f 2e 51 3d 55 25 55 3d da 17 63 3e
       -0.038401145 0.051069792 0.052037556 0.22177067
0002c0 1e 99 53 bc 26 32 10 3e b5 d2 5c bc 30 4a e6 3c
       -0.012914924 0.1408163 -0.013477971 0.028111547
0002d0 48 1d cb bd 9c 4c 93 3d 73 61 2b be 00 fd 13 be
       -0.09917694 0.071923465 -0.16736393 -0.1445198
0002e0 9d db c3 3d 4a 65 8c bd 63 b9 42 3e 49 89 40 3d
       0.09563372 -0.06855257 0.19016032 0.047005925
0002f0 ce 29 e9 3d cf cf ad bb 81 3a 43 3d aa 17 aa 3d
       0.11384927 -0.0053043137 0.047663216 0.08305295
000300 38 4b be 3c 98 43 9f 3d 2a 38 28 3e db 37 0d 3e
       0.023229226 0.07776564 0.16427675 0.13790838
000310 e7 49 c0 3d 5d ab ff 3d a4 8f c5 3a a3 31 ae 3d
       0.09389096 0.12483857 0.0015072715 0.08505561
000320 28 1f fd 3c 99 23 78 3d 73 f1 db bd 71 f2 24 3c
       0.030898646 0.060580824 -0.10739412 0.010067568
000330 87 c6 7c bc 5d 85 f0 3d 1a e4 ec bc 0a f4 69 3e
       -0.015428192 0.11744187 -0.028917361 0.22847
000340 a7 11 60 be 6e fd 9d bd 08 62 10 3d 51 df 94 bd
       -0.21881734 -0.077143535 0.03524974 -0.07269157
000350 1f ec f0 3c 88 82 6f bd a5 8f 3b 3d 8e d3 26 3d
       0.029409466 -0.058474094 0.045791287 0.040729098
000360 3a 0f e3 3d eb 96 0c 3e fb df 46 bd ad 9f 84 bd
       0.110868886 0.13729446 -0.04855345 -0.06475768
000370 8d f8 3b be 0c 64 6e 3d a9 00 03 3e fb d4 dc bd
       -0.18356533 0.05820088 0.1279322 -0.1078281
000380 57 d1 e3 3d 7c ea 8e bd c5 29 2a 3e a6 03 d9 3d
       0.11123913 -0.06978318 0.16617496 0.10596399
000390 41 85 74 bd a4 f0 a3 bd 1a 0c c2 bc 2b 6a d9 bd
       -0.059697393 -0.08004883 -0.023687411 -0.10615953
0003a0 f3 1b 74 3d bb 3b 2e 3c c4 db fd bd 18 97 49 be
       0.059596967 0.010634358 -0.123954326 -0.19686544
0003b0 09 f6 fa bd 47 80 3b bd 49 1b 94 3d 8b 06 26 3e
       -0.12253959 -0.04577663 0.07231767 0.16213433
0003c0 74 f2 03 3e 45 38 28 3e 52 35 45 bb 6b 74 40 3d
       0.12885457 0.16427715 -0.0030091596 0.046986025
0003d0 20 d4 27 be 4f 98 d1 3d 51 be 44 be ad ff 97 3d
       -0.16389513 0.10234129 -0.19213225 0.07421813
0003e0 12 39 00 3e 26 f2 d8 bd 5d b3 49 3e fb ca 31 bc
       0.1252177 -0.10593061 0.19697328 -0.010851617
0003f0 ba c1 1b bc 51 c0 f3 3d 94 fe c6 bd b6 81 21 3d
       -0.009506637 0.11901916 -0.09716526 0.039430343

network_body.observation_encoder.processors.0.normalizer.running_mean f4 [24]
000000 78 21 0a 3f bf ea 3a 40 3d cc 32 40 f8 06 7d c0
       0.5395732 2.9205778 2.7937157 -3.9535503
000010 38 8d b8 3f 7b b9 d2 3f f0 f4 f3 be 9e af 07 b4
       1.4418097 1.6462854 -0.4764781 -1.2636744e-07
000020 ec 19 21 3e fc cb ad bf bf ea 3a 40 71 29 50 3f
       0.15732545 -1.3577876 2.9205778 0.81313235
000030 91 c0 bc 3b a8 fe 3f 40 73 29 38 40 c2 dc 81 c0
       0.0057602604 2.999918 2.8775299 -4.058198
000040 c2 99 bd 3f 63 39 d7 3f a4 af 0a bf 18 1f 09 b4
       1.4812548 1.6814388 -0.54174256 -1.2770431e-07
000050 99 10 fd 3d 5c 6e 57 bf a8 fe 3f 40 0e 47 c4 3f
       0.123566814 -0.8415277 2.999918 1.5334184
