Assets/results/PingPongAgent/PingPongAgent/checkpoint.pt (torch, 498103 bytes, 41 tensors)

network_body.observation_encoder.processors.0.normalizer.running_mean f4 [24]
000000 00 00 70 b4 14 fc 3a 40 32 b5 9f 3f 74 07 11 c1
       -2.2351742e-07 2.9216356 1.2477171 -9.06432
000010 83 a2 b6 3f 9a 71 18 40 e8 88 a9 c0 d5 1f 33 b4
       1.4268345 2.3819337 -5.297962 -1.6682255e-07
000020 c1 67 85 3f 1e 9d 36 be 14 fc 3a 40 5b 37 64 42
       1.0422288 -0.17833373 2.9216356 57.054058
000030 00 00 04 35 2c fd 3f 40 d9 e9 a2 3f 6e e6 19 c1
       4.917383e-07 2.9998274 1.2727615 -9.618757
000040 89 a3 bb 3f 70 e8 1e 40 82 a3 b7 c0 70 8f 33 b4
       1.4659282 2.4829369 -5.7387094 -1.6722856e-07
000050 f9 e5 81 3f 74 ca 09 be 2c fd 3f 40 16 b6 69 42
       1.0148307 -0.13456136 2.9998274 58.42782

network_body.observation_encoder.processors.0.normalizer.running_variance f4 [24]
000000 00 50 01 4c 1a 07 76 45 98 de 96 49 f8 c5 14 4b
       3.3898496e+07 3936.4438 1.235923e+06 9.750008e+06
000010 d4 c6 c0 44 6c 7c 12 4a 51 18 3b 4b 00 00 80 3f
       1542.2134 2.400027e+06 1.2261457e+07 1.0
000020 17 a1 4d 4b 54 c6 19 4d 1a 07 76 45 04 00 18 4c
       1.3476119e+07 1.6124448e+08 3936.4438 3.9845904e+07
000030 ee c5 04 4c ed fd 1f 41 66 df 9a 49 75 5a 21 4b
       3.480569e+07 9.999494 1.2687168e+06 1.0574453e+07
000040 b6 91 17 44 df 15 16 4a 9c 8c 41 4b 00 00 80 3f
       606.27673 2.4589998e+06 1.2684444e+07 1.0
000050 c0 88 50 4b 7b c3 1d 4d ed fd 1f 41 b9 97 15 4c
       1.3666496e+07 1.6542712e+08 9.999494 3.921482e+07

network_body.processors.0.normalizer.running_mean f4 [24]
000000 00 00 70 b4 14 fc 3a 40 32 b5 9f 3f 74 07 11 c1
       -2.2351742e-07 2.9216356 1.2477171 -9.06432
000010 83 a2 b6 3f 9a 71 18 40 e8 88 a9 c0 d5 1f 33 b4
       1.4268345 2.3819337 -5.297962 -1.6682255e-07
000020 c1 67 85 3f 1e 9d 36 be 14 fc 3a 40 5b 37 64 42
       1.0422288 -0.17833373 2.9216356 57.054058
000030 00 00 04 35 2c fd 3f 40 d9 e9 a2 3f 6e e6 19 c1
       4.917383e-07 2.9998274 1.2727615 -9.618757
000040 89 a3 bb 3f 70 e8 1e 40 82 a3 b7 c0 70 8f 33 b4
       1.4659282 2.4829369 -5.7387094 -1.6722856e-07
000050 f9 e5 81 3f 74 ca 09 be 2c fd 3f 40 16 b6 69 42
       1.0148307 -0.13456136 2.9998274 58.42782

network_body.processors.0.normalizer.running_variance f4 [24]
000000 00 50 01 4c 1a 07 76 45 98 de 96 49 f8 c5 14 4b
       3.3898496e+07 3936.4438 1.235923e+06 9.750008e+06
000010 d4 c6 c0 44 6c 7c 12 4a 51 18 3b 4b 00 00 80 3f
       1542.2134 2.400027e+06 1.2261457e+07 1.0
000020 17 a1 4d 4b 54 c6 19 4d 1a 07 76 45 04 00 18 4c
       1.3476119e+07 1.6124448e+08 3936.4438 3.9845904e+07
000030 ee c5 04 4c ed fd 1f 41 66 df 9a 49 75 5a 21 4b
       3.480569e+07 9.999494 1.2687168e+06 1.0574453e+07
000040 b6 91 17 44 df 15 16 4a 9c 8c 41 4b 00 00 80 3f
       606.27673 2.4589998e+06 1.2684444e+07 1.0
000050 c0 88 50 4b 7b c3 1d 4d ed fd 1f 41 b9 97 15 4c
       1.3666496e+07 1.6542712e+08 9.999494 3.921482e+07

network_body._body_endoder.seq_layers.0.weight f4 [128, 24]
000000 9a 3f 81 be 98 21 06 be f2 71 ed 3e 6e ba 1a be
       -0.25243837 -0.13098752 0.46375996 -0.1511018
000010 5d f0 b0 3c 2a fb 1f 3e 5d e4 5a 3e 44 dd cf bd
       0.02159899 0.15623155 0.21376176 -0.10149625
000020 e6 27 67 3e 52 cf ca bd ae 2b 2b be fc 7c ae be
       0.22573814 -0.099028245 -0.16715881 -0.3407973
000030 1a 30 8a 3e 3c 5a 2d 3e 57 22 a0 3d de 4b 65 3d
       0.26989824 0.16928953 0.0781905 0.055980556
000040 de 0d fd bd f9 14 84 bd 25 d5 70 bc ca ef 09 3e
       -0.123561606 -0.06449313 -0.014699255 0.13470379
000050 e3 29 e3 bd 37 d6 dd bd 6a 18 c2 bd 34 d7 f6 3d
       -0.11091974 -0.10831874 -0.09477313 0.120527655
000060 99 28 03 3c 02 c3 1c bb f0 17 bd 3d ab 84 50 be
       0.008005285 -0.0023919945 0.09233081 -0.20363109
000070 93 a7 4a 3d cb a1 cc 3c 5c df fc bd 41 1c 71 bd
       0.049476217 0.024979493 -0.1234729 -0.058864836
000080 7a 13 4f be aa fd 37 3e 51 d9 2f 3e bd bb 19 bd
       -0.20222273 0.17967859 0.17172743 -0.037532557
000090 7a 64 62 3e e9 c1 13 3d 67 a5 1c 3e 7d 86 a9 3a
       0.22108641 0.0360736 0.15297471 0.0012933757
0000a0 ce 3e 87 3d 69 27 d4 3d f6 63 5e 3e cb 76 a9 bd
       0.06603776 0.103590794 0.2171782 -0.08274611
0000b0 22 5e 57 3d e1 de 12 3e eb 3e 84 3d 3c 53 f3 3d
       0.052580006 0.14342834 0.06457313 0.1188111
0000c0 93 36 25 be 35 31 c2 bd 80 f5 94 bc 3f a6 c2 3d
       -0.161341 -0.09482042 -0.01818347 0.09504365
0000d0 e5 76 c6 be b0 39 93 bd 4a 04 62 bc 02 57 ca bc
       -0.38762584 -0.071887374 -0.013794968 -0.024699692
0000e0 5e a8 53 3e fd 17 26 bb 7d 8a 22 be 76 87 61 bc
       0.20669696 -0.0025343888 -0.15873142 -0.013765207
0000f0 dc 3c a2 bd 8e eb 83 be 41 e5 69 bd 10 73 07 be
       -0.07921764 -0.2576565 -0.0571034 -0.13227487
000100 08 d1 87 be e7 77 9f be c7 ec 83 bc b9 de 3f 3e
       -0.26526666 -0.31146166 -0.016104115 0.18737306
000110 69 2f de be 5c 6e b6 bd fe e8 ae be e0 07 ac 3b
       -0.43395546 -0.08907768 -0.34162134 0.005249962
000120 0a 8c 89 bd 22 ae 96 3d 43 2d c1 3d 4d 17 cb be
       -0.067161635 0.07357432 0.09432461 -0.39666215
000130 47 64 b5 bd b9 05 2b bd 20 9e 62 be 61 7d 6a 3e
       -0.08857017 -0.041753504 -0.22130632 0.22899391
000140 64 81 d3 3d da 6b 71 3e 4b b4 21 3e 15 99 50 3e
       0.10327414 0.23576298 0.15791433 0.20370896
000150 8f cf 99 3b 33 67 a7 bd 80 f0 18 3e 7b 1c 9b bd
       0.0046939324 -0.081739806 0.14935493 -0.075737916
000160 68 8f f4 3d d0 04 94 bd 00 dd f1 3c 9a 72 82 bd
       0.11941415 -0.072274804 0.029524326 -0.06369515
000170 d6 04 00 3e 8e ed ae be 83 dd 9d be 86 e9 2a be
       0.12501845 -0.34165615 -0.30833063 -0.16690645
000180 47 6f 50 3c 20 b9 b2 3b 49 cb ba 3a 8d 1f 10 be
       0.012721843 0.0054541975 0.0014251258 -0.14074536
000190 08 92 b1 3d e3 44 40 3c ef 31 d4 3d 62 63 96 bd
       0.086704314 0.011735174 0.103610866 -0.073431745
0001a0 02 41 7f be 9c 9e 1c 3e 8b bb a5 be f7 cf a3 be
       -0.24927142 0.1529488 -0.32369646 -0.31994602
0001b0 d3 68 98 3e 96 f2 23 bd cf 6a 6f be 15 ce 67 3d
       0.29767475 -0.04002627 -0.23380588 0.05659302
0001c0 be ef d5 3d ba 7e a3 3d 47 07 61 3b b4 a4 c3 bd
       0.10446118 0.079831555 0.0034336613 -0.09552899
0001d0 ce 26 a5 3d 03 00 09 3e a6 2f 30 3e a6 65 71 3e
       0.08064042 0.1337891 0.17205676 0.23573932
0001e0 90 b1 6b be d2 d3 68 be 43 44 6b 3e 23 91 ab be
       -0.23016953 -0.22737053 0.22975259 -0.33509168
0001f0 dd 48 8a 3d 38 b6 78 3e 2c 15 35 3e 8d d1 2a be
       0.06752179 0.24288261 0.17683858 -0.166815
000200 e2 4f 17 bc 62 44 d6 bd b5 43 26 3e 6d 4f c0 3d
       -0.009235354 -0.10462262 0.16236766 0.09390149
000210 9e 8f a8 bd ce e2 7a be 77 4b ca 3e 40 d5 af 3c
       -0.08230518 -0.24500582 0.395107 0.02146399
000220 34 bf 18 3e f7 bd 86 3e 9d 31 0b be 6e 60 67 3e
       0.14916688 0.26316807 -0.13593145 0.22595379
000230 d0 41 d6 bc 6b ae bf 3d be f7 08 be ce ce bd bc
       -0.026154429 0.093594395 -0.13375756 -0.023169901
000240 5d 70 cc 3e 87 77 77 be 9d df a2 be f6 5c 4c 3c
       0.39929476 -0.2416669 -0.31811228 0.0124733355
000250 88 7e 61 3e f8 48 28 be 59 d2 4c 3e 85 ef cc 3d
       0.22020924 -0.16434085 0.20002116 0.10006622
000260 a7 63 9a bd 32 00 eb bd ef f3 8b 3d 99 f1 9c 3e
       -0.075385384 -0.11474647 0.06833636 0.30653074
000270 20 17 b8 bd b4 f4 21 3f cc c2 6e 3e a3 56 31 3d
       -0.08988786 0.6326401 0.23316497 0.043295514
000280 a3 e1 92 3e 98 9c 96 be 79 16 2c bf 3e e7 12 be
       0.28687772 -0.29416347 -0.6722179 -0.14346024
000290 f2 3e df bd e5 b9 38 3b 0a 6a a2 be 6a ee 13 be
       -0.10900678 0.0028186974 -0.31721526 -0.14446416
0002a0 23 43 ad bd 58 18 9e be ad c5 2d bf af bb 23 be
       -0.08460071 -0.30877948 -0.67879754 -0.15989564
0002b0 ae 52 a0 3e 78 ab fd 3d ba 1a 8d be cc ac 02 be
       0.3131308 0.12386221 -0.27559453 -0.1276123
0002c0 03 2f 59 be 3d 09 b5 3e a0 03 8e 3d 9b 80 cf bd
       -0.2120934 0.3535861 0.06934285 -0.101319514
0002d0 9a 57 e9 3d 60 26 60 be b9 42 ed bd b9 4f 5f 3e
       0.11393662 -0.21889639 -0.11584992 0.21807756
0002e0 6e 02 85 bb 96 8e 89 bd 8b 2e 88 bc 27 9b 67 bd
       -0.0040591275 -0.06716649 -0.016623756 -0.05654445
0002f0 00 2e 1a 3c f7 75 57 3e 5b 2b a3 3d c2 62 99 bd
       0.009410381 0.21041094 0.07967254 -0.0748954
000300 41 13 56 be 8c 5a 3c 3e f9 24 bd bb c5 12 97 bd
       -0.20905782 0.18393916 -0.0057722297 -0.07376627
000310 a1 2b c8 3d b7 05 8b be 2b 7d ec 3c c7 70 be be
       0.097739466 -0.27152798 0.028868278 -0.37195417
000320 cb c7 fa bc a7 e5 a7 bb 02 ae 1f be 1e b0 77 3d
       -0.030612847 -0.0051238122 -0.15593722 0.060470693
000330 88 7b 87 bd 1f 17 94 3d 64 cc 19 3e 40 ee 9c 3d
       -0.066153586 0.072309725 0.15019375 0.0766263
000340 4c 4d c5 3e d1 92 64 bd 96 99 b9 bd 94 73 e4 3d
       0.38535535 -0.055804078 -0.09062497 0.11154857
000350 c4 29 bc 3e f0 3e 4a be c1 e3 0d be c2 c8 2d be
       0.36750615 -0.19750571 -0.13856412 -0.16971114
000360 3e 33 68 3d 9f 84 b6 bd 81 00 3b 3b d1 a6 d7 be
       0.056689493 -0.08912014 0.0028534236 -0.42119458
000370 f5 ff ba 3d 2a ef 8b be e0 f4 6d be 15 16 b8 be
       0.09130851 -0.27330905 -0.23237944 -0.35954347
000380 8e f5 b8 bc 56 8e 85 be 54 30 bc 3e 0f c6 36 3d
       -0.022578027 -0.26085156 0.3675562 0.044622477
000390 7e 30 89 3e ad 10 95 3d 4b 06 92 be d6 3e f1 bd
       0.2679481 0.07278571 -0.28520426 -0.11779563
0003a0 94 ec 6b 3e 1c 36 19 bc 0e 72 85 be 0b f9 84 be
       0.23039466 -0.00935128 -0.2606358 -0.25971255
0003b0 04 85 a0 bd 07 f9 43 bc d1 76 7a bc a0 9a a1 3d
       -0.07837871 -0.011961228 -0.015287117 0.078908205
0003c0 ac ac d2 bd ab fd 0b 3e e3 52 f3 3d 2b ea 7e 3e
       -0.10286841 0.13670985 0.11881044 0.24894015
0003d0 fd 6e 2e 3d e9 80 e2 3c 30 4a d8 3e 9c 5b 00 3f
       0.042586315 0.02764936 0.422441 0.50139785
0003e0 28 1d 8d bd 99 80 79 3e e9 0f c7 bd 6a 8d 95 3d
       -0.06890327 0.24365462 -0.097198315 0.07302363
0003f0 83 bc 1a be ff 44 53 be af c7 2b 3e ec f4 3a be
       -0.15110974 -0.20631789 0.16775392 -0.18257493

network_body._body_endoder.seq_layers.0.bias f4 [128]
000000 16 23 c2 3b c2 8a 7b 3b 98 11 8a bc f4 17 86 3c
       0.0059245927 0.0038382267 -0.016854092 0.016368844
000010 9c a0 3d bc 8f 99 39 3c 73 80 98 bc 51 6a 21 3c
       -0.011573937 0.011328115 -0.018615937 0.009852008
000020 c1 3c b6 3c b8 9e 9e 3c 64 cf 8e bc 5e fe cd 39
       0.022245767 0.019362792 -0.017432876 0.00039290165
000030 7b aa 3b bc 89 d1 d5 3b 15 29 08 bc e9 7f 40 3c
       -0.01145422 0.0065252227 -0.008310576 0.011749246
000040 0a c8 17 bc 9b a1 7c 3c e4 2e be bb cd 13 81 3c
       -0.009264002 0.015419389 -0.0058039296 0.015756512
000050 c7 98 c5 3b 6a f7 0c bc d6 6c ac 3c 69 a2 46 bc
       0.0060301754 -0.00860391 0.02104799 -0.012123683
000060 bf 6e 48 3c bc 15 7f 3c f0 c8 95 bc 78 fd eb 3b
       0.012233435 0.015569147 -0.018284291 0.0072018467
000070 1c d3 0a 3c a2 9d c1 3b f4 82 76 bc e9 cb 83 bb
       0.008473184 0.005908684 -0.01504587 -0.0040221107
000080 2c d8 5f 3c 96 1a 50 3a 98 5f 4f bc 0a 6c 14 b9
       0.013662379 0.0007938532 -0.012657069 -0.00014154628
000090 be 27 aa 3b c7 dc 64 bc f3 73 e9 3b 5f 0c d2 3b
       0.005192726 -0.013968653 0.007124418 0.006410166
0000a0 03 21 19 3c 13 91 07 3c 81 2d 59 3c 24 26 37 bc
       0.0093462495 0.0082743345 0.013255478 -0.011178527
0000b0 36 12 0b bc 76 55 f8 3a e0 0f 83 3b 96 59 0c bc
       -0.008488229 0.0018946368 0.003999695 -0.008566281
0000c0 78 78 75 bb 03 9e a2 3c da 53 ed 39 14 9b 9e bc
       -0.0037455838 0.019850736 0.00045266637 -0.019361056
0000d0 5e d7 71 bb 9d 0d 55 3c 93 a9 87 3c 4f 98 db 3b
       -0.003690205 0.013003734 0.016560351 0.006701506
0000e0 75 e1 65 3c 7b 9a 44 3c f2 8f 87 3c 1d 99 24 3a
       0.014030804 0.011999722 0.01654813 0.0006278919
0000f0 63 c7 4a bc 3f a4 59 3c 5f 54 9c 3c c7 0f 1a 3c
       -0.012376639 0.013283788 0.0190832 0.009403176
000100 0f 4f 09 bc 27 29 18 3c 4a fb 1e bc 55 30 8a bc
       -0.008380665 0.009287155 -0.009703467 -0.01686875
000110 8a 71 27 3c 05 6c 9d 3c 3c 26 67 bc e4 9a 80 bc
       0.010219941 0.019216547 -0.014108237 -0.015698858
000120 2f c1 2d 3c 78 23 23 bc 5b 47 5b 3b 01 8f 5f 3c
       0.010605141 -0.009957187 0.003345928 0.013644935
000130 f0 dd a0 3a 3b 3b 55 3c 12 9a 72 3c ba b1 48 bb
       0.0012273174 0.01301461 0.014807241 -0.0030623511
000140 87 2a 49 bc 06 df 42 3c c7 0a 3b bc 1c 0c d2 3a
       -0.012278206 0.011893993 -0.011416144 0.0016025337
000150 90 a2 3e ba 93 bf 2e bb 83 f4 91 bb 3e 73 7a bc
       -0.00072721485 -0.002666448 -0.004454197 -0.015286265
000160 bd 32 a8 b9 43 b5 8c 3c a2 3a 25 3c 28 a4 9f bc
       -0.0003208126 0.017176276 0.01008478 -0.019487455
000170 71 e1 5c 3c d1 c6 63 bb c1 4a 4f bc 0c 97 0f bc
       0.013481484 -0.0034755955 -0.0126521 -0.00876404
000180 27 fe 13 bb e0 0e 37 bc 43 63 64 3c 55 e0 e5 bb
       -0.0022581907 -0.01117298 0.013939681 -0.007015268
000190 30 3a a4 bb 0d 1d a2 bc f5 1a 30 bc 30 4d a1 bc
       -0.0050118193 -0.019789243 -0.010748615 -0.019690126
0001a0 22 30 42 3c 4f 75 05 3c 6f 7d 9b 3b a3 3c 92 3c
       0.011852296 0.008145644 0.0047451775 0.01785118
0001b0 53 54 3c 3b 59 97 87 3c 79 4c 3d bc a4 b2 35 bc
       0.0028736785 0.01655166 -0.011553877 -0.0110899545
0001c0 75 4f 0d bc 65 07 9d 3c 5f 46 3c 3c 24 2d 8c bc
       -0.008624901 0.019168565 0.011491387 -0.017111368
0001d0 cc ca ae 3c f8 b4 1d 3c 6b 9f 88 bc c9 f2 66 3b
       0.021336935 0.009625666 -0.016677579 0.0035239926
0001e0 7e 43 0d 3c 24 01 2d 3c 08 06 38 3c 54 36 1c bb
       0.008622048 0.010559354 0.011231907 -0.0023836093
0001f0 79 31 b8 39 e8 96 50 bc 94 a0 8a bc ff 90 64 bc
       0.00035132075 -0.012731291 -0.016922273 -0.013950585

network_body._body_endoder.seq_layers.2.weight f4 [128, 128]
000000 d3 ab 8f bd 45 4b b2 3c c1 d0 b2 bc 48 6d 18 3d
       -0.07015195 0.021764407 -0.021828057 0.037213594
000010 05 c2 92 bd 3a 79 11 3b bd d0 c3 bc 9f d5 70 ba
       -0.071659125 0.00221975 -0.023903245 -0.00091871055
000020 73 ce f1 bd df 74 ec 3d d1 c7 c4 bd 1b a8 0c 3d
       -0.11806955 0.11545729 -0.096084245 0.034340005
000030 19 85 fc 3c a7 65 35 3e e5 34 f6 3a e0 c0 c2 3a
       0.030825185 0.17714559 0.0018784074 0.0014858507
000040 d8 e4 32 3b 41 21 7f bd 1d d9 39 3d 4d ee a1 be
       0.0027297046 -0.062287573 0.04537307 -0.31627122
000050 5b 02 9a 3c e3 ac ed bb 02 86 10 3d ce 56 f2 3c
       0.018799951 -0.0072532757 0.03528405 0.029582407
000060 0b ba 82 3d d9 d9 82 3a 45 30 3e be b6 2b bc bc
       0.06383141 0.0009983137 -0.18573101 -0.022970062
000070 ef 56 91 bd d0 fc 15 bc cf 8f 02 be 3a 74 6d be
       -0.070966594 -0.0091545135 -0.12750171 -0.23188868
000080 fd 53 df bd 8f 69 87 bd 90 ad f0 3d 8b 6d 52 bc
       -0.10904691 -0.066119306 0.117518544 -0.0128435
000090 0e 08 8d 3d ce ab 6f 3d b0 9b 52 3e 8d a3 4a 3d
       0.06886302 0.058513455 0.20567203 0.04947238
0000a0 98 74 bb 3d dc fc bb bd 38 21 38 bd f9 d9 4d bd
       0.09153098 -0.091790885 -0.044953555 -0.050256703
0000b0 84 a3 cc bc 07 d1 36 3e 1a d5 88 bd 7c 43 fe bc
       -0.024980314 0.17853175 -0.06681271 -0.031038038
0000c0 9f 3b 02 bd ba 67 f5 bd c0 75 aa 3d e0 7a 6b 3e
       -0.03179514 -0.11982675 0.0832324 0.22996092
0000d0 0d 37 ea 3d fc 88 d2 3a ad 59 a4 3d aa bd 0c bd
       0.11436281 0.0016062553 0.08024917 -0.034360565
0000e0 46 62 a5 3d 76 15 87 3e 74 bb ae 3d 16 65 42 bd
       0.08075385 0.2638356 0.085318476 -0.047459684
0000f0 1f 43 28 bd be f4 fd 3c 36 70 c3 3d 0a 67 93 bd
       -0.041079637 0.031000491 0.09542887 -0.071973875
000100 da 31 49 3b a5 b1 a8 3d 03 e6 f0 3c d7 af 02 bd
       0.003069988 0.08237008 0.029406553 -0.031905975
000110 4b d3 36 be 36 01 25 3e 62 2c 5b bd 24 ff bb bd
       -0.1785404 0.16113743 -0.053509124 -0.091795236
000120 55 d0 51 3d fe a9 d6 3d 8d 90 2e bd df 3e 01 be
       0.05122407 0.10481642 -0.042618323 -0.1262164
000130 ae e0 cd 3d af f6 a8 bc 56 cf 26 3d 89 05 8b 3d
       0.1005262 -0.02062544 0.040725075 0.06788165
000140 85 8e f6 bd 58 a9 59 bd bf 92 10 3e 77 13 e8 bd
       -0.12038902 -0.053140014 0.14118479 -0.113318376
000150 77 af f3 bd f0 26 01 bd cd 22 11 3c 77 1e b1 3d
       -0.11898702 -0.031531274 0.008858395 0.08648389
000160 dc 88 b4 bc bb 8a b7 3d 18 e8 30 3e 4e 46 2b bc
       -0.022037916 0.089620076 0.17276037 -0.010453774
000170 b0 88 a9 3d 84 a8 38 3c 8e 08 cc 3d 71 74 c6 3d
       0.08278024 0.011270646 0.09962569 0.09690178
000180 ef 6d 42 3e b2 18 f8 3d e6 26 37 3e 34 ce e5 bc
       0.18987249 0.12114085 0.17885932 -0.028052427
000190 24 a0 53 3d 35 9e ad bd 9c ca 0c 3c ad 65 05 be
       0.051666394 -0.08477441 0.008593228 -0.13027067
0001a0 81 a6 1f be 88 9a 83 3d d4 f3 c3 bc 2b 92 87 3d
       -0.1559086 0.06425959 -0.023919977 0.06619676
0001b0 03 b0 1b bd 78 58 f2 bd 74 9c 4c bc e7 43 fb 3c
       -0.038009655 -0.1183328 -0.012488473 0.030672027
0001c0 d6 43 ac 3c 6c e0 bf bc 40 38 d4 3d 4a 23 5a bd
       0.02102844 -0.023422442 0.10362291 -0.05325631
0001d0 93 82 34 be 26 de 1c 3e f2 bf 99 bd 6a 91 60 bc
       -0.17627935 0.15319118 -0.07507314 -0.013706544
0001e0 15 0d 50 3d c7 c1 8e 3d 9c 54 99 bd db 65 0c 3d
       0.050793726 0.06970554 -0.07486841 0.034276824
0001f0 04 e1 05 bd cd f4 39 3d cb 88 cf bc d5 56 8e 3d
       -0.032685295 0.045399476 -0.025333783 0.06950156
000200 af 93 c9 bd 32 43 d3 3d 62 13 fb bd 62 6d 94 3d
       -0.098426215 0.10315551 -0.12259556 0.072474256
000210 de 4b 46 bc 32 25 00 3e 79 a5 31 be e8 2d 8d 3d
       -0.012103049 0.12514189 -0.17348279 0.068935215
000220 95 35 b6 3d 28 57 67 3d 40 53 cf bd 1c 31 ca bd
       0.08896939 0.056479603 -0.101233006 -0.09872648
000230 64 f0 b4 3d 5c c0 29 3e ae fd 53 be 13 42 7c 3e
       0.088349134 0.16577286 -0.2070224 0.2463458
000240 74 df 50 be ef db 42 3d 42 b1 cd bd fc 9e 8c 3d
       -0.2039774 0.047573026 -0.10043575 0.06866261
000250 f8 a3 7e 3e 8d 32 1c bd 7a e2 30 bc 4e ed f3 3d
       0.24867237 -0.038134146 -0.010796184 0.11910497
000260 4e 19 63 3d 67 1a 5d 3d ca 17 d2 bd 17 89 2b 3d
       0.055444054 0.053980257 -0.10258444 0.041878786
000270 23 ea 3e bd 3a e3 8a 3d a5 98 bf 3c 53 29 d9 bd
       -0.04661001 0.06781621 0.023388216 -0.10603585
000280 a7 f8 10 bc e2 e0 9b bc c6 8e e4 bb d3 81 b9 bd
       -0.008848346 -0.01902813 -0.0069750277 -0.09057965
000290 4d 4d 26 3e 50 88 2f 3e 82 0f 61 3c 0b 4b 0e be
       0.16240425 0.17141843 0.0137366075 -0.13895814
0002a0 8b bb e5 3d 4a e1 a3 bd 2c 61 49 3d 44 70 6a 3d
       0.112174116 -0.08001955 0.049164936 0.05723597
0002b0 80 b1 b6 3d 82 88 63 be 5e 7b ca 3d 27 dd d2 3d
       0.08920574 -0.22220042 0.09886812 0.10296088
0002c0 9e 26 d6 3d 6f 94 11 be 38 de 15 be 04 35 3a be
       0.104565844 -0.14216779 -0.14635551 -0.18184286
0002d0 29 a4 53 3c dc 53 ca 3c e0 7c c2 bd ac 61 ed bd
       0.012917557 0.02469819 -0.09496474 -0.11590895
0002e0 66 9f 3b 3d 75 03 98 3c 96 9b cb 3c 86 3a 45 3c
       0.04580631 0.018556336 0.024854463 0.012037879
0002f0 56 2d 79 3d 89 aa 00 3d 48 c0 79 bb fe 26 da 3d
       0.06083425 0.031412635 -0.0038108993 0.106519684
000300 29 8e a7 3d 4c 36 6f bd f4 d2 14 3e f1 db 91 3c
       0.08181412 -0.05840139 0.14533597 0.017805072
000310 83 2d fb 3c c1 3a 1e 3e 6f ec 50 be 8d ec f3 3d
       0.03066135 0.154521 -0.20402692 0.11910353
000320 8d ba 8e 3d f6 9d a3 bb 4d a0 8a ba 64 23 0e be
       0.069691755 -0.0049931956 -0.0010576338 -0.13880688
000330 3a 6b 07 3c eb f2 dc bc a9 91 1e 3c 5c c2 43 3d
       0.008265311 -0.026971301 0.009678283 0.047792777
000340 4b 8c 4f 3d 3b 92 bd 3d 8f 79 0d 3c 75 3a 01 be
       0.050670903 0.09256407 0.008634939 -0.12619956
000350 d5 56 a6 3c 44 0d 80 3d cc 02 98 3d 71 86 88 bd
       0.020305077 0.0625253 0.074224085 -0.06666268
000360 f6 87 eb bd d6 ef 2d 3d aa 9c e8 bd 74 9b 3c 3e
       -0.11500542 0.042465053 -0.11358006 0.18418676
000370 ff b3 0a 3d 9a 6e 3c bd 57 41 b6 3d e5 b9 e1 bd
       0.033863064 -0.046003915 0.08899181 -0.11021785
000380 6c ad cf 3b db d5 b7 3d 28 76 d5 3d 69 99 f6 bd
       0.006337812 0.089763366 0.10422927 -0.120409794
000390 e8 0a d8 bd bf 18 9a 3d 6c 17 3b be 57 72 62 3d
       -0.10548955 0.07524251 -0.18270653 0.055284824
0003a0 c6 a3 b4 3d b3 08 d3 3d d8 3a 9d bd 0f 3a 9d 3d
       0.088203 0.103043936 -0.07677239 0.076770894
0003b0 9c fb 3b 3e 38 46 3f bd 92 cf 4c 3d cd ab db 3d
       0.183577 -0.046697825 0.050002642 0.10726128
0003c0 7a f2 df bd e8 29 83 3d b4 9c 0d 3e 1a f8 83 3b
       -0.109349206 0.06404477 0.13829309 0.0040273787
0003d0 62 46 40 3c 91 a2 5e bd 1e b1 f4 bd 70 66 83 bd
       0.011735531 -0.054354254 -0.11947845 -0.06416023
0003e0 38 48 81 3d b6 cc c0 3d 9e 8d 48 3e 45 ba 17 bd
       0.06312603 0.094140455 0.19585273 -0.037042875
0003f0 a6 43 78 3d 92 26 89 3b 00 ec d4 bd 00 e6 1f be
       0.06061139 0.004185506 -0.10396576 -0.15615082

network_body._body_endoder.seq_layers.2.bias f4 [128]
000000 37 eb 86 3c bf 33 83 3c 75 5f 64 3c e3 de 1c 3c
       0.016469581 0.016015885 0.013938774 0.009574625
000010 b0 60 9a bc 25 2f bf 3b c3 d9 2e bc 3e 3a 21 3c
       -0.018844932 0.0058344775 -0.010672036 0.009840546
000020 91 57 7b bb 19 24 aa 3c c3 55 22 3c 96 e8 8b bb
       -0.0038351754 0.020769166 0.0099081425 -0.0042696698
000030 f0 a7 2c 3c 50 4d 23 3b 9d d0 83 3c 98 58 35 3c
       0.010538086 0.0024917908 0.016090686 0.011068486
000040 56 b7 69 bb a1 b5 61 3b d5 84 8c 3c e3 3f 99 3c
       -0.0035662255 0.0034440535 0.017153183 0.018707221
000050 87 d8 ef bc de 8d 90 3c f0 41 ad 3c 04 4e 1d bc
       -0.029278053 0.017645773 0.021149606 -0.00960112
000060 2b da 11 3c 8a 3b 1e 3c df 7d a4 3c 4c 63 82 3b
       0.008902113 0.00965775 0.020079551 0.0039791223
000070 a0 9b 02 bb 4a 81 b7 3c 9e b3 ae bb d0 a1 88 3c
       -0.0019929186 0.022400517 -0.0053314706 0.01667872
000080 39 3b 19 bc 07 39 24 bb 59 12 69 bc ce 50 69 3b
       -0.009352499 -0.0025058405 -0.014225566 0.0035601142
000090 5b bc 0d 3c 15 d2 69 3c f1 a0 19 bc 26 9f 51 bb
       0.0086508645 0.014271279 -0.00937675 -0.003198573
0000a0 f4 d6 41 3b cb cf 81 3c 4d 1d bb bb 76 aa 87 3c
       0.0029577585 0.015846154 -0.00571028 0.016560774
0000b0 bf 85 1b bc d7 5a 31 bc d9 44 59 bb c9 6e 9d bc
       -0.009492337 -0.010824881 -0.0033152609 -0.019217866
0000c0 51 ca 01 bc cc 71 03 bb d1 fd 2d bc 64 06 5c bc
       -0.007921771 -0.0020056842 -0.010619597 -0.013429258
0000d0 78 7b fe 3b 95 ac 8e 3c 7b ad af bc f2 f7 7b bc
       0.0077661835 0.017416278 -0.021445027 -0.015378939
0000e0 5c c5 df 3b 85 0a 81 3c cf 9b 83 3c fc 44 55 bc
       0.006828947 0.015752086 0.016065506 -0.013016935
0000f0 ab cc f1 ba 22 00 48 bc ab 1f 9d bc 75 97 ad 3b
       -0.0018447837 -0.012207063 -0.01918014 0.005297596
000100 d7 52 38 3b fe ec 2c 3c 66 f3 5f 3c e0 37 12 bc
       0.0028125548 0.01055455 0.013668871 -0.008924454
000110 57 be 66 bc 79 d9 06 bc e3 26 02 bb 79 b2 71 bc
       -0.0140834665 -0.00823056 -0.0019859604 -0.014752024
000120 e3 88 c0 3c 4b 4e 1f 3c 54 28 bd 3c dc 05 6c 3c
       0.023502773 0.009723256 0.023090519 0.014405694
000130 72 f7 83 bc 18 c3 84 3c bd 05 84 3c 38 fe cb 3c
       -0.016109202 0.01620631 0.016116017 0.024901494
000140 d2 bd e3 39 16 a7 bc bb 72 1f 8c 3b fa ca f6 3a
       0.0004343824 -0.005757223 0.0042762095 0.0018828802
000150 a9 63 6f 3c 62 9b dc 3a 65 52 0d bc 2c 2d 33 3c
       0.014611163 0.0016830976 -0.008625601 0.010936063
000160 46 14 6c bc f5 db 43 3c 4b 47 3e 3c 21 65 7f 3c
       -0.01440913 0.011954297 0.011613677 0.015588076
000170 49 45 98 bc 33 18 0e 3c 5d b6 41 bc 04 66 b5 3b
       -0.018587725 0.008672762 -0.011823264 0.005535843
000180 7d 36 4a 3c 7d d9 d2 ba e5 22 54 bc d5 6d 5a 3c
       0.012342093 -0.0016086545 -0.012947773 0.01333185
000190 1a 3b 4c 3a fd b7 7c 3c 95 1c 73 3c da 9c 9d bc
       0.0007790789 0.015424726 0.014838357 -0.019239832
0001a0 01 45 39 bc 67 a6 c2 3c bb 78 fe 3b 5a 10 18 3c
       -0.011307956 0.023760987 0.007765857 0.009281242
0001b0 ab 58 6e bc be d2 96 3c 2a a5 7d bc 67 2f 05 bc
       -0.014547507 0.018411037 -0.015481273 -0.008128977
0001c0 a1 bc 9d 3c 48 2b a7 3c f9 79 f9 3b 2e e4 f8 bb
       0.019254984 0.02040638 0.007613417 -0.0075955605
0001d0 b7 f2 20 3c 36 61 9a bc d7 e1 67 bc 62 d5 07 bc
       0.009823493 -0.018845182 -0.0141529655 -0.0082906205
0001e0 ed 1e 60 3c 78 8e a4 3c 94 82 61 3c e7 af af 3c
       0.013679248 0.020087466 0.013764042 0.021446181
0001f0 00 9b 1e bc 23 41 44 bc 92 79 fe 3b b6 be 0d 3c
       -0.00968051 -0.01197842 0.007765957 0.008651426

action_model._discrete_distribution.branches.0.weight f4 [3, 128]
000000 5e 60 0b 3c 60 47 fc bb 77 ba 29 3c bd 46 f0 3b
       0.008506862 -0.0076989383 0.010359398 0.0073326514
000010 02 b0 23 3c 02 6a ee 39 86 a2 ba bb 26 d6 13 bc
       0.009990694 0.0004547388 -0.005695644 -0.009023225
000020 6b 1d a4 bb 53 72 81 3b 7c b1 0f bc 1f 78 da 3c
       -0.0050083897 0.003950396 -0.008770343 0.026668606
000030 15 c3 63 bc 3f 9a 5b 3c b0 ed f6 bb 95 06 af 3a
       -0.013901492 0.013403474 -0.007535659 0.0013353402
000040 69 9b c6 bb 78 ec 1d 3c 12 c9 9c ba 80 d1 90 3c
       -0.006061007 0.009638898 -0.0011961779 0.017678022
000050 cf fd 3c bc 47 a9 1d 3c 02 c1 b5 bb 14 95 9a 3c
       -0.011535122 0.009622878 -0.00554669 0.018869914
000060 09 ab 76 ba 7d 9b d6 bb 38 6c d0 3a 77 63 81 bc
       -0.00094096415 -0.0065492974 0.0015901392 -0.015794499
000070 25 d3 ee 3b cc 79 2e 3b 87 d7 75 3c 45 5c 17 bc
       0.007288354 0.002662289 0.015004999 -0.009238307
000080 a8 59 d1 bc b6 9b 53 3c 8b 5d cb 3a 9c 01 6b bc
       -0.025555447 0.012915542 0.0015515549 -0.014343645
000090 f7 91 63 3b ed d0 83 39 5f 7a d2 ba cf 35 b4 bc
       0.0034724453 0.0002514193 -0.0016058198 -0.021998314
0000a0 67 cb 01 bb 14 07 b6 3b b1 96 35 3b ca 56 36 bc
       -0.0019805075 0.005555043 0.0027708227 -0.011129091
0000b0 c3 61 ad 3c e9 11 e2 bb 77 b5 03 bc 4c b4 25 3b
       0.02116478 -0.0068991077 -0.00803887 0.0025284467
0000c0 8b 28 b9 bb 67 6b 2d bc 86 e4 c8 bb a6 8b f9 3b
       -0.005650585 -0.010584689 -0.0061307577 0.0076155243
0000d0 85 bd 40 bc 29 a6 05 bb a2 32 97 3b de 7c 1c bb
       -0.011763935 -0.0020393229 0.00461419 -0.0023878138
0000e0 6b e2 69 bb 1f 75 6a ba 5e e0 83 bb b0 7c 2d 3b
       -0.0035687934 -0.0008943844 -0.0040245494 0.0026472025
0000f0 84 de 6b 3b 96 3d 89 3b 29 e2 da ba e5 57 ed 3b
       0.0035990784 0.00418825 -0.0016699481 0.007243144
000100 05 25 4f bb 62 12 9f 3c 5f 75 c2 3b 5a 1b 87 3c
       -0.0031607759 0.019417945 0.005934402 0.016492534
000110 bc 0a 2a 3b 6a ce 60 3c 3c 34 95 bc 86 38 47 3b
       0.002594634 0.013721088 -0.018213384 0.003039868
000120 a7 d9 e9 3b bd 31 83 3c 89 d9 77 3c 5c fa c7 bb
       0.007136542 0.016014928 0.015127548 -0.006102843
000130 69 ff 92 bc 24 74 cf ba d2 41 db 3a d6 6b 3e 3b
       -0.017944055 -0.0015827459 0.001672799 0.0029055974
000140 d6 13 d0 bb 43 82 98 bc c9 10 91 bc 7a 38 20 3b
       -0.006350021 -0.018616801 -0.0177082 0.0024447725
000150 47 56 76 3c 67 8a 0c bd 7c 53 ac bc ee 81 dc 3a
       0.015035219 -0.03431168 -0.021035902 0.001682339
000160 af 9f cc bb 78 9b cd bb 9b 00 1a bc 25 03 8d 3c
       -0.0062446217 -0.006274637 -0.009399558 0.017213413
000170 60 55 bb bb f4 9f 13 bc d0 68 ae 3b 07 7a 86 bc
       -0.0057169646 -0.009010304 0.005322553 -0.016415609
000180 c9 10 20 bc db 81 3d bb 81 00 5a 3c d8 98 39 3a
       -0.009769627 -0.0028916511 0.013305784 0.00070799654
000190 d4 a7 86 3c b6 3b 45 bb ac cd cf 3b 5d d6 90 3b
       0.016437449 -0.0030095405 0.0063416567 0.0044200853
0001a0 de 0a 9a 3b 78 12 12 3c 38 4d 75 3b da 87 7a bc
       0.0047010025 0.008915536 0.003743006 -0.015291179
0001b0 4a aa 6c 3a 7d 02 65 39 5d 8a 07 b8 97 67 b2 bc
       0.00090280606 0.00021840069 -3.231537e-05 -0.021777911
0001c0 20 96 48 bc af 2b 85 bb 28 ee ca bb 43 2f 68 bc
       -0.012242824 -0.0040640454 -0.006192941 -0.014171424
0001d0 0e d9 53 bc 4f 38 aa ba 33 2a 38 3c ff ba 43 3c
       -0.012930168 -0.0012986752 0.01124053 0.011946439
0001e0 34 d0 4b 3b 31 5a 20 3c a5 a0 0f 3b 3f ec e4 3b
       0.003109944 0.009787128 0.002191582 0.0069861705
0001f0 a2 2a d2 bb 17 64 78 3a f0 b7 70 3b 58 87 b5 3c
       -0.0064137736 0.0009475364 0.003673073 0.022159263
000200 3e 25 85 bb a1 65 9b 3c 7d 33 03 3a b6 86 84 bc
       -0.0040632775 0.018969359 0.0005004926 -0.016177516
000210 8d eb 02 3c a9 79 5b bc 36 72 0d bc 58 8f a1 3c
       0.00799073 -0.013395705 -0.008633187 0.019721672
000220 fc 36 c3 ba d3 27 c6 3a c1 9d 30 3c 78 8e 19 bc
       -0.0014893706 0.001511807 0.010779799 -0.009372346
000230 b9 b6 7e b9 f6 cc 24 bb 84 ba 89 3c a7 54 97 3b
       -0.00024291397 -0.002514658 0.01681257 0.0046182456
000240 f9 03 b7 3b 4e 29 2c bc 80 1f 2b 3b a1 52 84 3c
       0.0055851904 -0.010507895 0.0026111305 0.016152682
000250 2d f0 55 bc 5c a2 7d 3c 63 a7 f9 3b f6 3d 12 bc
       -0.013057751 0.015480604 0.007618831 -0.008925905
000260 80 33 22 3c 6c d2 58 3b b3 7e f2 3a d8 73 9a 3c
       0.009899974 0.0033084406 0.0018500894 0.018854067
000270 e9 07 83 bc 09 11 49 3c 7a dd 8d bc 0f 53 8a 3c
       -0.015994983 0.012272128 -0.017317522 0.016885309
000280 2b 18 8f bb 01 81 7b bb 3a d1 02 bc 78 58 51 3c
       -0.0043668947 -0.0038376453 -0.007984454 0.01277744
000290 20 58 df bb ba 68 c1 ba 27 e1 ba bb e3 40 34 bb
       -0.0068159252 -0.0014755942 -0.00570311 -0.0027504496
0002a0 d1 2b 93 3c e9 bb 8f 3b 8c e7 cf bb 6a 7e 2e 3c
       0.01796523 0.0043864143 -0.006344741 0.010650257
0002b0 07 b5 8c bc 7d 67 d3 bb 6a d7 d3 3b d3 80 63 bc
       -0.017176164 -0.0064515457 0.0064648883 -0.013885695
0002c0 18 e1 0b 3c 05 51 70 3b c8 1d c7 3b 29 5f 43 bc
       0.008537553 0.0036669385 0.0060765482 -0.011924543
0002d0 7c 84 0e 38 19 5e 92 3c a7 53 d9 bb 80 34 1e 3b
       3.3978824e-05 0.017867135 -0.0066322866 0.002414018
0002e0 ee f9 c5 bb 53 23 2f 3c d0 c9 9b 3c 56 37 0f 3c
       -0.006041757 0.010689574 0.01901713 0.00874122
0002f0 90 c6 c1 3a 55 92 00 3c ce 41 6d bc 99 59 0f bc
       0.0014783908 0.007847388 -0.014481021 -0.008749389
000300 24 0f 56 bc 6f 4e 27 bc e2 3b 39 b8 77 f3 fc bb
       -0.013065133 -0.010211571 -4.4163207e-05 -0.007719453
000310 7d 8a 40 bc d3 6e 97 bc 79 95 e4 bb 81 dd e5 bb
       -0.011751768 -0.018485462 -0.0069758263 -0.0070149307
000320 e1 1c 8a 3c 0a fc 5e 3c f3 6e 6e 3c 9c fa 4c 3c
       0.016859474 0.0136098955 0.01455282 0.012510922
000330 37 3c e2 bb 8a 74 0e 3c e1 ff 54 39 40 d8 36 3c
       -0.006904151 0.008694777 0.00020313218 0.011159956
000340 44 08 ca bb e8 77 b7 bb cd 76 8c 3c 1e 54 6a 39
       -0.006165536 -0.0055990107 0.017146492 0.00022347315
000350 2a 5c 05 3c 45 e6 05 3a 04 ec 57 3b de 99 55 39
       0.008139649 0.000510786 0.0032947073 0.00020370583
000360 32 24 06 bc ac b7 12 bc d1 5f ad 3b 8b c9 00 3c
       -0.008187341 -0.008954924 0.005290963 0.007860552
000370 c7 4e 18 bc 20 a8 8c 3b de a8 97 bc 8a 00 3d 3b
       -0.009296126 0.004292503 -0.01851314 0.0028839433
000380 d4 94 2a 3c 51 e5 af 3b d4 a0 32 bc 49 e9 df bb
       0.01041146 0.005367913 -0.010902602 -0.0068332297
000390 87 d6 6d 3b d5 07 1e 3c 02 b4 d1 3b 90 90 89 bc
       0.0036291198 0.009645422 0.0063996324 -0.016792566
0003a0 16 4b 26 ba b5 34 fa 3b 79 a2 b3 3b 7b 24 30 3c
       -0.0006343586 0.0076356777 0.0054820147 0.010750885
0003b0 03 e4 ac bc 21 a7 90 3c f2 19 83 bb a6 2c 9f bb
       -0.021104818 0.017657818 -0.0040008957 -0.0048576174
0003c0 eb d1 bf 3c 7b 1b 9d 3c d8 ed 6b 3c 1a 4c 94 3b
       0.023415526 0.019178143 0.014399968 0.0045256736
0003d0 f5 ef 62 3c e6 58 4c bc 55 7b 83 bc 7d 48 40 3b
       0.0138511555 -0.012472367 -0.01605002 0.0029340081
0003e0 dd 3e 20 ba f1 ce 85 bb e6 e8 8c 3b f2 28 31 3c
       -0.0006112883 -0.004083507 0.0043002246 0.010812985
0003f0 b9 19 a7 3b 1b 1c 03 3c e3 3f 9e 3c e3 4c 8c 39
       0.005099502 0.008002306 0.019317573 0.00026760166

action_model._discrete_distribution.branches.0.bias f4 [3]
000000 e6 38 6d 3a 7f 9a 71 3c 62 91 88 bc
       0.0009049311 0.014746307 -0.016670886

exp_avg f4 [128, 24]
000000 57 d4 6b b8 b6 2d a9 39 02 da a5 b8 9a d6 25 b8
       -5.6226123e-05 0.0003226825 -7.90842e-05 -3.953893e-05
000010 1a c9 9f 39 b8 66 58 38 c6 20 e4 b8 6f c6 24 b1
       0.00030476676 5.1594077e-05 -0.00010877992 -2.3977937e-09
000020 56 62 39 38 99 2c 53 38 b6 2d a9 39 7a 07 a6 38
       4.419902e-05 5.0347855e-05 0.0003226825 7.9168894e-05
000030 a7 3c 4e b8 9c 74 cc b5 c6 ae c9 b8 37 e2 46 b8
       -4.9170714e-05 -1.5233122e-06 -9.616981e-05 -4.7417558e-05
000040 c3 b2 9a 39 06 bc 7c 38 cc 45 a3 b8 ad 2d 27 32
       0.00029506357 6.0256592e-05 -7.785446e-05 9.731065e-09
000050 bf ea 00 38 75 58 d7 38 9c 74 cc b5 4d ed 20 b8
       3.0736202e-05 0.00010268475 -1.5233122e-06 -3.8367976e-05
000060 32 e7 aa b8 52 85 8c 37 60 b0 80 b7 37 59 dd b7
       -8.149295e-05 1.6751383e-05 -1.534092e-05 -2.6386797e-05
000070 32 b8 ca 37 32 0a 1d 38 f3 79 89 38 80 8f 39 ae
       2.416605e-05 3.7441212e-05 6.555384e-05 -4.2191584e-11
000080 00 1c ae 33 6a 72 4e b8 52 85 8c 37 b3 ff 1b b9
       8.1075996e-08 -4.9220784e-05 1.6751383e-05 -0.00014877207
000090 a1 11 ab b8 08 04 a3 b4 dc 88 37 b8 18 1f 9a b7
       -8.157199e-05 -3.036405e-07 -4.375806e-05 -1.837271e-05
0000a0 29 b9 a5 37 22 4c 24 38 c3 e7 36 38 ba cf d2 30
       1.9755755e-05 3.917155e-05 4.3608026e-05 1.533855e-09
0000b0 4c 08 ab 36 82 a8 32 b8 08 04 a3 b4 7b ae 21 b9
       5.097163e-06 -4.2595442e-05 -3.036405e-07 -0.00015419156
0000c0 7b 2d 05 39 06 ce 69 b9 f0 60 b2 38 15 34 c5 37
       0.00012700811 -0.00022297361 8.5057574e-05 2.3508483e-05
0000d0 37 5c 8c b9 33 5f 53 b8 e1 39 6c 38 6b e9 7b 31
       -0.00026771586 -5.039498e-05 5.632069e-05 3.665799e-09
0000e0 da ba 19 b9 00 08 87 b2 06 ce 69 b9 e2 98 95 b8
       -0.00014660825 -1.5719706e-08 -0.00022297361 -7.13335e-05
0000f0 75 30 af 38 26 d8 48 35 67 07 04 39 c4 dc cb 37
       8.353676e-05 7.4820343e-07 0.00012591259 2.4302288e-05
000100 48 d2 5c b9 89 2f b6 b8 80 8a e9 36 24 69 26 b2
       -0.00021059171 -8.6872904e-05 6.9600646e-06 -9.686378e-09
000110 bc e3 1c b9 00 b7 43 b7 26 d8 48 35 b2 5d 1d 38
       -0.00014962157 -1.1665514e-05 7.4820343e-07 3.7518977e-05
000120 98 d0 6f b9 9d f3 1e b8 d1 c8 1f b9 ae e1 b3 38
       -0.00022870523 -3.7897018e-05 -0.00015238232 8.577421e-05
000130 73 18 8a 36 28 19 37 b7 b6 08 cb b8 55 10 be b1
       4.1155668e-06 -1.0913507e-05 -9.681417e-05 -5.5315845e-09
000140 b1 3a e4 38 bc 7f 11 39 9d f3 1e b8 90 1f 03 b9
       0.00010882819 0.00013875862 -3.7897018e-05 -0.00012504891
000150 4f 0e 6b b9 22 cd 93 b4 e6 4b 0e b9 90 a0 96 38
       -0.00022416677 -2.7530137e-07 -0.0001357045 7.1824645e-05
000160 48 4e ba b7 70 0c b5 37 1f 0f ce b8 00 aa 78 2f
       -2.220938e-05 2.1582673e-05 -9.825662e-05 2.2615865e-10
000170 4b e7 04 39 62 82 0a 39 22 cd 93 b4 20 fd fb b8
       0.00012674664 0.00013209277 -2.7530137e-07 -0.00012015761
000180 10 77 52 38 79 41 54 b9 bc 05 1f 38 cc b6 1d 37
       5.0178787e-05 -0.00020242286 3.7913895e-05 9.40049e-06
000190 3e 38 5c b9 92 be a7 36 d7 e2 84 38 8c 52 68 2f
       -0.00021001787 4.999173e-06 6.336503e-05 2.1129604e-10
0001a0 c0 5a 30 b8 66 2a 4d b8 79 41 54 b9 8a af c9 b7
       -4.2046187e-05 -4.8915295e-05 -0.00020242286 -2.4042809e-05
0001b0 e0 fd 17 38 07 04 22 35 20 d2 27 38 b2 a6 80 37
       3.6237645e-05 6.0355563e-07 4.0011597e-05 1.5336413e-05
0001c0 f8 c2 4e b9 3a 7b cd b6 c8 2f 64 38 b8 69 75 b1
       -0.00019718322 -6.1238215e-06 5.4403936e-05 -3.5712286e-09
0001d0 a2 44 35 b8 1e a2 c0 b8 07 04 22 35 04 b6 3c 38
       -4.3217682e-05 -9.18547e-05 6.0355563e-07 4.4992208e-05
0001e0 02 71 8a b8 51 d9 46 b5 47 03 01 b9 33 b1 cf 38
       -6.601402e-05 -7.4076985e-07 -0.0001230362 9.903535e-05
0001f0 99 fa 95 b6 7c 12 10 b9 9a 4f d3 b8 41 a1 b7 b0
       -4.4697194e-06 -0.00013739796 -0.00010076091 -1.3360834e-09
000200 83 99 81 b8 6e d6 66 39 51 d9 46 b5 b6 46 63 b8
       -6.179793e-05 0.0002201439 -7.4076985e-07 -5.4186872e-05
000210 3b dd 89 b8 32 4a 8b b5 6d ee df b8 4f c3 b3 38
       -6.5738765e-05 -1.0377901e-06 -0.00010677879 8.571764e-05
000220 d5 6d 10 b7 ea 10 11 b9 37 3c 81 b8 2e 91 38 b1
       -8.608641e-06 -0.00013834579 -6.162415e-05 -2.685805e-09
000230 48 9b a5 37 18 9e 64 39 32 4a 8b b5 5e 2f 7a b8
       1.9741841e-05 0.00021802669 -1.0377901e-06 -5.964876e-05
000240 cf df 04 39 a4 e6 cf 37 b6 05 fb 37 de 2e 7d 38
       0.00012671876 2.4783723e-05 2.9924191e-05 6.036355e-05
000250 65 6d 9e 37 ac c6 ba b6 b8 17 10 39 ef 82 20 32
       1.8886009e-05 -5.5663604e-06 0.00013741746 9.342997e-09
000260 72 77 a6 b6 7e 78 74 b7 a4 e6 cf 37 24 5a 97 b6
       -4.961091e-06 -1.4571588e-05 2.4783723e-05 -4.5106444e-06
000270 12 e8 00 39 82 ff 80 35 5a 54 81 38 d9 99 9a 38
       0.00012293484 9.611106e-07 6.166911e-05 7.3719486e-05
000280 8b 43 df 37 37 af 81 b7 46 16 29 39 25 b3 d9 30
       2.6615124e-05 -1.545959e-05 0.00016125393 1.5839744e-09
000290 33 ee 40 b7 c6 13 31 b7 82 ff 80 35 7c 21 f5 b6
       -1.1499552e-05 -1.0554626e-05 9.611106e-07 -7.305467e-06
0002a0 a7 09 d4 b8 05 ac 87 b8 71 b1 9b 38 0d 73 2d b9
       -0.00010110746 -6.469343e-05 7.424027e-05 -0.00016541425
0002b0 cb f4 83 b8 7c fe a7 b8 d0 e9 fc b8 8c 2c 7f b1
       -6.292163e-05 -8.010582e-05 -0.00012059847 -3.7132706e-09
0002c0 dc 19 b6 b7 5c c7 a7 b8 05 ac 87 b8 b9 41 71 b8
       -2.1708132e-05 -8.000314e-05 -6.469343e-05 -5.7520087e-05
0002d0 a6 1a 94 b8 18 98 c7 b4 bc 84 bb 37 c8 a2 32 b9
       -7.0621536e-05 -3.71773e-07 2.2353946e-05 -0.00017036044
0002e0 d8 81 a1 b8 fa c8 9d b8 8d 8d e7 b8 66 07 1a b2
       -7.7012635e-05 -7.523778e-05 -0.00011041304 -8.965662e-09
0002f0 e4 de 46 38 7c a8 d9 b8 18 98 c7 b4 22 0c b5 b8
       4.741446e-05 -0.00010378749 -3.71773e-07 -8.6330125e-05
000300 6b e7 97 b9 f2 f4 93 b8 d1 81 e6 b8 60 43 94 b8
       -0.00028973384 -7.055131e-05 -0.00010991435 -7.0697395e-05
000310 56 6e 84 b8 60 8a 17 37 ec 1a 41 b9 bd d1 8d b2
       -6.314802e-05 9.032519e-06 -0.00018415943 -1.6509938e-08
000320 05 1e 0e 39 b8 db b2 38 f2 f4 93 b8 b3 ca 0a b9
       0.00013553358 8.528627e-05 -7.055131e-05 -0.00013236217
000330 80 3d 97 b9 36 51 4f b4 a6 a6 06 b9 89 b9 ba b8
       -0.00028846785 -1.9307922e-07 -0.00012841317 -8.90373e-05
000340 c2 ee 87 b8 24 46 71 38 b5 a6 56 b9 f2 43 c5 b1
       -6.481774e-05 5.75242e-05 -0.00020470734 -5.741179e-09
000350 a6 eb 3b 39 09 d5 9e 38 36 51 4f b4 08 bb e9 b8
       0.00017921496 7.573708e-05 -1.9307922e-07 -0.00011145143
000360 70 c1 43 b9 fc 48 97 b8 0a 05 00 38 13 8c e7 39
       -0.0001866871 -7.2138355e-05 3.052227e-05 0.00044164117
000370 e0 9c 47 b6 4f e1 d8 b9 37 86 ac b9 a8 a4 62 b2
       -2.9744624e-06 -0.00041366598 -0.00032906394 -1.319237e-08
000380 a2 7b 21 39 9b 4b 71 39 fc 48 97 b8 a0 10 97 39
       0.00015400213 0.00023011716 -7.2138355e-05 0.0002881335
000390 33 63 44 b9 86 6a ae b5 b0 55 d4 38 43 24 cb 39
       -0.00018728971 -1.2995013e-06 0.00010124908 0.00038746194
0003a0 ad 19 52 b8 12 4c c1 b9 a6 4e ae b9 66 bb 6c b1
       -5.0091814e-05 -0.00036868505 -0.00033246464 -3.4449044e-09
0003b0 a2 6d 9c 38 88 c1 69 39 86 6a ae b5 1a 3f 9d 39
       7.4590804e-05 0.00022292708 -1.2995013e-06 0.00029992388
0003c0 0e fd 13 39 09 f8 83 b7 72 ce 1f b8 51 0c 23 39
       0.00014113283 -1.5731917e-05 -3.810082e-05 0.0001554948
0003d0 cc e8 23 b8 bf 1e 07 b9 ba 15 ba 38 b2 c8 8e 31
       -3.9079037e-05 -0.00012886057 8.873218e-05 4.1555603e-09
0003e0 cd 8e 3f b9 8a b3 37 38 09 f8 83 b7 ac 89 86 38
       -0.00018268377 4.379781e-05 -1.5731917e-05 6.415261e-05
0003f0 f3 11 3a 38 da c5 43 34 b8 b4 af 37 2f 4e 25 39
       4.4362572e-05 1.8232768e-07 2.094578e-05 0.00015764752

exp_avg_sq f4 [128, 24]
000000 d8 e4 8a 32 3c 01 de 34 2f f3 aa 32 92 81 f3 32
       1.616938e-08 4.135162e-07 1.9901192e-08 2.8347845e-08
000010 1b 04 c5 34 1a f2 a9 32 e0 9d e8 32 c7 c8 fe 23
       3.6697097e-07 1.9784284e-08 2.7080148e-08 2.7623768e-17
000020 7b ee 41 32 d3 ce 6d 32 3c 01 de 34 9d 37 24 33
       1.1288303e-08 1.3842242e-08 4.135162e-07 3.8234806e-08
000030 b8 ca 16 33 b6 1f 49 2c 7b 88 a6 32 73 4a fa 32
       3.5108968e-08 2.858142e-12 1.9387008e-08 2.9137686e-08
000040 10 e9 c5 34 74 b6 ab 32 0f 64 29 33 08 04 20 27
       3.6863685e-07 1.998999e-08 3.943938e-08 2.2206646e-15
000050 ca 1d 60 32 3d 62 fe 32 b6 1f 49 2c f6 30 ea 32
       1.3045289e-08 2.9614165e-08 2.858142e-12 2.726345e-08
000060 36 1d 32 33 64 7e 29 31 af 7b 34 33 63 04 5a 33
       4.147042e-08 2.4664581e-09 4.2022005e-08 5.076107e-08
000070 eb a2 ce 31 11 d8 45 33 49 88 6f 33 21 0f c0 24
       6.0139107e-09 4.6064148e-08 5.5770474e-08 8.3292356e-17
000080 c2 33 f7 32 ba c2 50 33 64 7e 29 31 2b bd 1c 33
       2.8778121e-08 4.8605877e-08 2.4664581e-09 3.6493628e-08
000090 20 1e 2d 33 26 c4 80 2c 5c 75 2e 33 02 a8 5a 33
       4.03071e-08 3.6597557e-12 4.061927e-08 5.0909883e-08
0000a0 7e 32 3e 31 a5 b0 3e 33 7e 89 6b 33 79 db 33 24
       2.767734e-09 4.439848e-08 5.484025e-08 3.900034e-17
0000b0 eb ae f3 32 4e 5b 4c 33 26 c4 80 2c db 52 1f 33
       2.8368467e-08 4.7580492e-08 3.6597557e-12 3.709543e-08
0000c0 09 17 5b 33 8d fb c5 34 f3 fb 5e 33 57 83 39 33
       5.101086e-08 3.6877137e-07 5.191755e-08 4.3193122e-08
0000d0 eb 3f d7 34 98 1b 4f 33 67 0c 85 33 fa de cc 26
       4.0093377e-07 4.822104e-08 6.195551e-08 1.4215781e-15
0000e0 0f 67 13 33 3a 7a 7a 33 8d fb c5 34 0c e5 9b 33
       3.4319836e-08 5.8318825e-08 3.6877137e-07 7.259413e-08
0000f0 aa 98 85 33 11 0a ec 2c b6 41 61 33 2e 8c 41 33
       6.2210646e-08 6.708641e-12 5.244666e-08 4.5063807e-08
000100 08 75 b3 34 c8 27 62 33 00 f9 a9 33 73 45 48 27
       3.34265e-07 5.2655906e-08 7.9149686e-08 2.7793224e-15
000110 65 ac 1e 33 75 27 8f 33 11 0a ec 2c 10 3e 80 33
       3.6944034e-08 6.6661336e-08 6.708641e-12 5.9717536e-08
000120 da 62 90 33 0e 7f 6d 31 89 96 84 33 60 46 75 33
       6.7235035e-08 3.4560261e-09 6.174111e-08 5.7107513e-08
000130 d2 9f a6 32 f6 78 4e 33 8e 38 b4 33 79 87 07 26
       1.9397621e-08 4.8073126e-08 8.3921904e-08 4.7021134e-16
000140 73 c5 1f 33 ab 4b b0 33 0e 7f 6d 31 1b a4 87 33
       3.719965e-08 8.2094026e-08 3.4560261e-09 6.316278e-08
000150 fd db 8c 33 8a 9e f1 2c 4f 56 87 33 c3 ca 81 33
       6.559274e-08 6.8672333e-12 6.302127e-08 6.043913e-08
000160 be 42 b2 31 aa cc 56 33 f8 9d a4 33 c8 ec 23 25
       5.1880695e-09 5.00119e-08 7.6655795e-08 1.4218221e-16
000170 66 d9 23 33 df 5d ac 33 8a 9e f1 2c 9c f0 89 33
       3.8149118e-08 8.026449e-08 6.8672333e-12 6.423326e-08
000180 19 51 97 32 9b 7a 97 33 d5 31 d0 32 1e e9 f7 32
       1.7615593e-08 7.053787e-08 2.4237048e-08 2.8860594e-08
000190 c7 83 89 33 fb 2b 9a 32 fe d6 e0 32 7b 36 b1 24
       6.40353e-08 1.794796e-08 2.61748e-08 7.685381e-17
0001a0 af a5 67 32 f6 76 98 32 9b 7a 97 33 8a 3c b2 32
       1.3483642e-08 1.7749226e-08 7.053787e-08 2.0749457e-08
0001b0 ee cc b4 32 98 9b f9 2b 18 7d c8 32 1d 48 01 33
       2.104795e-08 1.77357e-12 2.333995e-08 3.010074e-08
0001c0 cf 3a 7e 33 00 a9 93 32 05 db 02 33 72 db 0f 26
       5.919247e-08 1.7189905e-08 3.046718e-08 4.9910495e-16
0001d0 4f b2 67 32 90 12 a9 32 98 9b f9 2b d9 00 a6 32
       1.3486512e-08 1.968263e-08 1.77357e-12 1.9325329e-08
0001e0 2a 19 47 34 f2 a7 26 32 9b 02 31 34 02 31 3c 34
       1.8542474e-07 9.700658e-09 1.6485357e-07 1.7526693e-07
0001f0 b6 4c ea 32 41 43 32 34 1d fb 79 34 d5 0f 2d 26
       2.727607e-08 1.6602009e-07 2.3281287e-07 6.004289e-16
000200 30 73 c2 33 9c 1b 4f 34 f2 a7 26 32 85 bb 3b 34
       9.0547815e-08 1.9288422e-07 9.700658e-09 1.7483951e-07
000210 9c 94 41 34 80 21 8f 2d f3 4f 35 34 6f c5 47 34
       1.802859e-07 1.6272095e-11 1.6886024e-07 1.8605145e-07
000220 08 6f 38 32 34 53 2e 34 f4 e1 65 34 fa 92 31 25
       1.0735455e-08 1.6235282e-07 2.1409488e-07 1.54021e-16
000230 bb cb ce 33 c6 8f 49 34 80 21 8f 2d ab 7d 3e 34
       9.629681e-08 1.8771888e-07 1.6272095e-11 1.7740847e-07
000240 3f 43 05 33 b2 05 91 31 ae 4f 1e 33 a5 38 2d 33
       3.1027636e-08 4.220703e-09 3.685971e-08 4.033122e-08
000250 3a 29 c8 31 cb 30 2f 33 5c cb 2e 33 7b 6a 43 25
       5.825453e-09 4.078974e-08 4.0697486e-08 1.6949631e-16
000260 60 78 f3 32 75 09 0b 33 b2 05 91 31 8c f9 09 33
       2.8343663e-08 3.237206e-08 4.220703e-09 3.212476e-08
000270 97 c0 01 33 56 4b 5a 2c ce 11 1f 33 65 95 31 33
       3.0210312e-08 3.1021483e-12 3.7036266e-08 4.1346897e-08
000280 6a a8 5b 31 a1 a4 38 33 9b 8d 25 33 a0 40 34 24
       3.1964427e-09 4.2990568e-08 3.8545846e-08 3.9086018e-17
000290 47 30 d7 32 c4 bc 07 33 56 4b 5a 2c 62 49 0c 33
       2.5051248e-08 3.160382e-08 3.1021483e-12 3.266303e-08
0002a0 5b 4b 6d 33 d8 9d fd 33 6f fb a3 33 31 b4 91 33
       5.5249398e-08 1.1809942e-07 7.6360145e-08 6.784865e-08
0002b0 bb 8d f6 33 77 e7 5f 33 3b 4d 8b 33 ae d5 d0 25
       1.1481048e-07 5.213175e-08 6.48674e-08 3.6227043e-16
0002c0 84 52 36 33 ec af a1 33 d8 9d fd 33 9e 77 80 33
       4.2450225e-08 7.529147e-08 1.1809942e-07 5.982223e-08
0002d0 7b 44 79 33 19 e4 ce 2c a9 3a a5 33 0d f5 97 33
       5.8037113e-08 5.880196e-12 7.6940815e-08 7.07606e-08
0002e0 76 4d e7 33 93 53 59 33 61 5d 8e 33 77 b1 47 26
       1.0770866e-07 5.060026e-08 6.629376e-08 6.9282504e-16
0002f0 72 ef 34 33 a0 2c a4 33 19 e4 ce 2c 2e 17 6a 33
       4.212729e-08 7.644962e-08 5.880196e-12 5.4503452e-08
000300 f8 4b dc 33 25 63 25 32 5e c3 e5 33 a2 3e b3 33
       1.0258367e-07 9.626807e-09 1.06991806e-07 8.34673e-08
000310 84 49 f3 32 3f e6 be 33 3c 66 05 34 cd 69 7c 26
       2.8322354e-08 8.889446e-08 1.2423783e-07 8.757345e-16
000320 d4 88 80 33 9b 91 d5 33 25 63 25 32 30 35 b9 33
       5.9853534e-08 9.945071e-08 9.626807e-09 8.6244086e-08
000330 f4 01 d8 33 a3 cc 2a 2d c8 bf ea 33 74 7a bc 33
       1.0058639e-07 9.70882e-12 1.0931359e-07 8.776706e-08
000340 bc 8c 2c 32 75 a5 c7 33 ec aa f8 33 d7 3e 50 25
       1.0043717e-08 9.296756e-08 1.15794904e-07 1.8062415e-16
000350 53 e1 60 33 d8 44 cf 33 a3 cc 2a 2d eb 7d be 33
       5.2358995e-08 9.651711e-08 9.70882e-12 8.870469e-08
000360 6a 34 44 35 20 7b de 32 4a 86 0d 35 bc 79 0f 35
       7.309196e-07 2.5900192e-08 5.272201e-07 5.34488e-07
000370 15 20 03 34 a7 7c 08 35 28 9b 53 35 11 8f 87 27
       1.2211997e-07 5.084534e-07 7.882941e-07 3.762514e-15
000380 1e 1c b3 34 85 b5 3c 35 20 7b de 32 f1 01 1a 35
       3.3361806e-07 7.0299603e-07 2.5900192e-08 5.7372296e-07
000390 47 4f 3f 35 3c 73 84 2e 21 46 0e 35 21 a7 19 35
       7.126841e-07 6.023135e-11 5.3001173e-07 5.7240146e-07
0003a0 51 bf 00 33 54 d1 0f 35 1d 47 47 35 bd bb 42 26
       2.9976324e-08 5.3576264e-07 7.423676e-07 6.7561704e-16
0003b0 bf 6d ac 34 87 ba 37 35 3c 73 84 2e cb 55 1e 35
       3.2117347e-07 6.8444245e-07 6.023135e-11 5.898443e-07
0003c0 fa fb 77 33 ed 52 ed 34 41 81 9b 33 f1 c4 8c 33
       5.773834e-08 4.4205026e-07 7.241261e-08 6.5550815e-08
0003d0 8b c3 f2 34 61 9a 58 33 ba a3 9f 33 fc c8 0c 26
       4.521829e-07 5.0431826e-08 7.433796e-08 4.884464e-16
0003e0 fd e3 4e 33 1b e1 bd 33 ed 52 ed 34 e2 d7 aa 33
       4.8170467e-08 8.841945e-08 4.4205026e-07 7.955511e-08
0003f0 09 7b 9c 33 97 70 0c 2d 8d 3d 9e 33 62 48 91 33
       7.286696e-08 7.983079e-12 7.3686444e-08 6.765255e-08

exp_avg f4 [128]
000000 08 3a 28 b9 44 21 06 b8 65 41 a5 38 1f 39 f3 b7
       -0.00016043347 -3.197907e-05 7.879994e-05 -2.8994456e-05
000010 9f 4e 85 38 62 37 e5 b8 b6 47 d4 38 11 3a 24 b8
       6.3565785e-05 -0.00010929887 0.00010122305 -3.9154726e-05
000020 ca 94 aa b7 9a 82 0f b9 38 15 a1 37 9e ce d5 38
       -2.0334865e-05 -0.00013686196 1.9202576e-05 0.00010195117
000030 d8 59 da 37 66 2d e5 b7 30 25 bc b6 2c 6a fd b7
       2.6029462e-05 -2.7320068e-05 -5.607166e-06 -3.020939e-05
000040 f6 dd bf b8 0f 50 b5 b9 e1 e7 d1 37 ac 69 98 b8
       -9.148933e-05 -0.0003458266 2.5022719e-05 -7.267608e-05
000050 fc 4e ee 38 64 35 53 39 a0 a6 c2 37 3c a3 ef 37
       0.00011363436 0.00020142418 2.3204193e-05 2.8567032e-05
000060 bd 9b 9a 37 c2 b2 03 b9 98 4e c8 38 71 14 0c b7
       1.8430752e-05 -0.00012559726 9.5513824e-05 -8.34941e-06
000070 b0 88 3e b9 b7 8a a8 37 62 15 88 38 76 a7 c7 37
       -0.00018170732 2.0091755e-05 6.488968e-05 2.3800629e-05
000080 de 3d 30 b9 c4 b0 8f b9 79 ba 09 38 ba 8b b7 b8
       -0.00016807715 -0.00027406786 3.283701e-05 -8.752146e-05
000090 42 20 08 b9 6c 24 44 39 f8 41 11 b7 59 b3 95 b9
       -0.00012981988 0.00018705585 -8.658033e-06 -0.0002855312
0000a0 8f 96 29 b8 ac 85 b5 b7 4d e7 d6 37 4c eb a7 39
       -4.043296e-05 -2.1639127e-05 2.5618496e-05 0.00032028032
0000b0 1c 0e ab 37 ca df 75 b9 8b ca 45 b9 60 54 93 b8
       2.0391359e-05 -0.00023448389 -0.00018862837 -7.025222e-05
0000c0 e9 1d a0 b6 ec 8f 9e b8 2f d7 de b8 21 b7 d8 38
       -4.7718536e-06 -7.560835e-05 -0.00010625866 0.00010333793
0000d0 79 81 71 37 8e b6 6d b9 2c 25 ea b8 05 fa e0 b8
       1.4394865e-05 -0.00022670088 -0.00011164913 -0.00010727722
0000e0 a1 ef d4 b8 1f bc 4d b8 a6 a5 08 b9 9d 27 3f b8
       -0.00010153582 -4.905101e-05 -0.0001303168 -4.557484e-05
0000f0 50 44 14 38 92 dc 8f 37 c1 bf b6 b8 a0 d7 d9 b8
       3.534957e-05 1.714964e-05 -8.714153e-05 -0.000103875296
000100 e8 b2 a0 39 a8 d0 c9 36 90 e1 a7 37 76 86 a1 38
       0.00030650874 6.0145576e-06 2.0012987e-05 7.7021235e-05
000110 1a 07 13 38 5f 51 04 b9 da f3 d4 38 3a d6 e3 38
       3.5054145e-05 -0.00012618814 0.00010154369 0.00010864106
000120 63 7a 8c b8 f4 f8 76 36 2f 37 13 b7 ce 57 9f b8
       -6.6985165e-05 3.6801766e-06 -8.774731e-06 -7.598066e-05
000130 a4 22 7e 38 04 f2 96 38 bd 2d 3a b9 c0 f3 6b 38
       6.059058e-05 7.197636e-05 -0.00017755381 5.6255376e-05
000140 e4 bc 1c 39 46 84 59 b9 74 1a 05 39 9b 2c 06 39
       0.00014947687 -0.00020744008 0.00012693723 0.00012795853
000150 89 fa 92 38 99 93 91 b8 b0 dd 7e b8 55 83 16 39
       7.008488e-05 -6.941631e-05 -6.076478e-05 0.0001435404
000160 6e 92 83 37 30 c8 b0 b6 54 5e 47 b9 b4 df f0 39
       1.5684604e-05 -5.2685136e-06 -0.00019013259 0.0004594304
000170 76 df 18 b9 0f 7f ad b8 7f 8e 0c 39 67 36 c8 38
       -0.00014579095 -8.272949e-05 0.00013404524 9.5468764e-05
000180 ca 84 0c b8 da d1 71 38 4a 4f 23 b9 0d 0c 1f 38
       -3.350227e-05 5.7654317e-05 -0.00015574429 3.7919777e-05
000190 5d 64 12 b8 4b f0 92 39 92 fe 4d 38 28 01 7b 38
       -3.4902583e-05 0.00028026322 4.9112896e-05 5.984414e-05
0001a0 82 9e ac b9 50 12 e0 b7 dd 92 28 39 78 93 37 b9
       -0.00032924494 -2.6711408e-05 0.0001607644 -0.00017507176
0001b0 af 87 01 b8 0d de 1e b9 da 76 29 b8 a8 ac 0e 39
       -3.0882362e-05 -0.00015150775 -4.040343e-05 0.00013606495
0001c0 92 39 e7 39 53 d8 80 b9 48 96 0c b9 a2 20 2f 39
       0.00044102647 -0.00024575237 -0.00013407425 0.00016701457
0001d0 20 6d d2 b7 1d 6f 84 b9 a0 1c 65 39 1a dd 93 b8
       -2.5084766e-05 -0.00025259788 0.00021849805 -7.0506896e-05
0001e0 e4 22 e8 38 c3 af 0f b9 5a eb aa b8 e7 52 05 39
       0.00011069121 -0.00013703019 -8.150069e-05 0.00012714752
0001f0 cd 68 0d b8 47 95 05 38 f9 66 e0 38 fa 1c 73 38
       -3.3714623e-05 3.1848696e-05 0.000107003325 5.79627e-05
