Assets/Trining/results/Test/PingPongAgent/PingPongAgent-10010.onnx (onnx, 82986 bytes, 8 tensors)

49 f4 [24]
44.11705 0.5798503 7.6706014 23.038578 0.3612697 11.191917 28.67674 0.009994505
23.18031 95.96618 0.5798503 48.544525 44.997757 0.03160398 7.830931 24.297731
0.22950989 11.423118 29.134418 0.009994505 23.459932 97.89601 0.03160398 49.59623
00000000: dc77 3042 1271 143f 9175 f540 024f b841
00000010: 58f8 b83e 1812 3341 f769 e541 febf 233c
00000020: 4671 b941 afee bf42 1271 143f 982d 4242
00000030: b4fd 3342 2d73 013d fd96 fa40 c161 c241
00000040: a404 6b3e 17c5 3641 4a13 e941 febf 233c
00000050: f1ad bb41 c2ca c342 2d73 013d 8a62 4642

action_model._discrete_distribution.branches.0.bias f4 [3]
-0.0015335177 0.0038464877 -0.00055285596
00000000: 5100 c9ba 5b15 7c3b 89ed 10ba

action_model._discrete_distribution.branches.0.weight f4 [3, 128]
0.019999705 -0.006697783 -0.007727411 -0.004239562 -0.005157428 0.00765449 0.0015170685 0.010638806
0.017287394 0.00526837 -0.003592169 0.0008231879 0.001709378 -0.0034621856 0.023472397 0.018130302
0.0009810061 0.019992737 0.011453764 0.010865658 -0.008546546 -0.0068094847 0.0055672084 -0.0014215722
0.010514082 -0.008177019 0.008921566 -0.0050767795 -0.015440044 -0.0017791038 -0.006606112 0.0011488948
-0.009119251 0.0028843186 -0.0074531087 0.0065995394 0.008780028 0.0047610034 0.005576655 0.0022286007
-0.0040206914 -0.003788054 0.0011974919 -0.011849245 -0.0023731862 0.00463543 0.017242732 -0.0009257484
-0.016942455 -0.003081118 0.0072981096 0.0041120173 0.0005355679 0.012819345 -0.012685867 0.008509388
0.0001538939 -0.004802653 0.012240279 0.0023548857 -0.0038367093 -0.011332112 0.018176373 -0.0025076256
0.00087633106 -0.001010732 0.0012077588 0.0055152755 -0.0057192664 -0.0068966206 0.012479191 0.009499999
0.0133743035 0.012477372 0.016722728 0.0020395687 -0.0014328539 0.00885782 6.928239e-05 -0.0052088327
-0.013761226 -0.011678103 0.006843966 0.0038459052 0.010063941 0.0048296712 0.004465821 -0.0012671754
0.0052761296 0.0010736546 -0.0041250405 -0.0079449555 0.019706333 -0.015057887 -0.0003407713 0.012153114
0.00794608 0.0022012459 0.0026809066 0.0017428545 0.0061702477 0.0033472588 0.0010054421 -0.009884273
-0.009756973 -0.0037591613 -0.019612672 -0.004333345 0.0014534969 0.0076916767 0.009961382 -0.015973363
-0.01275282 0.0023657295 0.0012504782 0.005350157 -0.00062966056 0.0038731995 0.0028220997 0.0049868086
0.006595396 0.0056814784 -0.008734252 -0.007583024 0.0017105514 -0.0018587572 0.006974841 0.004803815
-0.018152244 -0.009210606 0.01057985 0.0059156213 -0.008622216 0.010922121 0.03093157 0.0012823286
0.026096791 -0.0073243096 -0.010030208 0.016458983 0.00039535397 -0.017448632 -0.0014071697 -0.004570767
-0.016441582 -0.0037949341 -0.0007845202 -0.0054234527 -0.010081094 -0.0045925356 0.009302031 -0.009708546
-0.006661332 -0.004226719 0.007100673 -0.03152867 -0.0001820626 -0.005888524 0.032551453 0.004627888
0.004494921 -0.011119713 -0.004625801 0.01737596 -0.006273442 0.0046848175 0.02390481 -0.005224475
-0.00058014813 -0.0006870615 -0.005841801 0.0109801255 -0.023911968 0.004239136 -0.0027425105 -0.005226372
0.0021768939 0.0069021466 0.0015909609 -0.011179758 4.5888977e-05 -0.01187011 0.009577416 -0.008917611
0.0021218534 -0.0033551897 -0.02508418 0.003672428 0.0018313826 -0.0067667435 -0.013554296 0.015393099
-0.009840784 -0.014085298 -0.026510956 0.0024551498 0.01005422 0.015113609 0.00035952154 0.0008803111
-0.008249042 -0.0037806884 -0.01082367 -0.018442303 -0.029605415 -0.014036378 0.02104976 -0.019492198
0.009190334 -0.013456587 0.0047801537 -0.0014436804 -0.003577671 -0.012675354 -0.012777421 -0.010824792
0.0011146492 -0.021287857 0.007859702 0.003657925 -0.008829514 -0.0005677049 0.00918627 0.0133265825
-0.0032230082 -0.0071328455 -0.0048815575 -0.014869227 -0.0020036912 -0.0010990106 0.0067355055 0.0070064943
-0.001733431 -0.00064013345 -0.017068703 -0.01255192 0.017095754 -0.0013883217 -0.020119064 0.0030848123
0.010633859 -0.015747573 -0.008029958 -0.0011414909 -0.01577238 -0.004311045 -0.0054674693 0.01351534
0.010149048 0.010586845 0.000658349 0.013965871 -0.00028233172 0.015799241 -0.0045474158 -0.013073453
00000000: 6cd6 a33c 1379 dbbb 3936 fdbb 06ec 8abb
00000010: a4ff a8bb 84d2 fa3b 5fd8 c63a 634e 2e3c
00000020: 4b9e 8d3c 4aa2 ac3b 986a 6bbb 34cb 573a
00000030: 350d e03a d6e5 62bb 2f49 c03c 0086 943c
00000040: 1a95 803a cfc7 a33c 91a8 3b3c df05 323c
00000050: d006 0cbc 1922 dfbb 216d b63b 0c54 baba
00000060: 4243 2c3c e7f8 05bc c32b 123c 1d5b a6bb
00000070: 3df8 7cbc d130 e9ba 1578 d8bb 8396 963a
00000080: e968 15bc d606 3d3b 3539 f4bb f340 d83b
00000090: 1bda 0f3c 3102 9c3b 5fbc b63b b70d 123b
000000a0: 01c0 83bb 0041 78bb 29f5 9c3a 5623 42bc
000000b0: 7587 1bbb cee4 973b a140 8d3c ecad 72ba
000000c0: e7ca 8abc 95ec 49bb fb24 ef3b 1abe 863b
000000d0: 5a65 0c3a 3b08 523c 62d8 4fbc f66a 0b3c
000000e0: 945e 2139 935f 9dbb 738b 483c 6d54 1a3b
000000f0: 4d71 7bbb 53aa 39bc 9ee6 943c fa56 24bb
00000100: 95b9 653a 8a7a 84ba a94d 9e3a 7cb9 b43b
00000110: af68 bbbb 0cfd e1bb 8575 4c3c e2a5 1b3c
00000120: e51f 5b3c e46d 4c3c 1afe 883c 49aa 053b
00000130: 99ce bbba 6420 113c b34b 9138 dbae aabb
00000140: c476 61bc 8455 3fbc 5943 e03b 950b 7c3b
00000150: 3ae3 243c 3842 9e3b 0656 923b 5a17 a6ba
00000160: 62e3 ac3b dfb9 8c3a 592b 87bb 8f2b 02bc
00000170: 2d6f a13c 5bb5 76bc 8da9 b2b9 db1d 473c
00000180: 4630 023c c742 103b 26b2 2f3b 7e70 e43a
00000190: ca2f ca3b af5d 5b3b 0ac9 833a a5f1 21bc
000001a0: b6db 1fbc 435c 76bb c1aa a0bc bcfe 8dbb
000001b0: 4383 be3a 760a fc3b 1035 233c 92da 82bc
000001c0: 34f1 50bc 5b0a 1b3b 16e7 a33a 5f50 af3b
000001d0: ce0f 25ba 81d5 7d3b faf2 383b 6268 a33b
000001e0: 311e d83b b22b ba3b 1c1a 0fbc 047b f8bb
000001f0: 9534 e03a 8ba1 f3ba 358d e43b 5269 9d3b
00000200: 04b4 94bc 15e8 16bc 1b57 2d3c d4d7 c13b
00000210: 3244 0dbc b2f2 323c 3464 fd3c cf13 a83a
00000220: f0c8 d53c c300 f0bb be55 24bc fdd4 863c
00000230: 8347 cf39 6ff0 8ebc c870 b8ba 5fc6 95bb
00000240: 7fb0 86bc 6eb4 78bb 42a8 4dba 38b7 b1bb
00000250: 2c2b 25bc fb7c 96bb 8c67 183c 9810 1fbc
00000260: 4e47 dabb 4a80 8abb c3ac e83b 3524 01bd
00000270: 0fe8 3eb9 85f4 c0bb ac54 053d 8aa5 973b
00000280: 214a 933b 752f 36bc 0894 97bb 0758 8e3c
00000290: 7291 cdbb 1983 993b 05d4 c33c 1332 abbb
000002a0: 1515 18ba eb1b 34ba 946c bfbb fce5 333c
000002b0: 08e3 c3bc 73e8 8a3b b1bb 33bb fc41 abbb
000002c0: 38aa 0e3b 672b e23b ca87 d03a 4e2b 37bc
000002d0: ea78 4038 da7a 42bc 98ea 1c3c 2c1b 12bc
000002e0: cb0e 0b3b bee2 5bbb 577d cdbc 1ead 703b
000002f0: 010b f03a 8fbb ddbb d712 5ebc 5633 7c3c
00000300: 3d3b 21bc 06c6 66bc 812d d9bc 94e6 203b
00000310: 75ba 243c 129f 773c 2a7e bc39 aec4 663a
00000320: fd26 07bc 6dc5 77bb c355 31bc 5014 97bc
00000330: 0e87 f2bc d6f8 65bc 8c70 ac3c 1aae 9fbc
00000340: 0e93 163c 0479 5cbc d6a2 9c3b e039 bdba
00000350: 5c77 6abb 4aac 4fbc 6358 51bc 785a 31bc
00000360: 6c19 923a df63 aebc fbc5 003c ccb9 6f3b
00000370: aaa9 10bc 08d2 14ba 0282 163c bd57 5a3c
00000380: 1b39 53bb a5ba e9bb 79f5 9fbb 0f9e 73bc
00000390: 5c50 03bb ad0c 90ba 84b5 dc3b bc96 e53b
000003a0: 4b34 e3ba a1ce 27ba aad3 8bbc 91a6 4dbc
000003b0: 650c 8c3c 59f8 b5ba bcd0 a4bc 902a 4a3b
000003c0: a339 2e3c 0e01 81bc 1690 03bc 149e 95ba
000003d0: 1435 81bc ab43 8dbb 7528 b3bb 726f 5d3c
000003e0: 3148 263c 7274 2d3c 0e95 2c3a 1cd1 643c
000003f0: ec05 94b9 696d 813c 7d02 95bb 0932 56bc

network_body._body_endoder.seq_layers.0.bias f4 [128]
0.003584405 -0.0037792677 -0.00267746 -0.011396525 -0.0041168197 0.0046403543 -0.0064585973 -0.009377584
0.00085856713 0.003152571 -0.018656367 7.719293e-05 0.0125258295 -0.006812849 0.0053301775 -0.010146043
-0.004697676 -0.0030356296 -0.0030329076 -0.013800147 0.0023843898 -0.005572412 0.0036021338 -0.0040056496
-0.003575458 0.0026777869 -0.004457227 0.012822412 -0.0042973156 0.018641353 -0.005169163 -0.0044515277
-0.0014553065 0.0008527657 -0.00064654846 0.008154486 -0.00870157 -0.0024020292 0.005994569 -0.0075758826
0.003965558 -0.0013048255 -0.00013882983 -0.00096305803 -0.0030302168 -0.00060558174 0.004626562 0.00069320033
-0.015248211 -0.009370217 -0.0019094107 -0.0024599587 0.00068949355 -0.010360835 -0.005315645 -0.011375592
-0.004287835 -0.004016615 -0.008066031 0.0014032552 0.0028640125 0.00042561183 -0.0054979715 0.004029367
-0.00022003721 0.013164419 -0.0020904916 -0.013057748 0.0035830713 -0.011022052 -0.0013279928 -0.0010783367
-0.0019147977 -0.0008178292 -0.00086121063 -0.0030646508 -0.0075737243 0.0102198 -0.00033468677 0.006397435
0.0047811884 -0.0066993744 0.0016784961 -0.007157804 0.0030531425 -0.008051475 -0.003757737 0.0010621747
-0.0056176586 -0.0018849497 0.008645472 0.003316241 -0.0031302944 0.008304913 -0.004096832 -0.0011130619
0.004167101 -0.0007553434 -0.011033329 0.009579127 -0.005488178 -0.005957127 -0.004388503 0.0032545077
-0.008525674 -0.002189138 0.008891489 -0.0048252754 0.0040580127 0.003168519 0.0011878408 0.0024764212
0.010549501 -0.00463536 0.0045768367 0.00049199664 -0.006708379 -0.008422449 -0.006147572 -0.009960202
0.008040539 -0.0016803722 0.0016783444 0.0054485146 0.0052370657 0.004866398 0.0045493785 0.006266097
00000000: 56e8 6a3b 97ad 77bb 5378 2fbb 7eb8 3abc
00000010: 63e6 86bb 1d0e 983b a4a2 d3bb 70a4 19bc
00000020: 7711 613a 5d9b 4e3b 3dd5 98bc a4e2 a138
00000030: 2339 4d3c 523e dfbb c5a8 ae3b 973b 26bc
00000040: f6ee 99bb 6af1 46bb bfc3 46bb 031a 62bc
00000050: 6c43 1c3b c898 b6bb c711 6c3b d341 83bb
00000060: 3b52 6abb cf7d 2f3b ee0d 92bb 1815 523c
00000070: 7fd0 8cbb c0b5 983c 1562 a9bb 1fde 91bb
00000080: fcbf beba 238c 5f3a 227d 29ba 659a 053c
00000090: 0891 0ebc 5d6b 1dbb 176e c43b 1c3f f8bb
000000a0: 83f1 813b ae06 abba d992 11b9 bb75 7cba
000000b0: 9a96 46bb e7bf 1eba 6a9a 973b e3b7 353a
000000c0: a2d3 79bc 8a85 19bc 3145 faba 4237 21bb
000000d0: 21bf 343a 7ec0 29bc dd2e aebb b160 3abc
000000e0: f880 8cbb cf9d 83bb 6327 04bc 6eed b73a
000000f0: 28b2 3b3b a724 df39 5428 b4bb c808 843b
00000100: cab9 66b9 93af 573c a100 09bb 2af0 55bc
00000110: f6d1 6a3b d695 34bc 0b10 aeba fa56 8dba
00000120: f3f9 faba 9763 56ba dec2 61ba 4fd8 48bb
00000130: 012d f8bb f370 273c e678 afb9 93a1 d13b
00000140: 84ab 9c3b 6d86 dbbb fc00 dc3a 038c eabb
00000150: 3b17 483b 55ea 03bc 5e44 76bb ab38 8b3a
00000160: 5614 b8bb 6b10 f7ba bda5 0d3c 4b55 593b
00000170: a025 4dbb 5411 083c b83e 86bb 29e4 91ba
00000180: 2d8c 883b 3d02 46ba 23c5 34bc c5f1 1c3c
00000190: 2dd6 b3bb 0134 c3bb 6ecd 8fbb 9449 553b
000001a0: 45af 0bbc a477 0fbb 9cad 113c 581d 9ebb
000001b0: 14f9 843b eda6 4f3b 53b1 9b3a 744b 223b
000001c0: d0d7 2c3c 38e4 97bb 4af9 953b 56f9 003a
000001d0: f6d1 dbbb 50fe 09bc 9271 c9bb 1d30 23bc
000001e0: 77bc 033c ef3f dcba e5fb db3a 7489 b23b
000001f0: b19b ab3b 4e76 9f3b f412 953b d553 cd3b

network_body._body_endoder.seq_layers.0.weight f4 [128, 24]
0.022841297 -0.40295777 0.07792904 -0.053013697 0.026244039 -0.0011268609 0.053874854 0.14168884
-0.052810717 0.051314864 0.21013404 -0.024386931 0.27454364 -0.0013203614 -0.06330213 0.14466317
-0.22104195 0.30429038 0.16864485 -0.20748633 0.28777543 -0.11128864 0.12309421 -0.028718978
-0.059158236 0.06575647 -0.06811912 0.27138945 -0.15708944 -0.46603966 -0.09439457 0.15445116
-0.09184131 0.41770732 0.27051967 0.10505213 0.47915134 -0.1555617 0.1021759 0.24578483
-0.13356909 0.09264775 -0.030162886 -0.3426683 0.11164075 -0.33866644 -0.38388354 -0.30907646
-0.19510733 -0.26669988 -0.022019532 -0.014064565 0.20508114 0.30123195 -0.26700908 0.10696366
-0.5760133 0.35990956 -0.23483267 0.35614628 -0.16027787 -0.19460814 -0.27641723 -0.06398135
0.26544163 -0.38673195 0.13694379 0.17501472 -0.38611838 0.14042309 0.062137336 0.18498437
-0.06530817 0.3048585 -0.09065763 0.16948704 0.076258525 -0.059415728 0.08516437 -0.26285678
-0.15673617 -0.3119357 0.28098795 0.08392478 -0.06986746 -0.14480695 -0.059717808 0.38836908
-0.06279871 0.3487803 -0.07072684 0.02352053 -0.49811646 -0.21897627 0.25456783 -0.25415954
0.3077608 0.13846718 0.1377043 0.20270582 0.073161684 0.064795315 -0.018863881 0.2974943
-0.0089721205 0.28692785 0.23283656 -0.13085455 -0.10155619 0.19726512 0.19741018 -0.21623251
0.24893272 -0.17198573 0.09520715 0.33256847 -0.113211386 0.40761018 0.1210779 0.031705625
0.11721341 -0.053901102 -0.22052148 -0.2938887 0.019586064 -0.028870676 0.14860548 -0.28709424
-0.13219863 0.20751606 0.07610909 -0.042246833 0.1174033 -0.0241737 -0.12968387 0.039007362
-0.026975797 0.024898965 0.2327293 0.5636401 -0.11767518 -0.11068958 -0.44083866 0.108298235
-0.13846989 0.17619365 -0.14333086 -0.07780989 0.07722858 0.010242168 -0.12573892 0.20451207
0.026939612 -0.23570623 0.015203364 -0.29793534 -0.36300537 0.36024648 0.15969054 -0.16384459
-0.23567353 -0.230141 -0.06533053 0.059963062 -0.44004157 0.13486205 0.5253046 0.03920088
-0.23259972 0.4084954 -0.42909387 -0.17299132 -0.07529247 -0.047340345 -0.03601648 -0.16312866
0.42965162 -0.053647593 -0.13930877 0.045678876 0.20630014 -0.094156586 0.25765425 -0.15791795
-0.147842 0.09493949 -0.18261307 -0.033233695 -0.26658094 -0.1869685 -0.05176973 -0.27057043
-0.056128386 0.30709684 0.022554664 0.047219906 0.12629022 -0.33699343 0.08608711 -0.12067977
0.063621216 0.112693585 -0.12370383 0.07877191 -0.040427662 0.22513746 0.04659987 0.3832023
-0.07998998 0.124128275 -0.52901787 0.22380356 -0.40011483 -0.05101472 -0.037641555 -0.22404993
0.13856679 0.012632512 -0.06907558 0.025437685 0.27316076 -0.058789242 0.008326121 -0.18317707
-0.051620062 0.2332416 -0.27885333 -0.10034926 0.10680769 -0.14440404 0.18508506 -0.30681288
-0.025330659 0.21140829 -0.37645862 0.21252389 0.404391 0.17239201 0.09419491 0.046322312
-0.47959802 0.31998298 -0.53551984 0.08222609 -0.33962014 0.019347703 0.021203415 -0.13270082
0.13947994 -0.07014389 0.07805231 -0.09423254 0.2190244 0.08658405 -0.30597976 0.27387974
00000000: ac1d bb3c 7b50 cebe 4399 9f3d e424 59bd
00000010: bdfd d63c 2db3 93ba e1ab 5c3d e116 113e
00000020: 0d50 58bd 892f 523d 612d 573e 1ac7 c7bc
00000030: fc90 8c3e fa0f adba 8ca4 81bd 9522 143e
00000040: d258 62be f3cb 9b3e 3cb1 2c3e 4c77 54be
00000050: 4d57 933e 4ceb e3bd d118 fc3d 1044 ebbc
00000060: e84f 72bd 54ab 863d 0a82 8bbd 8ff3 8a3e
00000070: 0edc 20be c09c eebe f151 c1bd 7228 1e3e
00000080: 4c17 bcbd bcdd d53e 8e81 8a3e 9225 d73d
00000090: 5353 f53e 914b 1fbe 9941 d13d 05af 7b3e
000000a0: 56c6 08be 1bbe bd3d 2818 f7bc 3872 afbe
000000b0: e8a3 e43d b065 adbe 628c c4be 453f 9ebe
000000c0: 37ca 47be e38c 88be 4e62 b4bc 106f 66bc
000000d0: ca00 523e 133b 9a3e 6ab5 88be c30f db3d
000000e0: 9c75 13bf 1146 b83e fa77 70be ce58 b63e
000000f0: e21f 24be 5b47 47be 8f86 8dbe a708 83bd
00000100: f7e7 873e bb01 c6be fe3a 0c3e 0f37 333e
00000110: 4fb1 c5be 12cb 0f3e b883 7e3d 8b6c 3d3e
00000120: 4ac0 85bd 6a16 9c3e b5aa b9bd 038e 2d3e
00000130: 6e2d 9c3d e85d 73bd a86a ae3d 2a95 86be
00000140: 727f 20be 09b6 9fbe a7dd 8f3e c1e0 ab3d
00000150: ac16 8fbd 4648 14be a99a 74bd 50d8 c63e
00000160: 9c9c 80bd 5593 b23e 3cd9 90bd 20ae c03c
00000170: 1f09 ffbe 513b 60be b756 823e 3321 82be
00000180: d392 9d3e 57ca 0d3e 5b02 0d3e 1d92 4f3e
00000190: cbd5 953d 68b3 843d 6d88 9abc 2c51 983e
000001a0: cdff 12bc 35e8 923e b56c 6e3e bcfe 05be
000001b0: b1fc cfbd deff 493e e525 4a3e 0e6c 5dbe
000001c0: 38e8 7e3e 071d 30be f7fb c23d 6a46 aa3e
000001d0: 5fdb e7bd 48b2 d03e b1f7 f73d c2dd 013d
000001e0: 960d f03d 67c7 5cbd 62d0 61be 9478 96be
000001f0: f472 a03c 3282 ecbc 092c 183e 04fe 92be
00000200: 145f 07be 177f 543e 15df 9b3d 040b 2dbd
00000210: 2471 f03d ec07 c6bc d9cb 04be 2fc6 1f3d
00000220: 59fc dcbc eaf8 cb3c 9750 6e3e b84a 103f
00000230: afff f0bd 38b1 e2bd 9bb5 e1be 77cb dd3d
00000240: 0dcb 0dbe 1c6c 343e 53c5 12be cb5a 9fbd
00000250: 052a 9e3d c4ce 273c b4c1 00be 9d6b 513e
00000260: 76b0 dc3c f95c 71be 8817 793c fb8a 98be
00000270: d7db b9be 3a72 b83e eb85 233e e0c6 27be
00000280: 6754 71be 15aa 6bbe 03cc 85bd d49b 753d
00000290: 214d e1be 4719 0a3e 5d7a 063f 1a91 203d
000002a0: 9f2e 6ebe 4f26 d13e 31b2 dbbe a324 31be
000002b0: f032 9abd f3e7 41bd 0486 13bd 330b 27be
000002c0: 4cfb db3e 94bd 5bbd f5a6 0ebe c619 3b3d
000002d0: 5840 533e 2bd5 c0bd 42eb 833e 3eb5 21be
000002e0: e563 17be a36f c23d ecfe 3abe 0e20 08bd
000002f0: 4c7d 88be ac74 3fbe 7f0c 54bd 3588 8abe
00000300: e1e6 65bd cc3b 9d3e 8fc4 b83c a969 413d
00000310: 3952 013e 678a acbe 704e b03d f526 f7bd
00000320: d74b 823d e5cb e63d 6f58 fdbd 2b53 a13d
00000330: 7a97 25bd 6f8a 663e 81df 3e3d 1833 c43e
00000340: c9d1 a3bd f736 fe3d b76d 07bf c32c 653e
00000350: dadb ccbe d0f4 50bd 082e 1abd 586d 65be
00000360: 74e4 0d3e 98f8 4e3c 7f77 8dbd b162 d03c
00000370: badb 8b3e fdcc 70bd 486a 083c c592 3bbe
00000380: 8f6f 53bd e3d6 6e3e ddc5 8ebe ea83 cdbd
00000390: fdbd da3d a7de 13be f086 3d3e 9416 9dbe
000003a0: 3e82 cfbc 6a7b 583e 2fbf c0be dd9f 593e
000003b0: 560c cf3e 8887 303e 43e9 c03d 77bc 3d3d
000003c0: df8d f5be cfd4 a33e d417 09bf 2766 a83d
000003d0: b1e2 adbe 137f 9e3c c9b2 ad3c b9e2 07be
000003e0: d4d3 0e3e 9aa7 8fbd e4d9 9f3d fdfc c0bd
000003f0: ef47 603e fa52 b13d 61a9 9cbe f739 8c3e

network_body._body_endoder.seq_layers.2.bias f4 [128]
-0.001236245 -0.0030237287 0.00030597343 -0.00552797 -0.00083969475 -0.00097502134 0.012163132 -0.002105599
0.009163241 -0.0017474215 -0.00018111893 0.0072117685 -0.00072215335 -0.0025843473 -0.00027018454 -0.0013844345
-0.0021977604 -0.0030991058 -0.0051850616 -0.0061277216 -0.008605442 -0.0046466854 0.0037589355 -0.004295043
0.0016882156 -0.0062211524 0.0005509958 -0.0014404205 0.0058500753 -0.0010194732 0.008187555 0.004641143
-0.001834943 -0.008948428 9.16847e-05 0.003143969 -0.0022979882 0.00033627253 0.011555559 -0.0008441559
-0.0016016065 0.0015364494 -0.0048686275 0.008298952 -0.001329967 0.0011898081 -0.00473726 -0.0023331665
0.0013975711 0.0045094835 -0.0024758866 -0.0029280141 -0.0052098637 -0.001747231 0.0015148207 0.0011471941
-0.00534414 -0.0072532366 0.0028607906 0.0027651924 0.005223578 0.0008105617 -0.0046736766 0.00104794
-0.003345939 -0.0028588185 8.9510744e-05 -0.0051326263 0.002702976 0.00701517 -0.0013058899 -0.002313586
-0.0013661011 -0.003206632 -0.0010053142 -0.004079261 -0.001754931 -0.002546931 0.0026142611 -0.0060510077
0.006925423 -0.0041477317 -0.0014755209 -0.013829253 -0.0020285395 -0.008120925 -0.009153835 -0.004947683
-0.010742473 -0.0002824769 0.0008413979 -0.001632851 -0.0014137424 -0.0015000427 0.0038867493 0.00092688546
-0.0022364545 0.002401202 -0.0052832724 -0.0035435753 -0.009037028 0.0024698873 0.006437452 0.0026799857
-0.0018979829 -0.0033381442 -0.0011933234 -0.008260038 0.006924816 0.0002975324 0.00020615962 0.0049588946
0.0075595425 -0.0025183514 -0.00338637 -0.001716988 -0.0049081435 -0.0057323272 -0.0066848523 0.007316312
0.00078185985 -8.050614e-05 -0.0004717717 0.003151658 -0.00153967 0.0057696975 -0.0073298537 -0.0014697657
00000000: 8009 a2ba c029 46bb 0f6b a039 f923 b5bb
00000010: f61e 5cba 9398 7fba e047 473c 17fe 09bb
00000020: 6b21 163c bc09 e5ba beea 3db9 b350 ec3b
00000030: e44e 3dba 275e 29bb 8ea7 8db9 ea75 b5ba
00000040: 4d08 10bb 5e1a 4bbb 73e7 a9bb 0ecb c8bb
00000050: d7fd 0cbc 3943 98bb 7958 763b 6fbd 8cbb
00000060: 1e47 dd3a cfda cbbb b470 103a 7ecc bcba
00000070: fdb1 bf3b d89f 85ba 1825 063c bb14 983b
00000080: 7882 f0ba 6d9c 12bc d946 c038 0c0b 4e3b
00000090: d899 16bb bc4d b039 8753 3d3c 584a 5dba
000000a0: ffec d1ba b062 c93a 0289 9fbb 54f8 073c
000000b0: 4a52 aeba 56f3 9b3a 043b 9bbb 0ae8 18bb
000000c0: b42e b73a 4ac4 933b 7c42 22bb ede3 3fbb
000000d0: 81b7 aabb 5803 e5ba f38c c63a 725d 963a
000000e0: e51d afbb 8fac edbb 1a7c 3b3b 3b38 353b
000000f0: 8c2a ab3b e07b 543a a425 99bb 085b 893a
00000100: 8b47 5bbb 045b 3bbb b7b7 bb38 972f a8bb
00000110: 6a24 313b 83df e53b 652a abba 889f 17bb
00000120: bf0e b3ba 5c26 52bb bfc4 83ba 52ab 85bb
00000130: b705 e6ba 69ea 26bb 0654 2b3b 8847 c6bb
00000140: a9ee e23b b2e9 87bb 4466 c1ba 1794 62bc
00000150: 3ff1 04bb a10d 05bc f7f9 15bc 2c20 a2bb
00000160: 3301 30bc 6819 94b9 4291 5c3a 6305 d6ba
00000170: 534d b9ba 159d c4ba d5b8 7e3b 3bfa 723a
00000180: 7b91 12bb 7c5d 1d3b 4d1f adbb 543b 68bb
00000190: 0b10 14bc d5dd 213b 43f1 d23b b3a2 2f3b
000001a0: bdc5 f8ba c4c4 5abb 4a69 9cba 1c55 07bc
000001b0: 91e9 e23b 1ffe 9b39 8d2c 5839 397e a23b
000001c0: 0ab6 f73b ed0a 25bb dced 5dbb 8f0c e1ba
000001d0: 7ed4 a0bb 3fd6 bbbb 9b0c dbbb acbd ef3b
000001e0: baf5 4c3a 68d5 a8b8 2058 f7b9 0c8c 4e3b
000001f0: c1ce c9ba bb0f bd3b 452f f0bb 27a5 c0ba

network_body._body_endoder.seq_layers.2.weight f4 [128, 128]
-0.022332365 -0.10649621 0.06272702 -0.018247373 0.011523776 -0.10028582 0.06633938 -0.067831494
0.09397886 -0.06958488 0.12779781 0.054177597 0.11528455 0.007713519 0.0811262 -0.10305301
0.15968299 0.056574978 -0.082558215 -0.0012152771 -0.039957434 0.008936145 0.07439436 0.079830475
-0.061546836 -0.085457295 0.13585414 -0.04879707 0.003706249 -0.02017335 0.04255257 -0.09192799
-0.011130895 0.060982805 -0.0066757225 -0.076662526 -0.117362894 0.06601248 0.21494456 -0.045589074
0.14937483 -0.04521063 0.009976252 -0.06610119 -0.12110656 0.038529266 -0.0014413885 0.038872086
-0.081134886 0.10971983 -0.024001481 -0.013798686 -0.011208757 -0.03936676 -0.07978737 0.023380019
-0.032264818 -0.09525221 0.051973864 0.055580735 0.04572291 0.07373135 -0.03690467 -0.095813915
0.012320601 -0.034737486 0.12853366 -0.018988144 -0.005617246 0.077642106 -0.043768156 -0.03226049
-0.030598437 -0.025435183 0.04140943 -0.03477512 0.06388054 -0.074089475 -0.021510964 -0.040691372
-0.09058617 0.08799702 -0.04581884 0.12744305 -0.11858157 0.20698832 -0.11107999 -0.019707352
0.069442846 0.029697439 -0.04075351 0.07821151 -0.109915 0.078251936 0.12798624 0.05275799
0.01741441 0.043107893 0.08595551 0.009062015 -0.2272501 -0.024568122 -0.003202416 0.05223994
-0.123004064 -0.085098915 -0.07393762 -0.13836668 0.00038590786 0.081950486 -0.05937544 0.04290284
0.013266843 -0.13501032 0.05777688 0.029183635 -0.10927351 0.045963284 0.022549907 -0.16849041
-0.11863555 -0.08804401 -0.13427787 -0.103751056 -0.010022126 -0.063844115 0.12203562 -0.09539399
0.1197067 0.071595035 -0.056029305 -0.0889149 -0.07299438 0.12062186 0.060722746 -0.053687844
0.045613077 0.028024849 -0.035765644 0.04468818 0.08318234 -0.044345547 0.017345795 -0.08927215
0.06712991 -0.00714672 -0.06630577 0.18692735 0.04779844 0.07632098 -0.06786732 -0.13936554
-0.05598565 -0.022787055 0.04681623 0.01094729 0.0076658283 -0.13633336 -0.0426259 0.027750943
0.026883448 0.023900017 0.093269326 0.026652163 0.074187554 -0.1829995 -0.054389093 0.072698265
-0.0024448344 0.10920823 0.009235759 -0.072906435 -0.16482255 0.008983833 -0.06810544 0.02224273
-0.035727393 -0.13147643 0.02395811 0.016482163 0.08201146 0.06419806 0.007550624 0.012115454
0.051043022 -0.041217435 0.053949956 0.10904988 0.002517927 -0.04448792 -0.1355864 -0.059606142
0.032342214 0.087884195 -0.010947276 0.062641636 -0.068393365 0.003565393 0.075112484 0.080208115
-0.079205744 -0.091377884 -0.08430363 -0.01957657 0.044598352 0.03826268 0.11544746 -0.05720669
-0.032216888 0.120799646 0.18529697 0.0008848466 -0.029595597 -0.025856894 0.124055475 0.022412663
0.067445345 0.019182218 0.011605812 0.026489766 0.05519474 -0.028433662 0.0182652 -0.24525951
0.11175407 -0.07743628 -0.105157554 -0.19281256 0.07116086 -0.016545549 -0.014970928 -0.0020144312
0.06939614 0.038801827 0.13068454 -0.09145749 -0.19503069 -0.015127717 -0.17805442 -0.041552965
0.035140194 0.06559146 -0.0535685 0.11852359 0.03973878 0.06529186 -0.112159275 -0.050399657
0.0025111998 -0.14493223 0.14634988 0.07754553 -0.056845024 0.13559225 -0.046051707 0.05997638
00000000: 5df2 b6bc af1a dabd 0677 803d 847b 95bc
00000010: 38ce 3c3c a762 cdbd f1dc 873d 3deb 8abd
00000020: fd77 c03d 8482 8ebd 6edd 023e 54e9 5d3d
00000030: 4e1a ec3d b0c1 fc3b 7e25 a63d 750d d3bd
00000040: f083 233e 2abb 673d 4814 a9bd ef49 9fba
00000050: 68aa 23bd e968 123c 125c 983d 297e a33d
00000060: 8918 7cbd 3c04 afbd 591d 0b3e 70df 47bd
00000070: 8ae4 723b 9542 a5bc 9b4b 2e3d be44 bcbd
00000080: 5c5e 36bc 1bc9 793d 05c0 dabb 3e01 9dbd
00000090: f55b f0bd 8d31 873d 6d1a 5c3e 9cbb 3abd
000000a0: b7f5 183e c82e 39bd 6f73 233c 1060 87bd
000000b0: b706 f8bd ddd0 1d3d f9ec bcba 5638 1f3d
000000c0: 0c2a a6bd cab4 e03d c19e c4bc e213 62bc
000000d0: efa4 37bc 0a3f 21bd 9067 a3bd 7487 bf3c
000000e0: 1d28 04bd 9713 c3bd 8ce2 543d a0a8 633d
000000f0: f247 3b3d 7600 973d 5a29 17bd 163a c4bd
00000100: 59dc 493c e548 0ebd 549e 033e 068d 9bbc
00000110: e010 b8bb d302 9f3d 3d46 33bd 9323 04bd
00000120: 93a9 fabc 725d d0bc ef9c 293d 5b70 0ebd
00000130: cdd3 823d 39bc 97bd c337 b0bc ffab 26bd
00000140: 3e85 b9bd c837 b43d 89ac 3bbd 6e80 023e
00000150: e5da f2bd bff4 533e e87d e3bd 5071 a1bc
00000160: 0d38 8e3d 0b48 f33c 27ed 26bd 5b2d a03d
00000170: 1e1b e1bd 8d42 a03d d30e 033e c318 583d
00000180: aaa8 8e3c e791 303d 7109 b03d d978 143c
00000190: 40b4 68be 1643 c9bc a0df 51bb 8cf9 553d
000001a0: 8ee9 fbbd 5748 aebd 9b6c 97bd ffaf 0dbe
000001b0: ad53 ca39 a8d5 a73d a933 73bd e3ba 2f3d
000001c0: 2c5d 593c 2540 0abe 73a7 6c3d 8512 ef3c
000001d0: caca dfbd ff43 3c3d 95ba b83c c088 2cbe
000001e0: 32f7 f2bd 6b50 b4bd 2380 09be 6f7b d4bd
000001f0: d833 24bc b4c0 82bd d0ed f93d ed5d c3bd
00000200: c928 f53d 6ba0 923d fc7e 65bd 0419 b6bd
00000210: 147e 95bd 9808 f73d 6ab8 783d c9e7 5bbd
00000220: c7d4 3a3d 5e94 e53c ff7e 12bd f40a 373d
00000230: 815b aa3d ada3 35bd c518 8e3c 51d4 b6bd
00000240: 687b 893d 082f eabb 52cb 87bd e269 3f3e
00000250: 4cc8 433d 2d4e 9c3d 05fe 8abd d7b5 0ebe
00000260: 3551 65bd ebab babc 60c2 3f3d 435c 333c
00000270: a131 fb3b f99a 0bbe 7f98 2ebd f255 e33c
00000280: ad3a dc3c f8c9 c33c fd03 bf3d a355 da3c
00000290: a5ef 973d 3964 3bbe 19c7 5ebd d4e2 943d
000002a0: 8439 20bb 91a8 df3d 9551 173c f84f 95bd
000002b0: 3ec7 28be ed30 133c dd7a 8bbd 6336 b63c
000002c0: e356 12bd c2a1 06be cc43 c43c 9a05 873c
000002d0: a0f5 a73d 467a 833d 3a6b f73b e67f 463c
000002e0: 7d12 513d 9dd3 28bd a1fa 5c3d 8b55 df3d
000002f0: ce03 253b f738 36bd 29d7 0abe 9225 74bd
00000300: 4579 043d a1fc b33d 345c 33bc 424a 803d
00000310: d211 8cbd 5ea9 693b 93d4 993d 2744 a43d
00000320: 9f36 a2bd 5424 bbbd 62a7 acbd 0b5f a0bc
00000330: c3ac 363d 54b9 1c3d b86f ec3d 9051 6abd
00000340: dbf5 03bd ce65 f73d 7dbe 3d3e 0df5 673a
00000350: 7772 f2bc d6d1 d3bc cc10 fe3d c39a b73c
00000360: c920 8a3d 0724 9d3c 4e26 3e3c 1101 d93c
00000370: e113 623d b6ed e8bc e7a0 953c 4f25 7bbe
00000380: 51df e43d ea96 9ebd d85c d7bd a870 45be
00000390: c9bc 913d 888a 87bc a048 75bc 8c04 04bb
000003a0: 901f 8e3d aaee 1e3d 2bd2 053e 114e bbbd
000003b0: 20b6 47be 3eda 77bc e653 36be 7133 2abd
000003c0: 2aef 0f3d d154 863d a56a 5bbd 7fbc f23d
000003d0: 22c5 223d bdb7 853d c3b3 e5bd df6f 4ebd
000003e0: f192 243b 1d69 14be bedc 153e 31d0 9e3d
000003f0: 54d6 68bd b2d8 0a3e b7a0 3cbd cba9 753d

network_body.observation_encoder.processors.0.normalizer.running_mean f4 [24]
-4.991889e-07 2.8834286 0.025421815 -11.506709 1.3904047 2.1311872 -10.819274 -2.5050744e-07
1.1117469 -0.35592902 2.8834286 -1.4565481 -1.6391277e-07 2.9996998 0.021076757 -12.64189
1.4485412 2.2398567 -11.722127 -2.513181e-07 1.0032793 -0.72576267 2.9996998 -1.2469288
00000000: 0000 06b5 188a 3840 6941 d03c 7b1b 38c1
00000010: c8f8 b13f 5f65 0840 bf1b 2dc1 7b7d 86b4
00000020: b94d 8e3f 543c b6be 188a 3840 2b70 babf
00000030: 0000 30b4 15fb 3f40 2aa9 ac3c 2e45 4ac1
00000040: cc69 b93f d059 0f40 d58d 3bc1 e6ec 86b4
00000050: 756b 803f 95cb 39bf 15fb 3f40 5d9b 9fbf
