Assets/Training/results/Test/PingPongAgent/checkpoint.pt (torch, 476743 bytes, 33 tensors)

network_body._body_endoder.seq_layers.0.weight f4 [128, 18]
00000000: 438f 4cbe ae2f ee3e a57d abbd 764f 6c3c
00000010: 719b 8ebd fad3 173e 8917 dc3c 9ed2 e7be
00000020: e0d6 71be 6375 b6be f632 983c 1044 10be
00000030: 5bb5 8dbc fc18 22be 3b15 35be 855c 6cbd
00000040: a282 783e 8223 8b3d f582 7b3d d03a b1bd
00000050: c8ea 4c3d 54fa a83d 40d4 773e 774f 473e
00000060: 3436 3a3e c105 2fbe 131a 1abc 11e3 553e
00000070: 1d5b 403e af3b 86bd 0e50 513e 0bb3 42be
00000080: aba9 2a3e 21c0 9f3d 585d 3a3b 547f be3d
00000090: 4c79 81bd a007 52be e53e be3d bce5 dbbc
000000a0: 4abb 2c3d f9db 9a3e ad2d 5cbd 1f03 7e3e
000000b0: 9b56 173e 14e5 a4be 1939 273e e199 8fbe
000000c0: 4c27 843c 0a78 a9be f98b 573e 241b d8ba
000000d0: 1292 cdbd 6e7c 0b3d 734a 84be 7940 99bb
000000e0: 1df5 bc3e 4311 a2bc 923c 0f3d 80a3 a8be
000000f0: 6c7a 0fbe 9880 e6bd 7de8 54be 8d1b 31be
00000100: 8437 0cbe a0ff fd3b 721e 8ebd 2529 82be
00000110: 31ad 74bc 43f7 593e f79c 6c3e 0cc3 d73e
00000120: 2e9d e13d 88ad ab3d dc42 4abe 3146 813e
00000130: 9d58 1fbd 1c1c ccbd 1986 eb3d f601 79bd
00000140: eb12 023d 8ed4 93be 8890 a5be 9482 88be
00000150: c1b0 553e 5921 ed3d 6dd7 403d 5023 2ebf
00000160: 1f48 253e c2e7 84bd 8ea9 c2be e309 04bf
00000170: 44af c93e e2d4 dc3b 62af 853e ef07 65bc
00000180: f7cd 5dbe f884 2fbe 760a c43e ed44 903e
00000190: ec2c b2bd 5307 563e ef08 e0bd 1e32 08be
000001a0: dfb9 173e 4371 6fbd 9d90 9d3e 85b0 f23e
000001b0: 1eb4 00bc b6fb 82bb 3457 b53d 53ce a83d
000001c0: a770 bd3d b070 26be 3c0e 183f 3281 313d
000001d0: 1b1c 213e 43c5 af3e 101e 833e 69fc 8f3e
000001e0: 94ef 853e 0845 fcbd 7b4f a33e 5137 d33d
000001f0: 555d 843d 123d aabe af5d 11bd 9a7d 4d3e
00000200: 84d9 febc 49ab 793e 7378 babe 1abf e43d
00000210: 6603 783d 847c 78be 640b ab3e ab53 013f
00000220: b686 adbd 58c8 4c3e 8732 55bd 88e2 cb3c
00000230: 13a5 51bd cabd 0b3f 01d2 003c d1d8 a03e
00000240: 2c54 d03d 43ce 84be 7efe 593e 0cfe 823e
00000250: 5956 58be 66f0 6dbd d35e 003e f2a5 0cbe
00000260: 4990 04bf 4881 9cbd 6cc7 8b3e 99fc 86be
00000270: 09bd d2bc 3035 a8be e56d 3b3e 1707 acbd
00000280: 4a18 d4be fce7 20be 43de 53bd 23ea e3bd
00000290: 1396 08be a9df a53d 6041 1ebe 510a cebe
000002a0: b350 30be 6ae6 21be 4c7e d5bd 6bec b03d
000002b0: 9d3b de3e 3c5d 6cbe 4488 6e3d a4e9 8f3d
000002c0: 6eed 9ebe 9320 263d ac4c cfbd afe0 b43d
000002d0: 9715 80be 7e98 cf3d 6b1f e3bc 45b5 61bd
000002e0: 1467 90bd 3013 d03e 013c 44be 49b7 6cbe
000002f0: a66a 0dbe f307 903e 879b 01be d847 9bbb
00000300: a3f4 82be c415 18be d0ad 87bc 3468 cbbe
00000310: 6e76 09be 7993 0d3e 2e38 723e b97a 9cbd
00000320: 314b 0bbe 180a 993c f004 003e ebc6 af3e
00000330: 4c98 06be 88c3 7abe 6b3f 113e 1096 cbbe
00000340: 6fbc 9dbe 9b71 003e f80b 4bbe f52a 873e
00000350: ad0b 543e 2ef9 8b3e 18e4 863e 05c5 11be
00000360: cd1b 89be f349 3c3e d627 2abe 52a2 b0be
00000370: fea1 f0bc ef7e a8bc db5f 3cbe a84c 923d
00000380: 3ded a53e 5b6a 773d 5de1 a1be 6111 1ebe
00000390: cb83 1e3e b7c5 2e3e 11a3 d73d 1cba 1bbe
000003a0: b89a 353e 651d 78bd dd94 da3d 0da6 19be
000003b0: e702 70bd ccf8 b03e 17cd 0d3e b1e0 673e
000003c0: aee5 e03c 54c3 f03e cd54 fb3b 178e 103c
000003d0: 40a9 aebe 0260 a93d 659b ed3e c329 a3be
000003e0: 7d6f 94bd 923e 783e 8379 0ebd c72e 123e
000003f0: b5a0 b7bc 4ad7 283e caaf 963e ed07 ff3c
-0.19976525 0.46520752 -0.08373574 0.014423242 -0.06963242 0.14826956 0.026866691 -0.45277876
-0.23617125 -0.35636434 0.018578988 -0.14088464 -0.017298391 -0.15829843 -0.1768388 -0.05770542
0.24268582 0.06793882 0.061404187 -0.08653796 0.050028592 0.08250871 0.2420206 0.19463907
0.1818474 -0.17092039 -0.009405631 0.208874 0.18784757 -0.065543525 0.20440695 -0.19013612
0.16666286 0.078003176 0.0028436985 0.0930163 -0.06321964 -0.20510721 0.0928934 -0.026842944
0.0421708 0.3024595 -0.053754497 0.24805878 0.14779131 -0.32206023 0.16330375 -0.28047088
0.01613202 -0.33099395 0.21049489 -0.0016487581 -0.10037626 0.034054212 -0.2583805 -0.004676875
0.36905757 -0.019783622 0.034969874 -0.3293724 -0.14011544 -0.11254996 -0.20791812 -0.17295666
-0.13693053 0.00775142 -0.06939401 -0.25422016 -0.01493387 0.21285729 0.23106752 0.42140996
0.11016308 0.08382708 -0.19752067 0.25248864 -0.038902868 -0.09966299 0.115001865 -0.060792886
0.031756323 -0.28873104 -0.3233683 -0.26662123 0.20868208 0.11578626 0.047080446 -0.6802263
0.16140793 -0.06489517 -0.38019985 -0.51577586 0.3939153 0.006739245 0.2611037 -0.013978942
-0.216606 -0.17140567 0.3828923 0.28177586 -0.086999744 0.20901231 -0.10939204 -0.13300368
0.14816998 -0.058457624 0.30774394 0.474003 -0.007855443 -0.0039972914 0.08854523 0.08242478
0.09250002 -0.16253924 0.5939672 0.0433361 0.15733378 0.34330186 0.25608873 0.2812226
0.26159346 -0.12317854 0.31896576 0.10313285 0.06463114 -0.33249718 -0.035489734 0.20067444
-0.031109579 0.24381746 -0.3642002 0.11169262 0.060550116 -0.24266249 0.33407128 0.5051829
-0.0847296 0.199983 -0.05205014 0.024888292 -0.051182818 0.5458647 0.007862569 0.31415418
0.101723045 -0.25938615 0.21288487 0.25584447 -0.21126689 -0.05809059 0.12536173 -0.13735178
-0.5178266 -0.07641846 0.27300584 -0.26364592 -0.025724905 -0.3285308 0.1830364 -0.0839979
-0.4142478 -0.15713495 -0.051725637 -0.111286424 -0.13338499 0.080993004 -0.15454626 -0.40242246
-0.17218284 -0.15810552 -0.1042448 0.08638843 0.43404856 -0.23082441 0.05823542 0.07026985
-0.3104052 0.04055841 -0.10122046 0.088319175 -0.25016472 0.101365075 -0.027724942 -0.055104513
-0.070509106 0.4063964 -0.19163515 -0.23116793 -0.13810214 0.28131065 -0.12656985 -0.004738789
-0.25577268 -0.14852053 -0.016562372 -0.39727938 -0.13424084 0.13825788 0.23654243 -0.07640595
-0.13602902 0.01868157 0.12501884 0.3433145 -0.13144034 -0.24488652 0.14184348 -0.39762926
-0.30807826 0.12543337 -0.19828784 0.2639996 0.20707579 0.27338547 0.26345897 -0.14235313
-0.26779023 0.18387584 -0.16616759 -0.3449884 -0.029374119 -0.02056834 -0.18395941 0.07143527
0.3240756 0.060404163 -0.3161725 -0.15436317 0.15479963 0.1706761 0.10529149 -0.15207714
0.17734802 -0.060574908 0.10672925 -0.1500475 -0.058596518 0.34564817 0.13847767 0.22644307
0.02745327 0.47024024 0.007670021 0.008822939 -0.34113503 0.08270265 0.4640762 -0.318678
-0.07247827 0.24242619 -0.03478385 0.14275657 -0.022415498 0.16488376 0.2943099 0.031131709

network_body._body_endoder.seq_layers.0.bias f4 [128]
00000000: 02d6 903a 7894 453a ce49 f939 fb23 0d38
00000010: 9c52 a93a ce73 ee3a 1f7b 19ba b3fb 0c37
00000020: 1326 443a 9a5c 5e3a e19a 4eba 85ba 01b9
00000030: 1e4c 1bba 1045 18bb eb59 3bba 926a 99ba
00000040: 0626 033a 3796 ad39 60b1 ccb8 4908 a93a
00000050: 739d 073a 4002 feb9 ea7e 02bb d395 5eba
00000060: 89bd 4db9 9531 3a3a 393a 85b9 0a26 7aba
00000070: d94d bf39 fc8d 1cbb 052e e4b9 917b 21ba
00000080: b965 8b37 466e 2db8 cdca 403a 731f 9aba
00000090: a356 7fb8 a789 8339 367c 183b 3b77 3c37
000000a0: 4962 08bb 8722 faba 776d acb9 9908 033a
000000b0: 37dc 093b 6c2a e63a f07c a9ba bc23 3abb
000000c0: af59 daba b69f 25bb 9464 aeba 6329 99ba
000000d0: 9c33 08bb e6a3 d0b9 5e5f a9ba 76f8 a7b8
000000e0: eca6 31ba 7661 b838 3ad1 133a b2de 933a
000000f0: db21 10ba adce a1b9 a18c 0439 9669 bcba
00000100: c9cb c2ba edd4 38ba 52b6 28ba 35a8 0f3a
00000110: 32cb d0b8 995c b83a c842 283b 85c1 f9ba
00000120: 313f 33bb 746a ddba 0327 bcb8 5d38 5dba
00000130: 9824 abba b56f 4dba 61d3 59ba 9b44 ecb8
00000140: eb0d 313a 9630 c4b9 0a32 0f3a 5122 c739
00000150: a6d4 78ba 5382 8aba c69c 8c3a 3d9f 6539
00000160: 41d8 1bba e9e7 00ba e51a 2b39 ec94 363a
00000170: 8e6a 97b9 bbb8 4eba 578e b03a 6776 b1ba
00000180: bdde 4cba 5ea8 1038 8dd3 1eb9 2f57 03ba
00000190: a19e dcba 5ce5 093a 347c 533a b81d 023a
000001a0: 10e7 a33a 11d0 4e39 d2c4 a1ba 1019 2dba
000001b0: a9de e7b9 a33e c4b9 34ec b439 986b 6d39
000001c0: 8e15 d5ba 0666 28ba a107 f8ba 3b02 2139
000001d0: 9bd7 f23a f77b 24b9 2b63 c9b9 172c 3eba
000001e0: fb6e bdba 0e91 19bb f6fa 0e3b 60ad 58ba
000001f0: a167 0a3b d25b 35ba cd62 df38 2fb3 a139
0.0011050107 0.0007537077 0.0004754797 3.365053e-05 0.0012918296 0.0018192471 -0.0005854833 8.403254e-06
0.000748248 0.00084824266 -0.0007881355 -0.00012371883 -0.0005924123 -0.0023234524 -0.00071468827 -0.0011704734
0.00050029194 0.0003310905 -9.760517e-05 0.0012896146 0.0005173303 -0.00048448332 -0.0019912072 -0.00084909535
-0.00019620931 0.0007102725 -0.00025411116 -0.00095424114 0.0003648836 -0.002388834 -0.00043521836 -0.00061600754
1.661746e-05 -4.1349114e-05 0.00073544384 -0.001175864 -6.0877424e-05 0.00025088826 0.0023267395 1.1233434e-05
-0.0020810536 -0.0019083776 -0.00032887954 0.00049985346 0.00210358 0.001756025 -0.0012930911 -0.0028402647
-0.0016658808 -0.0025272197 -0.0013305121 -0.0011685308 -0.0020782715 -0.00039794965 -0.0012922098 -8.00946e-05
-0.00067768875 8.791957e-05 0.0005638782 0.0011281578 -0.0005498209 -0.00030862298 0.0001264089 -0.0014374729
-0.0014861758 -0.00070507714 -0.0006435859 0.0005480082 -9.956061e-05 0.0014065682 0.002567457 -0.0019054866
-0.0027350897 -0.0016892687 -8.971805e-05 -0.000843888 -0.001305717 -0.0007836775 -0.0008309391 -0.00011266136
0.0006754088 -0.00037420233 0.00054624735 0.00037981806 -0.00094921363 -0.0010567404 0.0010727874 0.00021898463
-0.0005945005 -0.000491737 0.0001631785 0.000696494 -0.00028880354 -0.00078858034 0.0013470155 -0.0013539315
-0.0007815173 3.448908e-05 -0.00015146863 -0.0005010245 -0.0016831943 0.00052603125 0.0008067519 0.0004963535
0.0012504775 0.00019723202 -0.0012341982 -0.0006603161 -0.00044225648 -0.000374307 0.0003450826 0.00022642163
-0.0016257034 -0.0006423894 -0.0018923172 0.00015354987 0.001852739 -0.0001568644 -0.00038411593 -0.00072544947
-0.001445263 -0.0023432407 0.0021817065 -0.0008265581 0.0021118897 -0.00069182843 0.00010651872 0.00030841815

network_body._body_endoder.seq_layers.2.weight f4 [128, 128]
00000000: 504d e8bb 1396 843d 29bd e5bd 7f93 fd3b
00000010: c25a d2bc 2fda 86bb 17a5 4c3e cce4 013d
00000020: e25b ac3d 673d 4cbd 84a8 c8bd 7e3e 4ebd
00000030: d76f e43d bc47 3cbd 8bab 803c e722 eb3d
00000040: e9a6 88bd d294 43bd c33f 643b 99d1 073d
00000050: c480 80bd d392 463d c60b c03d bca1 e03d
00000060: d124 5fbd 6f03 9abc e3d2 1bbc 9537 f63d
00000070: 268b d4bd 0df9 383d 9594 14bd d9ef 42bc
00000080: 4f12 8f3c 5183 a4bd d9f3 57bb 04a5 8c3c
00000090: d0b1 053e a425 513d 9602 083e 9508 413d
000000a0: 4ba9 00be d8c0 3e3d b3c5 6d3d 5fbf e3bc
000000b0: 21db e53d 6d68 133d 6ccf 19bd daa3 a2bc
000000c0: 4598 c1bc 4d8b 1dbe 1a9f 903d d01a c3bd
000000d0: 1697 aebd 032a ec3c 1ca9 fd3c 1b3b 32bd
000000e0: 0ae3 1dbd be96 633d bbc4 3e3c 57ee 7d3d
000000f0: ddc2 23be 5f5a 28bc ba34 4e3d 02e6 eabd
00000100: ddea a6bd c931 043e 2b61 3a3d a031 d3bd
00000110: 2ec2 27bd b031 803d 051d f73d 9ab8 a13d
00000120: b370 9cbd c91d a73d 96ba 66bd 84a4 973d
00000130: 997f 92bd 7c68 123e 24a6 ec3d 7de1 d1bc
00000140: fe94 abbc 7f6b b43d e9f3 b1bd 0806 99bd
00000150: c4cd c83d af83 ebbd 4f1c 21be c0dd 643c
00000160: 7ac7 1f3e f8ca 113c f5de 87bd 711d 3fbe
00000170: eacc 65bd 363c 9bbd b853 b4bd d0b5 953d
00000180: e0e5 3a3d 3a72 1d3e 0a49 a3bc e123 033e
00000190: ba8d 0fbe ddb0 a3bc c965 d73b a859 ae3c
000001a0: 5ed2 c5bd eddd 54bd e98f e4bd 150b 4dbd
000001b0: c13f 903d c827 17be 03ec 26bd 0d3b f9bc
000001c0: 0eeb 1c3e 3d77 e53d 85e4 e03c fdbf 953d
000001d0: 6838 46bd ec3b 3abd 1aa1 973c e180 7e3c
000001e0: bc8e de3d 7e9b a1bd 575a 763d c193 ed3d
000001f0: 3856 a93c 115e 4e3d 6e93 103e 20ae 09bd
00000200: 6782 053e c335 b9bd 046c 303d f754 6fbc
00000210: 509a 113e a37d ba3d af82 843d add6 d9bc
00000220: f9f1 8bbd d405 403e dffc 91bd 0015 14bd
00000230: faf4 30bd 33a6 9bbc 77bb 6d3c b5ce 933d
00000240: 132a c1bc a62c c63c 75e1 82bd 988e 28be
00000250: 6468 40be c674 233e af7e 67bd 28b2 e5bd
00000260: 3b13 cd3d 32b0 81bc 2018 b7bc c18b 573d
00000270: b614 a6bb 9920 b43c 1b3d 91bd 4b48 f63d
00000280: daf1 323c 3811 fc3d a48e c5bc 08e9 1dbd
00000290: 3a71 2d3d e752 b3bd 8603 023e 9f24 2dbc
000002a0: 9c2d a1bd ba7f 373d 02e5 9e3d 41e7 fabc
000002b0: 2170 083e 5444 d23d 9ea8 223d 403c 2bbe
000002c0: fbd7 12bd e4a4 88bc a655 9cbd aa4e d63d
000002d0: cb77 0b3e 4d32 183e 447c 0d3d 9b94 91bd
000002e0: 0533 b1bd 4b58 563d b51f 823d fd81 413d
000002f0: 3762 863d 46c7 82bd cf67 b7bd a6e6 893c
00000300: 9406 14bc 1d1f ae3d 3cbc a0bd eeea 253c
00000310: 1e26 113c 6bbd c5bd ba91 89bc 3c3a bfbd
00000320: 862c 48bd cb74 393d 5520 97bb 27e9 c83c
00000330: ddf4 033e 5383 1dbd 362a 2a3e 9fb1 363e
00000340: cc44 d83c 9760 5c3c e11a 5abd c171 2abc
00000350: e0de c83b ee2e 003e e793 20bc a626 94bd
00000360: 0dd5 193d e945 8cbe 7f48 8abd b169 ab3d
00000370: 1f32 15bd 3133 7dbd 2611 c53d 9885 1a3e
00000380: 56f1 f83d a0d2 903d c3e8 21bc fce4 553d
00000390: a2f7 99bd 4686 d13c 3935 15bd 8a7e 2ebe
000003a0: 3351 a83b 8c3b 1dbd eca9 a43d 8008 a7bd
000003b0: b746 713d b67a 0abd b8c1 873d 4984 703c
000003c0: 7c6a e7bd c45b 693c 5735 82bd 163c e53c
000003d0: 45d9 9d3d c04c 8a3c f26f 093d d70d 353d
000003e0: a4de 59bd d2c7 c3bd 76b1 ec3c 7d2e 563d
000003f0: 859e 89bc b0f2 e93d 0411 09be 3226 efbd
-0.0070892945 0.06473937 -0.1121772 0.00773853 -0.025678042 -0.004115365 0.19984852 0.03171234
0.08415963 -0.049863245 -0.09797767 -0.050352566 0.11154144 -0.04596685 0.015706798 0.114812665
-0.066724606 -0.047749348 0.0034828044 0.033158872 -0.0627456 0.048479866 0.093772456 0.109683484
-0.05447847 -0.018800465 -0.0095107285 0.1202232 -0.10378103 0.04515939 -0.03627451 -0.011898004
0.017464785 -0.08032859 -0.003295174 0.01716853 0.13056111 0.051061288 0.13282236 0.047127325
-0.1256458 0.04657063 0.05804987 -0.027801214 0.11223436 0.03598826 -0.03755133 -0.019853521
-0.023632178 -0.1538517 0.07061596 -0.095265985 -0.08524911 0.028828626 0.030964427 -0.0435134
-0.0385466 0.05556368 0.011643584 0.061994877 -0.15992303 -0.010275452 0.050343253 -0.11469652
-0.08150265 0.12909617 0.045502823 -0.103121996 -0.04095667 0.06259477 0.12066082 0.07896538
-0.07638683 0.08159978 -0.056330286 0.07404426 -0.071532436 0.1429767 0.11555126 -0.025620217
-0.020945068 0.08809566 -0.086891 -0.074718535 0.09804872 -0.11499726 -0.15733455 0.013968885
0.15603438 0.008898489 -0.066343226 -0.18663575 -0.056103624 -0.07579844 -0.088050306 0.073100686
0.045629382 0.15375605 -0.019932289 0.12806655 -0.14018908 -0.019981796 0.006573413 0.021282986
-0.09659265 -0.051969457 -0.11160261 -0.050059397 0.0704341 -0.14761269 -0.040752422 -0.030423665
0.15324041 0.112043835 0.027452717 0.073120095 -0.048393637 -0.045467302 0.018509436 0.015533657
0.10867068 -0.07890986 0.06014475 0.116004474 0.020670995 0.050382677 0.1411874 -0.033613324
0.13038026 -0.09043457 0.04307176 -0.01460766 0.14219022 0.091059946 0.064702384 -0.026591623
-0.06833262 0.18752223 -0.071283095 -0.03615284 -0.043202378 -0.019000148 0.014510027 0.072171606
-0.023579633 0.024191212 -0.06390659 -0.16460645 -0.18789822 0.15962514 -0.0565173 -0.11215621
0.100134335 -0.015831087 -0.02235037 0.052623514 -0.005068387 0.0219882 -0.07091733 0.120255075
0.01092192 0.12307972 -0.024115868 -0.038552314 0.04234431 -0.08756047 0.12696657 -0.010567813
-0.078700274 0.044799544 0.077585235 -0.030627849 0.13324024 0.10266939 0.039711587 -0.16722202
-0.035850506 -0.016680188 -0.07633524 0.10464223 0.13619916 0.14862938 0.034542337 -0.07108422
-0.08652309 0.052330296 0.06353704 0.047243107 0.06561702 -0.06385665 -0.08955347 0.016833615
-0.0090347715 0.08502028 -0.07848403 0.010126812 0.0088591855 -0.09655269 -0.01679312 -0.09337279
-0.048870586 0.045277398 -0.0046120086 0.024525238 0.12886377 -0.03845532 0.16617665 0.17841195
0.026399992 0.013450763 -0.05324829 -0.010403098 0.0061300844 0.12517902 -0.009800888 -0.07233934
0.037556697 -0.27397087 -0.06752109 0.083697684 -0.036424752 -0.061816398 0.096224114 0.15090024
0.12155406 0.070714235 -0.009882155 0.05222033 -0.07517935 0.025576722 -0.03642771 -0.17040458
0.005136633 -0.038386866 0.080402225 -0.08155918 0.05890533 -0.033808433 0.06628746 0.014679977
-0.11299607 0.01424307 -0.0635783 0.027982753 0.077074565 0.0168823 0.033554025 0.04420265
-0.053190842 -0.09559597 0.028893214 0.05229043 -0.01679922 0.11423242 -0.13385397 -0.11677207

network_body._body_endoder.seq_layers.2.bias f4 [128]
00000000: 0664 0fba d946 21ba 96cb a8ba 587b b8b9
00000010: 413a 853a 7ea1 4dbb abe9 86b9 8712 5fba
00000020: 679a 163a 181d d1b9 35c6 19ba feb6 aeb9
00000030: de19 04ba 564b 8339 be4a 5eb9 011f 71b8
00000040: 7d26 da39 a71b 9cba f9ce 7eba 18b6 d6ba
00000050: c574 8039 55c2 99b9 28f3 cc39 e9ae 3c39
00000060: 6e5b 2c39 5e7b 21b9 dd93 6bb9 6694 9b39
00000070: 0b09 c239 97af 34b9 96a2 8dba 84e6 90ba
00000080: fe7b c33a 73a3 97b9 08c7 3ebb 273a 8739
00000090: 204d 043b df57 adba 8a35 cdb9 bd11 08b9
000000a0: 0b9a ceb9 590f ec3a f3ee 7fba 75b8 7cba
000000b0: 3623 d2b9 6a75 073b 5d13 aeb9 681d 01ba
000000c0: 8e80 ad39 c4f5 343a d435 ddba bd66 5b3a
000000d0: 9f57 d6b9 c12a 153a 81f3 71ba f4f3 fdb9
000000e0: 1f70 f0b9 d213 49bb 34f9 baba 8e09 483a
000000f0: 76cb e0ba 3a20 563a c019 d5b9 b715 1d3a
00000100: 49f6 34b9 b994 ae36 d5a3 94b8 7a03 52ba
00000110: 5c71 be3a 461b 8b39 a293 13ba 1c13 b73b
00000120: eabb 0b3a 9b75 883a c520 853a 7611 5ab9
00000130: bdec 2db9 a9f3 8b3a c0a8 0bbb fb57 1d3a
00000140: 1552 91b9 84e5 23ba db32 bd39 74d4 89b9
00000150: 25e1 653a 9243 ac39 21f6 a8ba 2685 28ba
00000160: 551b ba3a 8d4b f239 9baa f9ba 2f36 8038
00000170: 2e7d 89ba f4e0 7aba 9796 30ba 1263 b2b9
00000180: 1f30 4f3b e31c 47bb 133a 1bba 432e 04bb
00000190: d563 a7b8 ceaa a8b8 1a7f 2bb9 1c9b 983a
000001a0: 5b01 98b9 735d 30ba b50d ceb9 2f52 873a
000001b0: 00ca a938 a7bf 2a38 4729 5bb8 a316 033b
000001c0: 8631 f5b9 ebca 05bb fa09 44b9 553a 533a
000001d0: d2ef 22b9 0a7e 8bba 8a06 aaba 40ec 3737
000001e0: 2bea 0eba cd75 0ab9 6d22 15ba 0501 8fba
000001f0: 5fd1 db39 7cf7 09ba ab7b d7b9 6f5b 61ba
-0.0005469922 -0.000615222 -0.0012878056 -0.00035187113 0.0010164456 -0.0031376774 -0.00025732568 -0.00085095357
0.00057450536 -0.00039885263 -0.0005866022 -0.00033324206 -0.0005039255 0.00025042397 -0.00021199413 -5.7487752e-05
0.00041608876 -0.0011910097 -0.00097201724 -0.0016381172 0.00024501063 -0.00029327223 0.00039091078 0.00017994236
0.00016437258 -0.00015400114 -0.0002246643 0.0002967447 0.000370093 -0.0001723155 -0.0010805901 -0.0011055027
0.0014914272 -0.00028922744 -0.002911033 0.00025792533 0.0020187572 -0.001322504 -0.00039140537 -0.00012976579
-0.00039406153 0.0018009945 -0.0009763084 -0.00096405233 -0.00040080555 0.002066935 -0.00033202293 -0.00049253413
0.00033092912 0.0006903077 -0.0016877004 0.0008369496 -0.00040882544 0.000569027 -0.00092297053 -0.0004843768
-0.00045859904 -0.003068198 -0.0014264942 0.0007630818 -0.001715048 0.0008168254 -0.0004064571 0.00059923105
-0.00017257886 5.2029177e-06 -7.087706e-05 -0.00080113823 0.0014529633 0.00026532466 -0.0005629604 0.005586995
0.00053304306 0.0010411026 0.0010156861 -0.00020796605 -0.00016586758 0.0010677475 -0.00213103 0.0006002185
-0.0002771771 -0.0006252157 0.0003608678 -0.00026288966 0.0008769206 0.0003285674 -0.0012890735 -0.0006428532
0.0014198819 0.00046214127 -0.0019048037 6.113608e-05 -0.0010489577 -0.0009570264 -0.0006736307 -0.0003402462
0.0031614376 -0.0030382208 -0.00059214345 -0.0020169176 -7.981776e-05 -8.042679e-05 -0.0001635518 0.0011642906
-0.0002899271 -0.0006727792 -0.00039301594 0.0010324175 8.0961734e-05 4.070965e-05 -5.225211e-05 0.0020002506
-0.0004676694 -0.0020415138 -0.00018695733 0.00080577034 -0.00015538864 -0.0010642421 -0.001297192 1.0962656e-05
-0.0005451764 -0.0001320459 -0.0005689029 -0.0010910338 0.0004192693 -0.00052630133 -0.00041100135 -0.00085966935

action_model._discrete_distribution.branches.0.weight f4 [3, 128]
00000000: 65a5 a5bb 26f7 01bc de6c b63b 04ce e23b
00000010: 9b2b d7bb 084f a7bb 8c48 8d3b f629 acbb
00000020: ab65 b4b7 1e8e 023c edca e4ba 3c69 d23b
00000030: 6777 b83b 9095 343c 17b2 023c 116b 33bc
00000040: f99e 47bc 2e60 16bc 6a68 293a d1f9 4239
00000050: 0c4e 2dbb 35f4 693a 3fb8 e23a 1236 0a3c
00000060: 8696 663b b44e 733b 31e8 083b 0235 80bb
00000070: 6183 813b 34e6 0e3c 1a2e dfbb 01af 86bb
00000080: e64a 6bbc 2f61 5bba efa5 d43b b55c 0cbc
00000090: 9215 55bb 2604 6d3b aa2a 9cbc efe4 b6bc
000000a0: 97d3 773a e072 a83c 1c89 26bc de80 01bc
000000b0: 7921 0ebb 99a6 da3b 749e 13bc 5b4f 42bc
000000c0: 84ac aa3b 8720 d6b9 324f c8bb 5443 c0bb
000000d0: cadc dfba 489f 08bc 5c67 f0bb 7da2 a0bb
000000e0: 0416 873c 9a38 bd39 6e7e e03b cca2 1dbc
000000f0: 58fd 96ba 30c7 ed3b 2990 073c a382 1bbc
00000100: d403 cc3a 931e 0f3c 375b 8fbc 8eaa 64bb
00000110: 57ee 9ebb efc2 16bb 6569 94bb 47c2 57bc
00000120: f950 803c d93d 98bb 3c82 573c f90b a2bb
00000130: 90e3 083b 9b60 0d3b 7eff b4bb 346c 893b
00000140: 9af1 bfbb cc79 263b c9dc f6bb a47d 8d39
00000150: 356b 19bc 8eb9 9b3b a478 a6bb 7e03 12bc
00000160: 1246 803a 0b17 3b3b ba59 c1bb cce9 6abc
00000170: da0a a53c ab26 9a3b 29d7 c63b 2544 06bc
00000180: 35cc 2e3c 0b9b 933a fb28 b7bb ba54 0e3c
00000190: e68e 78bc 14d5 1b3b 871d 4638 fbf7 c9bb
000001a0: 6eaf 003c 6e30 95ba a962 7dbc 3fc8 023c
000001b0: c486 03bb 79cd a9bb a7bf c3bb 860b 01bc
000001c0: 9cac ff3b fc6d 3cbb 7288 45b9 082f e0bb
000001d0: 05e4 d7bb 29c5 32bc afd0 d53b 8ffd 4dbc
000001e0: a0a4 3e3c 493b 19bc 7576 d23b 5e99 133a
000001f0: f7b5 2b3c a6d8 fb3b 9cea 6c3b 90c9 9d3a
00000200: 315d 173c 66c8 cf3b 19c8 5a3b 09f6 de3b
00000210: de4c 273c 67fa afbb c324 c03b a734 19bb
00000220: 121c 383c accc aeba 87bf 0fbb 6688 153c
00000230: cc67 3cbc b20b 343b 6c75 b739 136e 37bc
00000240: 3037 4abb ffd4 afbb a25c 91bc 012a e93a
00000250: 9e45 ae3b 593a 89bc 7f28 69bc bbcc 82bc
00000260: 675f 473c 3e1e 2bbb 411a 0b3c 9c32 393b
00000270: d421 603c d104 6d3c bba2 a0bb 193e 0d3c
00000280: ea6b 2ebb dfca 0abc d6df 983a 393d 0d3c
00000290: 82c4 b23b 1d60 83bb ef7c 1939 03ad 283c
000002a0: dfec 9e3a 8f53 5dbb 14c9 83bb fc16 85bc
000002b0: b97e 703c d1a3 613a 8979 9d3b c2c5 843c
000002c0: 699d dcbb 2a1a 493c acc9 32bc ab24 d53c
000002d0: f565 86bb 21d2 4e3c 462c a13a 05ca 393c
000002e0: eed9 0bbc b634 9539 ee04 393c d200 afbb
000002f0: 278a f93b 09b7 63bb 5e92 3a3b 25b9 6a3b
00000300: 0fac ffbb f11d b6bb d4f8 283c b7a0 f8bb
00000310: 7e4f 21b8 e23f e8ba 8f3a 41bb ba42 793c
00000320: e3cb 283b 5373 e839 bd58 b33b 2e10 14bc
00000330: 89a2 b4ba 466d 013a 3922 b23b e61f f03b
00000340: b013 d3bc 224b 823b 1a01 9bbb 26d2 b0bb
00000350: 87fa b93a 7b05 2c3b 38eb f73b ff1e 073c
00000360: dff7 7d3c 94ac 7b3c aceb d5b8 f6ec 16bc
00000370: 4f69 1d3c d45d 093a 16d1 e33b dcb9 a6bc
00000380: 4ab1 683b 995c 5739 f2e5 863c dfb7 51bb
00000390: 905b 0dbc c6c8 15bc ad66 053c dda4 4f3b
000003a0: aa11 713b 9c95 b4bb f541 d53b 379f 98bc
000003b0: dea1 e83c f5ce f9bb bded 3d3c 3941 2438
000003c0: ea57 6f3a 2dde 0cbb 7eab 67bc 826c 1d3c
000003d0: 93e6 343c 132c c53b d52e 40bc f049 443c
000003e0: 3172 093b 5f59 c83b d734 b23b bacd ce39
000003f0: 69f1 94bb 2d6f d83b 18f8 4fbc 468c b73a
-0.005055117 -0.00793246 0.005567177 0.0069215316 -0.0065664775 -0.005105857 0.004311627 -0.0052540256
-2.1505015e-05 0.007968454 -0.0017455496 0.0064212363 0.0056294682 0.011021987 0.00797703 -0.01095082
-0.012183898 -0.009178204 0.0006462397 0.00018594346 -0.0026444225 0.00089246343 0.0017297341 0.008435743
0.0035184934 0.0037125768 0.002089035 -0.003912569 0.003952429 0.008721877 -0.0068109157 -0.0041102176
-0.014361119 -0.00083686685 0.0064895074 -0.008567025 -0.0032514078 0.0036165803 -0.019063313 -0.02232596
0.00094538316 0.02056259 -0.010164525 -0.0079042595 -0.0021687432 0.006672692 -0.009009946 -0.01185974
0.0052085537 -0.00040841496 -0.0061129564 -0.005867401 -0.001707935 -0.008338757 -0.00733654 -0.0049021826
0.01648999 0.0003609106 0.006851009 -0.009621333 -0.0011519594 0.007256411 0.008274117 -0.009491595
0.0015565106 0.008735317 -0.01749955 -0.0034891698 -0.0048501897 -0.0023004373 -0.0045291656 -0.013168878
0.01566361 -0.0046460447 0.013153609 -0.004945275 0.002088759 0.0021572474 -0.005523621 0.004193807
-0.0058576586 0.0025402186 -0.007533644 0.00026987225 -0.009363939 0.0047523445 -0.0050802995 -0.008911965
0.0009786508 0.002854767 -0.005900589 -0.014337968 0.020146776 0.0047043166 0.0060681296 -0.008194958
0.010668804 0.0011261416 -0.005589602 0.008687193 -0.015170788 0.0023778128 4.7234378e-05 -0.006163595
0.007854326 -0.0011382231 -0.015465417 0.007982313 -0.002006934 -0.005181965 -0.0059737745 -0.007876283
0.007802559 -0.002875208 -0.00018838214 -0.006841544 -0.0065884613 -0.010911264 0.006525121 -0.01257266
0.011635929 -0.009352514 0.0064228126 0.00056304585 0.0104803955 0.0076857386 0.003615058 0.001203822
0.009238527 0.006341028 0.0033383428 0.006804232 0.010211198 -0.0053704265 0.0058637573 -0.002337733
0.011237161 -0.0013336143 -0.0021934228 0.009126758 -0.0114993565 0.0027472791 0.00034991966 -0.011195677
-0.0030855648 -0.0053659673 -0.017744366 0.0017789007 0.0053183576 -0.016751455 -0.014230846 -0.015966764
0.012168742 -0.0026110555 0.008490146 0.0028258925 0.01367994 0.01446648 -0.0049022115 0.008620762
-0.0026614615 -0.00847122 0.0011663388 0.008620554 0.0054555545 -0.0040092603 0.00014637758 0.010295155
0.0012125036 -0.0033771729 -0.004021773 -0.016246311 0.014678651 0.00086074794 0.004805748 0.01620758
-0.006732632 0.012274304 -0.01091234 0.026018461 -0.0041015097 0.012623341 0.001229652 0.011339669
-0.008535845 0.00028458767 0.011292679 -0.005340674 0.007615346 -0.0034746549 0.002846859 0.003581592
-0.0078024934 -0.0055577685 0.0103132315 -0.007587518 -3.8459424e-05 -0.0017719234 -0.0029484367 0.015213663
0.0025756292 0.00044336412 0.005473225 -0.009037061 -0.0013781349 0.00049372425 0.0054362086 0.0073280213
-0.025766224 0.0039762417 -0.004730356 -0.0053961454 0.0014189043 0.0026248384 0.007565882 0.008247136
0.015500992 0.01536097 -0.00010200529 -0.009211769 0.009607627 0.0005240117 0.006952415 -0.020352297
0.0035506063 0.00020538493 0.016467068 -0.0032000465 -0.008627787 -0.009142106 0.008142156 0.003168396
0.003678421 -0.005510999 0.006508107 -0.018630607 0.028397497 -0.007623548 0.011592326 3.916139e-05
0.00091302267 -0.0021494732 -0.014140008 0.00960839 0.011041301 0.006017217 -0.011729916 0.011980519
0.0020972604 0.0061141695 0.005438428 0.0003944466 -0.00454538 0.00660505 -0.0126934275 0.0014003597

action_model._discrete_distribution.branches.0.bias f4 [3]
00000000: 15af c937 0974 1339 96df 80b9
2.4042596e-05 0.00014062239 -0.00024580647

exp_avg f4 [128, 18]
00000000: baa7 b638 6001 f9b6 dc5a 37b8 b2f7 8339
00000010: 9dfb 1bb5 0b46 07b9 ae55 063a 854d cfac
00000020: 78c4 a5b9 9e2c 1839 ff83 45b7 b8ea 72b8
00000030: acf9 ac39 7177 2fb6 a19c 22b9 dd40 b639
00000040: 0920 97ac 9e09 22b9 1043 3f3a 23d0 d236
00000050: ea0c 30b9 8a2c 30b8 d040 6d36 19f7 12b9
00000060: f1f8 3b39 f5a9 5e2b c096 b739 1f77 3d3a
00000070: 9670 c136 673c 2ab9 d933 6037 2c86 1036
00000080: 102b 05b9 4125 fe38 fbed 832b 7b67 e839
00000090: 953e 0d3a 4e48 8ab8 9a53 38b9 d5df a539
000000a0: 62b9 13b8 3158 bfb9 4209 81b8 3324 8f2c
000000b0: 72a6 cf38 4110 ed39 5b4f 79b8 b190 42b9
000000c0: 038e dd39 2d45 ffb7 e740 a2b9 7f30 5138
000000d0: 361e b82c e5e2 783a b479 58ba 2ab4 3038
000000e0: b1d4 1839 bf6a 7038 a6b2 cc37 dcea d5b8
000000f0: 59c4 31b9 4262 02ad 3959 2fb9 7346 50ba
00000100: 11e7 2638 8354 0c39 d41d 3338 4310 b537
00000110: 7440 10b9 3160 c4b8 cc77 13ad 830c e5b9
00000120: 0749 6dba 1e36 0038 8dcc 81b8 adbc 60b9
00000130: 3ed8 7d37 596a ab38 9a1d 8cb7 cb4b 04ad
00000140: cada fe39 f024 70ba 2f75 0338 3bf3 1bb8
00000150: 42e1 82b9 2d7f 9737 a89d 6138 ccc7 8cb9
00000160: f648 06ad ac24 41ba b834 683a 8038 93b8
00000170: b0d8 f5b9 b57b a3b7 b2ca 17b8 1a3e 09b8
00000180: f530 5a39 df74 2d2b 56ff 44b9 a0c9 5e3a
00000190: d1e0 98b8 8c9c eab9 a092 efb7 1bb2 03b8
000001a0: d535 a537 7d21 6539 9727 892b 136c 8039
000001b0: 737c 1638 5875 37b8 4dd6 8fb9 4b47 5a39
000001c0: 2abd c4b7 b1d7 72b9 e369 37ba 02ca 912a
000001d0: 1e98 50ba be05 5638 c1b4 32b8 0c84 9ab9
000001e0: f48f 7c39 a3ec afb7 e3da 85b9 7017 0dba
000001f0: 7732 a82b 0f1e a1b9 f027 32ba c268 c4b8
00000200: 73cb 1eba 2408 3639 15d4 41b8 e231 afb9
00000210: 1bd4 beb9 5fe2 b62c a0f3 70ba 64ec 2aba
00000220: d411 c0b8 492f 21ba 59a1 b439 f472 43b8
00000230: d39a d3b9 aff1 5cb9 b8a9 992c 9843 7ab9
00000240: cdd3 393a 9499 80b8 8d56 06ba f6e8 553a
00000250: 3f53 f9b7 f605 5fb9 2354 9637 15c1 0e2d
00000260: bc7b 463a 3a54 423a 8675 86b8 aeac 05ba
00000270: 7566 2e3a ba8e 1fb8 dc1f 27b9 051a 24b9
00000280: 0aab d62c aa15 b439 c2f8 b2b8 bc88 75b8
00000290: 8d69 1bb8 efd1 a03a 0fc2 c7b7 5fed c339
000002a0: 1a1f 013a 4a13 46ab fd26 5fb9 c74f dfb8
000002b0: df20 77b8 5711 8fb7 d4c7 9e3a cf2f cfb7
000002c0: f59a b539 2220 143a eb2a 0dab 40cd a5b9
000002d0: c31d 853a 7cff c2b5 4503 7438 f819 bb38
000002e0: 51ff 47b5 ac98 f939 c705 0739 e341 b4ab
000002f0: 5bdb 0cba eae6 7d3a 715f 75b6 c3c9 5e38
00000300: 4115 4b38 6cea 3436 4f3d e739 ae44 6b39
00000310: 8899 44ac e4db 96b8 c347 09ba f73c 7638
00000320: 6d31 9d39 af33 b039 91c2 0038 0926 5739
00000330: 7bd2 be37 034f 092c 8b3e 913a 2d21 deb9
00000340: 93c7 5638 02db 9539 bde9 a939 a4d8 f837
00000350: 5099 8839 8e34 8638 091c 572c 854e 3b39
00000360: f1ef d73a 4c83 aab8 4ca8 33ba cee4 a3b7
00000370: 88c7 45b8 52f8 9839 d160 a539 a446 882c
00000380: f3be 08ba 688b d63a abc9 abb8 ec2a 32ba
00000390: 2aec 4137 7f06 2eb8 6a06 bd39 95ae a839
000003a0: 69a5 aaaa cd26 f039 e0f7 bbb8 51ba c0b5
000003b0: 8366 2638 c724 e4b8 be9b 40b5 3ece 07b9
000003c0: 9dc3 6fb8 fe38 0aac 0e49 f8b9 46c6 bdb8
000003d0: 9467 c4b5 d4c1 0b38 f7a8 97b8 54ee f734
000003e0: d09b 2eb9 b8bd 1cb9 3838 f2ab 7924 51b8
000003f0: 7d86 8539 ac53 9238 073e e639 3261 1a39
8.709678e-05 -7.4209383e-06 -4.371522e-05 0.00025170814 -5.8108145e-07 -0.00012900696 0.00051244616 -5.8919002e-12
-0.00031617633 0.00014512471 -1.1772848e-05 -5.7915895e-05 0.00032992417 -2.6146556e-06 -0.00015507873 0.00034762072
-4.2952347e-12 -0.00015453107 0.0007296065 6.282718e-06 -0.00016789479 -4.200315e-05 3.5353478e-06 -0.00014015696
0.00017926448 7.9106106e-13 0.00035016797 0.0007227528 5.764955e-06 -0.00016234965 1.3363512e-05 2.153577e-06
-0.0001269991 0.00012118603 9.374163e-13 0.00044327587 0.00053880486 -6.5938206e-05 -0.00017578751 0.0003163802
-3.5220182e-05 -0.00036496067 -6.152924e-05 4.0683234e-12 9.901532e-05 0.00045216273 -5.944013e-05 -0.00018555183
0.00042258212 -3.0430581e-05 -0.00030947404 4.987465e-05 5.2329486e-12 0.0009494259 -0.0008257881 4.212946e-05
0.00014575083 5.7319874e-05 2.4401885e-05 -0.000102003774 -0.0001695318 -7.411462e-12 -0.00016722539 -0.0007945068
3.979268e-05 0.00013382923 4.2704705e-05 2.1584454e-05 -0.00013756921 -9.363925e-05 -8.382583e-12 -0.00043687606
-0.00090517144 3.056798e-05 -6.1893e-05 -0.00021432592 1.5130323e-05 8.173724e-05 -1.6703085e-05 -7.520161e-12
0.00048609666 -0.00091607776 3.134197e-05 -3.7181406e-05 -0.00024963362 1.8059824e-05 5.379101e-05 -0.0002685174
-7.633219e-12 -0.000736783 0.00088579534 -7.02003e-05 -0.00046891486 -1.948872e-05 -3.618998e-05 -3.2721182e-05
0.00020808338 6.162414e-13 -0.00018787137 0.00084986724 -7.2898e-05 -0.00044748595 -2.8559298e-05 -3.1398708e-05
1.96946e-05 0.00021851617 9.745424e-13 0.00024494584 3.587869e-05 -4.3739885e-05 -0.00027434752 0.00020816659
-2.3453107e-05 -0.0002315927 -0.00069966743 2.5897345e-13 -0.00079572375 5.1026924e-05 -4.2606847e-05 -0.00029471552
0.0002408622 -2.0971818e-05 -0.0002553082 -0.00053822156 1.1951125e-12 -0.00030730708 -0.0006796112 -9.365521e-05
-0.0006057538 0.00017359905 -4.6212303e-05 -0.00033415767 -0.00036397655 5.1978834e-12 -0.00091915764 -0.00065202103
-9.158594e-05 -0.00061487086 0.0003445249 -4.659868e-05 -0.0004036041 -0.00021070869 4.367364e-12 -0.00023867039
0.0007088751 -6.132122e-05 -0.00051245914 0.0008160019 -2.9721878e-05 -0.00021269158 1.7920573e-05 8.114638e-12
0.00075715384 0.00074130634 -6.4115084e-05 -0.00050992786 0.00066528405 -3.804148e-05 -0.0001593823 -0.00015649952
6.101235e-12 0.00034348416 -8.534036e-05 -5.8539896e-05 -3.705318e-05 0.0012269596 -2.3813014e-05 0.00037370154
0.0004925594 -7.03705e-13 -0.00021281462 -0.00010648328 -5.8920003e-05 -1.7055003e-05 0.0012113997 -2.4698586e-05
0.00034638462 0.000565054 -5.0152824e-13 -0.00031624176 0.0010155964 -1.4528482e-06 5.817718e-05 8.921692e-05
-7.450481e-07 0.0004760673 0.00012876755 -1.2808056e-12 -0.00053732627 0.0009685593 -3.65634e-06 5.311683e-05
4.8418766e-05 2.6958542e-06 0.00044105432 0.00022436932 -2.7938502e-12 -7.193515e-05 -0.00052368286 5.870775e-05
0.000299822 0.00033607843 3.0698782e-05 0.00020518167 2.2747778e-05 1.9512731e-12 0.0011081261 -0.00042367858
5.1207444e-05 0.00028582668 0.0003240834 2.9664785e-05 0.00026054168 6.399407e-05 3.05689e-12 0.0001786296
0.0016474706 -8.130688e-05 -0.00068533863 -1.953766e-05 -4.7154288e-05 0.00029176712 0.00031543386 3.873195e-12
-0.0005216442 0.0016368451 -8.191479e-05 -0.0006796557 1.1558683e-05 -4.1490883e-05 0.00036053668 0.0003217353
-3.0312843e-13 0.00045805276 -8.963025e-05 -1.435934e-06 3.9672956e-05 -0.000108787375 -7.175221e-07 -0.00012951434
-5.716422e-05 -1.9642617e-12 -0.00047356676 -9.0491536e-05 -1.4633283e-06 3.33207e-05 -7.231713e-05 4.6180742e-07
-0.00016651978 -0.00014947995 -1.7210738e-12 -4.986345e-05 0.00025467938 6.9774076e-05 0.00043915233 0.00014722793

exp_avg_sq f4 [128, 18]
00000000: d4f4 2735 09ac 7131 a55f ff33 e7a8 5834
00000010: 7239 7430 dc67 8533 61b4 f433 921b 4c19
00000020: cb8b 2f34 e604 2635 05f3 6e31 224e 0134
00000030: fc20 5034 2a16 6930 077d 8633 a455 0834
00000040: e317 1f19 75a5 c433 8314 3934 174a 2330
00000050: eb09 5b32 96a6 0e33 9a55 202f b4a5 3632
00000060: a8d8 b932 2885 a817 aca1 6e33 d955 3b34
00000070: 5aab 2430 47c6 5b32 bb76 2e33 7ca2 1c2f
00000080: 4f1d 0d32 8298 c032 2efd cf17 7677 8d33
00000090: fb49 6c35 db4e c231 6ee7 5434 b2e5 9934
000000a0: 6b03 c130 d176 d733 e879 4434 ec58 1d19
000000b0: a21e c334 363d 6e35 4791 c231 f44c 5634
000000c0: 4a8c a034 9355 bf30 28eb e033 a26a 4b34
000000d0: 13af 0e19 e4a1 8534 9d84 c435 8a21 1732
000000e0: 81f9 7534 18a4 a534 b719 1a31 4e9b e133
000000f0: 9eb4 8734 52c6 8119 097d ac34 3156 c435
00000100: 6931 1732 8a2d 7b34 8e27 b634 6916 1731
00000110: 3a57 ea33 4c09 8b34 4fe6 9719 83f4 b234
00000120: cf2c 2735 f065 6731 64de b333 b4c0 4a34
00000130: ab27 6f30 bef6 8d33 d40d e633 abf8 1819
00000140: cb5e 2734 c4ec 2835 45e6 6a31 1861 b533
00000150: 192e 5934 22cf 6430 6f3e 8e33 212c ec33
00000160: 6169 3c19 44f7 4e34 f08a 8c34 ba61 4a31
00000170: 6cab 7533 710e 6d34 2ddd 4730 4f58 1d33
00000180: 7401 3234 3938 f418 a61d 0e34 49dc 8c34
00000190: 3a34 4c31 7639 7833 789a 8234 ea02 4630
000001a0: a08b 2633 66b4 4534 0c3e 0d19 5c4a fb33
000001b0: fccb 8434 82c0 e330 5ef5 7933 c0ee c533
000001c0: 8882 e92f 245e 1c33 e2c9 8133 8303 4f18
000001d0: ad4c 4234 987d 8434 052b e530 c4d3 7833
000001e0: c35d c733 3279 da2f 896c 0933 7c19 7333
000001f0: dc9c 8618 70c0 bd34 2b7d f635 3a69 3f32
00000200: 2a87 ae34 d226 2a35 7f4d 3e31 b2b3 2b34
00000210: 343b 9934 58d8 051a ae4a 5735 121a f635
00000220: c707 3f32 6cd1 af34 825d 3435 8131 3e31
00000230: 6952 2a34 412c 9e34 cb84 fb19 f85d 5d35
00000240: 86f3 c334 ab70 5131 fd10 b633 3a47 e433
00000250: e5f3 5330 19bc 5633 df84 f033 21e6 0b19
00000260: bf10 a434 d061 ca34 f121 5431 d1cd b833
00000270: fb2e 0634 b956 5630 cf0a 5033 345b e033
00000280: 4b81 0419 60f8 c234 3716 c134 fc09 0d31
00000290: 2e2b 0933 95fb 4334 a2a6 0730 cce0 8733
000002a0: 59f8 e133 aeae da18 264b 1734 c03e bf34
000002b0: 6419 0e31 8dad 1333 18c1 5d34 977a 0a30
000002c0: 6bb9 7333 f8ab 0134 6e08 1519 f54d 3834
000002d0: 0e7a 4734 ad55 b530 1f7e 2533 7bae 8933
000002e0: d039 b62f 1018 4e33 fb2f 4433 67f2 4918
000002f0: 1da8 9933 0a62 4434 5f4c b630 d86c 2733
00000300: 5f69 9a33 969a b52f ccbb 2833 9f68 6a33
00000310: 3537 6d18 b281 c233 f603 2b35 012a 9731
00000320: 379c 2534 ca99 6034 d9ab 9830 34e8 c633
00000330: 4113 1634 341d c318 9b0b 5e34 d616 2e35
00000340: 1c65 9931 d5fb 2734 87ad 6734 f440 9630
00000350: 4901 ac33 4ed9 2634 18c0 f418 fe8f a734
00000360: 0aae 8235 8c11 0432 04a3 0d34 acd3 f534
00000370: e3e2 0331 595f da33 3731 ae34 a123 8919
00000380: c3aa cb34 590e 8435 1f07 0532 4355 0f34
00000390: 6bfd fa34 feac 0131 30bf fb33 5227 bb34
000003a0: 4ce3 9019 ff27 bd34 8477 cb33 fec1 fe2f
000003b0: 0bab d132 daa8 2d33 8cc5 fe2e ea49 e532
000003c0: 444e ea32 42bd 0118 1287 f033 7e7a cb33
000003d0: bfed fe2f e1ee d332 87d7 3133 4d1d ff2e
000003e0: f0b9 bb32 4b57 ba32 b80e fb17 0e4a 4434
000003f0: 79ba 2b34 c63a 1831 c528 9633 e230 a233
6.256862e-07 3.5167906e-09 1.18917605e-07 2.0178014e-07 8.884832e-10 6.212187e-08 1.1394946e-07 1.05521206e-23
1.6349001e-07 6.1846947e-07 3.4771699e-09 1.2042486e-07 1.9383509e-07 8.4796403e-10 6.2626036e-08 1.2697143e-07
8.224931e-24 9.157058e-08 1.723693e-07 5.940434e-10 1.2749733e-08 3.321346e-08 1.4582327e-10 1.0631471e-08
2.1635358e-08 1.0890359e-24 5.5560733e-08 1.7446963e-07 5.990636e-10 1.2792561e-08 4.0620517e-08 1.4245843e-10
8.213944e-09 2.2421094e-08 1.3440973e-24 6.587554e-08 8.8024507e-07 5.655108e-09 1.9828232e-07 2.8665596e-07
1.404357e-09 1.003333e-07 1.8298272e-07 8.134667e-24 3.634387e-07 8.875098e-07 5.6626592e-09 1.9958298e-07
2.9904396e-07 1.3921401e-09 1.04735875e-07 1.8944641e-07 7.376584e-24 2.489097e-07 1.4641734e-06 8.796983e-09
2.2908172e-07 3.085304e-07 2.2424567e-09 1.0505629e-07 2.5277126e-07 1.3418388e-23 3.2128472e-07 1.4628223e-06
8.800591e-09 2.3392764e-07 3.3928922e-07 2.198613e-09 1.09123405e-07 2.5897532e-07 1.5706055e-23 3.333299e-07
6.2277553e-07 3.367287e-09 8.37579e-08 1.8882821e-07 8.7004065e-10 6.610706e-08 1.0712725e-07 7.908434e-24
1.5587572e-07 6.2929416e-07 3.4182375e-09 8.4461306e-08 2.022647e-07 8.324027e-10 6.623747e-08 1.09976334e-07
9.740653e-24 1.92752e-07 2.6178122e-07 2.945042e-09 5.7199415e-08 2.2077599e-07 7.271009e-10 3.6634727e-08
1.657807e-07 6.3129292e-24 1.3235567e-07 2.623731e-07 2.9715594e-09 5.779426e-08 2.4326778e-07 7.203612e-10
3.8776875e-08 1.8412683e-07 7.3020594e-24 1.1701624e-07 2.4735334e-07 1.6571138e-09 5.819799e-08 9.216956e-08
4.24752e-10 3.64072e-08 6.043753e-08 2.6755896e-24 1.8095552e-07 2.4678297e-07 1.667417e-09 5.79346e-08
9.283715e-08 3.9740083e-10 3.199651e-08 5.6601024e-08 3.4796576e-24 3.534401e-07 1.8364857e-06 1.1141589e-08
3.250837e-07 6.3386426e-07 2.769269e-09 1.5990989e-07 2.8541547e-07 2.7678516e-23 8.0202415e-07 1.8336016e-06
1.1119432e-08 3.2748665e-07 6.7191297e-07 2.7676779e-09 1.5862464e-07 2.9461992e-07 2.6006426e-23 8.246566e-07
3.6498767e-07 3.0477547e-09 8.4781256e-08 1.06300334e-07 7.710795e-10 4.999683e-08 1.120004e-07 7.232606e-24
3.0559565e-07 3.76966e-07 3.0869354e-09 8.6056055e-08 1.2496814e-07 7.7975987e-10 4.8438604e-08 1.04474026e-07
6.8503506e-24 3.6316032e-07 3.5965215e-07 2.0523876e-09 3.193707e-08 1.8252315e-07 4.9349513e-10 6.327318e-08
1.0522553e-07 5.652806e-24 1.409031e-07 3.562218e-07 2.0678153e-09 3.4383948e-08 2.0652476e-07 5.037832e-10
5.6746483e-08 1.2076623e-07 7.704822e-24 1.7164696e-07 1.8577722e-07 1.3193834e-09 3.8531763e-08 6.4112974e-08
3.3146685e-10 4.7984997e-08 4.5678444e-08 2.6101023e-24 7.155197e-08 1.8289589e-07 1.3263949e-09 3.898171e-08
7.190351e-08 3.3033548e-10 3.928635e-08 5.4577523e-08 3.0659404e-24 9.0574204e-08 6.370823e-07 4.3994537e-09
1.5423653e-07 2.0917574e-07 1.1108298e-09 9.262331e-08 1.3976843e-07 5.0435806e-24 2.0679583e-07 6.485328e-07
4.464381e-09 1.5644703e-07 2.157668e-07 1.0932397e-09 8.009608e-08 1.553901e-07 6.3266487e-24 3.1210942e-07
9.736407e-07 7.687401e-09 1.3190953e-07 4.5788818e-07 1.919198e-09 1.016876e-07 3.2445834e-07 1.4179858e-23
3.7935942e-07 9.838942e-07 7.743238e-09 1.3348931e-07 4.6750515e-07 1.8870305e-09 1.1722875e-07 3.4860074e-07
1.4981056e-23 3.5233094e-07 9.474664e-08 4.634017e-10 2.4408584e-08 4.043327e-08 1.1585674e-10 2.6692721e-08
2.7276776e-08 1.676841e-24 1.120044e-07 9.475205e-08 4.637126e-10 2.4672262e-08 4.1407045e-08 1.1601262e-10
2.185422e-08 2.1692946e-08 1.622421e-24 1.8280863e-07 1.5993454e-07 2.215232e-09 6.992335e-08 7.5526046e-08

exp_avg f4 [128]
00000000: 51ad 83b6 bbf5 0036 e834 a6b7 6789 5e37
00000010: e246 2f37 6fd6 cbb7 5446 6eb7 e60b 00b8
00000020: 5e47 b3b7 95c0 a4b7 1395 a3b5 b72f 8f37
00000030: e60c e5b7 9def 02b5 7b30 bd37 a0b8 c636
00000040: 298e a3b7 8baa b236 ee4b fd36 7639 30b7
00000050: ebfb 9d35 2c11 be37 f5ec a536 e4d1 1937
00000060: 6061 1337 86cb 3636 df32 a737 e7fc e737
00000070: ab57 13b6 9b5a 8937 9b80 7437 bf9d 4038
00000080: 2d2b be36 ef1f 1cb7 132e 9db6 453e f134
00000090: e3f2 4e37 3016 1937 d638 a435 4945 94b6
000000a0: 0c8b cd37 eae6 a636 22a3 5eb6 3776 27b7
000000b0: 9c5d 4537 78b4 71b7 e7b7 a237 9325 7538
000000c0: 4654 b8b7 55e3 1337 7f77 0bb7 5ce4 3037
000000d0: 9d4f 32b6 38e0 31b7 011b b836 c852 9fb6
000000e0: 7bcd 8837 dd88 acb7 845d 8c37 0162 f8b6
000000f0: e288 28b6 5da0 4b37 0eb5 20b7 4771 b437
00000100: cc93 7037 6bb4 9036 7c61 c537 f82f d0b7
00000110: 9c03 b9b5 8d80 95b7 87da 0db8 a9a3 6837
00000120: 1ec2 aeb5 1d6a 6ab5 8593 8d37 6c62 ee37
00000130: 2a2a 1938 97f8 cc37 6ad3 9bb6 009b 66b7
00000140: 5ae8 8235 bd4f ac37 a070 e335 b839 a136
00000150: f22a abb7 bb3b 1937 b0cd 13b7 a701 2737
00000160: 929e 0038 5961 f7b7 f44b 3235 6636 2537
00000170: da6d a1b7 b6db 84b6 df22 1db7 bba4 c237
00000180: c212 46b7 b161 eb37 b15a dab7 8e17 a7b7
00000190: dc44 2237 691f 8934 694a 17b7 1ec2 dab7
000001a0: 52b0 bfb7 f4a5 6037 f5cd e137 8c60 b835
000001b0: 350a 3f36 fb5e a937 9cc6 fe35 4bfc adb7
000001c0: d056 da36 41bc 07b7 9d25 e837 a808 b037
000001d0: 18d2 feb6 17e5 7bb7 7aae 6737 06b7 c3b7
000001e0: 4846 5037 0286 3a38 9ff7 c7b7 5f98 8736
000001f0: 251f d5b7 f049 7e37 c094 2a37 1051 ddb7
-3.924281e-06 1.921652e-06 -1.9813378e-05 1.3264223e-05 1.04473165e-05 -2.429934e-05 -1.420228e-05 -3.052866e-05
-2.1371696e-05 -1.9640001e-05 -1.2187833e-06 1.7069147e-05 -2.7304934e-05 -4.8777457e-07 2.2553131e-05 5.922353e-06
-1.9497313e-05 5.324667e-06 7.548827e-06 -1.0503796e-05 1.1770729e-06 2.2657761e-05 4.9449686e-06 9.16838e-06
8.784555e-06 2.723858e-06 1.993164e-05 2.7655113e-05 -2.1955736e-06 1.6373864e-05 1.4573477e-05 4.592328e-05
5.6674676e-06 -9.30576e-06 -4.6843284e-06 4.4935055e-07 1.2335108e-05 9.124677e-06 1.2235494e-06 -4.4188096e-06
2.4502653e-05 4.9740675e-06 -3.3175534e-06 -9.9815e-06 1.176391e-05 -1.4406738e-05 1.9397541e-05 5.8447546e-05
-2.1973752e-05 8.814813e-06 -8.312868e-06 1.05435865e-05 -2.6570408e-06 -1.0602227e-05 5.486771e-06 -4.7482063e-06
1.6308148e-05 -2.056773e-05 1.6732847e-05 -7.402385e-06 -2.5113627e-06 1.213708e-05 -9.578898e-06 2.1510421e-05
1.4339526e-05 4.312538e-06 2.3529625e-05 -2.481787e-05 -1.3784625e-06 -1.7822045e-05 -3.382054e-05 1.3866383e-05
-1.3020506e-06 -8.732621e-07 1.6877204e-05 2.8417642e-05 3.651731e-05 2.4434454e-05 -4.643972e-06 -1.3745157e-05
9.753378e-07 2.0541129e-05 1.6945596e-06 4.8048933e-06 -2.0404786e-05 9.133418e-06 -8.809773e-06 9.95436e-06
3.066526e-05 -2.9490026e-05 6.6420694e-07 9.847432e-06 -1.924385e-05 -3.9594843e-06 -9.366048e-06 2.320331e-05
-1.1806087e-05 2.8059674e-05 -2.6029857e-05 -1.991892e-05 9.671985e-06 2.5541092e-07 -9.017626e-06 -2.6078018e-05
-2.285108e-05 1.3390079e-05 2.6917996e-05 1.3737167e-06 2.846716e-06 2.0190599e-05 1.8982278e-06 -2.074069e-05
6.5070126e-06 -8.090458e-06 2.767407e-05 2.0984866e-05 -7.594248e-06 -1.5014105e-05 1.3809296e-05 -2.3331038e-05
1.241413e-05 4.447066e-05 -2.3837956e-05 4.041052e-06 -2.5406081e-05 1.5156795e-05 1.0167423e-05 -2.6383e-05

exp_avg_sq f4 [128]
00000000: 3b66 d42f 685f 922e e7f2 2c30 d164 8630
00000010: b2cc d02f bd83 b52f 76b4 4b2f 09ce a930
00000020: f28f bc2f e69e 7c2f ff0a 222f de59 0830
00000030: 707e 6c30 729a 622e 647b 872f 991b 0530
00000040: b2a0 0c30 81ae bb2e 3177 bb2f 5fff e22e
00000050: c317 a62f 916a 2130 5ce6 6c2e 4553 3130
00000060: 3662 5030 16e7 5530 f30f 492f 36da b130
00000070: 5e3c 362f 4977 1830 6b99 6f30 fbad 2431
00000080: 08b3 0231 7239 652e 3982 812f 7a89 1f30
00000090: 07e9 a230 1050 e830 fee2 bd2e edea 692f
000000a0: fa6e 902f 0be3 b12e d853 4d30 83cc 852f
000000b0: 29d1 c72f b118 ba2f b537 1a30 62dc 3930
000000c0: bc5d 2a30 3d44 382f 23b7 3530 9107 ae2e
000000d0: 4cad 152f 731b 1a2f 923b ff2e 043c 9e2f
000000e0: 9de1 ee2f 3d49 3930 0c2c 4530 a3be c22e
000000f0: a088 c82e 059f e82f e313 c02f 4fe7 ba2e
00000100: d249 b32f abe4 142f 596e 8c2f bc2d a330
00000110: 52f0 2130 da33 702f aebe 602f 19b9 ec2e
00000120: 4971 3d2e fbeb 162f 5f20 9f30 c717 4f2f
00000130: 1246 3c30 b85d b12f 8896 a62f 8ff3 b630
00000140: 5f6b 512f 1dec 6130 fdbe c32e b03e 012f
00000150: e213 ed2f 366a 6730 f932 c52f 6492 2b30
00000160: fdf8 1431 6829 8c30 6fd2 d32f 2b3f aa2f
00000170: 7595 2730 71bf 402f b6ce dc2e fadd 2930
00000180: 94c1 a82f 47be 0930 b639 1f31 8cf0 eb2f
00000190: d321 582e 5c79 5a30 8e43 3330 f86e 992f
000001a0: b9bd 0430 e2e7 b330 3ce9 b42f aff6 242f
000001b0: 7835 0a30 fe23 3c30 74c9 0630 eade 6a30
000001c0: 72c6 c72e 220b 2a30 4928 972f e784 4130
000001d0: 4bcc f62e e871 ba30 ca91 bb2f 97ed 0c30
000001e0: 51aa 1c2f eb5c 2b30 4394 082f d0a3 c92f
000001f0: 5562 932f f269 6b2f a52e c02e 907d 9930
3.8635214e-10 6.656259e-11 6.291842e-10 9.778437e-10 3.7980424e-10 3.3017314e-10 1.8526855e-10 1.2354927e-09
3.429928e-10 2.2975719e-10 1.4737721e-10 4.960422e-10 8.603598e-10 5.1523626e-11 2.464403e-10 4.8424337e-10
5.1160065e-10 8.5347736e-11 3.4099792e-10 1.0322653e-10 3.0212108e-10 5.87229e-10 5.3864788e-11 6.451056e-10
7.5809525e-10 7.781734e-10 1.828651e-10 1.2940464e-09 1.657425e-10 5.546679e-10 8.7165714e-10 2.3964037e-09
1.9019257e-09 5.2119593e-11 2.3557492e-10 5.803923e-10 1.1853282e-09 1.6902977e-09 8.635047e-11 2.1274689e-10
2.62723e-10 8.089359e-11 7.4697715e-10 2.4337873e-10 3.6346506e-10 3.3850747e-10 5.610404e-10 6.761579e-10
6.1978844e-10 1.6758946e-10 6.610767e-10 7.913948e-11 1.3613038e-10 1.401597e-10 1.1606639e-10 2.8782676e-10
4.3452256e-10 6.7406686e-10 7.1730777e-10 8.8559625e-11 9.1192165e-11 4.2313544e-10 3.4938727e-10 8.4993894e-11
3.2612363e-10 1.3541761e-10 2.5544258e-10 1.1872809e-09 5.8912974e-10 2.1846294e-10 2.0440424e-10 1.07649174e-10
4.3074242e-11 1.3726258e-10 1.1577973e-09 1.8834988e-10 6.849358e-10 3.2262704e-10 3.0302183e-10 1.3311466e-09
1.9046585e-10 8.219006e-10 8.9015e-11 1.1754753e-10 4.3124176e-10 8.4188245e-10 3.587031e-10 6.241747e-10
2.1678368e-09 1.0198109e-09 3.8530198e-10 3.0967703e-10 6.096664e-10 1.7530312e-10 1.0041161e-10 6.179729e-10
3.0696568e-10 5.011071e-10 2.317035e-09 4.291717e-10 4.9142756e-11 7.94804e-10 6.521582e-10 2.7909386e-10
4.829093e-10 1.3089869e-09 3.2907532e-10 1.5003353e-10 5.028009e-10 6.844515e-10 4.90352e-10 8.5445484e-10
9.084723e-11 6.186146e-10 2.7495364e-10 7.0401857e-10 1.12230746e-10 1.3565655e-09 3.411869e-10 5.126934e-10
1.4248626e-10 6.234148e-10 1.2421801e-10 3.6678083e-10 2.6809013e-10 2.1410765e-10 8.739435e-11 1.1167902e-09
