Assets/Training/results/MassiveTraining/PingPongAgent/checkpoint.pt (torch, 94759 bytes, 21 tensors)

network_body._body_endoder.seq_layers.0.weight f4 [128, 24]
00000000: 814c 99bd c590 543e 6d33 a83e 35c1 1f3e
00000010: 5fbc bfbe 73db a13d 18a5 65bd 0472 d83d
00000020: 5bcd 533d e112 0bbe b78a 37bc b531 cc3d
00000030: 3863 3cbe 5137 b9bd 5c56 20be fe16 a7bd
00000040: 6897 c63c d5c4 98be aaec 2a3e 0937 1fbe
00000050: be19 843e f405 f53d 4a9c 6dbe b768 73bd
00000060: 3793 aa3d 5794 f23c fe21 263a 115b f9bd
00000070: c341 1f3e c8f8 3cbe 706f b7be 01f0 b2be
00000080: 4b4c bb3d b6ad 50be 5952 7abe 7014 7e3e
00000090: a919 2cbe d5bb 8f3e fa52 203c a85b 41be
000000a0: a888 67bb de62 27be 7bc3 623d f5df c73d
000000b0: 2a82 4abe c20d a73d 4be8 4ebe b60e 6d3e
000000c0: 3fc8 d23d bbf4 8abe cffe 723e 4349 d0bd
000000d0: 3d57 1d3e f73f 58be 65d5 1c3e 823c 093d
000000e0: e646 fc3d 77a2 083e 858b b63c f76b 5bbd
000000f0: 876d 113e ecf3 93bd 015d bc3d a87b 3e3e
00000100: cd1d 6abe c8c5 cebe 2584 c2bd 3d46 e2bd
00000110: 1cfd 9d3d ee52 0b3e 6959 bd3d 94a1 6b3e
00000120: 1bee 11be effb 3bbe cfb7 1abe 350c 10be
00000130: 497e 143c 5a24 adbe 2532 723d f2f8 a4be
00000140: 4c54 213e 3a59 fbbd bde0 a0bb 3cd2 db3d
00000150: 3d55 91bd 7963 bfbd a872 203c 5dc7 12be
00000160: acf5 4f3c 2adc 51be d684 403e 7474 9a3e
00000170: e4cf 263e faa4 ff3d c337 6ebd ce8a 25bd
00000180: ef7e 2cbe 8381 22bf 9503 663e 71ec e73d
00000190: e3b5 6f3d a51b 93bd 2047 db3d 9fc6 523e
000001a0: d03c b03c b6fd 12be 1ebe d7be efd2 933e
000001b0: dcf2 eb3c 4123 96bd 8c0b 923e f614 0fbe
000001c0: 474f 8cbe 9fa9 3fbc 1e07 82be edde 983e
000001d0: e686 bcbd 04d7 6fbb 8475 debe f76f 3bbe
000001e0: 950e 68be 892e a2be 3089 91be 0c37 633e
000001f0: 4bb8 2cbd 3474 273e 1898 063e 8a08 c2be
00000200: bdab b43e 94c1 e6be 0a70 d23d a2fc c93e
00000210: 09ee 8b3d d6f4 2bbe 2941 0ebd 7e45 73bd
00000220: 1976 0e3e b513 63bd 9027 c73e 0f19 15be
00000230: 9d29 2a3e c018 cc3d 3108 0f3c 24c3 223e
00000240: f3d4 573e 0451 4ebe 4e9e 553e 1fb5 81bd
00000250: 7aff b3be 5cf6 453b 4d10 76bd 647d d2bc
00000260: bbbb 8cbe b248 143d 6bc7 9dbe b067 ac3e
00000270: f800 f8bd 1da7 9cbe d419 95be 4859 623e
00000280: 5206 febd 00a8 4c3e 5bfa 89be aa9e 803e
00000290: fb4e a33d 64c8 c7bd 1bc9 11be c434 a3be
000002a0: 00f2 a1be 4423 3f3e 2a27 c83e 6375 f43d
000002b0: 8748 d6be 3e08 9fbe 3669 5a3d 1308 b93d
000002c0: 1530 8a3e 352a 2d3e e96c 42be 8dfe f93d
000002d0: 7e39 8f3e 6276 213e 0534 afbe 65fb 8abe
000002e0: 5881 8cbd ccc3 b2bd 971f 4d3e 9c9e b4bc
000002f0: 52fa 683b 6a65 6f3e 5ac8 47bc 7a23 c03e
00000300: 09a4 34be d7aa 1d3d 2b68 883e 5e9d 5c3e
00000310: af79 62be 26e9 753e 40be bebe 443d b03e
00000320: 8fb0 9abd ec2c 813e 89b3 8fbd 1fac 293e
00000330: 9596 51be cdfa 833e 9fd6 963d 25f0 733b
00000340: 0d2c acbe d1aa 4a3e 726c dd3d b736 853d
00000350: eac0 b1be 20e0 e0be a7aa 4fbe b1f7 79bd
00000360: b265 33bd bc9d e3be 1c23 a93c b4ec 5dbc
00000370: 17bc 42be 8567 b33d a7a1 9c3c b7bd 983e
00000380: 57df d3bd 0a48 a8bd 162e 63be 1ea1 363e
00000390: 6e8e 0fbd c8a2 42be 5f82 243e acce b2ba
000003a0: 1d2f 5ebe 86dd 03be 1f8f 993a 5c16 213e
000003b0: 1845 dc3d 65ee 7a3d 8020 26bb 7fa8 ecbd
000003c0: 9546 09bd 90f7 46be 6696 383e efc8 65be
000003d0: 0a2e c6bd f49f 903e 0bd2 80bd f65e 3c3e
000003e0: b749 883b 4a8d 93bc 5087 c7be 74af 943d
000003f0: 792e f6bc 9a9e 593d 1d57 b83e ca0f 463e
-0.07485295 0.2075835 0.32851735 0.15601046 -0.37448403 0.07903185 -0.05606565 0.10568622
0.051709514 -0.1358142 -0.011202506 0.09970418 -0.18397224 -0.09043754 -0.15657943 -0.08158682
0.024242118 -0.2983767 0.16691843 -0.15548338 0.2580089 0.11964026 -0.23204151 -0.059426036
0.0832886 0.02961175 0.00063374627 -0.12175573 0.1555243 -0.18454278 -0.35827208 -0.34948733
0.09145411 -0.20378765 -0.24445476 0.24812484 -0.16806664 0.28072992 0.009785408 -0.1888262
-0.0035329256 -0.16346309 0.055362206 0.09759513 -0.19776216 0.08156921 -0.202058 0.23150143
0.102921 -0.2713984 0.23730014 -0.101702236 0.1536531 -0.2111815 0.15315779 0.03350497
0.1231821 0.13343225 0.022283325 -0.05356976 0.14201938 -0.07224259 0.091974266 0.18601859
-0.2286293 -0.4038527 -0.09497861 -0.11048553 0.077142924 0.13605854 0.09245569 0.23010856
-0.14250986 -0.18357824 -0.1510918 -0.14067157 0.009063312 -0.33816797 0.059129853 -0.3222118
0.15754813 -0.12272878 -0.0049096034 0.107334584 -0.07096336 -0.09345145 0.009792961 -0.14333864
0.01269285 -0.20494142 0.18800673 0.30166972 0.16290241 0.12482639 -0.058158647 -0.040415578
-0.16845296 -0.6347887 0.22462304 0.113243945 0.05852307 -0.07183007 0.107069254 0.2058358
0.021513373 -0.14354596 -0.42137235 0.28871867 0.028802328 -0.07330943 0.28524435 -0.1397284
-0.27404234 -0.011698156 -0.25396055 0.2985758 -0.09205417 -0.0036596665 -0.43449032 -0.1830443
-0.22661813 -0.31676129 -0.28424978 0.22188967 -0.042167943 0.16352922 0.13143957 -0.3789714
0.35287276 -0.45069563 0.10275276 0.39450556 0.06832511 -0.16792616 -0.03473011 -0.059392445
0.13912238 -0.055438716 0.3889737 -0.1456034 0.16617437 0.09965658 0.00872998 0.15894753
0.21077327 -0.20148093 0.2086117 -0.06333374 -0.3515585 0.0030206656 -0.06007414 -0.025694557
-0.27486977 0.03620214 -0.30816206 0.33672857 -0.1210956 -0.30596247 -0.29121268 0.2210437
-0.12403549 0.19985962 -0.2694882 0.2512105 0.07974049 -0.09755018 -0.14236872 -0.31876194
-0.31629944 0.18665797 0.3909238 0.11936452 -0.4185221 -0.31060976 0.053322993 0.09034743
0.2698981 0.16910632 -0.18986858 0.12206755 0.2797355 0.15767816 -0.34219375 -0.27144924
-0.06860608 -0.087287515 0.20031582 -0.022048287 0.0035549593 0.2337853 -0.012193764 0.37527066
-0.176407 0.038493004 0.26641974 0.21544406 -0.22116731 0.2401472 -0.37254524 0.34421742
-0.07553207 0.25229585 -0.070166655 0.16569565 -0.20467599 0.25777283 0.073651545 0.0037221995
-0.33627358 0.19791724 0.108117 0.06504577 -0.34717494 -0.43920994 -0.20279942 -0.061027233
-0.043798156 -0.4445628 0.020646624 -0.013545204 -0.19017063 0.08759979 0.01912005 0.2983224
-0.10345333 -0.08216865 -0.22185549 0.17834899 -0.03504794 -0.19007409 0.16065358 -0.0013641915
-0.2169766 -0.12877473 0.0011715627 0.15731186 0.10755366 0.061262507 -0.0025348961 -0.115555756
-0.033514578 -0.19430375 0.18026122 -0.22439931 -0.0967675 0.28247035 -0.062900625 0.183956
0.004159178 -0.018011708 -0.38970423 0.072600275 -0.030051457 0.05312977 0.36003962 0.1934196

network_body._body_endoder.seq_layers.0.bias f4 [128]
00000000: ebe4 b3bd 1146 93bd db9a 5bbd 99ce 01be
00000010: 959a 6fbe 1342 3bbd 094c 32be 61b5 1bbe
00000020: de7e d7bd 7ce1 7abe 5e21 4dbe 330f 26be
00000030: 4f1a 0bbe 89e0 c8bd 5fea 14be 8e71 ddbd
00000040: 6a9b 6ebe 38b3 c2bd e636 12bc bd6a 23be
00000050: 9e02 e1bd 61ac 12be 907f e7bd cfa1 a1bd
00000060: 1fcc debd 22d3 2abd 9ccc 17bd af40 c9bd
00000070: 9977 44be 81bb 2ebe 3cc8 edbd fb71 7dbe
00000080: b6d7 8bbd efc8 49be 8296 56bd 8b41 65be
00000090: 7c4b 92bd 006e 403d b1c2 64bd e257 a7bd
000000a0: b881 c1bd 2414 91bd e2b2 1cbe 2f51 9fbc
000000b0: ce67 31be 111a a3bd 1955 cdbd 8c8a 13bd
000000c0: 59be e4bd e3fe 16be 10e7 dcbd 0f88 c1bd
000000d0: 68a5 42bc fb13 f7bd 10a5 9abc c58b bcbd
000000e0: 173d b2bd 03ed 70be a0f4 55be 0c32 93be
000000f0: 254e 51be 25fe 3cbe e67b 6dbd 81f4 0bbe
00000100: 1306 e4bd fcfc 0dbe da13 20be 4174 f0bd
00000110: dc04 dfb9 6eea 54be 08d3 59be d4e4 27be
00000120: ef22 3fbe b4e9 f7bd a830 2cbe a60a 25be
00000130: 8f17 2fbd 5190 71be 0e18 03be 8676 d5bd
00000140: 981c 8dbd 14e5 79be e9cc 0ebe d671 50be
00000150: c486 9fbd 24f5 7fbe 3aa8 ecbd 305f 07be
00000160: 82db 1fbe 94d4 04be c50d 4cbe 8b11 debd
00000170: a8b4 f8bc 0ba8 34be f2cf dbbd fbe4 9dbd
00000180: 7eb6 f0bd e18b 58be b8d8 c7bd 3673 15be
00000190: 0177 3cbe 6e14 95bd 7f27 00bd c6f6 64bd
000001a0: 8c4d 05be 85c6 37be c8dc cbbd 5810 abbd
000001b0: 5edc babd 249e 86bd c62f 66be b7a5 eaba
000001c0: 0f54 7bbd 6fd0 e4bd 037f a2bd 3c01 95be
000001d0: c233 e5bd cfbc d9bd 2500 b6bd 93a9 16be
000001e0: d3f0 05be faa9 84be 03db febd a222 e6bd
000001f0: df49 23be a429 bcbd f86c 9bbd 5d8f 36be
-0.08783897 -0.071910985 -0.05361448 -0.12676467 -0.23398812 -0.04571731 -0.17411818 -0.1520591
-0.10522245 -0.24500078 -0.2003226 -0.16216736 -0.13584255 -0.09808452 -0.1454253 -0.108126745
-0.23301473 -0.095068395 -0.008924222 -0.15958686 -0.10986827 -0.1432357 -0.113036275 -0.07892191
-0.10878777 -0.04170526 -0.037060365 -0.098267905 -0.19186248 -0.17063715 -0.11610457 -0.24750511
-0.06828253 -0.19705556 -0.05238963 -0.22388284 -0.07143304 0.046979904 -0.055849735 -0.08171059
-0.0944857 -0.0708392 -0.15302613 -0.019447891 -0.17324755 -0.07963956 -0.10025997 -0.0360208
-0.111691184 -0.14745669 -0.10786259 -0.09449779 -0.011880256 -0.12064358 -0.018877536 -0.092063464
-0.08703058 -0.23527913 -0.20894098 -0.2874912 -0.20439966 -0.18456323 -0.057979487 -0.1366749
-0.11133971 -0.13866037 -0.15632573 -0.11740924 -0.00042537495 -0.20792553 -0.21271908 -0.16395885
-0.1866567 -0.12105122 -0.16815436 -0.16117343 -0.042747077 -0.23590209 -0.12802145 -0.10422997
-0.068902194 -0.24403793 -0.13945355 -0.20355925 -0.077893764 -0.24995857 -0.11555524 -0.13219905
-0.1561108 -0.12971717 -0.19927128 -0.1084319 -0.030359581 -0.17642228 -0.10733022 -0.0770969
-0.117535576 -0.2114711 -0.09758133 -0.1459473 -0.18404771 -0.07279287 -0.031287666 -0.055899404
-0.13017863 -0.17946823 -0.0995422 -0.08352727 -0.09124063 -0.06573132 -0.22479162 -0.001790217
-0.06135946 -0.11172568 -0.07934382 -0.29102504 -0.11191513 -0.106317155 -0.08886746 -0.14713125
-0.13080148 -0.25910932 -0.12444117 -0.112370744 -0.15946148 -0.0918763 -0.075891435 -0.17828126

action_model._discrete_distribution.branches.0.weight f4 [3, 128]
00000000: fb8b 3dbd b310 ffbc dd0b 363d 764d 42bd
00000010: 7434 98bc 4151 283e 048c 8fbc 357b d03c
00000020: cb6b fe3c c369 b4bc 1efa 51bb a729 df3c
00000030: 11a0 ea3c 66a2 153d e433 cebc cf70 d43c
00000040: 6bf8 e1bc 3922 8939 e2a0 f03c 9775 993c
00000050: c1d0 683d 0b68 07bc 2d43 9cbb 2dfb 22bd
00000060: f251 cb3b 02a9 8d3d c50e 6a3d 73ba 1dbc
00000070: a203 ca3c ff29 c4ba 3671 ccbc 2e6e 8e3c
00000080: 3bdd 023d babe 1cbb 6502 163d 540f 483b
00000090: adf8 bd3c 1d31 53bd a3a9 4dbc 70cb 31bd
000000a0: 645f 4a3d 5362 ed3b 45fe 9abc 552a 45bd
000000b0: c90f f1bc 410f 7c3d 3476 d33c 96d5 a0bc
000000c0: 1bb1 59bc b321 dfbb 8260 c8bb 8851 e93a
000000d0: 99ef ddbd 7ea1 5dbb 505f ab3d 71df 083d
000000e0: 2097 97bb 467b 14bc 7064 9d3c 33ee 973b
000000f0: 4b21 9fbc 8b2c d23b 7d90 c9bc f739 acbc
00000100: c7a7 c9bc 7c98 e13c ee3e 3d3c ca6c 273c
00000110: 5135 173e f7d0 bdbc 5957 f03a 09ef 013d
00000120: c5dd fb3c 8b91 ab3c f579 95b9 a234 a3bc
00000130: 05d5 a0bc 1b1d 103c 8f86 2a3d bb5e a83c
00000140: 2ffa ec3c e509 193c 6353 aabc 31c7 0bba
00000150: 5813 2d3d 155d 11bc 5fd4 1dbd fec7 cfbd
00000160: 3910 3abd ae81 35bc 8140 a0bc 6e1c 47bd
00000170: 7f0f e9bc 7401 4bbd 8230 ca3a 7671 ac3c
00000180: 3514 bd3b 06db 58bd d357 003d a151 e4bc
00000190: 9f54 72ba 1d8c dd3c 76ea 8d3c 6f7c b23c
000001a0: 863f 65bc 74ca 1c3c 430f f83c bd79 893d
000001b0: 521d 0cbc 53d8 cb3b a5ba 4f3c c38b cf3d
000001c0: 2913 453d 8874 ebbb b411 3bbc 910e 923c
000001d0: ea7b fb3c 5b88 03bc e8c2 483d 2c94 143d
000001e0: 7259 433d d8b0 c6bb 4460 a53c 1591 193d
000001f0: eb70 b9bc 3c24 893d 91d2 e2bc 26c4 41bc
00000200: 0b65 8f3d 41f8 21bd 2205 36bd 7347 2a3d
00000210: 173d c4bc 5f8c d7bc 9067 323d db5b 2bbd
00000220: a88f 8fbd 7ce2 b63c a6c5 153c 3f7b 4e3d
00000230: ba7c bd3c 82e3 83bd e8a5 723d 1759 1dbd
00000240: cceb 6f3a 48c7 24bd 8477 0abd 01bf e23c
00000250: b3a0 d6bc 5842 4e3c 66e5 cc3c 5599 be3c
00000260: 8242 65bd 40f0 44bc 337b 2fbe fa77 3ebc
00000270: f81a 0cbd 3b09 0cbd c786 313d 313d c53c
00000280: 0bc4 d1bc c6c3 1cbd 3b5f 84bd 4fdb 7c3b
00000290: f0bd 85bd 1a09 093d 0524 543d 0451 0dbb
000002a0: 7028 8c3c f203 1bbd 87b9 5a3c 0a1a eabc
000002b0: 332c 053d fe4b 5a3d f79c b0bc 3834 fabc
000002c0: 4a5a 19b9 fc26 e33c 4f16 37bb dba9 3b3b
000002d0: 74dc 00bc 02f4 c93c 0815 34bd f575 88bc
000002e0: 61e1 813d bc4d 13bc f0ad 1b3d c8f3 0f3c
000002f0: 01d0 b6bb 5299 6e3c d834 9bbc 9674 b939
00000300: ae51 e13c 7c63 9f3b 9180 77bc 8be1 f73c
00000310: ccd4 62bd 29e9 523c 7f4d df3c 0054 ab3c
00000320: a509 ed3c c3e3 563c 6a36 3a3c 8c8f 933c
00000330: 7244 973d c737 d5ba 0810 3bbd 80f7 08bc
00000340: ef7a 70bd 013e 2cbc 4d23 e03c cdbd 833c
00000350: 347c 5cbd f4cf a9bc 32c5 c83c cb4a 123c
00000360: 7831 d2bc 1e92 383c ffa8 103d 6b87 bf3d
00000370: b4e0 a3bd b913 993c 471f 1f3d 315d 223d
00000380: 2894 773a fd15 b03d 9153 91bb 97d4 803d
00000390: 1a1d 943c 9be5 d2bc b0dd bebd 808e a53d
000003a0: 30bb 54bd b758 da3c 2d35 343d 030e 1ebd
000003b0: 90b5 333d 9daa 51bd ef7d 463d 8b12 cbbd
000003c0: 9e8c 4cbc 40ff 603d ab4a 2d3d 66c2 89bb
000003d0: 070b a33a 2dd5 62bc 94b3 2d3d 70cf 4dbd
000003e0: 9a31 973b e2ba cf3c 5400 cb3c a1fb 19bd
000003f0: 9a11 2bbd 51d3 2bbc e4f2 143d 91ef b33c
-0.046276074 -0.031135892 0.044444907 -0.047437154 -0.0185797 0.16437246 -0.01752282 0.025449375
0.031057259 -0.022023087 -0.003203995 0.027241541 0.028640779 0.03653183 -0.025171228 0.025932698
-0.027584275 0.00026156174 0.02937359 0.018732829 0.05683971 -0.008264552 -0.00476875 -0.03979032
0.006204837 0.06917001 0.05714299 -0.0096269725 0.024659935 -0.0014966129 -0.024956327 0.017386522
0.031949263 -0.0023917393 0.036623377 0.0030526714 0.023189867 -0.05156051 -0.012552652 -0.043406904
0.049407378 0.007244387 -0.018920073 -0.048136074 -0.029426472 0.061537985 0.0258132 -0.019633096
-0.013286854 -0.006809437 -0.0061150203 0.0017800787 -0.10836715 -0.003381818 0.08367789 0.033416215
-0.00462617 -0.009062594 0.019212931 0.00463655 -0.019425055 0.0064140013 -0.02460503 -0.021023734
-0.024616135 0.02753853 0.011550648 0.010218808 0.14766432 -0.023170931 0.0018336579 0.031722102
0.030745396 0.020943424 -0.0002851036 -0.019922558 -0.019632826 0.008796002 0.04163223 0.020552984
0.02892789 0.009340738 -0.020791715 -0.0005332111 0.042254776 -0.00887229 -0.03853261 -0.10145567
-0.045425627 -0.011078281 -0.019562008 -0.048611097 -0.028449772 -0.049561933 0.0015425833 0.021050196
0.005770231 -0.052943252 0.031333756 -0.027870955 -0.0009244177 0.02704435 0.017323714 0.02178785
-0.013992196 0.009569753 0.030280715 0.06712673 -0.008551912 0.006220856 0.012678777 0.10134079
0.048113976 -0.0071855225 -0.011417795 0.017829211 0.030698735 -0.008028115 0.049014002 0.03627412
0.047692724 -0.006063562 0.020187505 0.037491877 -0.022636851 0.06696364 -0.027688297 -0.011826551
0.07001694 -0.039543394 -0.04443849 0.041572046 -0.023954911 -0.026312051 0.043555796 -0.041835647
-0.07009822 0.022324793 0.009141361 0.050410505 0.023130763 -0.06439878 0.05924025 -0.03841504
0.0009152263 -0.040229112 -0.033805385 0.027678968 -0.026199674 0.01258906 0.02501173 0.023266474
-0.05597163 -0.012020171 -0.1713684 -0.011625284 -0.034205407 -0.03418849 0.043341424 0.02407703
-0.025606176 -0.03827264 -0.06463476 0.0038582867 -0.06530368 0.033455946 0.051792163 -0.0021563182
0.017109126 -0.03784556 0.013349897 -0.02857687 0.032512855 0.053295128 -0.021559222 -0.030542478
-0.00014624852 0.02772855 -0.002793688 0.0028635177 -0.00786506 0.024652485 -0.04396537 -0.016657809
0.06341816 -0.008990701 0.038007677 0.008786149 -0.005578995 0.014562922 -0.018946096 0.00035372813
0.027504768 0.0048641544 -0.015106336 0.030258914 -0.05537872 0.0128729725 0.027258633 0.020914078
0.028935263 0.013115826 0.011365512 0.018012784 0.07386102 -0.0016267233 -0.045669585 -0.00835979
-0.05871099 -0.01051283 0.027360583 0.016081715 -0.053829387 -0.020729043 0.024508093 0.008928965
-0.025658354 0.011265306 0.035317417 0.09352001 -0.08001843 0.018686162 0.038848188 0.039639656
0.0009444379 0.08597944 -0.0044350107 0.06290548 0.018080283 -0.02574425 -0.09319627 0.0808382
-0.05193633 0.02665363 0.043996025 -0.03858758 0.043874323 -0.0511881 0.048459943 -0.09915646
-0.012484698 0.054930925 0.042307537 -0.0042040823 0.00124392 -0.01384477 0.042407587 -0.050246656
0.0046140673 0.025357667 0.02478043 -0.037593488 -0.041764833 -0.0104873935 0.03636445 0.02196482

action_model._discrete_distribution.branches.0.bias f4 [3]
00000000: 5c9b bb3c afde df3b be6c dfbc
0.02290123 0.006831966 -0.027273532

exp_avg f4 [128, 24]
00000000: 7633 16bd e24e 283b 7279 143c 316e 403c
00000010: 4d6f a33a 6f9d 99bc a50b 0ebd 01b3 252e
00000020: b8f5 253c b68c 2a3d e24e 283b 06f5 b2bd
00000030: 8d26 16bd 3a5b 283b d54a 133c 05d2 053c
00000040: 76ad a63a eaa3 91bc 198f 12bd 8980 05ae
00000050: f65c 1e3c 5e9d 2a3d 3a5b 283b fc0b b6bd
00000060: acfa e2b9 4a29 db37 7b4a 6f39 6ab7 2a39
00000070: 6c2a 5c37 18eb a439 f252 e8b9 c869 242d
00000080: db08 243a bb66 f339 4a29 db37 2dd1 423a
00000090: b305 e3b9 dd3c db37 cdca 6139 e11f f938
000000a0: ba3d 5b37 e07d c639 6d93 e2b9 0cef 5b2c
000000b0: 5cbb 103a 7d64 f339 dd3c db37 740c 3b3a
000000c0: 9b7c d53c 750f 34ba e9ad 15bc 7322 88bc
000000d0: 8eff b3b9 cd5b 1f3c 6f5f b03c 78e5 11b0
000000e0: 53bc ceba 91a2 eabb 750f 34ba 9ec5 013d
000000f0: 785a d53c 9555 34ba 6cc1 14bc c904 6dbc
00000100: accf b3b9 f48e 1c3c c46c b03c 80f9 18b0
00000110: 7805 d5ba 23e1 f2bb 9555 34ba 23ed 043d
00000120: 8036 89ba b419 1eb9 ae37 4d3a 5aba 55bb
00000130: f704 97b8 240a 8dbb 7b38 a1bb b548 87af
00000140: 311d a2bb 7835 2b3b b419 1eb9 004d 80bb
00000150: e491 8fba 2491 21b9 7893 4a3a 07d2 75bb
00000160: 715d 9cb8 8ad2 8fbb 3b35 9fbb 82f8 66af
00000170: 884a aaba d7a6 263b 2491 21b9 630b 82bb
00000180: 9151 fd37 8624 62b6 dc25 eb37 e345 a438
00000190: acf6 6db1 cb26 5bb7 0f87 22b8 5aa2 9c2c
000001a0: 3111 fe38 d012 0a37 8624 62b6 7392 c437
000001b0: a5fa 22b7 3430 d2b6 e02a cf37 f253 a638
000001c0: 4a27 c8b5 c604 0fb6 ca62 0a38 d7e5 0c2d
000001d0: 7760 f238 da68 0638 3430 d2b6 a3df 0c38
000001e0: 7d26 f5bc ab13 583a f908 3ebb 9d83 e8bb
000001f0: fecb d739 8c4b 1a3c 46ec aa3b fb5f 3f30
00000200: 3788 8d3c 1f11 ff3b ab13 583a 9477 86bc
00000210: 5231 f5bc 8cfc 573a 61bd 41bb 5e6c d7bb
00000220: 2412 d839 89a0 0a3c 22e1 aa3b b05a 512f
00000230: a991 1abc ecc9 fe3b 8cfc 573a 3e9b 87bc
00000240: 2058 133b 61f0 8638 bee4 b9b9 528f 3dba
00000250: 8aa4 fd37 21a1 c53a 37a0 3aba 1f18 1baf
00000260: 5075 87ba 9560 473b 61f0 8638 9d28 e9ba
00000270: 0c27 143b 9c13 8938 5318 a4b9 0c08 50ba
00000280: b6dc 0638 1d37 b93a 61e3 3cba 40d5 9eae
00000290: ca07 7fba 21ba 513b 9c13 8938 685a eeba
000002a0: cdec 1dbb 4597 0d39 e076 85b8 2e52 ae38
000002b0: 5090 8d38 5b5e 1a3a c74a e6b8 5a19 462d
000002c0: 022b 033b 0462 1d3b 4597 0d39 8889 acba
000002d0: ea5f 23bb 22c7 0739 864a 37b8 dc5b 9a38
000002e0: 72d7 8c38 7370 4d3a f42f 33b8 8eb8 b12d
000002f0: e3aa 033b 7cbf 153b 22c7 0739 fd1d a0ba
00000300: 94a7 d93c 467c e5ba f2e9 f4bb bb03 6dbc
00000310: fe29 58ba 6dd5 443c 40a3 c13c 3c88 b9af
00000320: f035 96bb 04bd ffbc 467c e5ba 6c23 733d
00000330: bfae d93c 9693 e5ba 7c49 e8bb e513 44bc
00000340: 310b 61ba 0d48 3f3c adc2 cc3c 21ee 5aaf
00000350: 6f74 5dbb 56a6 ffbc 9693 e5ba bb38 773d
00000360: 754f 4939 c788 5cb7 fe6a d2b8 8987 54b9
00000370: 31b2 bfb6 1c74 5b39 e066 093a d4cc 48ac
00000380: d7c6 b238 58d0 c5b9 c788 5cb7 e96e 423a
00000390: 4960 7a39 95cc 23b7 6bd0 cbb8 9729 1cb9
000003a0: eb91 cdb6 8635 6039 e1e9 043a 2b0c ddaa
000003b0: 82d3 fbb5 b40a 9cb9 95cc 23b7 565d 383a
000003c0: 13e3 b139 5324 c1b7 b0d7 9fb7 5e5a 6eb8
000003d0: 7aed 40b7 ea8c 0cb9 e216 5eb9 3d81 46ac
000003e0: 48c4 6ab9 99da 2239 5324 c1b7 b9f0 c539
000003f0: 48b3 b239 7337 c0b7 5cf3 d3b7 00bb a3b8
-0.03667017 0.0025681783 0.009062158 0.011745022 0.0012469083 -0.018751828 -0.034679074 3.7675644e-11
0.010129385 0.0416381 0.0025681783 -0.08738141 -0.03665786 0.002568914 0.008990009 0.008167748
0.001271649 -0.017778356 -0.035781 -3.035486e-11 0.009665718 0.041653983 0.002568914 -0.088890046
-0.00043292844 2.6126061e-05 0.00022820562 0.0001628079 1.3122899e-05 0.00031455676 -0.00044312287 9.345809e-12
0.0006257423 0.00046425112 2.6126061e-05 0.00074316823 -0.0004330106 2.6135176e-05 0.00021533221 0.00011879183
1.3067789e-05 0.00037859287 -0.0004321592 3.125447e-12 0.0005521083 0.0004642344 2.6135176e-05 0.00071353395
0.026060393 -0.00068687584 -0.009135702 -0.01661799 -0.00034331944 0.009726477 0.021529881 -5.307679e-10
-0.0015772678 -0.0071604927 -0.00068687584 0.031682603 0.026044115 -0.0006879208 -0.0090793185 -0.014466473
-0.00034296268 0.009555567 0.021536238 -5.565184e-10 -0.001625224 -0.0074120923 -0.0006879208 0.032452714
-0.0010468513 -0.0001507763 0.00078284263 -0.0032612295 -7.201166e-05 -0.0043041874 -0.004920063 -2.4608018e-10
-0.0049473275 0.00261244 -0.0001507763 -0.003915429 -0.0010953513 -0.00015408226 0.0007727663 -0.003750922
-7.4560645e-05 -0.004389112 -0.0048586405 -2.1006666e-10 -0.0012992183 0.0025429034 -0.00015408226 -0.0039686426
3.0197933e-05 -3.3697884e-06 2.8031813e-05 7.833147e-05 -3.4628256e-09 -1.3062449e-05 -3.8749593e-05 4.4518113e-12
0.00012114866 8.229821e-06 -3.3697884e-06 2.3433216e-05 -9.71431e-06 -6.2640993e-06 2.4696288e-05 7.931133e-05
-1.4912596e-06 -2.131144e-06 3.299377e-05 8.009113e-12 0.00011557427 3.204574e-05 -6.2640993e-06 3.358688e-05
-0.02992558 0.0008242677 -0.0028997047 -0.0070957677 0.00041159982 0.009417426 0.0052161543 6.962179e-10
0.017276866 0.0077840234 0.0008242677 -0.016414441 -0.029930744 0.00082392315 -0.0029562342 -0.0065741977
0.00041212246 0.008461126 0.005214826 1.9040658e-10 -0.009434142 0.007775536 0.00082392315 -0.016553517
0.0022482947 6.434392e-05 -0.00035456376 -0.0007231134 3.023657e-05 0.0015077927 -0.0007119211 -1.4105737e-10
-0.0010334644 0.0030422558 6.434392e-05 -0.0017788593 0.0022606282 6.5363216e-05 -0.0003129864 -0.00079357694
3.2153643e-05 0.0014130805 -0.0007205513 -7.222889e-11 -0.00097286387 0.003200181 6.5363216e-05 -0.0018184902
-0.0024097443 0.0001350316 -6.3640764e-05 8.312274e-05 6.750284e-05 0.0005888694 -0.00010981183 1.1260626e-11
0.0020014648 0.002401472 0.0001350316 -0.0013163546 -0.0024928995 0.00012948786 -4.3700005e-05 7.3604024e-05
6.71585e-05 0.00078368856 -4.2721585e-05 2.0204529e-11 0.002009087 0.002284973 0.00012948786 -0.0012215968
0.026569165 -0.001750835 -0.0074741775 -0.014466221 -0.00082460034 0.012013775 0.023637414 -3.3748104e-10
-0.0045840666 -0.03121806 -0.001750835 0.059359953 0.026572583 -0.0017515298 -0.007088838 -0.011967634
-0.00085847365 0.011674893 0.024995172 -1.9911585e-10 -0.0033791324 -0.031207245 -0.0017515298 0.060356837
0.00019198454 -1.3144868e-05 -0.00010033509 -0.00020268386 -5.712988e-06 0.00020928722 0.0005241465 -2.8535412e-12
8.524738e-05 -0.00037729996 -1.3144868e-05 0.00074170396 0.00023877727 -9.76319e-06 -9.718615e-05 -0.00014892813
-6.126463e-06 0.00021382244 0.0005070251 -3.926593e-13 -1.8762514e-06 -0.00029762613 -9.76319e-06 0.0007032951
0.00033929254 -2.3024308e-05 -1.9054714e-05 -5.6827783e-05 -1.1499384e-05 -0.00013403935 -0.00021180094 -2.8209234e-12
-0.000223891 0.00015530958 -2.3024308e-05 0.0003775412 0.0003408438 -2.2914004e-05 -2.5266483e-05 -7.807277e-05

exp_avg_sq f4 [128, 24]
00000000: 69b6 963b a99a aa37 87fe 3a39 f569 b83a
00000010: e527 9d36 1087 d639 74c3 0f3b f996 df22
00000020: 004d 883a 70c6 da3b a99a aa37 d295 6d3c
00000030: 3459 9a3b 5c85 ae37 ff2f 3b39 725d c83a
00000040: 0c80 a736 50d6 cf39 bbd4 1e3b b115 0b23
00000050: 358e 883a 5620 de3b 5c85 ae37 892f 713c
00000060: 1684 5b3a 9902 7936 65e9 2237 5d07 3039
00000070: a7b4 7835 fa50 7d38 d217 ea39 224d 0e21
00000080: 730f 3039 f21a 8b3a 9902 7936 2523 6338
00000090: 6d18 5c3a e0ae 7936 288d 2037 f5ae 5f39
000000a0: 011f 7935 9f8c 9538 fe76 ea39 6ceb 3321
000000b0: 3bb4 3139 a96b 8b3a e0ae 7936 445a 7b38
000000c0: 20f3 7f3b 54be 9537 9b3a 0539 ebb1 de3a
000000d0: 14b4 8c36 76eb 8839 a80c 143b 9f14 ef22
000000e0: bf49 5f3a f3a5 073c 54be 9537 259c 803c
000000f0: 167a 823b 679e 9837 4b9a 0439 e4ef ff3a
00000100: 92bf 9136 3a3d 8a39 0ea2 1e3b 0e52 2c23
00000110: 77e5 6f3a 1658 093c 679e 9837 af8b 803c
00000120: d41a 0a3b 5b80 1d37 a7b7 5038 073b 3b3a
00000130: 323d 1b36 883c 5639 29d3 7e3a 175a 1f22
00000140: 0a6a 0f3a 0ee4 653b 5b80 1d37 a130 a63b
00000150: 7a24 0c3b 0631 1f37 2606 5d38 55fc 513a
00000160: 7624 1d36 d0e6 6239 23e9 823a 79db 3e22
00000170: 5b32 163a 6880 673b 0631 1f37 49dc a83b
00000180: 1136 6238 5826 8134 3201 ba35 3edf 5c37
00000190: 769f 8033 7191 9036 cb58 d237 4684 461f
000001a0: 718d 8937 4822 8d38 5826 8134 224a bb38
000001b0: b48c 7738 f783 8d34 a89c b535 56b1 8337
000001c0: 4a8a 8233 e54e a036 255b ea37 f942 f81f
000001d0: e746 8e37 f146 9c38 f783 8d34 0eb7 c838
000001e0: 70a0 9a3b ce64 ae37 664a d139 f1fe 673a
000001f0: 8f5e ae36 9ae0 473a c43f a93a aa35 8422
00000200: a64a 2d3b 85ce 9b3c ce64 ae37 d613 263c
00000210: 9faf 9a3b 9f66 ae37 2b40 de39 6c6f 603a
00000220: 0663 ae36 a6f6 543a 3c52 ab3a a5e1 5322
00000230: a8c1 2a3b b6db 9b3c 9f66 ae37 6cfa 233c
00000240: a3eb 0e3a 5465 2536 d19f 9737 e839 7939
00000250: 74cc 1635 3962 5838 ade0 3a39 a9a6 a121
00000260: f61c 8339 ce0d 913a 5465 2536 7f6c d83a
00000270: 5feb 173a c294 3036 46c3 9637 a39b 7f39
00000280: 065a 2335 0456 2a38 15d5 5e39 4471 d921
00000290: 4a91 8439 1a6f 963a c294 3036 1d31 da3a
000002a0: 1480 023a a00c 1436 d1a4 5d37 8309 5239
000002b0: 9dc1 1135 a249 8738 9a55 6839 34ec 6221
000002c0: 39fe 2039 6704 9e3a a00c 1436 6a9e 2d3a
000002d0: 9ff6 033a 591c 1636 76d1 5237 06fe 5039
000002e0: 002d 1435 5e51 6e38 451a 6f39 1b58 3821
000002f0: 328f 2939 513a 9f3a 591c 1636 c23c 2e3a
00000300: 23bc 6a3b f831 8437 5376 fc38 830a 953a
00000310: 902b 7c36 3b30 7139 3817 053b 4898 b222
00000320: ac7a 153a a17a 763b f831 8437 6a34 363c
00000330: 4cea 6c3b e97b 8537 4d24 0239 f24a ac3a
00000340: b7a9 8336 a2fe 8339 aa5f 073b b20e ab22
00000350: 602f 153a 741b 7a3b e97b 8537 2552 3b3c
00000360: 23a7 a338 0ae8 bb34 cff4 f935 909d 8337
00000370: a437 bb33 c309 8e37 921c 3738 2a85 1b1f
00000380: b046 7437 0eff c938 0ae8 bb34 9e38 9c38
00000390: 8829 e938 dc0a 0435 a806 0136 32c9 9037
000003a0: 1fb8 c633 062c 8937 7ea5 8f38 2816 ea20
000003b0: bebf 8337 0e6a 0e39 dc0a 0435 b846 b238
000003c0: a1ab 0d36 abd4 2232 2199 eb33 357f 4335
000003d0: 0f71 2231 f056 a234 9641 5835 7e76 7e1d
000003e0: 1814 9135 bae1 7336 abd4 2232 f01c 1537
000003f0: b0ed 0e36 2d9e 2432 5645 ef33 4c42 5935
0.0045993817 2.0337598e-05 0.00017833161 0.0014069664 4.683609e-06 0.0004091789 0.0021936568 6.060412e-18
0.0010398924 0.0066764876 2.0337598e-05 0.014501052 0.004710341 2.0804517e-05 0.0001785159 0.0015286638
4.9918945e-06 0.00039641792 0.0024235684 7.5397984e-18 0.0010418358 0.006778757 2.0804517e-05 0.014720806
0.00083738694 3.7105403e-06 9.710294e-06 0.00016787411 9.2650083e-07 6.0395316e-05 0.00044649706 4.8213556e-19
0.00016790423 0.0010612889 3.7105403e-06 5.415375e-05 0.0008395974 3.7205682e-06 9.569609e-06 0.00021332114
9.2804845e-07 7.1310664e-05 0.00044720614 6.0959137e-19 0.00016947176 0.0010636944 3.7205682e-06 5.992713e-05
0.0039054826 1.7850813e-05 0.000127057 0.001699028 4.193289e-06 0.00026115373 0.0022590552 6.4802913e-18
0.0008517764 0.0082793115 1.7850813e-05 0.015699456 0.003981839 1.8193574e-05 0.0001264598 0.0019526449
4.3436385e-06 0.00026367028 0.002420548 9.3415144e-18 0.00091513194 0.008382818 1.8193574e-05 0.015691606
0.002107312 9.387814e-06 4.9762104e-05 0.00071422796 2.313242e-06 0.0002043118 0.00097207964 2.1596211e-18
0.0005470818 0.0035078558 9.387814e-06 0.005071715 0.0021384046 9.488553e-06 5.2696232e-05 0.00080103177
2.3416046e-06 0.00021639024 0.0009987693 2.586599e-18 0.00057295494 0.0035324339 9.488553e-06 0.005153213
5.3932952e-05 2.405602e-07 1.3858428e-06 1.31649995e-05 5.98947e-08 4.308466e-06 2.5075298e-05 4.2037545e-20
1.6397536e-05 6.729789e-05 2.405602e-07 8.930663e-05 5.902043e-05 2.6359314e-07 1.3531144e-06 1.5698995e-05
6.0787514e-08 4.777556e-06 2.7937416e-05 1.0514288e-19 1.6960736e-05 7.4518735e-05 2.6359314e-07 9.57084e-05
0.0047188327 2.0789357e-05 0.00039919018 0.000884994 5.196612e-06 0.0007624716 0.001291268 3.583549e-18
0.00264422 0.019019375 2.0789357e-05 0.010136565 0.0047206427 2.0790203e-05 0.00042390949 0.0008561525
5.197132e-06 0.00081239117 0.0013070772 2.8715288e-18 0.002605537 0.019025665 2.0790203e-05 0.010008436
0.0005451983 2.4645897e-06 1.8075023e-05 0.00023768062 5.6176873e-07 5.158989e-05 0.0001782204 1.0953899e-18
0.00025007845 0.0011066736 2.4645897e-06 0.0016511827 0.0005795266 2.6312632e-06 1.7972325e-05 0.00024376674
6.0853233e-07 4.0611267e-05 0.00021250949 1.4734473e-18 0.0002528525 0.0011477203 2.6312632e-06 0.0016646717
0.00049781916 2.2061067e-06 1.3211001e-05 0.00020030704 5.4298454e-07 6.451017e-05 0.00022157133 7.688439e-19
0.00015353494 0.0012055755 2.2061067e-06 0.0006623032 0.0005034003 2.2368242e-06 1.2565744e-05 0.00019931057
5.519978e-07 5.68194e-05 0.00022802602 6.245823e-19 0.0001617044 0.0012148117 2.2368242e-06 0.0006646627
0.0035817705 1.5758895e-05 0.00012038336 0.0011370931 3.7576283e-06 0.00023001518 0.002030803 4.840823e-18
0.00057021785 0.0037609714 1.5758895e-05 0.011120895 0.0036150394 1.5912536e-05 0.00012411289 0.0013144894
3.9238616e-06 0.00025175983 0.0020656385 4.6365202e-18 0.00056909584 0.0038163336 1.5912536e-05 0.011433159
7.803577e-05 3.5000295e-07 1.8623194e-06 1.5689788e-05 8.717987e-08 1.6932265e-05 4.3657208e-05 3.2932677e-20
1.45599915e-05 9.6319345e-05 3.5000295e-07 7.4492054e-05 0.000111180416 4.9189634e-07 1.9226372e-06 1.7259827e-05
9.253585e-08 1.6352173e-05 6.849597e-05 3.9655804e-19 1.5705704e-05 0.00013581684 4.9189634e-07 8.500874e-05
2.1110538e-06 9.477996e-09 1.0970894e-07 7.282827e-07 2.363837e-09 3.0238107e-07 8.056171e-07 3.367788e-21
1.080919e-06 3.6341212e-06 9.477996e-09 8.88783e-06 2.1298001e-06 9.582021e-09 1.1141917e-07 8.0935274e-07

exp_avg f4 [128]
00000000: a179 603a 8f28 1237 1e72 70b9 306c 57b8
00000010: 2320 0cb6 b4fd 8f39 d3c4 b637 8309 3538
00000020: 0e0d 19ba 1d66 5ab6 f724 00b7 354c c4b7
00000030: f48a 6d37 5933 e738 fd21 60b6 66bc 3d38
00000040: 1a97 36b9 b708 a1b8 34af b838 8185 9db8
00000050: 3cd3 9538 2302 5db6 dfec 8bb7 51f8 33b9
00000060: 531a 4337 64cd ed38 7dd7 3c39 ed46 1cb8
00000070: e915 7d37 0ba5 56b7 52bd 78b8 261e 25b8
00000080: 162a 43b9 3bab 39b8 4eb4 19ba 769a 47b6
00000090: 9e94 bc37 89b5 3eb9 0797 afb7 46a8 1038
000000a0: 93a9 a137 210c 46b9 4950 46b7 50d3 83b9
000000b0: 052b 8b39 ccec f337 61b6 b2b9 31d3 25b9
000000c0: a0f4 8cb9 a8e1 2339 a45a 0437 1e9c b138
000000d0: 42f7 213a 6337 da37 811e 89b7 3636 66b9
000000e0: 40c1 7139 be99 c8b3 b0a8 5938 5849 3ab6
000000f0: 24cb 99b7 d7c9 3736 fe0d 44b9 444a 7f38
00000100: 91aa 69b8 b873 2db7 98b3 3b38 c4f2 6238
00000110: f016 10b9 9590 6fb8 b213 1cb7 577a f939
00000120: 4d86 18b7 2450 9838 966d 3b38 9075 48b8
00000130: 57cc e139 fc2e ffb4 168f efb9 5226 12b5
00000140: 402a 61b7 d47c 5d35 b10f 04b8 5811 9436
00000150: b599 6838 7264 88b5 48cb c137 e4be 6138
00000160: aba0 d037 d05f 7a34 b984 af36 2bf4 0937
00000170: df0a dcb9 4416 82b9 4bb2 7436 4562 b337
00000180: bf20 3db6 4443 0336 8761 2736 b621 ec37
00000190: 6d56 e836 338e e637 2a93 2538 7d86 1738
000001a0: 6278 7ab8 7478 5837 d4e0 f136 bc61 a6b8
000001b0: 52ea f839 c32d 79b7 cc71 3738 0a41 f3b8
000001c0: f029 bbb7 19b1 61b5 a53b 6c39 5256 5438
000001d0: c58f cd37 de64 c0b7 3eeb f537 bbdf f137
000001e0: d60c 4434 30ab 9e37 c22e a237 ddfc 8738
000001f0: 7b21 5eb8 d361 d238 2c1a 9ab7 805d dab6
0.0008563046 8.711721e-06 -0.00022930696 -5.1360752e-05 -2.0880332e-06 0.0002746411 2.1787744e-05 4.316262e-05
-0.0005838432 -3.254397e-06 -7.638001e-06 -2.3400507e-05 1.4158653e-05 0.000110245026 -3.3398385e-06 4.523657e-05
-0.00017413162 -7.6787015e-05 8.806438e-05 -7.5112104e-05 7.144219e-05 -3.293281e-06 -1.6680393e-05 -0.00017163275
1.1629035e-05 0.000113392976 0.00018009353 -3.7259353e-05 1.50850765e-05 -1.2793821e-05 -5.9304126e-05 -3.9367143e-05
-0.00018612327 -4.4266908e-05 -0.00058633543 -2.974322e-06 2.2480552e-05 -0.00018187439 -2.0931953e-05 3.4488992e-05
1.927166e-05 -0.0001888727 -1.18204125e-05 -0.00025143707 0.00026544198 2.9078124e-05 -0.00034086689 -0.00015814301
-0.0002688514 0.00015628955 7.888917e-06 8.469097e-05 0.0006178507 2.6013417e-05 -1.6345877e-05 -0.00021954704
0.00023055542 -9.341191e-08 5.1893934e-05 -2.7758852e-06 -1.8333616e-05 2.7386611e-06 -0.00018697229 6.0865903e-05
-5.571038e-05 -1.0338546e-05 4.4751534e-05 5.4108692e-05 -0.00013741455 -5.7116693e-05 -9.30291e-06 0.0004758413
-9.091175e-06 7.262852e-05 4.4686334e-05 -4.7793204e-05 0.0004306759 -4.7531637e-07 -0.0004569224 -5.4445e-07
-1.3420882e-05 8.2510564e-07 -3.1485866e-05 4.412763e-06 5.545626e-05 -1.0162023e-06 2.3102053e-05 5.382196e-05
2.4870349e-05 2.3317921e-07 5.2308574e-06 8.222686e-06 -0.0004196977 -0.0002481212 3.6462613e-06 2.1384223e-05
-2.8182255e-06 1.9559675e-06 2.4941708e-06 2.814909e-05 6.9242e-06 2.7484353e-05 3.9476123e-05 3.6126457e-05
-5.971676e-05 1.2902648e-05 7.208533e-06 -7.933701e-05 0.00047476828 -1.4852211e-05 4.373658e-05 -0.000115992574
-2.2311666e-05 -8.407674e-07 0.00022528933 5.062513e-05 2.4504852e-05 -2.2935154e-05 2.931582e-05 2.8833621e-05
1.8258592e-07 1.8914783e-05 1.9333678e-05 6.484401e-05 -5.2960106e-05 0.000100318015 -1.8370418e-05 -6.507791e-06

exp_avg_sq f4 [128]
00000000: 2021 1b36 c8f0 dd34 37a9 0736 d180 8d35
00000010: 4795 fb32 e705 1b36 11f6 9c34 876e 8534
00000020: 134e ed35 0fbe 6a33 bc53 9230 3698 9c34
00000030: fad8 7234 123c 1934 5237 8c33 f9aa 2634
00000040: deaa 9734 0fd8 0635 7c90 ad34 ae1d c034
00000050: 1986 9b34 679f 3b32 f3cc 2f33 4412 2535
00000060: 68ec 0334 85e5 e934 87e0 5535 db2a 9933
00000070: 1242 8e34 3be4 7532 4cf8 9934 6e6f fb32
00000080: 6209 0336 3306 9433 b41c 8f35 0402 6431
00000090: 4793 9733 fab3 7735 1a70 9734 9d81 fb34
000000a0: 3337 e333 b084 2c34 f3c1 ee32 ac3e 2c35
000000b0: 4800 1f34 dd1c 2e35 ca22 a135 dd39 2636
000000c0: a496 d234 d7bf fd33 9181 2032 2b81 d333
000000d0: a2ed 1937 a630 6034 9f65 1e35 ad24 5e35
000000e0: f63c eb34 a690 0a32 287b 0134 672d 7730
000000f0: 2ef0 e532 36e8 2c32 a644 f734 9aeb 5d34
00000100: 3a16 3b34 4a84 c833 cc92 0b33 8cdf 8434
00000110: 115b d535 ab1a 8a33 cfc0 bb31 6563 f135
00000120: 9bcf 4434 7669 b233 141e cd33 fd92 1b34
00000130: 0ab3 4a35 d196 4531 da4e 6835 c8b6 b732
00000140: a367 2435 ce3f 2432 88fd dc32 7560 aa32
00000150: b43f 8534 c38a b030 1af6 6534 777e 9734
00000160: b5fe c235 f4a0 4631 6df1 d633 9731 ce34
00000170: cdd5 0736 28c4 3e35 7b9a b132 4528 d234
00000180: 6e9e 9232 88ab 0534 abb7 0332 08f5 e634
00000190: 99dd ea32 7061 4235 e8ac c433 66a3 4f34
000001a0: 4ae3 0335 572a c033 24f2 f334 fd58 d434
000001b0: edae fa35 98f7 0435 f0d6 3b33 a491 d134
000001c0: cb28 7434 ff12 6431 c42f 4f35 7de5 4533
000001d0: a067 0834 b81a 8133 b175 1f34 547d 3934
000001e0: 4f8f 6235 89be 7d32 fa5d 1c35 5922 3c33
000001f0: 2adf 3534 6094 1e36 1883 2134 9062 7532
2.3116081e-06 4.133965e-07 2.0215064e-06 1.0542809e-06 2.928813e-08 2.3100235e-06 2.92363e-07 2.48536e-07
1.7680599e-06 5.4655228e-08 1.0646697e-09 2.9168012e-07 2.2616942e-07 1.4271089e-07 6.529321e-08 1.5522154e-07
2.8250264e-07 5.0233297e-07 3.2328887e-07 3.5784382e-07 2.896857e-07 1.09210765e-08 4.0931763e-08 6.149387e-07
1.228633e-07 4.356663e-07 7.9675414e-07 7.132413e-08 2.6497634e-07 1.43127705e-08 2.867913e-07 2.9270918e-08
1.9525983e-06 6.892915e-08 1.0662684e-06 3.3179512e-09 7.058275e-08 9.227657e-07 2.8207506e-07 4.68467e-07
1.0580552e-07 1.606702e-07 2.7795044e-08 6.416619e-07 1.4808131e-07 6.486205e-07 1.200556e-06 2.4769608e-06
3.9225154e-07 1.1816126e-07 9.342686e-09 9.848949e-08 9.174839e-06 2.0879324e-07 5.9007465e-07 8.2754815e-07
4.3816516e-07 8.0655465e-09 1.2058865e-07 8.9922597e-10 2.676833e-08 1.0064516e-08 4.6057283e-07 2.066794e-07
1.7423818e-07 9.337289e-08 3.249697e-08 2.4749568e-07 1.589624e-06 6.4309766e-08 5.464336e-09 1.7984827e-06
1.8329449e-07 8.307954e-08 9.5515276e-08 1.4488974e-07 7.55114e-07 2.8753002e-09 8.654148e-07 2.1387123e-08
6.124557e-07 9.560564e-09 2.5726663e-08 1.9834468e-08 2.481953e-07 1.2845124e-09 2.1416818e-07 2.8217957e-07
1.4528256e-06 2.8904283e-09 1.00090666e-07 3.8406571e-07 2.0241016e-06 7.106596e-07 2.0675762e-08 3.9144848e-07
1.7068682e-08 1.2448993e-07 7.666965e-09 4.3019122e-07 2.7341956e-08 7.241242e-07 9.158413e-08 1.9337821e-07
4.913205e-07 8.948398e-08 4.5438458e-07 3.9552825e-07 1.8677362e-06 4.953413e-07 4.3734815e-08 3.903525e-07
2.2739111e-07 3.3189165e-09 7.718302e-07 4.6076355e-08 1.2703686e-07 6.011891e-08 1.4850845e-07 1.7275062e-07
8.44001e-07 1.4769861e-08 5.825128e-07 4.38034e-08 1.6938125e-07 2.36302e-06 1.5041985e-07 1.4283287e-08

exp_avg f4 [3, 128]
00000000: 04a0 85bd cd18 c0ba 000b 0b3d 2a51 003c
00000010: 9760 b23a 7c9e 093c d17c 2fbc d46b e03c
00000020: b8b1 b2bc 7c2e 2039 02ba 983a f8a2 8e3b
00000030: 289a 1c3b d511 f63c 696b 4839 1707 80bc
00000040: 1cdc a63c 76c1 8bbc 836c 0a3d 5d77 a8bc
00000050: 404e a93b 3a1c 5b3c 6d44 0f3c 6be5 e13c
00000060: b1ec da3a 36c0 f1bb 37de fd3b 6a16 31bc
00000070: 3282 1cba f2fc e039 db79 cd3b 275a ff3b
00000080: e1bf 7ebc aa53 8c3c bfac 443d 63a0 903b
00000090: a7b9 92bc ec79 1a3d 560e 3a3c 452d 56bb
000000a0: 4b5a 1c3c 9e5e e0bc 751c 6e3a 8e30 3039
000000b0: 13f9 26bd def4 33bc af18 acbd 3d25 563d
000000c0: 635b d73b 7811 99bc 906d 09ba a8b8 a93c
000000d0: db08 55bd 6b74 bfbc 22db 513b f37c d0bc
000000e0: 0104 2cbb 5a56 5039 a88d b63a 9a13 a5bb
000000f0: 2636 9e3a 951e 46bb 6748 443d cfe6 2abb
00000100: 24d3 3dbc be4e 42bc 45a8 933b ade7 c13c
00000110: ceed 12bc bd47 4dba c0a9 09bb a664 f0bc
00000120: 2ab8 9dba 1f08 353d 1c58 ae3a 98d7 d039
00000130: d9f9 5abd 2eb4 9c37 dbd2 46be 904c c4ba
00000140: b291 d5bb eb37 a9b9 19b9 a43b 590d 54bc
00000150: 8426 2f3d 0b79 8439 da91 e7bc 950c 85bb
00000160: 1ba0 acbc 7546 ac38 9aab 43bc daff e8b9
00000170: c9f9 6abb 0f27 f63c fe67 05b9 4505 f0bb
00000180: 7322 1ebe 975e 993a c19e 62b7 7e0a efbb
00000190: a2f4 15ba bcad 663d 772c 85bc be34 2238
000001a0: cd23 fc3b 4352 dbbc 3d96 583c d1f2 60bb
000001b0: d375 0ebd 9b5f 41b8 3c4d 5b3c 857f 3abc
000001c0: e9c7 f6bb 1947 543b 158a dd3a 0a39 c7ba
000001d0: e3b3 1b3d 089e dd3a fda0 6bbc a420 bbbc
000001e0: e107 883b 60a4 c3ba 46f5 1abd 0129 243b
000001f0: 8452 883b 3872 e03c 9a35 103a 6891 9f3a
00000200: 1764 bd3d e303 dab9 1a21 053c ff63 053d
00000210: 170d 20ba b6b5 77bc 0c7a 103b 5180 0fbc
00000220: 7525 c53c 2c91 9937 cecd 14bb 9860 9abb
00000230: 9161 0abb c3c6 53bc ec6a 9837 23b4 87ba
00000240: e128 17bc 7bda 15bc ebcd 993b 64f5 623c
00000250: 8ba8 aebb 2d85 09bc 0e78 333c 9a01 3abb
00000260: 5437 28ba cf5a 29b9 2af7 3cbc f868 54bb
00000270: 638a 713b fd55 833a b1bb 13bc e33e a0bc
00000280: 8368 ad3c 195c 40bb 4b0e e93c 4ac5 9fbb
00000290: faf9 96bb d860 153c a894 a2bc 1494 1eb9
000002a0: e8b0 34bc 1273 4a3d 9aac 83ba d45e 5cba
000002b0: 7fd6 183d 9a93 56bc 3c78 673d 98b9 72bb
000002c0: 0abd 8e3d 5001 9b3c b8d2 c439 4aea 69bb
000002d0: a3f9 4b3d 5bce 7db8 81ab 71bb 9f89 ce3b
000002e0: 89bd 82ba 0ac5 5639 b525 a7ba c12e 5f38
000002f0: 4ff3 0fb7 63ee 313b 86b9 0aba db1c a8bb
00000300: 3f97 c4bb 3f0e 073b 9204 173b f21c 00bb
00000310: 544d 7bb8 7831 cb3b 31b3 5c39 af69 fd3d
00000320: f9d8 8739 c79a 923b 2bea d93b 2f33 a8b8
00000330: 3b27 343d fa16 85b7 aae9 253e d543 d2ba
00000340: d34f 753c b806 7939 2d0b bdbb f6f7 033b
00000350: 264d b3bb 0d61 4738 5d06 9c3c b451 11bb
00000360: f8f5 c93d 6c59 a5b8 bcf2 f5ba b8c5 5c37
00000370: 76e9 5d3a c355 b4bb fb68 1a39 0113 313b
00000380: 7dfc 193e 7ba9 02b9 ff0b 94b7 2679 e83b
00000390: e088 253a 1b66 ed3a 3a51 a8bb dced 2e3a
000003a0: 373a 61bc dcf7 7d3c cebf 9bbb 18c2 d3ba
000003b0: 90e1 b13d 9933 28bb 9382 1cbb 8de0 0b38
000003c0: 3aef 543a c468 e5b8 b0e5 5e3c 3dff 273c
000003d0: b6e0 46bc 49a6 dd3a 992d a33b 9b8a 1c3b
000003e0: 4936 d13b 0e2a f8b9 1647 d13c 74cb a7ba
000003f0: 3448 8abb 4070 403c fd25 d9b7 a4b3 df38
-0.06524661 -0.0014655829 0.033946037 0.007831851 0.0013609108 0.008399602 -0.010710911 0.027395166
-0.021813259 0.00015276106 0.0011652114 0.0043529235 0.0023895595 0.0300378 0.000191135 -0.01562838
0.020368628 -0.017060023 0.03379489 -0.02056473 0.005166799 0.013373429 0.008744341 0.027575215
0.001670262 -0.0073776497 0.0077474373 -0.010808567 -0.00059703283 0.00042913068 0.00627063 0.0077927294
-0.015548677 0.017129738 0.048016306 0.004413651 -0.017910792 0.03771393 0.011355957 -0.0032680791
0.009543012 -0.027388867 0.000908322 0.00016802756 -0.04076488 -0.010983674 -0.084031455 0.052281607
0.0065721734 -0.018685088 -0.00052424613 0.020717934 -0.0520104 -0.023370942 0.0032021482 -0.025450205
-0.0026247504 0.00019868594 0.0013927715 -0.005037737 0.0012070581 -0.003023063 0.04792061 -0.0026077514
-0.011585984 -0.011859594 0.0045061433 0.023670042 -0.00896783 -0.0007830819 -0.002100572 -0.029344868
-0.0012033035 0.044197198 0.0013301405 0.0003983348 -0.05346093 1.8680552e-05 -0.19416372 -0.0014976431
-0.0065176124 -0.00032275854 0.005026948 -0.012942635 0.04276134 0.00025267186 -0.02826779 -0.004060338
-0.021072438 8.214723e-05 -0.0119427685 -0.00044441113 -0.003585445 0.030047921 -0.00012722609 -0.007324847
-0.15442829 0.0011701164 -1.35076125e-05 -0.007294952 -0.0005720352 0.05631803 -0.016256554 3.867293e-05
0.0076946975 -0.026772624 0.013219413 -0.0034324417 -0.034780335 -4.6103825e-05 0.013385113 -0.011382942
-0.0075311554 0.003239101 0.0016902114 -0.0015199494 0.03801335 0.0016908059 -0.014381644 -0.022842713
0.00415133 -0.0014926307 -0.037831567 0.0025048854 0.0041602273 0.027398214 0.00055011513 0.0012174072
0.09247606 -0.00041583096 0.008125568 0.032566067 -0.0006105466 -0.015119007 0.0022045402 -0.00875862
0.024065712 1.8306622e-05 -0.0022705677 -0.004711222 -0.0021115283 -0.012925806 1.8169601e-05 -0.0010353368
-0.009226055 -0.009146328 0.004693737 0.013852451 -0.0053301505 -0.008393568 0.010953916 -0.0028382302
-0.0006416936 -0.00016150925 -0.011533538 -0.00324112 0.0036856167 0.0010020133 -0.009016917 -0.019561237
0.021168 -0.002935177 0.028449198 -0.0048758136 -0.0046074362 0.009117328 -0.019846275 -0.00015123218
-0.011028506 0.049426146 -0.0010045946 -0.00084064645 0.037313934 -0.013096714 0.05651115 -0.0037036892
0.0696965 0.018921524 0.0003754103 -0.0035692626 0.04979862 -6.0512084e-05 -0.0036875906 0.006303027
-0.0009974699 0.00020482033 -0.0012752326 5.3210886e-05 -8.580114e-06 0.0027150146 -0.00052919274 -0.005130393
-0.0059994753 0.0020607857 0.0023043496 -0.0019548503 -5.991508e-05 0.0062009655 0.00021047589 0.12373673
0.00025910864 0.0044740173 0.0066502295 -8.020398e-05 0.043982726 -1.5865535e-05 0.16202417 -0.0016041944
0.014972645 0.00023748993 -0.0057691545 0.002013681 -0.0054718433 4.7535683e-05 0.019046003 -0.0022173943
0.09861368 -7.884469e-05 -0.0018764357 1.3159057e-05 0.00084652693 -0.0055033877 0.00014725693 0.0027019384
0.15037723 -0.00012460903 -1.7648561e-05 0.00709452 0.00063146465 0.0018112095 -0.005136636 0.0006673017
-0.01374679 0.015500989 -0.0047530895 -0.0016155867 0.08685601 -0.002566552 -0.002388154 3.334931e-05
0.0008122806 -0.00010939085 0.013604566 0.010253725 -0.012138536 0.0016910519 0.004979801 0.0023886326
0.006384645 -0.0004733358 0.025546592 -0.0012801723 -0.004220033 0.0117455125 -2.5886106e-05 0.00010666929

exp_avg_sq f4 [3, 128]
00000000: 66c6 833c eb7f 003c 23b2 893d 6cee b33c
00000010: d9a3 713a ce04 f43b 752d b73b a90f 343d
00000020: 7725 323d 6633 b838 d4de 9738 9b79 253b
00000030: 770d 633a 0ff3 353c e9ce 8339 82e2 253c
00000040: fd75 1c3d 51b2 a73c 5d05 c23c 6865 103c
00000050: 2d46 9e3a f467 a43b c232 9a3c 12c6 be3b
00000060: f560 9a3b 86d3 df3b 9cec 083d ed89 6f3c
00000070: e4d0 913c 797c d33a 5838 863b 3b0e d43c
00000080: 6924 fb3c bd29 1b3b be26 cc3d 9c5e ce3a
00000090: 8481 683c 3c14 803d 58ab 2b3c 8e50 843b
000000a0: 8861 813b 1bb7 343d bac3 333a fa5e 073d
000000b0: 4961 5c3b 7ec3 113d 8c62 823d 8359 7d3d
000000c0: 266f 253e a091 343b 204c 263a 5cba d23b
000000d0: 4725 983d c19a be3c 7658 183b 8eb9 8b3c
000000e0: 3f72 813b bf77 313a 73aa 4d3b cbfb e43a
000000f0: c7af f539 5fd5 a33a 4fd4 393d 8cbd 923c
00000100: de58 183c b558 593c 6c99 593c 886e da3c
00000110: 41bf 203c 0962 db3a 28d6 8d3a b49c ad3d
00000120: 9d5f b13a 06ca f63c d703 613c 32ee 113b
00000130: 6bd1 663c 6443 8439 3a3b 543d 7450 283b
00000140: 6c73 363d 5b9e fb39 d7af 043a 8225 193c
00000150: 0782 e73c 9a09 5a38 8632 953c 07d8 4a3a
00000160: deea e23d 4d78 3039 9c51 dd3b 9234 3b3a
00000170: 4319 503c ecbd 683b c38e 8839 bfc4 b53c
00000180: 3b33 523d c3b5 d239 d7bd c039 a81c 8b3c
00000190: a307 463a 848a bd3d faf6 653c f496 ba3a
000001a0: 000c 983c f9ce 403d 2a25 743c 1cf4 223b
000001b0: 867e b93d 65bc 8c3d 3cd6 3d3a ccf3 393b
000001c0: f5a7 283b fe8b de3a 3eca 8f3d 4116 5d3d
000001d0: d772 7e3d f1d5 153c 12c5 713b 3f71 2a3c
000001e0: a379 ae3c 5255 e83a a469 bb3e a8fc 1c3b
000001f0: 19ea 053b 63bf 283d d228 a339 6d4f 273b
00000200: dfc2 cf3c 95a6 6f3a f344 073d ea67 443d
00000210: 2d2a 4c3a 0262 3f3b 8ca6 ae3b 0574 763c
00000220: aa5c 0b3c 3e55 d838 b7bc ad38 aff6 e83a
00000230: 3d73 483a ad75 c43a 3d9c 1339 baad 8e3a
00000240: a32b 193d bdaf 813b 76c3 ae3b 897c d43b
00000250: a053 6e3a 6997 053b 4466 063c 595f 913b
00000260: 0d3f 023a 5c2c e839 d6cb 2a3b 3fb5 bd3a
00000270: 2f05 103c b1eb 8f39 e2e2 703b 1ec6 923c
00000280: 2cf0 843c a129 e739 f72c 653c de0b 6a3a
00000290: 7adc 833a 6924 a03d f0e1 573c 8b26 073a
000002a0: 6967 5d3b 38a3 5d3c aeaf 9639 b5c1 833c
000002b0: d8e2 633b 7ebc bc3c 65a2 263d a694 393d
000002c0: d2b6 0f3e fc49 363b 3877 6539 7428 b53b
000002d0: 6acf ba3d 29d0 843c 5cb5 a83a ddbb 293c
000002e0: afbd 653b d7b6 7a39 4580 1c3b 7404 a339
000002f0: 4569 8c37 cf38 903a 737c 333b 2661 793b
00000300: 1d92 a03b e015 823b 59ad 333b 55c5 9c3c
00000310: 6264 5a3b cb62 863a 8992 293a 6eca 863d
00000320: ac23 053a acd2 813c ca43 383c fbcd b239
00000330: 715c 053c ae8d 4b38 48b1 033d 7c66 6f3a
00000340: 5c22 043c c5f8 fb39 7081 0039 e2b3 243b
00000350: 13d1 333b 87d3 f236 c85d c13c 1cfc 293a
00000360: a3ab d33d b790 a538 2101 103b 4c75 503a
00000370: a1d8 c93b 8b53 f03a dcb0 2439 88dd a53c
00000380: 55ff 233d f4ad f638 d10d 4738 7f9c 7e3c
00000390: 6f17 3d3a 73ff 3c3d ac9c 523a 0bd4 723a
000003a0: b208 a53b 64d1 2c3d ec7a c43a 9e63 cf3a
000003b0: 7eb7 c03d c880 393c d7ee 4d39 1edd 0738
000003c0: 5aa3 fc38 7b42 3438 9598 3c3d 987f 163d
000003d0: 7585 9c3c cbe4 8b3b fe2d 2e3a 9288 213b
000003e0: 67da 863c 0fcd 073b 7c46 ad3e 62d4 2839
000003f0: 0254 753a f0fc d03c 0495 7838 60a3 f43a
0.016085815 0.007842998 0.0672343 0.021964274 0.00092178356 0.007446862 0.0055901357 0.043960247
0.04349276 8.7833774e-05 7.241746e-05 0.0025249484 0.0008661369 0.011105313 0.00025140427 0.010124804
0.03819846 0.02047077 0.023684198 0.00881324 0.0012075357 0.005017275 0.018823031 0.0058219517
0.004711265 0.0068306355 0.033428773 0.014620286 0.017799802 0.0016135118 0.004096072 0.025885692
0.03065701 0.0023676 0.09968327 0.0015744749 0.014191035 0.062538594 0.010477863 0.004037923
0.003948394 0.044119935 0.00068574736 0.03304956 0.0033627322 0.035586827 0.063664526 0.061852943
0.16155681 0.002755262 0.0006343741 0.006430907 0.07428985 0.023267152 0.0023246086 0.017056253
0.003950387 0.0006769858 0.0031382113 0.001747006 0.00046861006 0.0012499503 0.04536849 0.017912649
0.009298531 0.013265778 0.0132812075 0.026664034 0.0098112235 0.0016737591 0.001082127 0.084771544
0.0013532523 0.03012563 0.013733826 0.002226722 0.014088015 0.00025227212 0.051814295 0.002568272
0.04454367 0.00047992435 0.00050616026 0.009347321 0.028260244 5.1984192e-05 0.018212568 0.0007737879
0.110799536 0.00016829484 0.0067541134 0.00071413175 0.012701335 0.0035513593 0.00026046307 0.022188542
0.05131839 0.00040189744 0.00036762535 0.016981438 0.00075542385 0.092549354 0.014035935 0.0014235661
0.01856041 0.047072385 0.014901439 0.0024864739 0.090573356 0.06871871 0.0007241701 0.0028374074
0.0025734876 0.0016978977 0.070209965 0.0539763 0.06212124 0.009145246 0.0036891145 0.010402977
0.021298235 0.0017725623 0.36604035 0.0023954306 0.0020433723 0.041198146 0.00031120196 0.002552952
0.025361476 0.0009141949 0.03302474 0.047950663 0.0007788267 0.0029202704 0.0053299125 0.01504231
0.00850598 0.0001031556 8.284434e-05 0.0017773713 0.00076465664 0.0014988683 0.00014077216 0.0010885515
0.03739513 0.003957717 0.0053333594 0.0064845723 0.00090914406 0.0020384437 0.008203093 0.004436415
0.0004968502 0.0004428354 0.0026061437 0.0014473571 0.008790298 0.0002745069 0.0036756326 0.017916735
0.016227804 0.0004409077 0.013987771 0.000892816 0.0010060214 0.07819445 0.013176426 0.00051555847
0.003378356 0.013527684 0.0002874112 0.016083578 0.003477266 0.023039099 0.040682215 0.045307778
0.14034584 0.0027815094 0.00021883554 0.005528504 0.09121592 0.01621254 0.0012871432 0.0103597315
0.0035055687 0.00023909971 0.0023880166 0.000310931 1.673832e-05 0.0011003258 0.002738741 0.003805229
0.0049002306 0.003969893 0.0027416556 0.019137064 0.0033323993 0.0010252831 0.0006468674 0.06581579
0.0005078863 0.015847526 0.011246631 0.00034104273 0.0081397155 4.853092e-05 0.03215149 0.0009132398
0.008064833 0.00048059798 0.0001225525 0.0025131633 0.002743785 7.236787e-06 0.023604289 0.00064844056
0.103354715 7.894768e-05 0.002197333 0.0007952049 0.0061598574 0.0018335445 0.00015706144 0.020247236
0.040038425 0.000117625954 4.7458165e-05 0.015540241 0.000721327 0.046142053 0.000803421 0.0009263164
0.005036437 0.042191878 0.0014990247 0.0015822535 0.09409998 0.011322208 0.00019639298 3.239244e-05
0.00012046723 4.297726e-05 0.04604395 0.036742777 0.019106606 0.0042692176 0.00066444266 0.0024648053
0.016461564 0.002072159 0.33842838 0.00016100847 0.00093585264 0.025511235 5.926659e-05 0.0018664412

exp_avg f4 [3]
00000000: 8e0b 54bb d7a6 003c ec47 97bb
-0.003235552 0.007852278 -0.004616728

exp_avg_sq f4 [3]
00000000: 55a6 273a c3d5 0c3a b27a 093a
0.000639533 0.0005372429 0.0005244418
