Assets/Training/results/MassiveTraining/PingPongAgent/PingPongAgent-499988.pt (torch, 94759 bytes, 21 tensors)

network_body._body_endoder.seq_layers.0.weight f4 [128, 24]
-0.07119142 0.20914905 0.3241151 0.1682563 -0.37582704 0.08223383 -0.049576193 0.10595873
0.061109014 -0.13803408 -0.009636322 0.10259898 -0.1776366 -0.090273134 -0.16099924 -0.06921032
0.024689797 -0.29523036 0.16386199 -0.15312324 0.25227165 0.11628558 -0.23187688 -0.05701921
0.09048895 0.031982064 -0.005706547 -0.107404225 0.15736547 -0.16007003 -0.35652894 -0.34874275
0.085721575 -0.20681176 -0.2420845 0.2668598 -0.16202214 0.28404942 0.0023436837 -0.17551045
-0.00077602227 -0.14050147 0.059840154 0.09826335 -0.19363174 0.079287514 -0.19873883 0.24969384
0.10232857 -0.26945364 0.2250309 -0.1023189 0.15866642 -0.21242742 0.15579443 0.030624948
0.1345154 0.1330002 0.024228973 -0.05889772 0.1398858 -0.06918371 0.0789513 0.18618187
-0.22440717 -0.4034225 -0.08966978 -0.11251726 0.07617192 0.13555215 0.09551457 0.22488903
-0.1452446 -0.18276453 -0.14982277 -0.13376261 0.009707603 -0.34030753 0.07235413 -0.32027593
0.14421833 -0.1258774 -0.004096701 0.10231753 -0.07108633 -0.09473562 0.008173662 -0.13605516
0.011909592 -0.20826262 0.19221367 0.30492118 0.15570135 0.120407544 -0.059443206 -0.044590123
-0.17364942 -0.6283374 0.21919441 0.11156281 0.06326435 -0.070065394 0.12747441 0.2055862
0.037083838 -0.15591274 -0.41492012 0.28598124 0.018611373 -0.06940794 0.28099155 -0.1395475
-0.2692895 -0.009634681 -0.23535171 0.29858163 -0.09126885 -0.015395234 -0.43058905 -0.18468726
-0.24040216 -0.3152898 -0.28921422 0.22655936 -0.040698215 0.16767122 0.13259666 -0.37711582
0.34959716 -0.4482242 0.10422444 0.38753197 0.052669387 -0.16743453 -0.03795186 -0.054024898
0.14060028 -0.05323746 0.39675578 -0.14457613 0.17057888 0.101327546 0.009221922 0.15242694
0.20683219 -0.20575108 0.20726962 -0.066012196 -0.35850117 0.012342234 -0.047255397 -0.026286533
-0.2761424 0.032692958 -0.3124332 0.34899983 -0.12278601 -0.31346247 -0.29423323 0.21917084
-0.13137235 0.20880571 -0.25741664 0.25256416 0.07875427 -0.10136084 -0.14986922 -0.30700067
-0.31431726 0.18787937 0.38110635 0.11999735 -0.41776004 -0.30493405 0.043409426 0.08933912
0.27509472 0.1796575 -0.18864718 0.10930793 0.28040466 0.15747449 -0.35433155 -0.27065155
-0.06637921 -0.07953561 0.20438553 -0.021713955 0.0144720245 0.24272479 -0.01239765 0.36252367
-0.16940537 0.04354043 0.24800284 0.21361129 -0.21132208 0.25350285 -0.3613944 0.34646055
-0.075292304 0.23885548 -0.0651194 0.16033845 -0.19895272 0.2625233 0.054057993 0.0039807493
-0.33060336 0.21171406 0.1255561 0.06593941 -0.34201396 -0.45253438 -0.19804892 -0.06620254
-0.035561077 -0.45101753 0.017866412 -0.01786185 -0.19585122 0.08958883 0.028777977 0.2985996
-0.09461522 -0.08011494 -0.22831015 0.18237588 -0.014533668 -0.19841853 0.15603583 -0.0055552037
-0.22767417 -0.12758136 0.01542011 0.15817012 0.08854793 0.064203575 -0.010878897 -0.11834423
-0.051476534 -0.1725373 0.19323365 -0.21282504 -0.07489071 0.2928706 -0.05938618 0.18397476
0.008370218 -0.029781684 -0.3679387 0.05433051 -0.047265854 0.07503191 0.37322655 0.20478137
00000000: cfcc 91bd 2b2b 563e 6af2 a53e 614b 2c3e
00000010: 676c c0be 366a a83d 6810 4bbd e400 d93d
00000020: 724d 7a3d ce58 0dbe aae1 1dbc 6a1f d23d
00000030: 5ee6 35be 1fe1 b8bd fcdc 24be 24be 8dbd
00000040: 4242 ca3c 6f28 97be 70cb 273e 57cc 1cbe
00000050: c029 813e 2227 ee3d 2271 6dbe fa8c 69bd
00000060: 4552 b93d a0ff 023d fcfd babb bff6 dbbd
00000070: 6a24 213e 66e9 23be f68a b6be 698e b2be
00000080: cb8e af3d 76c6 53be 00e5 77be d9a1 883e
00000090: 22e9 25be ed6e 913e 7d98 193b 03b9 33be
000000a0: f96d 4bba 9edf 0fbe f31a 753d 4c3e c93d
000000b0: 6647 46be 7e61 a23d 3182 4bbe beaf 7f3e
000000c0: a491 d13d d4f5 89be 806e 663e 928c d1bd
000000d0: 7379 223e 9386 59be 9388 1f3e 2ce1 fa3c
000000e0: 68be 093e 3431 083e d77b c63c bc3e 71bd
000000f0: 393e 0f3e 30b0 8dbd 38b1 a13d 76a6 3e3e
00000100: feca 65be 658d cebe caa4 b7bd 736f e6bd
00000110: 0600 9c3d 2fce 0a3e 259d c33d 4f49 663e
00000120: 00bb 14be a026 3bbe 246b 19be 11f9 08be
00000130: a30c 1f3c ca3c aebe 672e 943d 35fb a3be
00000140: f8ad 133e 01e6 00be 9e3d 86bb da8b d13d
00000150: b695 91bd c004 c2bd d3ea 053c 0b52 0bbe
00000160: 7320 433c cc42 55be a9d3 443e a11e 9c3e
00000170: 2d70 1f3e 3b98 f63d b87a 73bd 22a4 36bd
00000180: 27d1 31be b8da 20bf 8074 603e 0b7b e43d
00000190: bd90 813d 727e 8fbd a788 023e 3085 523e
000001a0: 39e5 173d 97a7 1fbe 6970 d4be 226c 923e
000001b0: e176 983c c025 8ebd 20de 8f3e 8ae5 0ebe
000001c0: 50e0 89be c8da 1dbc 0a00 71be b1df 983e
000001d0: 2aeb babd 4b3c 7cbc 2b76 dcbe a81e 3dbe
000001e0: fc2b 76be aa6d a1be e313 94be 2dff 673e
000001f0: 2cb3 26bd 01b2 2b3e 6bc7 073e 5315 c1be
00000200: 66fe b23e a47d e5be a073 d53d 976a c63e
00000210: dbbb 573d f573 2bbe 6973 1bbd 3649 5dbd
00000220: 85f9 0f3e 860f 5abd 9323 cb3e c40b 14be
00000230: 3bac 2e3e d184 cf3d 8b17 173c cf15 1c3e
00000240: d1cb 533e 69b0 52be 7d3e 543e 6731 87bd
00000250: 778d b7be 1537 4a3c e08e 41bd db56 d7bc
00000260: 8962 8dbe 0de9 053d 3ff7 9fbe 1bb0 b23e
00000270: 3b77 fbbd 277e a0be bda5 96be 526e 603e
00000280: 7986 06be 2ad1 553e 1dcc 83be 1750 813e
00000290: eb49 a13d 4696 cfbd 5177 19be 312f 9dbe
000002a0: 31ee a0be 7363 403e 5f20 c33e 2cc1 f53d
000002b0: a5e4 d5be 5120 9cbe 15ce 313d 6ef7 b63d
000002c0: 37d9 8c3e 23f8 373e ba2c 41be d6dc df3d
000002d0: 3391 8f3e fe40 213e f26a b5be d792 8abe
000002e0: d3f1 87bd 91e3 a2bd 714a 513e 77e1 b1bc
000002f0: 121c 6d3c d98c 783e 831f 4bbc b49c b93e
00000300: 9a78 2dbe 7357 323d 75f4 7d3e ebbc 5a3e
00000310: d164 58be 20cb 813e b008 b9be 4763 b13e
00000320: da32 9abd 8896 743e 525d 85bd c32f 243e
00000330: 43ba 4bbe 7469 863e ea6b 5d3d f270 823b
00000340: d844 a9be 92cb 583e c791 003e 3e0b 873d
00000350: 741c afbe 96b2 e7be 56cd 4abe 3395 87bd
00000360: 7ea8 11bd c5eb e6be 955c 923c 0453 92bc
00000370: 398d 48be 597a b73d cbbf eb3c 0ce2 983e
00000380: a0c5 c1bd 4d13 a4bd 23ca 69be bec0 3a3e
00000390: 9f1e 6ebc 3a2e 4bbe dbc7 1f3e 6d08 b6bb
000003a0: 6b23 69be b0a4 02be a1a4 7c3c 59f7 213e
000003b0: 9e58 b53d 2a7d 833d 673d 32bc 765e f2bd
000003c0: 0fd9 52bd 9ead 30be 0bdf 453e cfee 59be
000003d0: 4d60 99bd 23f3 953e ec3e 73bd e163 3c3e
000003e0: 3d23 093c b8f8 f3bc 7662 bcbe ab89 5e3d
000003f0: d799 41bd 54aa 993d 8d17 bf3e 35b2 513e

network_body._body_endoder.seq_layers.0.bias f4 [128]
-0.087674536 -0.06859129 -0.05055543 -0.12804869 -0.23008694 -0.04522532 -0.18161839 -0.15226275
-0.10047182 -0.2533442 -0.17842245 -0.1384472 -0.12707451 -0.1010511 -0.1421569 -0.10144772
-0.21393429 -0.0825356 -0.019869693 -0.1559038 -0.08833956 -0.14458635 -0.1019081 -0.07105297
-0.10553823 -0.04290044 -0.038938623 -0.10032236 -0.19234154 -0.16098097 -0.11269833 -0.23265493
-0.06433713 -0.20169702 -0.055955753 -0.20810466 -0.07630368 0.056120835 -0.051764894 -0.084992446
-0.09069762 -0.06872763 -0.14414935 -0.011294493 -0.15775548 -0.081258185 -0.10869562 -0.032904975
-0.10976027 -0.13998754 -0.10000639 -0.11541046 -0.007601719 -0.12363784 -0.02163587 -0.087858714
-0.081404544 -0.23357928 -0.2093227 -0.26911652 -0.19394225 -0.16339178 -0.038529824 -0.13173918
-0.106930986 -0.13520184 -0.14539832 -0.09837493 0.0043810694 -0.18026273 -0.21377575 -0.1533986
-0.18732604 -0.1032234 -0.1603902 -0.15301627 -0.041189462 -0.21935219 -0.112543605 -0.093086585
-0.06536803 -0.2344182 -0.12835501 -0.1952305 -0.066654705 -0.23009999 -0.10683888 -0.1231028
-0.14257856 -0.11281183 -0.1975984 -0.0945172 -0.018557006 -0.16732092 -0.12442489 -0.08472502
-0.11192012 -0.22113526 -0.083692335 -0.1492263 -0.18233064 -0.071614645 -0.037935853 -0.03408994
-0.12594424 -0.17101306 -0.082757205 -0.08537625 -0.08177347 -0.06921903 -0.22856414 -0.00048335418
-0.05535184 -0.11506262 -0.079307444 -0.29334658 -0.1088691 -0.10002966 -0.08054467 -0.15118696
-0.12733138 -0.23760515 -0.12625878 -0.12620048 -0.1565276 -0.08806647 -0.08611239 -0.17371948
00000000: b58e b3bd 9779 8cbd 3613 4fbd 321f 03be
00000010: e99b 6bbe 2f3e 39bd 2cfa 39be c4ea 1bbe
00000020: 2bc4 cdbd 55b6 81be 60b4 36be 1ac5 0dbe
00000030: d21f 02be e1f3 cebd 9491 11be d2c3 cfbd
00000040: 9711 5bbe 6d08 a9bd c4c5 a2bc 3fa5 1fbe
00000050: 5feb b4bd 720e 14be 32b5 d0bd 3884 91bd
00000060: 6d24 d8bd 5fb8 2fbd 1b7e 1fbd cf75 cdbd
00000070: 2ef5 44be 32d8 24be 62ce e6bd 183d 6ebe
00000080: 2fc3 83bd aa89 4ebe dc31 65bd 6319 55be
00000090: 1b45 9cbd f6de 653d 6d07 54bd 8510 aebd
000000a0: acbf b9bd 12c1 8cbd e39b 13be 8a0c 39bc
000000b0: a78a 21be b16a a6bd cf9b debd 5ec7 06bd
000000c0: fec9 e0bd e558 0fbe 26d0 ccbd 525c ecbd
000000d0: d717 f9bb d635 fdbd b53d b1bc 45ef b3bd
000000e0: 6db7 a6bd 682f 6fbe b158 56be a4c9 89be
000000f0: cc98 46be 2d50 27be 73d1 1dbd a3e6 06be
00000100: a2fe dabd 5a72 0abe 4ce3 14be cc78 c9bd
00000110: 138f 8f3b cb96 38be 08e8 5abe 8614 1dbe
00000120: 66d2 3fbe ca66 d3bd 543d 24be 4cb0 1cbe
00000130: 48b6 28bd dc9d 60be 437d e6bd 2ea4 bebd
00000140: acdf 85bd 530b 70be 7f6f 03be 81ea 47be
00000150: 4382 88bd 559f 6bbe 58ce dabd 521d fcbd
00000160: 1d00 12be e409 e7bd 3c57 4abe 3c92 c1bd
00000170: dd04 98bc 2d56 2bbe 7ad2 febd 5084 adbd
00000180: 6036 e5bd 4871 62be e366 abbd c7ce 18be
00000190: e2b4 3abe b3aa 92bd a062 1bbd e5a1 0bbd
000001a0: 87f7 00be 0c1e 2fbe 9c7c a9bd bed9 aebd
000001b0: d978 a7bd b5c2 8dbd b80c 6abe b36a fdb9
000001c0: 9cb8 62bd f3a5 ebbd f16b a2bd 8631 96be
000001d0: c3f6 debd 5adc ccbd 9bf4 a4bd c1d0 1abe
000001e0: 2863 02be c44e 73be fb49 01be b33a 01be
000001f0: c548 20be 325c b4bd b15b b0bd 85e3 31be

action_model._discrete_distribution.branches.0.weight f4 [3, 128]
-0.053655095 -0.01943464 0.038509984 -0.044626527 -0.025945665 0.16186123 -0.019911963 0.0230471
0.020877365 -0.027352344 -0.008051441 0.03676934 0.024922721 0.02544394 -0.023556642 0.02234721
-0.020926217 0.0020913347 0.029394435 0.014586128 0.058852345 -0.010273442 -0.00815361 -0.02657338
0.0013444595 0.06467885 0.05437701 -0.008017786 0.02137688 -0.000840649 -0.027062772 0.019955149
0.035041664 -0.0072044116 0.03188872 0.00013175503 0.014703755 -0.043073963 -0.0016832019 -0.045362547
0.052403226 -0.00013584079 -0.027773442 -0.048660442 -0.027617121 0.059874885 0.024749087 -0.009359033
-0.011386126 -0.017515145 -0.016567335 0.005077761 -0.11482273 -0.002265844 0.074872226 0.030415835
0.0066847466 -0.0027507874 0.0004481877 -0.0032359243 -0.021112386 0.00019731378 -0.030824827 -0.027895084
-0.018388435 0.017678222 0.008201288 -0.0021890153 0.14315069 -0.016455622 -0.0044278544 0.030348834
0.021784024 0.01801566 -0.015214118 -0.020730687 -0.028230174 0.009232546 0.041347034 0.022153376
0.02159711 0.0046450677 -0.027959857 -0.008539403 0.027220568 -0.008794327 -0.03235349 -0.10049768
-0.04950868 -0.018065713 -0.020713761 -0.043881595 -0.025801525 -0.035090856 -0.00565971 0.014614054
0.008090304 -0.04725923 0.008581936 -0.024792586 0.011485823 0.024565736 0.009613266 0.023042325
-0.009246202 0.0056976825 0.028658798 0.05874521 -0.011527163 0.005028101 0.005275497 0.09622518
0.0466299 -0.010551119 -0.011654062 0.016452443 0.030632112 -0.0070860246 0.04868867 0.033930436
0.043171555 0.0062489975 0.019957487 0.035481613 -0.02450941 0.056341466 -0.03940272 -0.009414314
0.06362157 -0.051740076 -0.039532684 0.035650875 -0.008953334 -0.012881335 0.038012832 -0.038819995
-0.056632034 0.018049298 0.012487825 0.055577688 0.02507357 -0.051880587 0.060388688 -0.051078163
0.001045002 -0.06271981 -0.050173804 0.025539061 -0.023847967 -0.0011441964 0.032873645 0.0034943018
-0.038405076 -0.026743669 -0.17082784 -0.019431604 -0.031081652 -0.03611104 0.04349084 0.017310679
-0.030353898 -0.021666672 -0.06797424 0.013772842 -0.0539568 0.032594875 0.047888797 -0.022128642
0.01678814 -0.024374874 0.018217556 -0.027388353 0.025839014 0.053279486 -0.023056997 -0.044104002
0.0027220505 0.034010477 0.006485591 -0.007247186 -0.017498245 0.030686744 -0.05075152 -0.01577576
0.050563272 0.0015413939 0.041131355 -0.0018747508 -0.0031273325 0.009665346 -0.017287087 0.0056687156
0.017210051 0.023844255 -0.008561485 0.03843913 -0.058245458 0.014819426 0.016530674 0.011003626
0.027920106 0.016226815 0.019902807 0.026093438 0.074404806 -0.012152738 -0.049096245 -0.029055359
-0.040982924 -0.023138583 0.023208458 0.022741623 -0.056305636 -0.0077776196 0.023656882 0.014185075
-0.018344661 0.009417836 0.038208883 0.09511708 -0.07757896 0.015332041 0.02666605 0.04357372
-0.0045795087 0.07332666 0.0051143155 0.054870762 0.006496968 -0.025966762 -0.07583333 0.06937269
-0.045320816 0.027363952 0.042577833 -0.04705343 0.0486363 -0.0403447 0.04187425 -0.11935833
-0.0230642 0.031504367 0.039266303 0.002377942 -0.0016014462 -0.016311098 0.036646992 -0.044131998
0.0063804863 0.012242603 0.022245778 -0.017858418 -0.032624483 -0.0034263243 0.020927463 0.013496405
00000000: 72c5 5bbd 6535 9fbc a5bc 1d3d 4eca 36bd
00000010: 018c d4bc f3be 253e 6a1e a3bc 46cd bc3c
00000020: 0207 ab3c 0612 e0bc 31ea 03bc 739b 163d
00000030: bc2a cc3c cf6f d03c dcf9 c0bc 7f11 b73c
00000040: 756d abbc c60e 093b 99cc f03c a8fa 6e3c
00000050: 280f 713d f051 28bc b896 05bc 6bb0 d9bc
00000060: 9338 b03a 5876 843d 6dba 5e3d 085d 03bc
00000070: 911e af3c 005f 5cba bfb2 ddbc fb78 a33c
00000080: d987 0f3d fc12 ecbb bf9d 023d b927 0a39
00000090: 05e8 703c 536e 30bd e29e dcba 14ce 39bd
000000a0: c4a4 563d 7c70 0eb9 2185 e3bc 2c50 47bd
000000b0: 4d3d e2bc 5e3f 753d 99be ca3c a156 19bc
000000c0: e08c 3abc ec7b 8fbc 38b8 87bc 5963 a63b
000000d0: 2e28 ebbd 8e7e 14bb 9c56 993d a12a f93c
000000e0: b80b db3b 8e46 34bb bcfa ea39 cd11 54bb
000000f0: e2f3 acbc 04e6 4e39 5984 fcbc 3b84 e4bc
00000100: 58a3 96bc ebd1 903c b25e 063c 9575 0fbb
00000110: 1896 123e f1cd 86bc 8917 91bb 1e9e f83c
00000120: 6974 b23c 9495 933c a344 79bc 67d3 a9bc
00000130: f742 e7bc 1b44 173c 825b 293d ff7a b53c
00000140: 6cec b03c a735 983b 120c e5bc dae8 0bbc
00000150: abfd de3c 1516 10bc 1885 04bd bad1 cdbd
00000160: 9dc9 4abd 8cfe 93bc e8af a9bc 30bd 33bd
00000170: b85d d3bc 6ebb 0fbd 1775 b9bb c96f 6f3c
00000180: 328d 043c e592 41bd 409b 0c3c d219 cbbc
00000190: 092f 3c3c 153e c93c f680 1d3c 42c3 bc3c
000001a0: 627d 17bc a0b3 ba3b dbc5 ea3c d19e 703d
000001b0: 6ddc 3cbc c5c2 a43b 14de ac3b b511 c53d
000001c0: fefe 3e3d 9ade 2cbc aef0 3ebc 46c7 863c
000001d0: 32f0 fa3c e231 e8bb c56d 473d a4fa 0a3d
000001e0: a8d4 303d 64c4 cc3b e27d a33c 2b55 113d
000001f0: f5c7 c8bc 4fc6 663d bf64 21bd 7f3e 1abc
00000200: 074c 823d 67ed 53bd 06ed 21bd a706 123d
00000210: 01b1 12bc 3c0c 53bc 58b3 1b3d b701 1fbd
00000220: fef6 67bd 1fdc 933c bc99 4c3c 6ea5 633d
00000230: 1667 cd3c bd80 54bd 215a 773d 5637 51bd
00000240: 73f8 883a 3e73 80bd 0c83 4dbd 4b37 d13c
00000250: d05c c3bc dcf8 95ba 84a6 063d a800 653b
00000260: a44e 1dbd 8a15 dbbc 7eed 2ebe 072f 9fbc
00000270: f39e febc 2be9 13bd 7323 323d 20cf 8d3c
00000280: bda8 f8bc 4e7e b1bc 1436 8bbd 7ca7 613c
00000290: ce01 5dbd 3482 053d 0b27 443d 2047 b5bc
000002a0: 4887 893c d1ad c7bc fc3c 953c 8a5d e0bc
000002b0: 57ac d33c 973b 5a3d 07e2 bcbc 66a6 34bd
000002c0: 6e64 323b 924e 0b3d 1585 d43b cd79 edbb
000002d0: 7b58 8fbc c462 fb3c d3e0 4fbd 2b3c 81bc
000002e0: 6f1b 4f3d 9908 ca3a 5a79 283d 33ba f5ba
000002f0: eff3 4cbb 665b 1e3c a69d 8dbc a2c0 b93b
00000300: 18fc 8c3c 0755 c33c 7945 0cbc 5972 1d3d
00000310: ca92 6ebd 2ecd 723c 566b 873c 8d48 343c
00000320: b5b8 e43c 19ee 843c 360b a33c e8c1 d53c
00000330: 8c61 983d 471c 47bc 2519 49bd 8105 eebc
00000340: b6dd 27bd 208d bdbc aa1f be3c a44c ba3c
00000350: bda0 66bd 67db febb 14cc c13c 8468 683c
00000360: 8b47 96bc 444d 1a3c eb80 1c3d becc c23d
00000370: b8e1 9ebd 3e33 7b3c c372 da3c 5b7a 323d
00000380: b40f 96bb 4a2c 963d fd95 a73b 2ac0 603d
00000390: 85e4 d43b 3fb8 d4bc 814e 9bbd 4513 8e3d
000003a0: 52a2 39bd 5e2a e03c 1866 2e3d 19bb 40bd
000003b0: db36 473d 7c40 25bd 5584 2b3d 2472 f4bd
000003c0: 22f1 bcbc b90a 013d b4d5 203d 3fd7 1b3b
000003d0: 9ee7 d1ba da9e 85bc 281b 163d c1c3 34bd
000003e0: 6613 d13b 3395 483c c73c b63c d14b 92bc
000003f0: 40a1 05bd 2f8c 60bb 1270 ab3c 0720 5d3c

action_model._discrete_distribution.branches.0.bias f4 [3]
0.01567543 0.009435835 -0.02246442
00000000: c269 803c c398 1a3c 4e07 b8bc

exp_avg f4 [128, 24]
-0.002828352 0.00016278659 -2.4178415e-05 -0.0053142863 8.122472e-05 -0.0018032057 -0.0018591733 -2.2191803e-10
-0.0035045205 0.022148916 0.00016278659 -0.0007167977 -0.0026778483 0.00015294793 -0.00010976314 -0.0047199083
8.1450824e-05 -0.0021612132 0.007700849 -4.2389678e-10 -0.0035703587 0.021987975 0.00015294793 -0.00059347216
0.0035684432 -5.3818858e-05 0.00021769151 0.0017240178 -4.5026478e-05 -0.00036795315 0.0004845316 -8.287037e-11
-0.0011324176 -0.00024882634 -5.3818858e-05 0.00066471484 0.003526025 -5.098927e-05 0.0002222433 0.0017711165
-2.701876e-05 -0.00047824197 0.00047068854 3.77471e-11 -0.0010967052 -0.00020265074 -5.098927e-05 0.0007346724
0.015691563 9.788056e-05 -0.0020866126 0.0055998717 1.6332739e-05 -0.0008737847 -0.0012812291 -3.3860328e-10
-0.0008684561 -0.012835392 9.788056e-05 0.00055197446 0.015556189 9.428001e-05 -0.0021827386 0.0044892803
4.830461e-05 -0.0010086184 -0.013380129 4.190019e-10 -0.0014002429 -0.012506549 9.428001e-05 0.00042205997
-0.0065350677 0.00040923784 0.00040646692 -0.0065792496 0.00020499088 -0.0004832395 -0.0027152463 -4.1627576e-10
-0.003724617 0.024132088 0.00040923784 -0.0053401245 -0.006436008 0.00040207518 0.00045973176 -0.0059014927
0.00020445311 -0.0008672486 0.009026208 -4.8079724e-10 -0.003857085 0.024013836 0.00040207518 -0.005254332
0.00027933792 -3.6123136e-05 0.00030110445 -0.0005065586 -1.5198511e-05 0.0002756007 -0.0001090411 7.339465e-12
0.0007348 0.0016160243 -3.6123136e-05 0.0010666548 0.00033756465 -3.2436223e-05 0.00030458774 -0.0005105337
-1.7085355e-05 0.0003473763 -8.491566e-05 -1.9588914e-11 0.0007130205 0.0015189436 -3.2436223e-05 0.0010816986
-0.0046287323 -0.00013536167 0.0025976694 0.0016662958 -6.739847e-05 -0.00022857689 0.002749928 9.835642e-11
-0.0054525877 0.035322573 -0.00013536167 0.015814086 -0.0048686755 -0.00012089545 0.0025461637 0.0019419591
-6.7592766e-05 -0.0006803554 0.0027565674 5.901997e-11 -0.004205423 0.035533287 -0.00012089545 0.016002495
-0.0065807323 -0.0006076822 0.00026343518 -0.0005947447 -0.00027997314 0.00044968893 0.0046436214 7.1365563e-10
0.0059404457 -0.009103488 -0.0006076822 0.014528043 -0.0065028523 -0.00060321455 0.00025065732 -0.00011492452
-0.00030303313 0.0010371696 0.004639962 -1.6221212e-11 0.005855631 -0.009339311 -0.00060321455 0.014569239
0.0035571512 0.00025959365 0.00096003443 -0.00080888637 9.946781e-05 0.00040960815 -0.0045631174 -3.6154973e-10
0.00025466908 0.0077679534 0.00025959365 -0.0039013904 0.0036203696 0.00026398528 0.00093498005 -0.0010467493
0.00013121014 0.00038486917 -0.0016475428 -3.3908328e-11 -0.0003734169 0.007867369 0.00026398528 -0.003996994
-0.0062644663 0.00039760588 0.0020107303 -0.0014144438 0.00019970762 -0.0012242314 0.0009745877 -1.0052119e-10
-0.0039265146 0.0051612523 0.00039760588 -0.018203495 -0.006127659 0.00039996087 0.0020690688 -0.0013132232
0.0001989433 -0.0016059713 0.00096664 -3.572085e-11 -0.0035585389 0.00514221 0.00039996087 -0.017902538
-0.0003056764 2.3496461e-05 1.2032175e-05 -4.302075e-05 1.1499329e-05 -0.0002609587 0.00016729474 -7.012237e-12
-0.00013912235 0.0004078078 2.3496461e-05 -0.00030558702 -0.00029765835 1.6761684e-05 -1.3590414e-07 -2.7675553e-05
1.0994303e-05 -0.00028142432 0.00015659038 -2.2360009e-12 -0.00019153964 0.00026971468 1.6761684e-05 -0.00026553773
0.0005424125 -3.8067537e-05 -6.872039e-05 3.8113652e-05 -1.9056191e-05 -6.751142e-05 -0.0003535194 9.25463e-12
-0.0003160584 -0.0002132491 -3.8067537e-05 0.000504536 0.00053422514 -3.794972e-05 -8.2226485e-05 2.539715e-06
00000000: df5b 39bb b1b1 2a39 c0d2 cab7 7723 aebb
00000010: 3157 aa38 8b59 ecba 81af f3ba 5f00 74af
00000020: 19ac 65bb a571 b53c b1b1 2a39 7be7 3bba
00000030: d77e 2fbb a660 2039 a330 e6b8 76a9 9abb
00000040: 94d0 aa38 24a3 0dbb 6757 fc3b 2b0a e9af
00000050: aefc 69bb 2020 b43c a660 2039 3e93 1bba
00000060: 8bdc 693b 8fbb 61b8 1f44 6439 70f8 e13a
00000070: d0da 3cb8 d6e9 c0b9 bb08 fe39 df3b b6ae
00000080: a16d 94ba e874 82b9 8fbb 61b8 4240 2e3a
00000090: e214 673b 50dd 55b8 fb09 6939 cf24 e83a
000000a0: 58a6 e2b7 8dbc fab9 bfc6 f639 7503 262e
000000b0: 52bf 8fba a57e 54b9 50dd 55b8 0897 403a
000000c0: 988b 803c 3a45 cd38 8dbf 08bb 217f b73b
000000d0: 4a02 8937 b30e 65ba eaee a7ba 2d26 baaf
000000e0: 1aa9 63ba 894b 52bc 3a45 cd38 61b2 103a
000000f0: 63df 7e3c 32b8 c538 470c 0fbb d01a 933b
00000100: ae9a 4a38 9e33 84ba 5438 5bbc 4659 e62f
00000110: 5b88 b7ba 45e8 4cbc 32b8 c538 ee47 dd39
00000120: 1f24 d6bb f98e d639 111b d539 bf96 d7bb
00000130: d2f2 5639 4f5b fdb9 46f2 31bb 9bd9 e4af
00000140: b418 74bb a8b0 c53c f98e d639 36fc aebb
00000150: 26e5 d2bb 9ecd d239 2708 f139 4f61 c1bb
00000160: 7762 5639 1158 63ba a9e2 133c 1929 04b0
00000170: 26c7 7cbb aab8 c43c 9ecd d239 882c acbb
00000180: 1a74 9239 ec82 17b8 8edd 9d39 92ca 04ba
00000190: 1cfd 7eb7 807e 9039 ffac e4b8 031e 012d
000001a0: 989f 403a c7d0 d33a ec82 17b8 ffce 8b3a
000001b0: 29fb b039 210c 08b8 13b1 9f39 56d5 05ba
000001c0: 8552 8fb7 0f20 b639 bf14 b2b8 504e acad
000001d0: ffe9 3a3a 4a17 c73a 210c 08b8 c8c7 8d3a
000001e0: 9fac 97bb dfef 0db9 a93d 2a3b 9c67 da3a
000001f0: 4758 8db8 24ae 6fb9 2338 343b be49 d82e
00000200: 9fab b2bb 67ae 103d dfef 0db9 8b8c 813c
00000210: 6989 9fbb 4089 fdb8 8add 263b 5689 fe3a
00000220: 97c0 8db8 e159 32ba 87a7 343b 4ac9 812e
00000230: a5cd 89bb 5a8b 113d 4089 fdb8 aa17 833c
00000240: 2fa3 d7bb dd4c 1fba ac1d 8a39 a4e8 1bba
00000250: 5cc9 92b9 3ac4 eb39 8529 983b 0d2b 4430
00000260: 12a8 c23b cc26 15bc dd4c 1fba 0707 6e3c
00000270: e115 d5bb 0b21 1eba a86a 8339 a203 f1b8
00000280: 6be0 9eb9 a3f1 873a d30a 983b ecae 8ead
00000290: 98e0 bf3b e903 19bc 0b21 1eba d1b3 6e3c
000002a0: 181f 693b 121a 8839 d2aa 7b3a 720b 54ba
000002b0: 6099 d038 adc0 d639 3486 95bb 9ac3 c6af
000002c0: 1b85 8539 518a fe3b 121a 8839 78ae 7fbb
000002d0: b943 6d3b 8167 8a39 7319 753a 1433 89ba
000002e0: 7495 0939 44c8 c939 5df2 d7ba 6221 15ae
000002f0: 2bc7 c3b9 23e6 003c 8167 8a39 37f9 82bb
00000300: 2746 cdbb c275 d039 75c6 033b dc64 b9ba
00000310: 9b68 5139 6476 a0ba 797b 7f3a 660c ddae
00000320: fea9 80bb b91f a93b c275 d039 7f1f 95bc
00000330: 88ca c8bb d7b1 d139 3799 073b 7520 acba
00000340: 6f9b 5039 747f d2ba 1d66 7d3a 1a1a 1dae
00000350: 6036 69bb fc7f a83b d7b1 d139 58a8 92bc
00000360: 3143 a0b9 441a c537 ccdd 4937 2e71 34b8
00000370: 3eed 4037 49d1 88b9 d76b 2f39 9eb8 f6ac
00000380: 5fe1 11b9 09cf d539 441a c537 3237 a0b9
00000390: 070f 9cb9 719b 8c37 0ced 11b4 cc28 e8b7
000003a0: 2c74 3837 228c 93b9 6932 2439 3658 1dac
000003b0: 08d8 48b9 7e68 8d39 719b 8c37 df37 8bb9
000003c0: b030 0e3a b5aa 1fb8 fa1d 90b8 39dc 1f38
000003d0: dcda 9fb7 eb94 8db8 9258 b9b9 26cf 222d
000003e0: a4b4 a5b9 9f9b 5fb9 b5aa 1fb8 d642 043a
000003f0: 3e0b 0c3a 342c 1fb8 0271 acb8 f96f 2a36

exp_avg_sq f4 [128, 24]
0.0018352815 8.138001e-06 0.0001259036 0.00064806454 2.0217583e-06 0.00013492515 0.00066258345 2.141346e-18
0.00088741584 0.0030643018 8.138001e-06 0.0048912233 0.0019499561 8.653078e-06 0.00012292666 0.0006454566
2.0463308e-06 0.00015407444 0.0007159137 3.2436908e-18 0.000938793 0.0032233258 8.653078e-06 0.0049031614
0.00083229935 3.706384e-06 1.8995519e-05 0.000262588 8.930066e-07 5.4546057e-05 0.000471528 8.0303366e-19
0.00014564593 0.0011730996 3.706384e-06 4.288273e-05 0.0008486422 3.769331e-06 1.9444082e-05 0.00031791307
9.1414876e-07 5.8189024e-05 0.0004914172 1.137584e-18 0.00015465952 0.0011944355 3.769331e-06 4.687567e-05
0.0036543712 1.6129188e-05 0.0001370156 0.001400432 4.0081636e-06 0.00017442237 0.0018357404 4.312687e-18
0.0011297748 0.0077853044 1.6129188e-05 0.01376508 0.0037331444 1.640039e-05 0.00013997419 0.0016026256
4.0220066e-06 0.00017613078 0.0019243232 6.085318e-18 0.0010881361 0.007883842 1.640039e-05 0.013788524
0.0017449409 7.828398e-06 7.049122e-05 0.00061565376 1.952217e-06 0.0001402426 0.0008157131 1.6401474e-18
0.0006406342 0.0032204976 7.828398e-06 0.0055061206 0.0017660479 7.873725e-06 7.420446e-05 0.0006803172
1.9570766e-06 0.00016029304 0.0008304075 1.9380685e-18 0.0006229487 0.0032297333 7.873725e-06 0.0055749356
8.235943e-06 3.8453727e-08 3.8088493e-07 2.3012014e-06 8.626845e-09 9.879415e-07 3.7818716e-06 7.020027e-21
2.559604e-06 1.2941791e-05 3.8453727e-08 8.071051e-06 1.23933905e-05 5.697266e-08 3.8109994e-07 2.558501e-06
9.54082e-09 9.2610725e-07 6.7340734e-06 6.546422e-20 3.9664656e-06 1.8953622e-05 5.697266e-08 8.726149e-06
0.0052948473 2.3226543e-05 0.00051948964 0.0019928438 5.6613267e-06 0.0005682897 0.0019379028 1.1002562e-17
0.0024116659 0.0153824035 2.3226543e-05 0.0054213814 0.0053688902 2.3584616e-05 0.00051509915 0.0020021945
5.7982074e-06 0.0005454416 0.0019538484 8.779884e-18 0.0024168682 0.015416427 2.3584616e-05 0.005372417
0.0005669758 2.511732e-06 3.6896163e-05 0.00023811372 6.060365e-07 5.0164515e-05 0.00013373709 8.873359e-19
0.00034884005 0.0011478908 2.511732e-06 0.0017755335 0.00060305034 2.642623e-06 3.4804132e-05 0.0002561778
6.251276e-07 3.5040663e-05 0.00015420585 1.1207295e-18 0.00035763314 0.0011834458 2.642623e-06 0.0017854756
0.0004558129 1.991712e-06 2.6203104e-05 0.00014574995 4.940623e-07 3.9101087e-05 0.00017087255 4.015874e-19
0.00019130397 0.00073957397 1.991712e-06 0.00042748626 0.00048508937 2.1615624e-06 2.6663636e-05 0.00014178465
5.0035464e-07 4.1071882e-05 0.00018979324 6.2593517e-19 0.00019742078 0.00081206724 2.1615624e-06 0.00043857575
0.0025023448 1.10533465e-05 8.527848e-05 0.0007752508 2.7291858e-06 0.00013104925 0.0012499861 2.1939183e-18
0.00064008863 0.0028084766 1.10533465e-05 0.0116375275 0.0025164036 1.1143002e-05 9.049186e-05 0.0009179401
2.7641665e-06 0.00015307816 0.0012569466 2.2264542e-18 0.00063945906 0.0028270797 1.1143002e-05 0.011938391
3.1866189e-06 1.4012272e-08 2.3649804e-07 8.9984775e-07 3.3915664e-09 5.7616137e-07 1.0006764e-06 4.457361e-21
1.5541859e-06 1.1613625e-05 1.4012272e-08 4.643127e-06 1.175743e-05 5.276876e-08 2.3842713e-07 9.2261064e-07
4.1999098e-09 5.7959045e-07 4.6965824e-06 6.668356e-20 2.0586026e-06 2.5315017e-05 5.276876e-08 9.603509e-06
1.5405534e-05 6.795057e-08 1.4808664e-06 5.1118723e-06 1.6954276e-08 9.29629e-07 3.7864404e-06 1.8798019e-20
8.581669e-06 1.943699e-05 6.795057e-08 4.7969683e-05 1.543156e-05 6.808745e-08 1.4572206e-06 5.0899334e-06
00000000: d48d f03a 7388 0837 fe04 0439 e0e2 293a
00000010: 8bad 0736 b27a 0d39 39b1 2d3a e200 1e22
00000020: 78a1 683a 74d2 483b 7388 0837 8e46 a03b
00000030: ab95 ff3a b02c 1137 e0e5 0039 dc33 293a
00000040: b253 0936 0b8f 2139 28ac 3b3a 9657 6f22
00000050: 5519 763a 6f3e 533b b02c 1137 b3aa a03b
00000060: aa2e 5a3a 31bb 7836 9158 9f37 f7ab 8939
00000070: f2b6 6f35 62c8 6438 6b37 f739 8203 6d21
00000080: 88b8 1839 b1c2 993a 31bb 7836 fbdc 3338
00000090: 6a77 5e3a 9df4 7c36 d91b a337 92ad a639
000000a0: d363 7535 fd0f 7438 73d2 003a b5e0 a721
000000b0: 192c 2239 9b8e 9c3a 9df4 7c36 5e9c 4438
000000c0: 2d7e 6f3b 2b4d 8737 d8ab 0f39 b38e b73a
000000d0: dd7d 8636 26e5 3639 3a9d f03a 2d1c 9f22
000000e0: f414 943a de1b ff3b 2b4d 8737 ee86 613c
000000f0: c5a7 743b 9293 8937 09c6 1239 310f d23a
00000100: c6f4 8636 bfaf 3839 9239 fc3a 3482 e022
00000110: ca9f 8e3a 3b2b 013c 9293 8937 43e9 613c
00000120: 80b6 e43a b756 0337 b0d4 9338 d363 213a
00000130: d502 0336 160e 1339 94d5 553a 040b f221
00000140: 3cf0 273a fc0e 533b b756 0337 b06c b43b
00000150: bc7a e73a 6419 0437 379e 9b38 5057 323a
00000160: 5256 0336 5614 2839 b4af 593a 1401 0f22
00000170: 614d 233a efa9 533b 6419 0437 f3ad b63b
00000180: 1b2d 0a37 5228 2533 6d7c cc34 576e 1a36
00000190: 4435 1432 6999 8435 0fcc 7d36 c59a 041e
000001a0: a9c5 2b36 9220 5937 5228 2533 e668 0737
000001b0: 35ed 4f37 1ab2 7433 fa99 cc34 b6b2 2b36
000001c0: f8e8 2332 9b99 7835 40f5 e136 b192 9a1f
000001d0: ae17 8536 98fe 9e37 1ab2 7433 8666 1237
000001e0: 6680 ad3b 9fd6 c237 5c2e 083a 5f9a 023b
000001f0: 6df6 bd36 47f9 143a 3a01 fe3a 21f6 4a23
00000200: 0a0d 1e3b 7a06 7c3c 9fd6 c237 d8a5 b13b
00000210: 84ed af3b 94d7 c537 b807 073a 4037 033b
00000220: 398e c236 f7fb 0e3a 230c 003b d4f5 2123
00000230: 5264 1e3b 2e95 7c3c 94d7 c537 1a0b b03b
00000240: 1aa1 143a 3a8f 2836 f4c0 1a38 2aae 7939
00000250: 83ae 2235 bd67 5238 c73b 0c39 9af2 8221
00000260: 85e4 b639 d374 963a 3a8f 2836 05b9 e83a
00000270: 0616 1e3a eb57 3136 a7fa 1138 9a4f 8639
00000280: 71ce 2735 a0f8 1238 51b2 2139 f763 a521
00000290: b580 bb39 da1d 9b3a eb57 3136 9f06 ea3a
000002a0: 2cfa ee39 5aa9 0536 bdce db37 74d4 1839
000002b0: b49f 0435 7900 2438 402c 3339 2c0e ed20
000002c0: c598 4839 f8df 413a 5aa9 0536 3c20 e039
000002d0: 9853 fe39 5c0f 1136 b9ab df37 07ac 1439
000002e0: 1c50 0635 9944 2c38 3c03 4739 53be 3821
000002f0: bd02 4f39 e9e0 543a 5c0f 1136 a4f0 e539
00000300: 61fe 233b c371 3937 89d7 b238 333a 4b3a
00000310: 0e27 3736 446a 0939 93d6 a33a f2e1 2122
00000320: 9fcb 273a 6b0e 383b c371 3937 54ab 3e3c
00000330: 3fea 243b d4f2 3a37 73c6 bd38 eba1 703a
00000340: 0580 3936 9b83 2039 21c0 a43a 8848 2422
00000350: 5fa1 273a 8746 393b d4f2 3a37 3e99 433c
00000360: b2d9 5536 a0ba 7032 16f0 7d34 118d 7135
00000370: 1111 6931 82a9 1a35 fb4e 8635 f364 a81d
00000380: 6c99 d035 24d8 4237 a0ba 7032 28cc 9b36
00000390: c741 4537 dda3 6233 2d01 8034 52a9 7735
000003a0: cc4e 9031 2795 1b35 5697 9d36 bd73 9d1f
000003b0: 8626 0a36 965b d437 dda3 6233 c21e 2137
000003c0: 223b 8137 39ec 9133 2fc2 c635 a686 ab36
000003d0: d9a2 9132 9e8b 7935 8d1a 7e36 d28a b11e
000003e0: fdf9 0f37 9e0c a337 39ec 9133 0e33 4938
000003f0: 0673 8137 7937 9233 b895 c335 32ca aa36

exp_avg f4 [128]
5.0982646e-05 -1.699643e-05 3.1426705e-05 0.00013402506 -1.0812075e-05 -4.0298415e-05 -0.00020107153 8.7995075e-05
0.0001333203 5.5872288e-06 -1.2649907e-05 7.971369e-05 -6.337805e-05 7.6014585e-05 1.1916948e-05 7.356565e-05
5.9121376e-05 0.00018776472 4.572922e-05 -0.00016351482 3.0323916e-05 1.4408192e-05 -2.8136448e-05 2.2768418e-05
-4.741054e-05 -4.092124e-05 0.00011034308 6.285827e-05 2.2021663e-05 3.0668514e-05 -4.276401e-06 -6.580138e-06
8.3377745e-06 -3.6023754e-05 0.00032802194 -1.7752324e-06 6.292325e-06 2.7441843e-05 -0.00023507139 0.00027764903
5.258362e-05 5.5079094e-05 0.00016921778 -1.005473e-06 -3.11923e-05 -2.3564444e-06 0.00014578609 0.00016834526
-0.000104279294 5.377257e-06 1.1168269e-05 7.5946027e-06 -0.000276964 -0.00010659511 2.4956022e-05 0.00025413322
5.661491e-05 1.979672e-06 -1.1434545e-05 1.5075934e-06 -4.4118115e-06 8.460742e-07 -0.0005820576 -0.00017157443
-5.5019824e-05 -3.910062e-05 1.1374923e-06 -0.00018329023 0.00021475347 5.969737e-05 3.3718402e-06 0.00019769235
-1.3493653e-05 0.000106878324 -0.00015801206 1.7114028e-06 -0.0001333695 -2.4175139e-05 0.00040601403 -3.767014e-05
0.00022028746 -8.903918e-06 -1.7657609e-05 -2.5396705e-05 0.0001004776 5.2738864e-07 2.9959872e-05 -2.3707978e-05
-7.417113e-05 -1.8070365e-05 -1.1197106e-05 -8.553306e-05 0.00012344327 6.3646494e-06 -8.0499024e-07 -0.00014554827
-4.9151467e-06 3.3130354e-06 -6.227907e-07 -0.00021194332 3.0916792e-06 -2.3111013e-06 7.2937246e-06 3.309368e-06
4.600741e-05 -0.00011558648 -0.00024835631 3.7360182e-06 0.00010921406 0.00017935176 -7.898096e-05 -3.8071703e-05
-2.2789076e-05 -2.0448892e-06 0.00012281831 4.6719568e-05 3.294225e-05 -7.974412e-06 -7.306625e-05 3.0422256e-05
-0.00010368123 8.5030415e-06 0.00023414668 -1.0979014e-05 6.173568e-05 -4.9885235e-05 -3.8892962e-05 -3.8854378e-05
00000000: 33d6 5538 8e93 8eb7 2bd0 0338 1489 0c39
00000010: 8265 35b7 1806 29b8 bad6 52b9 ff89 b838
00000020: e5cb 0b39 ee79 bb36 f03a 54b7 f62b a738
00000030: d5e9 84b8 056a 9f38 e7ee 4737 4247 9a38
00000040: 18f9 7738 b5e2 4439 60cd 3f38 2d75 2bb9
00000050: 1d60 fe37 b7ba 7137 9006 ecb7 cefe be37
00000060: aeda 46b8 d9a2 2bb8 fd67 e738 c7d2 8338
00000070: 29bb b837 11a2 0038 017e 8fb6 f4ca dcb6
00000080: 78e2 0b37 3618 17b8 5cfa ab39 8544 eeb5
00000090: a922 d336 e932 e637 7f7d 76b9 6c91 9139
000000a0: 3b8d 5c38 ba04 6738 0d70 3139 caf3 86b5
000000b0: 7ad4 02b8 6823 1eb6 28de 1839 d685 3039
000000c0: 85b0 dab8 496e b436 5a5f 3b37 24d5 fe36
000000d0: 7b35 91b9 d08b dfb8 a658 d137 2f3d 8539
000000e0: cc75 6d38 82da 0436 ffd6 3fb7 8458 ca35
000000f0: 2c09 94b6 c71d 6335 3995 18ba a9e8 33b9
00000100: 16c5 66b8 f9ff 23b8 f0ab 9835 9931 40b9
00000110: 722f 6139 9063 7a38 c647 6236 a34b 4f39
00000120: cc62 62b7 dd23 e038 0ab0 25b9 5ab3 e535
00000130: 1ad9 0bb9 b7cb cab7 48de d439 0100 1eb8
00000140: f7fc 6639 0962 15b7 6d1f 94b7 020b d5b7
00000150: 80b7 d238 df91 0d35 5652 fb37 7fe0 c6b7
00000160: 528c 9bb8 d095 97b7 34db 3bb7 3660 b3b8
00000170: 8d70 0139 ec8f d536 8216 58b5 519e 18b9
00000180: caec a4b6 8455 5e36 da2d 27b5 1a3d 5eb9
00000190: a57a 4f36 6b18 1bb6 9ebc f436 8216 5e36
000001a0: 15f8 4038 0567 f2b8 d235 82b9 4eb8 7a36
000001b0: da09 e538 5f10 3c39 94a2 a5b8 2eaf 1fb8
000001c0: 2b2b bfb7 ee3a 09b6 cac8 0039 c1f4 4338
000001d0: 792b 0a38 d7c9 05b7 253b 99b8 4c33 ff37
000001e0: 706f d9b8 49a8 0e37 4585 7539 8232 38b7
000001f0: 1778 8138 dd3b 51b8 0021 23b8 92f7 22b8

exp_avg_sq f4 [128]
9.614536e-07 4.1881333e-07 1.8222665e-06 8.7486086e-07 6.3302954e-09 2.6205157e-06 2.9362462e-07 2.4017336e-07
1.2381082e-06 5.8631953e-09 7.565268e-09 1.0509219e-06 2.764947e-07 2.3164472e-07 1.0755989e-07 3.0399084e-07
2.6965336e-07 1.261141e-06 1.870183e-07 3.1774755e-07 7.755059e-07 2.406141e-08 1.04654305e-07 3.7240096e-07
5.899793e-08 3.275426e-07 1.0650589e-06 1.3437267e-07 2.5180577e-07 3.381024e-08 2.1192022e-07 2.5598018e-08
1.8064786e-06 4.69945e-08 7.993707e-07 1.2774464e-08 4.421883e-08 7.586577e-07 2.791421e-07 8.6743086e-07
1.945622e-07 5.73836e-08 8.3152045e-08 9.891768e-07 1.4848239e-07 8.1829876e-07 7.8101544e-07 2.3691616e-06
3.221043e-07 1.5301195e-07 2.7649769e-08 8.325671e-08 9.267898e-06 1.647668e-07 4.336702e-07 8.2936987e-07
5.223997e-07 1.3347446e-09 1.2828156e-07 1.7893876e-09 2.7124845e-08 1.3512518e-08 1.4041451e-06 2.5240936e-07
1.2487651e-07 7.235008e-08 5.6807256e-08 3.0280205e-07 2.2598372e-06 6.115793e-08 6.020328e-09 1.3862101e-06
9.572201e-08 1.8796767e-07 2.3420924e-07 1.5913577e-07 4.4885837e-07 7.815314e-09 1.2098964e-06 1.2585664e-08
7.8401166e-07 4.94914e-09 4.3779522e-08 5.525074e-08 2.6311457e-07 6.81656e-10 2.0355776e-07 7.6381974e-07
1.3251517e-06 3.338732e-08 9.404747e-08 1.5744057e-06 1.5605284e-06 3.7283314e-07 5.7888845e-09 4.825293e-07
5.0322075e-08 1.7910799e-07 1.2669322e-08 6.396947e-07 3.0387984e-08 9.175877e-07 7.411984e-08 3.6092504e-07
4.4784682e-07 1.3494878e-07 7.783075e-07 3.1630194e-07 2.425386e-06 3.7708196e-07 7.304014e-08 6.1699166e-07
1.382611e-07 6.064605e-09 9.644904e-07 6.428303e-08 1.905201e-07 1.3554877e-07 2.027747e-07 1.2013078e-07
6.5047e-07 1.4413844e-08 8.685043e-07 3.9058524e-08 2.0882878e-07 1.6859983e-06 1.8952186e-07 2.99129e-08
00000000: 4b0b 8135 44d9 e034 9a94 f435 fbd7 6a35
00000010: de81 d931 1edc 2f36 76a3 9d34 2df1 8034
00000020: 132d a635 3675 c931 67f8 0132 670d 8d35
00000030: 2471 9434 04ba 7834 adfb e633 2f34 a334
00000040: e0c4 9034 7a44 a935 33cf 4834 e496 aa34
00000050: 5c2c 5035 9aaf ce32 50be e033 66ee c734
00000060: e964 7d33 1dd9 af34 25f3 8e35 1448 1034
00000070: ec2f 8734 c136 1133 308c 6334 a3e2 db32
00000080: 2276 f235 00d7 4933 5694 5635 b076 5b32
00000090: 1eeb 3d33 8fa6 4b35 00dd 9534 65d9 6835
000000a0: dae8 5034 ef75 7633 5291 b233 dbc3 8435
000000b0: 876e 1f34 10a9 5b35 f9a6 5135 e3fd 1e36
000000c0: aeed ac34 9b4b 2434 7c82 ed32 dcca b233
000000d0: 527d 1b37 c1ea 3034 2ed3 e834 dda1 5e35
000000e0: 093b 0c35 2772 b730 c4bd 0934 7bee f530
000000f0: 2a00 e932 af24 6832 0f76 bc35 e182 8734
00000100: cb15 0634 e15e 9b33 3dfc 7333 cc90 a234
00000110: b5a7 1736 ed55 8333 5ddb ce31 d10d ba35
00000120: bb8f cd33 29d4 4934 f27a 7b34 e8de 2a34
00000130: a0fa f034 1d44 0632 b963 a235 5638 5832
00000140: df74 5235 190d aa31 1808 3c33 d54c 6d33
00000150: 3142 8d34 475f 3b30 8891 5a34 4b09 4d35
00000160: dedb b135 bf65 0f33 25f7 c933 2b50 d335
00000170: 5973 d135 cc29 c834 91e7 c631 2987 0135
00000180: b521 5833 d450 4034 44a8 5932 7cb7 2b35
00000190: f183 0233 2650 7635 d02b 9f33 29c5 c134
000001a0: 996f f034 70e6 1034 e2ec 5035 35d0 a934
000001b0: d0c3 2236 c071 ca34 3eda 9c33 589f 2535
000001c0: ec74 1434 d460 d031 a373 8135 f80b 8a33
000001d0: c491 4c34 5d8b 1134 49ba 5934 4cfd 0034
000001e0: f59b 2e35 c2a0 7732 2923 6935 4dc1 2733
000001f0: 6b3a 6034 764a e235 5f7f 4b34 9579 0033

exp_avg f4 [3, 128]
-0.032020766 0.007925358 0.041260444 -0.06984016 0.0006749804 -0.0071964557 0.011680962 -0.15419929
0.06388715 0.00048332757 0.0011663781 0.008978303 0.006225585 -0.046966303 -0.0014471037 0.00033612998
-0.025370877 0.06245136 0.020680558 -0.011197882 0.007026049 0.0013767072 0.0014583359 0.0067132465
-0.0056427387 -0.007933228 0.0071577863 -0.012646431 -0.064007804 0.003965343 -0.0006837392 -0.069650784
0.03686383 0.004920091 0.063828744 0.001704241 -0.011827743 -0.08126475 -0.058214057 -0.014331476
0.004483029 0.009831609 -0.021290183 0.012490595 -0.0069013964 -0.016849132 0.0043717856 -0.0042555626
0.019168353 -0.01637769 -3.820377e-05 0.006575143 0.027488884 0.048037898 -0.007266684 0.0366329
0.0048205936 -0.0014785918 0.0014555114 -0.0018897781 -0.00033375743 -0.006680698 0.003450206 0.024735954
0.0028435811 0.009775744 0.01743798 -0.044510487 -0.007993484 -0.0068069687 -0.0033241808 0.06255559
0.00073541957 0.06666803 0.024690012 -0.005162542 0.015550593 -0.0036006628 0.08148659 0.0032460617
-0.031781815 -0.0037361742 0.0027654655 0.0031715082 0.0050915736 0.00012253175 -0.015054062 -0.0010904326
0.029257795 0.0055227056 -0.0027243954 -0.0016850024 -0.003676925 0.0067665107 0.00023828499 0.041020315
0.013465993 0.001413038 0.004838627 0.032870468 -0.0058563296 0.038569268 -0.011526054 0.018424166
-0.009186145 0.080245 -0.015115679 0.00026493138 0.06070695 -0.027988674 -0.008434528 -0.011300584
-0.006898764 0.0025201873 0.0398147 -0.015985556 -0.100275986 -0.015009035 -0.008851005 -0.011990339
-0.0005224746 0.0004314913 0.12485461 -0.010069809 0.006345662 0.022110155 -0.001121479 0.008349798
-0.010561078 -0.0036895247 0.019631106 -0.0062932675 0.0002691076 -0.015001667 -0.018821396 -0.0038262252
-0.017560225 -0.000119145465 -0.0040750722 -0.0018241326 -0.008993004 -0.008762648 0.00024995726 -0.0054739215
-0.03767214 -0.025295798 -0.0021465651 -0.042567953 -0.0022631458 -0.014713625 -0.029624447 0.0026502002
0.0058568367 -0.0031584348 -0.0030843914 -0.013301286 -0.006421665 -0.0038383156 -0.0068655615 0.0044111526
-0.02759286 0.0011912578 -0.030803965 -0.0014267786 -0.0010937186 -0.039587732 -0.01665521 -0.008394992
0.004273313 -0.007972063 -0.002811084 -0.025478587 -0.0052395696 -0.018193679 -0.076100595 -0.036239635
-0.027889596 0.0038759569 0.0001241561 -0.0061600115 -0.034636058 -0.059508316 0.009715257 -0.028651439
-0.0002441545 0.00024774068 -0.001706817 -3.5961817e-05 0.00029768527 0.0057252897 0.0035845852 -0.022325804
-0.02515582 -0.023609102 -0.020558672 0.0144671295 -0.001249533 -0.0042800927 -4.8024624e-05 -0.018999074
-0.0015306126 -0.038282294 -0.04818099 -0.0031329435 -0.006837241 0.0038745923 -0.029222367 0.0040143197
-0.018903729 0.004992696 -0.0037001395 -0.008389185 -0.0058028097 -0.0007118269 -0.03511872 -0.0008111286
-0.06347579 -0.006237513 -0.01304414 0.0014600675 -0.01811147 -0.0010192224 -0.00013838707 -0.058506917
-0.036229867 -0.00033817478 -0.0011498337 -0.034820657 0.0062448266 -0.010399732 1.9945954e-05 -0.016153036
-0.017934795 -0.098343715 -0.01874069 0.004704654 -0.050875895 -0.029286059 0.0018502088 -0.0014054092
-0.0015761579 6.7354895e-06 -0.04024765 -0.011819168 -0.01637105 0.012189918 -0.004737214 -0.0029678731
-0.02127269 -0.0004150998 0.06776381 -0.00016774127 -0.0015312367 -0.024658069 -0.00022596258 -0.0035043783
00000000: 3528 03bd 5cd9 013c b600 293d 5c08 8fbd
00000010: 2bf1 303a 3fd0 ebbb 8161 3f3c 6be6 1dbe
00000020: 44d7 823d 2167 fd39 28e1 983a bb19 133c
00000030: feff cb3b bd5f 40bd beac bdba 9a3a b039
00000040: 96d6 cfbc ffcc 7f3d 466a a93c 5277 37bc
00000050: c53a e63b a172 b43a a225 bf3a cbfa db3b
00000060: b9e6 b8bb 5ffa 01bc dd8b ea3b fa32 4fbc
00000070: 8616 83bd b5ef 813b f63c 33ba 12a5 8ebd
00000080: 87fe 163d b738 a13b a5b8 823d d760 df3a
00000090: 26c9 41bc 226e a6bd dd71 6ebd 91ce 6abc
000000a0: 5fe6 923b c214 213c c068 aebc 5aa5 4c3c
000000b0: 1c25 e2bb 3107 8abc 3241 8f3b 3f72 8bbb
000000c0: f306 9d3c 812a 86bc fc3c 20b8 4c74 d73b
000000d0: 5e30 e13c 63c3 443d 5d1d eebb 610c 163d
000000e0: 12f6 9d3b 4fcd c1ba dcc6 be3a 6eb2 f7ba
000000f0: 2afc aeb9 c2e9 dabb da1c 623b 0ea3 ca3c
00000100: 605b 3a3b 712a 203c 18da 8e3c a150 36bd
00000110: 1af7 02bc fe0c dfbb 80da 59bb 251d 803d
00000120: 2cc9 403a 4089 883d b542 ca3c 8b2a a9bb
00000130: eac7 7e3c 19f9 6bbb 71e2 a63d e1bb 543b
00000140: a62d 02bd 9ada 74bb d03c 353b 14d9 4f3b
00000150: 37d7 a63b de7b 0039 50a5 76bc d9ec 8eba
00000160: 0bae ef3c d0f7 b43b c58b 32bb 4cdb dcba
00000170: 91f8 70bb 9bb9 dd3b 24dc 7939 eb04 283d
00000180: 78a0 5c3c b035 b93a 588d 9e3b 2fa3 063d
00000190: 74e6 bfbb cffa 1d3d c6d7 3cbc 47ee 963c
000001a0: 7c81 16bc 7e57 a43d c1a7 77bc 7de6 8a39
000001b0: daa7 783d 8148 e5bc f930 0abc 1626 39bc
000001c0: 070f e2bb ba29 253b bd14 233d 24f4 82bc
000001d0: 7f5d cdbd 75e8 75bc ce03 11bc 2073 44bc
000001e0: adf6 08ba c839 e239 c6b3 ff3d d7fb 24bc
000001f0: 45ef cf3b 5b20 b53c 97fe 92ba 97cd 083c
00000200: 5f08 2dbc f4cb 71bb 6ad1 a03c c137 cebb
00000210: 0317 8d39 8dc9 75bc 542f 9abc 68c1 7abb
00000220: 76da 8fbc bcdd f9b8 2f88 85bb bc17 efba
00000230: 6557 13bc 3691 0fbc b20c 8339 955e b3bb
00000240: 1a4e 1abd 2239 cfbc 63ad 0cbb bc5b 2ebd
00000250: 4951 14bb 6b11 71bc f8ae f2bc fbae 2d3b
00000260: b5ea bf3b befd 4ebb 8023 4abb a3ed 59bc
00000270: d56c d2bb 408c 7bbb 81f8 e0bb 6e8b 903b
00000280: 6c0a e2bc fb23 9c3a 9958 fcbc bf02 bbba
00000290: 1b5b 8fba bf26 22bd 8270 88bc 268b 09bc
000002a0: 2607 8c3b 419d 02bc 2a3a 38bb 78b8 d0bc
000002b0: b2b0 abbb e90a 95bc a1da 9bbd 0370 14bd
000002c0: b978 e4bc c403 7e3b e62f 0239 ecd9 c9bb
000002d0: 8ade 0dbd febe 73bd be2c 1f3c 6cb6 eabc
000002e0: dd01 80b9 31e3 8139 46b7 dfba b5d5 16b8
000002f0: a412 9c39 369b bb3b 5ceb 6a3b 9be4 b6bc
00000300: 9413 cebc e067 c1bc a96a a8bc 8a07 6d3c
00000310: 5fc7 a3ba 0540 8cbb 0c6e 49b8 f2a3 9bbc
00000320: d69e c8ba e5cd 1cbd 6e59 45bd 1252 4dbb
00000330: ef0a e0bb dfec 7d3b bf63 efbc 8e8a 833b
00000340: fedb 9abc c599 a33b 0a7e 72bb cb72 09bc
00000350: 7f25 bebb e599 3aba a6d8 0fbd eba1 54ba
00000360: 98ff 81bd 0d64 ccbb 17b7 55bc bc5f bf3a
00000370: 815e 94bc 6e97 85ba ff1b 11b9 f3a4 6fbd
00000380: c565 14bd 0d4d b1b9 04b6 96ba 1ba0 0ebd
00000390: 67a1 cc3b a363 2abc 9c51 a737 5f53 84bc
000003a0: feeb 92bc 6e68 c9bd 1386 99bc 8029 9a3b
000003b0: 3e63 50bd 51e9 efbc b582 f23a b535 b8ba
000003c0: 1597 ceba 6a01 e236 b8da 24bd 2fa5 41bc
000003d0: 951c 86bc 39b8 473c a23a 9bbb a680 42bb
000003e0: 1044 aebc c1a1 d9b9 c1c7 8a3d b4e3 2fb9
000003f0: c7b3 c8ba b8ff c9bc 5ef0 6cb9 b6a9 65bb

exp_avg_sq f4 [3, 128]
0.013199623 0.013326404 0.09267413 0.03429079 0.0015664068 0.008287508 0.004585914 0.07916462
0.029316325 5.810868e-05 0.00064368796 0.007887637 0.0020616176 0.012903651 0.0014313266 0.008007242
0.02821948 0.024374025 0.04386667 0.031937856 0.0045153047 0.0027620397 0.029925868 0.009459109
0.005339566 0.007080933 0.021907922 0.011045106 0.027996218 0.0024471104 0.0025485414 0.049754195
0.03019082 0.0018118218 0.108567566 0.0059406376 0.015699089 0.049492933 0.011824828 0.0059967716
0.0050045 0.027583769 0.0015562109 0.035394147 0.0049387924 0.026595796 0.07016195 0.046599917
0.18233189 0.0037535715 0.0031762857 0.01379535 0.060892258 0.043714322 0.00273796 0.032692883
0.0043966556 0.000617526 0.004311457 0.0040859105 0.00064556405 0.0023920513 0.057200667 0.016902434
0.009160752 0.030061455 0.027850261 0.029213065 0.012609066 0.0045886314 0.0042873765 0.101420015
0.00096279563 0.06383604 0.020092152 0.006300979 0.013477141 0.0011222094 0.05774903 0.0024967855
0.05420046 0.00057746883 0.00083575986 0.012235315 0.0126652 0.00014106919 0.026195087 0.0019915937
0.09725569 0.00045074578 0.009289654 0.0014901584 0.017268175 0.0044739833 0.0002721784 0.041106332
0.0450265 0.00095104356 0.0012980052 0.037035573 0.00064365496 0.12778519 0.015648883 0.007647967
0.012949476 0.08904549 0.018916886 0.0021038456 0.07279462 0.06054906 0.0005718639 0.006733221
0.0037283655 0.00040562305 0.03980884 0.04903235 0.08743748 0.014961301 0.0109227635 0.0070833857
0.012907459 0.0035317494 0.47988918 0.0051170676 0.0023462195 0.05150855 0.0007194143 0.0061462903
0.019089874 0.001553639 0.042768642 0.047767356 0.0010683712 0.00798727 0.004293252 0.021366805
0.0061585894 8.614205e-05 0.00047948243 0.005356618 0.0014550425 0.006209632 9.569674e-05 0.0012907892
0.06513176 0.0051325215 0.0033748457 0.024175301 0.0034629174 0.0038984716 0.011367345 0.0057052113
0.0006168589 0.0006382118 0.0030580484 0.0030756716 0.011828676 0.0004151616 0.0037518044 0.02815548
0.016618663 0.0003036454 0.02380067 0.0044531375 0.0006485227 0.10569798 0.016488653 0.0013914624
0.0046399166 0.013349881 0.00045930227 0.026968228 0.0025354438 0.027433494 0.038816974 0.055079564
0.1711853 0.0029229198 0.0010041121 0.009967504 0.056588285 0.026529826 0.0012175812 0.016492506
0.0034723447 0.0005786374 0.0035455409 0.0005962103 6.3722684e-05 0.0024070549 0.011000798 0.0037136043
0.005089186 0.0060504805 0.012706231 0.03409178 0.004370249 0.0037416276 0.00046172904 0.093651
0.0004515727 0.036598895 0.018973462 0.00077729585 0.005488037 6.555877e-05 0.021024182 0.00077623926
0.03563184 0.0005652151 0.0004132032 0.003128501 0.0015826409 5.0836818e-05 0.021054799 0.0007207159
0.14235142 0.00039695285 0.0021430373 0.0011861154 0.013499251 0.0021853687 0.00019152949 0.035095733
0.022261325 0.0006583881 0.00021697364 0.033813905 0.0005417067 0.05088593 0.000497954 0.0045730597
0.007971813 0.07770148 0.005488458 0.0010915179 0.09674081 0.00684826 0.00031514888 0.00026804418
0.0002789898 1.2157835e-05 0.045574337 0.02824329 0.019272398 0.0038466598 0.0028493183 0.0008382422
0.011187408 0.003322394 0.45553088 0.00079309725 0.0024395739 0.045998473 7.042985e-05 0.0050490703
00000000: 3b43 583c fd56 5a3c efcb bd3d 8074 0c3d
00000010: e44f cd3a 54c8 073c 6f45 963b 0f21 a23d
00000020: ca28 f03c b8b9 7338 2bbd 283a 263b 013c
00000030: 341c 073b d669 533c 5a9b bb3a cf30 033c
00000040: 8a2c e73c 09ac c73c 8aad 333d 45d1 023d
00000050: 1ff5 933b 5603 353b 1827 f53c 61fa 1a3c
00000060: 87f7 ae3b 2c07 e83b 3e78 b33c 88f6 343c
00000070: 5358 e53c b35f 203b 6e05 273b 0ecb 4b3d
00000080: bd52 f73c a77a ed3a ac58 de3d aea9 c23b
00000090: 609b 803c 1ab9 4a3d ecbc 413c 9180 c43b
000000a0: cafc a33b 5bf7 e13c c6f9 cb3a 74f9 103d
000000b0: 98d5 a13b 6ddf d93c 12b1 8f3d 8edf 3e3d
000000c0: 36b5 3a3e 7bfe 753b 3b29 503b e405 623c
000000d0: 296a 793d ca0d 333d 596f 333b f9e8 053d
000000e0: d211 903b 78e1 213a 1f47 8d3b 1ae3 853b
000000f0: 123b 293a f6c3 1c3b 3f4b 6a3d f976 8a3c
00000100: fb16 163c 7143 f63c 3b26 e43c 3d50 ef3c
00000110: 4296 4e3c 3b5c 963b 1f7d 8c3b 4cb5 cf3d
00000120: 1f64 7c3a 78bc 823d 4c98 a43c 7178 ce3b
00000130: 3acf 5c3c 1917 933a 3f8a 6c3d 1ca1 233b
00000140: 4d01 5e3d 4761 173a e516 5b3a a176 483c
00000150: b381 4f3c f9eb 1339 1497 d63c 6685 023b
00000160: fe2d c73d 1352 ec39 a233 183c 6b51 c33a
00000170: fd75 8d3c 7e9a 923b 2bb3 8e39 1d5f 283d
00000180: b56d 383d 744f 793a d421 aa3a 9db2 173d
00000190: f4ba 283a 1fda 023e 1632 803c cc9b fa3b
000001a0: 0a2a 543c 7b5d b63d 96f7 9a3c ace0 093b
000001b0: 5915 953d 4b02 783d 23e9 153a 5aa2 dc3b
000001c0: 9857 743b cea9 d439 980e 233d 25d6 483d
000001d0: 6c12 b33d 3f20 753c 64f5 323c bf1b e83b
000001e0: cf79 533c ec74 673b 09b4 f53e 13ad a73b
000001f0: 08c3 193b a1fa 523d 1497 3c3a d266 c93b
00000200: 5e62 9c3c 79a3 cb3a 2c2e 2f3d b4a7 433d
00000210: 9708 8c3a 0add 023c 68ae 8c3b 7009 af3c
00000220: fecd c93b 29a7 b438 0b63 fb39 9286 af3b
00000230: 20b7 be3a 2b7a cb3b ccb0 c838 b32f a93a
00000240: cd63 853d b62e a83b 842c 5d3b 480b c63c
00000250: 1df2 623b 807d 7f3b 1a3e 3a3c c8f2 ba3b
00000260: b3b4 213a ab4d 273a 8a69 483b 3591 493b
00000270: 10cd 413c 0caa d939 d5e0 753b 52a6 e63c
00000280: dd23 883c 9932 9f39 9ff9 c23c a0eb 913b
00000290: 9f01 2a3a 2f78 d83d 3613 873c bb61 b63a
000002a0: 710a 983b 76b9 5a3c 82ce f039 79ec dc3c
000002b0: b029 263b 35bc e03c 8cfe 1e3d 1c9b 613d
000002c0: 334b 2f3e 758e 3f3b 699c 833a be4e 233c
000002d0: 1ec9 673d 1455 d93c 3f97 9f3a 4b1b 873c
000002e0: 4790 633b b3af 173a 4e5c 683b ff4a 1c3a
000002f0: dba2 8538 aebf 1d3b b13c 343c f15f 733b
00000300: 30c3 a63b 1c43 c63b cc2d 503c d3a3 0b3d
00000310: 4e34 8f3b 1836 753b 3914 f239 18cc bf3d
00000320: 10c1 ec39 b9e8 153d 3c6e 9b3c 71c3 4b3a
00000330: fed4 b33b 997c 8938 e83a ac3c 897c 4b3a
00000340: b1f2 113d f12a 143a 32a3 d839 8907 4d3b
00000350: 9e70 cf3a 9e39 5538 1d7b ac3c 6dee 3c3a
00000360: 92c4 113e 1c1e d039 3372 0c3b 6e77 9b3a
00000370: f62b 5d3c 6738 0f3b 4ed5 4839 8bc0 0f3d
00000380: 625d b63c ad97 2c3a 6b83 6339 7380 0a3d
00000390: 5201 0e3a c46d 503d 2189 023a 9bd9 953b
000003a0: 359c 023c f421 9f3d 86d8 b33b 4311 8f3a
000003b0: 0c20 c63d 5e67 e03b 913a a539 4888 8c39
000003c0: 6145 9239 81f9 4b37 28ac 3a3d 795e e73c
000003d0: 26e1 9d3c 3e18 7c3b a1bb 3a3b 7bbd 5b3a
000003e0: 644b 373c 86bc 593b 583b e93e dbe7 4f3a
000003f0: 42e1 1f3b e568 3c3d bdb3 9338 ac72 a53b

exp_avg f4 [3]
0.006001295 -0.0041802307 -0.0018210689
00000000: 83a6 c43b 51fa 88bb efb0 eeba

exp_avg_sq f4 [3]
0.00071362546 0.0005841774 0.0005681221
00000000: 9812 3b3a 7b23 193a 07ee 143a
