Assets/Training/results/MassiveTraining/PingPongAgent/PingPongAgent-1499944.pt (torch, 498871 bytes, 41 tensors)

network_body.observation_encoder.processors.0.normalizer.running_mean f4 [24]
000000 00 00 f2 b2 ff eb 3e 40 e1 37 7e 3f 4a 33 c5 bf
       -2.8172508e-08 2.983154 0.99304014 -1.5406277
000010 84 03 be 3f 35 81 13 3f 07 9b 96 be 9f 5b 81 b3
       1.4844823 0.5761903 -0.2941515 -6.0236964e-08
000020 60 94 ac 3c e7 8b d6 3f ff eb 3e 40 ca 63 31 bc
       0.021066844 1.6761445 2.983154 -0.010827014
000030 00 00 a4 31 b5 fe 3f 40 7a d9 80 3f 93 2f c9 bf
       4.773028e-09 2.999921 1.0066369 -1.5717643
000040 a8 16 bf 3f bc d3 13 3f 7b 3c a3 be d7 63 81 b3
       1.4928789 0.57744956 -0.3188208 -6.0251914e-08
000050 86 dc ed 3b 61 02 d5 3f b5 fe 3f 40 ca 75 0b 3b
       0.0072589545 1.6641351 2.999921 0.0021279925

network_body.observation_encoder.processors.0.normalizer.running_variance f4 [24]
000000 cd 01 34 4f 16 ad 92 47 9b 2b 2a 4d 29 8f 62 4e
       3.020017e+09 75098.17 1.7843653e+08 9.5025824e+08
000010 ed 02 e9 46 35 88 85 4d 4e b6 bc 4e 00 00 80 3f
       29825.463 2.8003702e+08 1.583032e+09 1.0
000020 51 b3 59 4e 5e 41 58 50 16 ad 92 47 23 d0 38 4f
       9.131019e+08 1.451265e+10 75098.17 3.1006482e+09
000030 5c 04 35 4f db fe 1f 41 82 e2 2a 4d 99 e3 66 4e
       3.0369618e+09 9.999721 1.791857e+08 9.684189e+08
000040 f5 85 2f 46 ab 1d 86 4d b9 d4 bd 4e 00 00 80 3f
       11233.489 2.812614e+08 1.5924174e+09 1.0
000050 a1 bf 5a 4e 41 7b 59 50 db fe 1f 41 c7 d8 39 4f
       9.174979e+08 1.4594934e+10 9.999721 3.1179917e+09

network_body.processors.0.normalizer.running_mean f4 [24]
000000 00 00 f2 b2 ff eb 3e 40 e1 37 7e 3f 4a 33 c5 bf
       -2.8172508e-08 2.983154 0.99304014 -1.5406277
000010 84 03 be 3f 35 81 13 3f 07 9b 96 be 9f 5b 81 b3
       1.4844823 0.5761903 -0.2941515 -6.0236964e-08
000020 60 94 ac 3c e7 8b d6 3f ff eb 3e 40 ca 63 31 bc
       0.021066844 1.6761445 2.983154 -0.010827014
000030 00 00 a4 31 b5 fe 3f 40 7a d9 80 3f 93 2f c9 bf
       4.773028e-09 2.999921 1.0066369 -1.5717643
000040 a8 16 bf 3f bc d3 13 3f 7b 3c a3 be d7 63 81 b3
       1.4928789 0.57744956 -0.3188208 -6.0251914e-08
000050 86 dc ed 3b 61 02 d5 3f b5 fe 3f 40 ca 75 0b 3b
       0.0072589545 1.6641351 2.999921 0.0021279925

network_body.processors.0.normalizer.running_variance f4 [24]
000000 cd 01 34 4f 16 ad 92 47 9b 2b 2a 4d 29 8f 62 4e
       3.020017e+09 75098.17 1.7843653e+08 9.5025824e+08
000010 ed 02 e9 46 35 88 85 4d 4e b6 bc 4e 00 00 80 3f
       29825.463 2.8003702e+08 1.583032e+09 1.0
000020 51 b3 59 4e 5e 41 58 50 16 ad 92 47 23 d0 38 4f
       9.131019e+08 1.451265e+10 75098.17 3.1006482e+09
000030 5c 04 35 4f db fe 1f 41 82 e2 2a 4d 99 e3 66 4e
       3.0369618e+09 9.999721 1.791857e+08 9.684189e+08
000040 f5 85 2f 46 ab 1d 86 4d b9 d4 bd 4e 00 00 80 3f
       11233.489 2.812614e+08 1.5924174e+09 1.0
000050 a1 bf 5a 4e 41 7b 59 50 db fe 1f 41 c7 d8 39 4f
       9.174979e+08 1.4594934e+10 9.999721 3.1179917e+09

network_body._body_endoder.seq_layers.0.weight f4 [128, 24]
000000 44 21 b7 3d e3 a1 e6 3c a3 37 8b be 6c 0b 91 bd
       0.08941892 0.028153365 -0.27190885 -0.07082257
000010 ac 8f fe bd 50 41 82 3e 90 08 10 be f7 21 f7 bd
       -0.12429747 0.25440454 -0.14065766 -0.12067025
000020 4d a1 ba 3e 05 63 1a 3e f2 e8 26 be e7 84 44 3e
       0.36451188 0.15076835 -0.16299799 0.19191323
000030 ef 82 e8 bd 41 61 36 be 6b f2 bd be 10 cd 87 bd
       -0.113530986 -0.17810537 -0.37099013 -0.066309094
000040 48 d1 81 be ff fb cf bd 89 67 f9 bd 4e e3 80 bd
       -0.2535498 -0.10155486 -0.12177951 -0.06293355
000050 d2 23 a5 3b 47 59 b6 bd 81 ea 39 3d e9 58 18 3e
       0.0050396705 -0.08903747 0.045389656 0.14877667
000060 9e 46 bf bd d8 2b 5b 3e 49 98 5f be b0 9b 24 be
       -0.09339641 0.21403444 -0.21835436 -0.16075015
000070 b3 fc 16 3e a1 4f 8d 3e ca de 4a 3e d4 4b 43 bd
       0.14744835 0.27599815 0.1981155 -0.047679737
000080 10 19 39 bd 1f d6 07 3e a5 7b 11 bd ca f0 2e 3e
       -0.045189917 0.13265274 -0.035518307 0.17084041
000090 d6 30 9f bc 88 e0 a1 3e bc dd ff bd ba 42 b2 bc
       -0.019432466 0.31616616 -0.12493464 -0.021760333
0000a0 31 2d 31 3d 2a 19 1a 3e 2b 62 be be dc 91 66 be
       0.04325599 0.15048662 -0.3718427 -0.22516578
0000b0 9e ff 71 3d e9 a5 46 be 7b 49 1c be 88 5f b9 bd
       0.059081666 -0.19399227 -0.15262406 -0.09051424
0000c0 85 23 e3 3d 30 f2 36 be a8 7c a5 be 1b 40 e0 3d
       0.11090759 -0.17865825 -0.32321668 0.10949727
0000d0 2c 9c bc 3d 0c c8 46 3e 32 00 1b 3f 5d 97 b2 be
       0.09209475 0.1941225 0.60547173 -0.34881106
0000e0 ad eb 21 bd 21 75 ee 3b de c6 94 3e 6b b7 16 3c
       -0.0395314 0.0072771464 0.29057974 0.009199004
0000f0 79 d4 87 bd 0e 13 e3 3c ca 14 38 be 17 84 4c 3d
       -0.06632323 0.027719047 -0.1797668 0.04993066
000100 36 0a 9d bd 80 f9 db 3d 3c c4 8a 3e 4d 77 29 be
       -0.07667963 0.10740948 0.2710284 -0.16549416
000110 ac 33 74 3e 85 29 7d be 02 59 6c 3e da 63 02 be
       0.23847836 -0.2472287 0.23080829 -0.12733403
000120 da 80 c2 3e e1 3d 9b bd f3 3b ab be 19 30 c5 3e
       0.3798893 -0.07580162 -0.33444175 0.38513258
000130 28 78 04 3d 32 59 93 3e 03 50 aa 3e 42 64 20 bd
       0.032341152 0.28778988 0.3326417 -0.039158113
000140 22 10 99 be cc c5 b0 3e b7 fb 17 3e a3 58 81 be
       -0.2989512 0.34525907 0.14842115 -0.25262937
000150 94 53 05 3f 40 35 8f 3e 97 e8 34 3e 4b 15 b4 3e
       0.52080655 0.27970314 0.17666851 0.35172495
000160 a9 73 7d be 95 67 0d bc 3c 5c cd 3b ba d5 24 3f
       -0.24751152 -0.008630653 0.0062670987 0.6438862
000170 0e 7b a5 3e 80 cb 2a be f0 a9 36 3e 21 5c ad 3e
       0.32320446 -0.16679192 0.17838264 0.3385935
000180 d6 af 72 3e 3c a5 9d 3e f8 ea a1 bd 00 55 c3 bd
       0.23699889 0.30790126 -0.07906145 -0.09537697
000190 68 f7 62 3e f5 6a 3c 3e f2 7b af 3c 81 ec 38 bd
       0.2216469 0.18400176 0.021421406 -0.045147423
0001a0 d8 51 b8 3e 0c db 96 3e 6e c7 08 be 60 f3 90 3e
       0.35999942 0.29463995 -0.13357326 0.2831068
0001b0 24 23 99 bd 07 b0 72 be 69 61 a2 3d 10 05 2a 3d
       -0.07477406 -0.23699962 0.07928736 0.041508734
0001c0 d1 eb c5 be 34 cd 11 3e d0 d9 73 3d 51 8b 00 3e
       -0.38656476 0.14238435 0.059533894 0.12553145
0001d0 a3 96 8e 3d 75 e5 9b bd 71 64 12 bd a9 6a dd 3d
       0.069623254 -0.07612125 -0.03574032 0.108113594
0001e0 62 86 33 3d 42 02 b0 3d 57 f7 81 be 52 7a d6 bc
       0.04382933 0.08594181 -0.25384018 -0.026181374
0001f0 c8 3b 19 be 53 31 0c 3e de 39 f5 3d af 8f 46 be
       -0.14964211 0.1369069 0.11973928 -0.19390748
000200 1b 2e 97 3e 06 b7 7b 3e 2a 3b 66 3d 0e 26 94 3c
       0.29527363 0.24581537 0.056208767 0.018084552
000210 69 c6 ab 3e 7c d1 9e be e8 24 a6 3b 8b a9 56 bd
       0.33549812 -0.310192 0.0050703175 -0.052407783
000220 c6 07 01 be 7d d8 8a 3e 42 41 0e be 8a 96 73 3d
       -0.12600622 0.27118292 -0.13892081 0.059469737
000230 b3 5a 45 3e 05 cd c7 ba 23 ef 5f 3d 3e 1c 8e bd
       0.1927288 -0.0015243596 0.054671418 -0.069389805
000240 8b 2e 50 3e 44 79 a8 be 17 bb 8e 3e 27 1f 51 bd
       0.20330255 -0.32905018 0.27877113 -0.0510551
000250 24 1a 99 3e 3b 38 1f 3e eb ea 85 3c 7a de 18 bf
       0.29902756 0.15548794 0.01634737 -0.5971447
000260 3d c1 87 3c 36 09 63 bd 8c 1f f9 bc b9 36 bc 3d
       0.016571635 -0.055428706 -0.03041055 0.09190125
000270 26 f3 f1 be 75 f4 8c bd 64 45 dc bd ca 66 d5 3d
       -0.4725582 -0.06882564 -0.10755423 0.10419996
000280 3d dc 78 3e 6e ae 21 3f 45 d3 10 be 63 df c5 3e
       0.24302764 0.63156784 -0.14143093 0.38646993
000290 11 d0 4b 3e d0 1d 8d 3d a8 94 59 be a7 ce 77 bd
       0.1990359 0.06890452 -0.21248114 -0.060499813
0002a0 02 de ec be f1 f5 99 be 9b aa a8 3e 88 eb 77 be
       -0.4626313 -0.3007045 0.32942662 -0.24210942
0002b0 36 2f f2 3d 6d 1a b7 3e 31 e1 25 bd 9a 7a b2 3c
       0.11825411 0.3576235 -0.040497962 0.021786977
0002c0 14 c3 0e bd 90 64 99 bc 41 e4 1a 3e e2 47 8f bd
       -0.03485401 -0.01872471 0.15126134 -0.069961324
0002d0 4b c6 1b 3d 05 90 96 be c2 32 ba bd 48 6f 71 be
       0.038030904 -0.29406753 -0.090917125 -0.23577607
0002e0 d3 a4 05 bd 98 7e 27 be 33 8c 51 3e 65 8a 1c be
       -0.03262789 -0.16356885 0.20463638 -0.15287168
0002f0 62 b4 7f be 0a a4 30 bd d9 69 10 be 60 90 03 bd
       -0.24971154 -0.04312519 -0.14102878 -0.03212011
000300 99 fc 45 3e 93 c5 4f 3e 63 92 d7 bd 26 d1 88 3e
       0.1933464 0.20290212 -0.10525968 0.26722068
000310 fe 3d 08 bf d0 c0 ae be ff c1 db bd 24 c2 97 bd
       -0.5321959 -0.3413148 -0.10730361 -0.07410076
000320 ed 99 91 3e 0d 2f 18 bd 13 8f 6a 3e 02 1d 15 be
       0.2843775 -0.037154246 0.22906141 -0.14561847
000330 e9 d9 33 3c 66 f3 03 be 09 34 f9 be a1 7d d0 be
       0.010977247 -0.12885818 -0.48672512 -0.40720847
000340 1c 85 48 be 32 48 23 3e cf 4b 82 3e 23 b6 8a be
       -0.19582027 0.15945509 0.25448462 -0.27092084
000350 4d fc a9 bc 53 21 d4 3e 2d 9c a0 be 59 5c 10 bd
       -0.02075019 0.41431674 -0.31369153 -0.03524432
000360 f8 36 af 3c 64 7c 7c 3e dc ef 7d 3d a6 fc f2 bd
       0.021388516 0.24656826 0.061996326 -0.11864595
000370 13 b4 85 bd fd 62 0b bd 95 d7 92 be 46 5e 47 be
       -0.06528487 -0.03402995 -0.286801 -0.19469556
000380 a3 12 99 3e 54 8d 82 3d 58 a7 2e be 6e b7 52 3d
       0.2989703 0.063746125 -0.17056024 0.051444463
000390 15 77 7c 3e 7d 0e 01 be 8e 0e a7 3e c9 f3 3c 3e
       0.24654801 -0.12603183 0.32628292 0.18452372
0003a0 0c 1f ae be 90 96 1b bd 83 98 bb bd e2 15 0e bd
       -0.34008062 -0.037985384 -0.09159949 -0.034688838
0003b0 7c 46 ae be e0 74 8a be 3e 12 d7 3d 78 e6 a8 bd
       -0.3403815 -0.27042294 0.10501526 -0.082470834
0003c0 35 e0 80 3e f2 d3 01 be 92 aa e1 3d 28 26 09 3f
       0.25171056 -0.12678507 0.11018862 0.53573847
0003d0 db 4d b8 3e e4 51 1d be 8b d3 fb 3e d4 8d 8d 3c
       0.359969 -0.1536327 0.49184832 0.017279543
0003e0 78 dd df 3d 50 75 43 3e 6f cd 5e 3d c1 74 90 be
       0.10930914 0.1908772 0.054395135 -0.28214076
0003f0 da 0c e7 3e d4 23 82 be ca 44 9e be 2d 94 7f bd
       0.45126992 -0.2541796 -0.30911857 -0.06239717

network_body._body_endoder.seq_layers.0.bias f4 [128]
000000 19 78 03 3d 42 e0 96 3c bd 76 5c 3d af 3f 36 3d
       0.032096956 0.018417481 0.053824175 0.044494327
000010 81 67 26 be 92 fd a2 bd 4e 29 d5 bc 76 b3 ca bd
       -0.16250421 -0.07958521 -0.026020672 -0.09897511
000020 00 64 43 bc 74 0c cc bd b3 f1 e3 3d d1 97 02 3c
       -0.011925697 -0.09963313 0.11130085 0.007970766
000030 c5 54 f7 bc a5 87 5e bd 00 5a 51 3d 26 73 df 3c
       -0.030191788 -0.05432858 0.05111122 0.027276587
000040 1c 04 f4 bd 44 78 d2 3d 55 db 6c 3d c7 23 b8 3d
       -0.11914846 0.10276845 0.05782636 0.08991199
000050 4e 6e 2a 3d 7e 39 7a bc 52 d3 18 3e 5c e7 1d be
       0.0416091 -0.015272496 0.14924362 -0.15420288
000060 ea 2c c9 bd 04 06 a8 3d 91 6d 67 3d 98 e8 6c 3c
       -0.0982302 0.082042724 0.056500975 0.014459752
000070 72 8d ba bc 71 ea ed bb 90 ea f5 3b eb 2c 77 3d
       -0.022772525 -0.0072606136 0.0075047687 0.06034557
000080 a7 2a 00 3d 64 0c 38 bc fa 19 b4 3d 02 9a a7 bd
       0.031290676 -0.011233423 0.08794017 -0.081836715
000090 b4 eb 3d 3c 53 8a fe bc c1 3b ee bd 3d 40 df bc
       0.011591841 -0.031071818 -0.11632491 -0.02725231
0000a0 43 06 1f 3d 87 b3 37 bd b9 eb df 3d 8f 4a 63 3d
       0.03882433 -0.044848945 0.109336324 0.055491026
0000b0 36 a4 44 3e 67 fb 62 3d 80 fc 2f 3d 9f d3 7a bd
       0.19203267 0.055415537 0.042965412 -0.061236974
0000c0 1a 84 1a bd e3 24 66 3d 5b 90 a7 3d 84 c6 c5 3c
       -0.037723638 0.05618752 0.081818305 0.024142511
0000d0 10 ee 7c 3d f9 84 36 bc 84 ea f8 bc b3 9c e1 bd
       0.06175047 -0.011140102 -0.030385263 -0.11016216
0000e0 b1 bd 58 3d 47 ef 61 bd ba 0f 07 be 8c 99 f0 3b
       0.05291528 -0.055159833 -0.13189593 0.007342523
0000f0 d3 35 c2 3d 06 44 9b bd 13 f3 8f bd 2d 28 91 3d
       0.094829224 -0.07581334 -0.070287846 0.07087741
000100 4c 34 89 bc a2 49 3e 3d 32 93 c3 3d 3d 40 52 3d
       -0.01674857 0.04645694 0.0954956 0.051330794
000110 69 33 3d 3c 26 47 0f be ce 91 ec 3c c8 f6 be bd
       0.011547902 -0.13991985 0.028878119 -0.093244135
000120 f5 69 16 3d d1 86 24 3b 3f 7c 13 3d 0f c4 d3 3c
       0.036722142 0.002510477 0.036007162 0.025850324
000130 6e 6f 3a 3d f8 2a 41 be e6 eb 3f 3b e3 c1 11 be
       0.045516424 -0.18864048 0.0029284894 -0.14234118
000140 4a e1 a5 bc fa c7 99 bc 49 15 d8 3a 44 19 e8 3d
       -0.020249028 -0.018772114 0.0016485836 0.11332944
000150 fd 70 af bd 03 f5 5c 3d 82 64 fd 3c f1 00 de 3c
       -0.08566473 0.0539446 0.030931715 0.027100058
000160 66 8d 8c 3d f8 6a 92 3d 15 1c 4a 3c 81 ef 1e 3d
       0.06862907 0.07149309 0.012335797 0.038802627
000170 dd 1e 9d 3d 83 8f d3 bd 5b 61 92 3d e5 87 b6 bd
       0.07671902 -0.10330107 0.07147475 -0.089126386
000180 c5 39 a2 bd 4e fa 12 3c ba 73 45 3d 17 c2 17 3d
       -0.07921175 0.00897081 0.04820607 0.037050333
000190 59 2f 17 3b 40 62 2a bd b7 01 c3 bd 9e a1 48 3d
       0.0023068993 -0.041597605 -0.095218115 0.048982255
0001a0 f6 75 e4 bc f5 b0 43 bc 24 1c b4 3c ad 7d 8e 3c
       -0.02788828 -0.011944045 0.021986075 0.017393911
0001b0 c5 c3 7e bc e8 16 fa 3d d9 fd 14 bd 6a 26 d7 bd
       -0.015549605 0.122114 -0.0363749 -0.10505374
0001c0 34 c4 e0 bd e9 d7 bc 3d af 02 94 bd ca 12 2c be
       -0.10974923 0.09220869 -0.07227074 -0.16804042
0001d0 2f d9 af 3c a3 14 5d bd 67 86 88 3d b9 b1 83 bd
       0.021465866 -0.05397476 0.0666626 -0.06430382
0001e0 c5 23 c4 bc 54 07 0e 3c 89 9d d9 3d b4 31 cb 3c
       -0.023942837 0.008668739 0.106257506 0.024803974
0001f0 da 79 2a 3c 25 38 47 3d a6 f1 b6 3c 53 85 06 3d
       0.010405028 0.048637528 0.022332024 0.03284199

network_body._body_endoder.seq_layers.2.weight f4 [128, 128]
000000 63 99 a4 3b b0 87 47 bd 5a 94 9b bd 92 67 95 3c
       0.005023168 -0.048713386 -0.07596655 0.018237863
000010 11 c4 01 3e 66 bf 73 bd 73 f0 43 bd 8f 42 cf 3d
       0.1267245 -0.059508704 -0.047836732 0.10120117
000020 96 5f 25 3a 87 0d 45 3c cd 45 c0 3c 02 cd 33 3e
       0.0006308494 0.012027151 0.023470784 0.17558673
000030 ca 1a 17 bd 9e fe ce bd 6f 40 6d 3c 2f 21 cb 3c
       -0.036890782 -0.10107158 0.014480694 0.024796097
000040 9e 92 0a bd 10 44 3d bd 3b 01 1c bd f7 9d 35 3e
       -0.03383123 -0.046207488 -0.03808711 0.1773604
000050 50 83 dc 3d 40 23 33 bd c4 c7 1d bd 96 27 37 3b
       0.10767233 -0.04373479 -0.03852059 0.002794718
000060 95 eb 92 bd e2 b7 1f 3e 7a 86 da 3c 3f 3b e6 3c
       -0.0717384 0.1559749 0.026675452 0.028104423
000070 13 29 f5 3d db b4 08 3e e8 d0 96 bc 7d 7e f6 bd
       0.11970725 0.13350241 -0.018410161 -0.120358445
000080 95 b1 12 bd 71 1f e2 3d 29 5d 00 3d 4b d2 cb bd
       -0.035813887 0.11041153 0.031338844 -0.099522196
000090 2a 55 7c bd c2 9a 2f bd c4 2b 83 3d 06 5f 86 3c
       -0.061604656 -0.042872198 0.06404832 0.016402733
0000a0 a3 13 9f bd c4 36 be 3d c3 11 75 bd ba c3 15 bd
       -0.07767417 0.092877895 -0.059831392 -0.036563613
0000b0 3d 5b 03 3e e8 d3 bd bc 5a d8 98 ba 26 a1 30 bd
       0.12827773 -0.023172334 -0.0011661157 -0.043122433
0000c0 49 1d 12 3e b9 b3 be bd 1b c9 a8 bd ff 9a 01 be
       0.14268984 -0.09311623 -0.08241483 -0.12656783
0000d0 50 42 0d 3e 5d b6 45 bc 91 1d f8 3d 74 43 0d 3d
       0.13794827 -0.012067405 0.12115014 0.034488156
0000e0 a2 b2 37 3d 59 81 01 3d 02 63 b2 3d 9e 29 fc 3b
       0.044848092 0.031617496 0.087102905 0.007695391
0000f0 b3 a7 3c 3e 97 1f bb 3d 2e 5d 32 3e e0 c5 13 be
       0.18423347 0.09136885 0.17418358 -0.14430952
000100 0d 56 f0 bd ad 62 4f bc 1a a8 d6 3d 86 bb 42 ba
       -0.11735163 -0.0126578035 0.104812816 -0.0007428456
000110 7f 71 90 bd 3e 48 c8 3d 24 a0 8f 3b 7a 82 ec bd
       -0.07052898 0.09779404 0.004383104 -0.11548324
000120 2b 7a 64 3d c2 fb e3 bd 97 66 33 be 66 d2 af bd
       0.05578057 -0.11132003 -0.17519604 -0.08585052
000130 34 f5 28 be a4 d7 ed 3b b1 d2 34 be 46 01 ab 3d
       -0.16499788 0.0072583724 -0.17658497 0.08349852
000140 a6 fd 18 bd b0 d4 87 bc ed 03 4a be 8a d0 83 bd
       -0.037351273 -0.01658091 -0.1972806 -0.0643626
000150 71 ae c4 3c 3a e8 8e bd 73 48 39 3d 94 d9 16 3e
       0.024008961 -0.069778875 0.04523511 0.14731437
000160 3a 8b df bd 30 3c 98 bd be 10 86 3d 09 38 00 be
       -0.10915227 -0.07433355 0.06546162 -0.12521376
000170 26 f7 f0 bd 1f cc ea 3d 00 97 66 be ff 59 0f 3e
       -0.1176589 0.11464714 -0.2251854 0.13999175
000180 9c 23 08 be 4f 2a 20 3c 4b 4f dd bd cb ce 9f 3d
       -0.13294834 0.009775712 -0.108061396 0.078031145
000190 aa f4 44 3d 62 6c 98 bd 81 4c c7 3d 09 43 e8 3c
       0.048084892 -0.074425474 0.09731389 0.028352277
0001a0 a5 5a b4 bd 0b 6d a5 3d 9d 91 f1 39 39 bf 29 be
       -0.088063516 0.08077439 0.00046075592 -0.16576852
0001b0 e6 58 46 3d ef d5 ab 3c 72 2d 05 bd a4 c0 0d 3e
       0.048424624 0.020976035 -0.032514043 0.13843018
0001c0 47 e7 87 bd 7c 25 27 be b5 7c 32 3e 91 d1 f2 bc
       -0.066359095 -0.16322893 0.17430384 -0.029640945
0001d0 28 ec 02 bd 6b 52 dc 3b 42 ca 59 bd ac 68 83 be
       -0.031963497 0.006723692 -0.053171404 -0.25665796
0001e0 cc d0 36 3e 51 dc c9 3d 6f 9a 5c bd e3 0c 14 3d
       0.17853087 0.09856475 -0.053858217 0.036145102
0001f0 09 bb 38 bc c4 ed bb bd ef a8 0c bd b4 cb f5 bc
       -0.011275061 -0.091762096 -0.034340795 -0.03000436
000200 72 d4 b8 bd 1e 4b 1c be fe 6e 95 3d 12 81 9d bd
       -0.09024896 -0.1526303 0.07296561 -0.07690634
000210 3e 06 63 bd ce 17 aa bd 42 c8 02 bd 1a d4 1c 3e
       -0.055425875 -0.08305322 -0.031929262 0.15315285
000220 8e 41 6a bd 29 cf 05 3e 46 43 58 3d c6 50 85 bd
       -0.057191424 0.13067307 0.052798532 -0.06509547
000230 26 69 97 bd 20 3c fe bd 24 64 0b be 91 f1 13 3e
       -0.07393102 -0.12413812 -0.1361242 0.14447619
000240 d9 07 11 3d 04 70 79 bd fa 42 2a bd d7 bc 10 3d
       0.035407875 -0.060897842 -0.04156778 0.03533634
000250 e0 dd 07 be e1 7e e9 bd fb ac d1 3d 8c 45 4f 3d
       -0.13268232 -0.11401153 0.102380715 0.050603434
000260 d9 67 a5 3d 07 39 01 3e 3f 03 59 bc 2c 44 b5 bb
       0.08076448 0.1261941 -0.013245403 -0.0055318084
000270 47 e5 1f 3e d7 b1 c1 3d 4c 5d 3a bd 18 b5 2b bd
       0.15614806 0.094577484 -0.04549913 -0.04192075
000280 e8 15 a3 3b ed ec 09 3d 60 ff 01 bd 78 72 17 be
       0.0049769767 0.033673216 -0.031737685 -0.1478976
000290 85 46 09 be 47 e2 0d be a7 d9 86 bd 94 2d 03 3c
       -0.13405807 -0.13855849 -0.06584483 0.008006472
0002a0 68 2c 06 be 2d 5b 84 be 66 28 87 3c 77 62 98 3c
       -0.13102877 -0.25850812 0.016498756 0.01860164
0002b0 07 15 cf 3c 96 24 ad bd b1 1a ef 3d e4 51 59 3d
       0.025278581 -0.08454244 0.11675013 0.053056613
0002c0 0d 51 87 bc 9c 53 32 be 4d f3 4e be d5 23 a7 bd
       -0.01651814 -0.17414707 -0.2021 -0.08161131
0002d0 e7 91 ae 3b 15 b2 75 bc c0 83 7b 3e 40 6c e1 bb
       0.0053274515 -0.014996071 0.24561977 -0.0068793595
0002e0 9d 4c a1 bd c7 0e 00 3e 25 f2 02 3e 19 91 08 3e
       -0.07875941 0.12505637 0.12787683 0.133366
0002f0 84 0b 2d be ad 12 49 3c 40 c9 b8 3d f1 bc 6b bd
       -0.16898924 0.012272519 0.090227604 -0.057553235
000300 44 07 81 bd f4 d6 0a 3e 66 ba af bd 36 fc 9a bd
       -0.06300214 0.1355856 -0.085804746 -0.07567637
000310 ad 1c 02 be 66 48 fb 3c a4 75 9c bd 45 18 70 bc
       -0.12706251 0.03067417 -0.07639626 -0.014654224
000320 36 e2 a2 3c bb 8e 02 3e 0a 59 39 bd 5b ee 00 3c
       0.019883256 0.1274976 -0.04525093 0.007869328
000330 a4 49 98 bd 04 3f 85 3d bb 9c 40 bc 19 d7 90 3d
       -0.07435921 0.0650616 -0.011756117 0.070722766
000340 cf 66 5d be 71 81 ee 3c e6 04 97 bc f7 40 b3 bd
       -0.2162125 0.029114457 -0.018434953 -0.087526254
000350 3f 4b 98 bd 16 86 48 3d 67 cf 8b bc 01 a3 20 bd
       -0.07436227 0.048956 -0.01706667 -0.039217953
000360 85 e4 ee bd f3 79 a4 bc 50 03 ed 3c 42 bf 9a bd
       -0.116646804 -0.020077681 0.028932244 -0.07556011
000370 c9 0b f2 3b 9a 62 69 bc ff 0c 3b be ce 9b c9 bd
       0.007386659 -0.0142447 -0.18266676 -0.098441705
000380 96 54 a2 bd ba b2 7a 3d f5 c1 11 be 80 a9 97 3e
       -0.0792629 0.061205603 -0.14234145 0.29621506
000390 ff 39 13 bd 9d 65 16 3e 49 37 a2 bc b7 d7 6c 3d
       -0.03594398 0.146872 -0.019801753 0.05782291
0003a0 d2 61 ab 3d 67 38 ad bd 45 65 9b bc 98 77 bb bd
       0.08368267 -0.084580235 -0.018969188 -0.0915367
0003b0 11 d1 40 3c 4a f9 15 bd c0 68 bd 3d 0d fe 1e be
       0.011768595 -0.036614694 0.09248495 -0.155266
0003c0 27 6e c2 3d f3 a1 5e be ac ad ce bc 9f 22 ae 3d
       0.09493666 -0.21741466 -0.025229298 0.08502697
0003d0 3e 94 88 3a 81 7b 04 bd 62 55 a0 3b 20 79 36 bd
       0.0010420156 -0.032344345 0.004892991 -0.044549108
0003e0 55 66 eb 3d 08 aa b7 bc 40 31 d3 bd 33 77 8f bd
       0.11494128 -0.022419944 -0.10312128 -0.07005157
0003f0 44 33 e8 bb 41 d4 43 3b 66 c7 a3 bd 38 81 0d be
       -0.0070861895 0.0029881152 -0.079970166 -0.13818824

network_body._body_endoder.seq_layers.2.bias f4 [128]
000000 0a 64 9e bd 67 7b b4 bd 24 f9 19 3e 84 31 8f 3c
       -0.07733925 -0.088126 0.15036446 0.017479666
000010 c0 85 88 3d f7 91 be bd 36 e6 d1 bb 14 c5 81 3d
       0.06666136 -0.09305184 -0.006405617 0.06336418
000020 3f 1b 10 3e ee 75 a9 3c 2a 79 b2 bd c1 04 77 3d
       0.14072894 0.020686116 -0.087145165 0.060307268
000030 90 7f fd bc be c9 f7 3d 7c 66 2a bd 7d dc e1 3c
       -0.030944616 0.12099026 -0.041601643 0.027570957
000040 93 77 e5 3d 0c c2 92 3d bd 35 02 3d bc db 15 3d
       0.112044476 0.07165918 0.03178953 0.03658651
000050 5d ab 9f 3d 29 15 d9 3d b5 97 15 3e 1e 17 ca bc
       0.07796357 0.10599739 0.14608653 -0.024669226
000060 f2 85 92 3c d9 ac f2 bd fb 78 01 3e 81 11 66 3c
       0.017886136 -0.11849374 0.12643807 0.014042259
000070 24 3c 41 3d bf 71 55 bd a9 ac d3 3d b8 09 85 3c
       0.047176495 -0.05211043 0.10335667 0.016239986
000080 51 65 87 3d 73 ea f5 3c ed a4 71 3d 8c 0e 39 3c
       0.066111214 0.03001902 0.058995176 0.011294972
000090 36 af 9b 3d 45 b6 dc bc f9 ae 0b bd 37 8d 90 3d
       0.07601778 -0.026942382 -0.034102414 0.070581846
0000a0 3b 2f c9 bd be 54 7f bd 8c a7 d1 3d db 5b e1 bc
       -0.098234616 -0.062336676 0.10237035 -0.02750962
0000b0 f6 05 af 3d 7a 62 84 bb ae 84 09 bc 02 35 0e 3e
       0.08546059 -0.0040400596 -0.00839345 0.13887408
0000c0 04 db 6a bc 08 f9 9e 3d e8 4b 15 bc 75 19 b9 3d
       -0.014334444 0.07762343 -0.009112336 0.09038059
0000d0 7e 65 b3 bd f8 18 40 3b b5 2e 5c 3d 74 27 cd 3c
       -0.087595925 0.0029311758 0.05375548 0.025043227
0000e0 70 54 1f bd 84 80 82 bd 51 49 52 bd 9a 4c 40 bd
       -0.038898885 -0.06372169 -0.05133945 -0.046948053
0000f0 87 93 1d 3d f1 37 e7 bb cc 08 d1 bd 02 33 fc 3d
       0.03847077 -0.0070562293 -0.10206756 0.123144165
000100 81 33 ba 3d 3c 9d f8 3c c4 33 dd 3d db 01 97 bc
       0.09091855 0.030348413 0.10800889 -0.018433502
000110 1e 5e 83 bd ee 0f b3 3c f1 27 70 bc c2 03 96 3d
       -0.06414436 0.021858182 -0.01465796 0.073249355
000120 48 3a bd 3c b8 1f 80 bd 3b 2f da 3d 29 1c 95 bb
       0.02309908 -0.0625605 0.1065354 -0.004550476
000130 08 d9 a0 3d 5b 2e 71 3d ae 59 c4 3c 7c 4f 7b 3d
       0.078538954 0.0588821 0.023968544 0.0613551
000140 73 4f 4d bb fd f4 ca 3d 3c d2 0f 3d e0 a6 0f bd
       -0.0031327873 0.09910009 0.035112604 -0.035071254
000150 b4 1f a7 ba af f2 fc bc 37 7a d8 bd cd 51 26 bc
       -0.0012750537 -0.03087744 -0.10570186 -0.010151339
000160 c2 64 d5 3d fc 26 7f 3d fb 02 a0 bd 64 08 51 3b
       0.10419609 0.062293038 -0.078130685 0.003189587
000170 f1 52 06 3c a4 7f b1 3d d4 03 6d 3d 37 e3 19 3e
       0.008198486 0.08666924 0.05786498 0.15028082
000180 34 3e 05 3c 45 93 4a 3d cd 83 88 bc bb f7 f8 3d
       0.008132506 0.049456853 -0.01666441 0.12156626
000190 65 7c 9c bd ad 06 83 3b 79 8e 63 bd 0a e1 4c 3c
       -0.07640914 0.0039985985 -0.055555794 0.012504825
0001a0 d2 6d 62 3d e4 7a 34 bd 8e 00 25 3d 92 11 a3 3c
       0.055280514 -0.04406251 0.040283732 0.01990584
0001b0 b5 36 9a 3b 18 91 5f 3d cb d9 12 3e 95 2f f9 bd
       0.0047062286 0.05458173 0.14340894 -0.12167279
0001c0 a2 3a 43 3c 44 53 c5 bd d4 87 a9 3c 86 05 5c bd
       0.011915835 -0.09635022 0.02069465 -0.053716205
0001d0 f5 51 f5 ba c2 03 76 3b ed f5 f6 3d f4 64 86 bd
       -0.0018716442 0.003753886 0.12058625 -0.06562224
0001e0 ba 22 81 3c e8 38 02 3e a7 b1 94 3c 54 be 2a bb
       0.01576363 0.1271702 0.018151117 -0.0026053386
0001f0 60 88 72 bd 79 6c a9 bc 87 82 93 3d 63 1b 23 bd
       -0.05921209 -0.020681607 0.072026305 -0.03982104

action_model._discrete_distribution.branches.0.weight f4 [3, 128]
000000 a3 4e 65 bd 47 89 97 bc 98 9d 09 3d 65 96 44 3c
       -0.055983197 -0.018498076 0.03359756 0.0119987475
000010 c6 ce 2d 3d 53 d1 42 bd f2 ca d4 3c 29 3d bb 3c
       0.042433523 -0.04756291 0.025975678 0.022856312
000020 da 18 42 3d 9d f1 09 bd f7 e1 1f bd 60 b1 e2 3b
       0.04738698 -0.033677686 -0.039033856 0.0069181174
000030 06 c9 b6 3c f2 c4 a7 3c 05 c0 f6 bc 33 ff 2f 3c
       0.022312652 0.020479653 -0.030120859 0.010741997
000040 5d 02 1b 3d 2c fc 36 3c de 39 c0 3b b2 76 95 3c
       0.03784405 0.011168521 0.0058662733 0.018245075
000050 28 26 ff 3c 13 6f 44 bd 3b 77 4d 3d 15 8d 27 3c
       0.031146124 -0.04795749 0.050162535 0.010226508
000060 46 de 05 3d 43 bb e9 ba 29 3f 5f 3d ed fb 52 3d
       0.03268268 -0.0017832298 0.054503594 0.051509786
000070 24 6e ae 3c e7 61 81 bb d4 8a e9 3b 1f 0e 08 3d
       0.021292754 -0.0039484384 0.0071271453 0.033216592
000080 39 dc 84 3d 41 94 04 3c 5c 30 47 bc d7 ae 2e 3d
       0.06487317 0.008091987 -0.012157526 0.04264721
000090 4b 08 f0 3b c6 82 f4 3c a4 0d 97 bc cd eb 9e 3d
       0.0073252073 0.029847514 -0.018439122 0.07759819
0000a0 3e 51 d4 bc 2f f7 b6 bc 06 7f b4 3c 78 2d 11 3d
       -0.025917646 -0.022334663 0.022033226 0.035443753
0000b0 1b c5 05 3c d5 7a 83 3c cd 6f 9f 3d af c2 12 3c
       0.008164669 0.016049782 0.07784996 0.008957549
0000c0 9b 30 e1 bb ac 58 46 3b b1 cb 20 bc f5 50 b4 3c
       -0.0068722493 0.0030265255 -0.009814189 0.02201126
0000d0 3d 1a 3d bd 40 aa 7e 3d f5 a6 53 3d 20 fa 9e 3c
       -0.0461676 0.06217408 0.051672895 0.019406378
0000e0 87 38 68 bd 94 9d 76 bc 47 79 6b bd 66 01 7c bc
       -0.056694534 -0.015052218 -0.057488706 -0.015381193
0000f0 de 80 94 3d a6 c9 02 3d 9b 4c 40 bc 92 6e df 3c
       0.07251142 0.03193059 -0.011737014 0.027274404
000100 d6 57 11 3d 62 f1 97 bd 21 05 64 3d d3 02 08 bc
       0.035484158 -0.07419087 0.055668954 -0.008301455
000110 40 7a 85 bd 22 45 18 3d e2 17 3d 3d fe 66 88 bb
       -0.06517458 0.037175305 0.046165355 -0.0041626683
000120 98 8f 82 3d 0c 63 00 bd 0a 91 fe 3a a3 c9 a0 3c
       0.063750446 -0.03134446 0.0019421887 0.019627398
000130 e4 cc 52 3d 43 3a 27 3c e2 d8 89 3c cf fd 4b 3d
       0.05146493 0.010206762 0.01682705 0.049802598
000140 66 be 9a 3c de 4b 26 3b 74 02 8c 3c bc 84 1b 3d
       0.018889617 0.002537481 0.017091013 0.037968382
000150 1e 92 1e 3d e8 05 3f 3c a0 f0 2b bd bf 02 f9 bc
       0.038713567 0.011659123 -0.041977525 -0.030396817
000160 94 ec e8 3c 38 3e 2e 3d 64 61 0f bd 81 1a 83 bb
       0.028433122 0.042539805 -0.03500499 -0.0040009622
000170 4a 87 26 3d 9a a5 ae 3c 47 f5 9f bb 94 db b2 3c
       0.040656365 0.0213192 -0.0048815343 0.021833219
000180 e9 09 c7 3a 15 0b 09 3d 0e 06 1a bc 5b 0a a3 3c
       0.0015185449 0.033457834 -0.009400858 0.019902399
000190 3c 1d 3b bd 5d 5d 83 3d 66 4d 1c bc 24 90 fb bb
       -0.045682177 0.06414292 -0.009539938 -0.007677095
0001a0 cd 8f 7e 3d b2 0a be bb 03 8a 86 3c ca 44 c9 bb
       0.062148858 -0.005799615 0.016423231 -0.0061422335
0001b0 23 f9 88 3c 79 a6 05 3d 48 e9 17 3d 4b cb 4b bd
       0.01672036 0.032629464 0.03708771 -0.049754422
0001c0 df 8f b6 bc d9 59 a5 bc fe bc c8 3c 1f c2 41 bd
       -0.0222854 -0.020184444 0.024504181 -0.04730427
0001d0 61 0a 52 bc e1 2b 94 3d 3b 33 6e 3d 8e c6 92 bd
       -0.012819857 0.07234932 0.058154326 -0.071667776
0001e0 13 5f b7 3c 9c 8e 65 3d fd 37 48 3b 2f a1 82 3c
       0.022384202 0.056044206 0.003055095 0.015945999
0001f0 81 f9 25 bd ef 90 57 bd 74 a8 b0 ba 02 ea cf 3b
       -0.04052115 -0.052628454 -0.0013477937 0.0063450346
000200 ca 51 c6 3c 9b 88 28 bc 1e 18 23 be 11 e3 9e 3c
       0.024208922 -0.0102864755 -0.15927169 0.019395383
000210 90 a3 25 3e c9 9a f0 3c 53 fe ab bc 2e 76 f4 bd
       0.16175675 0.029370682 -0.020995295 -0.119366035
000220 51 68 39 be 2a 29 57 bd 03 09 07 bc d6 77 4b bd
       -0.181062 -0.05252949 -0.008241895 -0.04967483
000230 9d 24 23 3d 8b 88 3e be 8f 9e e4 3d 28 d9 e8 3d
       0.03982984 -0.18606775 0.11163055 0.11369544
000240 73 87 ff bd 60 9d 8d bc b3 86 36 bd 8b ba 14 3e
       -0.12477007 -0.017286956 -0.044562053 0.14524285
000250 32 87 b1 bd a2 23 c9 bd 40 c9 69 be 67 c6 22 3e
       -0.086683646 -0.098212495 -0.22830677 0.15895997
000260 4e 12 8b bb 0a 37 69 3d 91 3d 1a be d5 bd 6a 3d
       -0.0042441254 0.056937255 -0.15062548 0.057309944
000270 87 fb d7 bd a9 99 1e 3d 2f fc 1b be be 01 4b 3d
       -0.10546022 0.03872076 -0.15232919 0.04956221
000280 3a 83 83 bd 75 cc 4a 3e 5d 95 aa bd 47 04 9f 3d
       -0.06421514 0.19804557 -0.0832927 0.07764488
000290 4e c6 35 3e bc d7 e5 3d 1d 34 e3 3c e8 e4 95 bd
       0.17751428 0.11222789 0.02773481 -0.07319051
0002a0 ad 1a b6 3d ca ec d3 3d 72 6f d4 bd 8a 0a 91 3b
       0.08891807 0.10347898 -0.10372819 0.004426305
0002b0 00 81 15 be 99 f3 05 3e 69 26 69 bc 19 65 1b be
       -0.14599991 0.13081206 -0.014230349 -0.15175284
0002c0 ac 97 80 bc 3d 15 10 be 38 0d 2b bd 67 07 dd bd
       -0.015697323 -0.14070602 -0.041760653 -0.107924275
0002d0 62 3a 26 3d 4f 95 2c bc 0d 15 58 bd 52 c0 2e 3e
       0.040583022 -0.010533645 -0.05275445 0.17065552
0002e0 5a fc 86 3b 7b 08 ad bc 91 40 fd 3b 4e 94 5c 3b
       0.004119438 -0.021122208 0.007728644 0.0033657732
0002f0 e3 af 62 bc e7 c4 fe 3d 86 af 96 3d f4 c6 ce bd
       -0.01383588 0.124399 0.07357697 -0.10096541
000300 79 b8 ed bd 9c 14 cf bc b9 86 c9 bd bf 57 e4 3d
       -0.11607451 -0.025278382 -0.098401494 0.11149549
000310 d5 8c e4 3c de c7 9e 3c cc 86 6a 3d 11 f2 08 be
       0.027899185 0.019382413 0.05725746 -0.13373591
000320 dc 8c a1 bb 51 c3 34 bd 51 11 25 be 47 08 79 3c
       -0.004930122 -0.04413158 -0.16119887 0.015199727
000330 03 b2 de bd cf 1c 48 3e 70 4b 0a 3e 7e fe 2e bd
       -0.10873797 0.1954224 0.1350534 -0.04272317
000340 59 65 1a 3e e1 4f 20 be fb 4d 15 3e f1 62 56 3d
       0.15077724 -0.15655471 0.14580528 0.05234045
000350 46 7e 04 3e 8b c5 c3 3d c3 5e 8b 3d 2a 7e 11 3e
       0.12938794 0.09559163 0.06805184 0.14208284
000360 b6 f6 48 be ae 28 1e be 9f 43 b2 3d 5f 0d f7 bc
       -0.19625363 -0.15445206 0.08704304 -0.030157743
000370 38 d6 1c 3b f6 4e bc bd 6e e6 1b 3e df 45 35 be
       0.0023931395 -0.09194748 0.1522462 -0.17702435
000380 f6 18 b1 bc 2a 8a b1 bd 5b ec ab 3d e7 ee fa bd
       -0.021618348 -0.08668931 0.083946906 -0.12252598
000390 00 2e d9 3d 17 60 ea 3c 39 90 ad 3d 40 5d 37 3e
       0.10604477 0.028610272 0.08474774 0.17906666
0003a0 29 11 b1 bd 0f 55 3a 3d 0a 2b d0 3d d6 63 e4 3a
       -0.08645851 0.045491274 0.10164459 0.0017424773
0003b0 9e 07 8d bd 90 8f 04 bc b8 d7 42 be fb a5 8c 3d
       -0.068862185 -0.008090869 -0.19027603 0.06867596
0003c0 c0 bd 15 bd 1a 13 86 3c b0 72 b0 bc 45 31 8a 3c
       -0.036557913 0.01636653 -0.021539062 0.016869197
0003d0 56 d2 d1 3d 50 a4 63 3d 11 3d 1e be 5c cf ff ba
       0.102451965 0.055576622 -0.15452982 -0.0019516754
0003e0 f2 21 75 bc 3e 78 0b be bc d1 ad bd 5b b8 fd 3d
       -0.0149617065 -0.13620088 -0.08487269 0.12388679
0003f0 c5 4f 82 3c 25 b9 3a 3d 05 8f 29 be 7b f7 b6 3d
       0.015907178 0.045586724 -0.16558464 0.08933922

action_model._discrete_distribution.branches.0.bias f4 [3]
000000 80 08 6b 3d 50 f9 a5 bd c1 05 42 3c
       0.057381153 -0.08104193 0.011842192

exp_avg f4 [128, 24]
000000 33 c2 87 bb c7 8a e6 39 7f 4d ca bb 56 94 d9 ba
       -0.0041430234 0.00043972416 -0.006173789 -0.0016599994
000010 c3 e5 d8 39 5c c6 97 bb 7d 06 21 bb 7e 7f 8b b5
       0.00041369916 -0.0046318006 -0.0024570518 -1.0393412e-06
000020 20 8f b8 37 eb 4a 18 3b c7 8a e6 39 00 3c e4 3a
       2.2001157e-05 0.0023238014 0.00043972416 0.0017412901
000030 9e 82 87 bb c3 ba 41 39 85 5f da bb a7 2c fe ba
       -0.004135444 0.00018475488 -0.006664219 -0.001939197
000040 be bb f7 39 d1 99 98 bb be 71 10 bb 7b ff 7b 34
       0.0004725139 -0.004657008 -0.0022040452 2.346914e-07
000050 58 1c b3 ba b6 6b 18 3b c3 ba 41 39 6a 4f e0 3a
       -0.0013665063 0.002325756 0.00018475488 0.0017113511
000060 fc 6d 4d bb 32 d0 db 39 12 04 98 bb 30 d8 56 bb
       -0.0031346073 0.00041926053 -0.004639157 -0.0032782666
000070 ed fe 08 3a 2b 00 42 bb 7e 0b 85 ba 28 3f d3 b5
       0.0005225975 -0.002960215 -0.001015052 -1.5739106e-06
000080 5c 87 44 ba 6d af ca 3a 32 d0 db 39 1e 45 28 3a
       -0.0007496977 0.0015463658 0.00041926053 0.00064189907
000090 b8 dd 4c bb 2e ed 31 39 c8 1b a8 bb 5c 44 5c bb
       -0.0031260084 0.00016968392 -0.005130265 -0.0033610081
0000a0 ba 6d ee 39 41 4a 4b bb c9 a6 40 ba a5 20 f0 b5
       0.0004547665 -0.00310196 -0.00073490717 -1.7890894e-06
0000b0 64 9c ea ba 08 3f ca 3a 2e ed 31 39 07 72 19 3a
       -0.0017899391 0.0015430162 0.00016968392 0.0005853478
0000c0 fc c0 6c 3a 3d 63 ae 39 d5 f9 5b bb 52 1f 34 3b
       0.00090314425 0.00033261804 -0.003356566 0.0027484489
0000d0 ed e9 fd 39 6e 0a 40 bb 4d 16 be 3a 8c 70 58 36
       0.0004843021 -0.0029303092 0.0014502496 3.225202e-06
0000e0 4c 6f e3 ba bb 47 fa ba 3d 63 ae 39 95 f7 5b ba
       -0.0017351895 -0.0019094864 0.00033261804 -0.00083910796
0000f0 e9 2e 6c 3a 46 26 0c 39 af 70 71 bb 62 77 3e 3b
       0.00090096757 0.00013365698 -0.0036840846 0.0029062857
000100 6d ab be 39 da 6c 44 bb 1c 9f bc 3a a6 b4 a6 35
       0.00036367346 -0.0029972107 0.001439068 1.2420539e-06
000110 3b 67 d0 3a ec 94 f9 ba 46 26 0c 39 07 ca 6c ba
       0.0015899906 -0.0019041575 0.00013365698 -0.000903279
000120 78 6e 2f 3b be bc a7 38 56 43 1f ba 83 aa 2a 3a
       0.0026768725 7.9983365e-05 -0.00060754025 0.00065103936
000130 cd cf d7 38 c7 1d de b9 e3 ed 69 b8 93 66 75 35
       0.00010290705 -0.00042365325 -5.577308e-05 9.141888e-07
000140 a9 d8 6c ba b3 06 a0 39 be bc a7 38 2b d8 46 3a
       -0.00090349704 0.0003052257 7.9983365e-05 0.0007585312
000150 d4 08 2f 3b c7 cb fe 37 9d 3b 3d ba a7 ab 23 3a
       0.0026708143 3.037405e-05 -0.0007218661 0.0006243535
000160 ed 40 b6 38 59 ca fb b9 da f6 8f b9 0a c7 85 35
       8.69053e-05 -0.0004802521 -0.00027459004 9.9672e-07
000170 b5 8d 47 3a d5 f4 9d 39 c7 cb fe 37 69 de 3c 3a
       0.00076123636 0.00030127788 3.037405e-05 0.00072047726
000180 4d 01 d4 b9 07 97 56 b8 19 b0 a9 b9 72 bc a0 39
       -0.0004043676 -5.116223e-05 -0.00032365395 0.0003065798
000190 c8 ab 93 b8 6c 7f 1d ba 7e fe 21 b9 10 1d b3 34
       -7.041503e-05 -0.0006008062 -0.00015448962 3.3362494e-07
0001a0 5f bf 3b b9 4b c5 4d 39 07 97 56 b8 a3 2a 76 ba
       -0.00017905001 0.00019623821 -5.116223e-05 -0.00093905086
0001b0 8d d4 d2 b9 70 a1 bc b7 d0 0b a8 b9 fc 9e 96 39
       -0.00040212684 -2.2486522e-05 -0.00032052258 0.00028728682
0001c0 8b 28 6b b8 92 51 1c ba 53 78 06 b9 45 55 2f 34
       -5.6066125e-05 -0.00059630827 -0.0001282406 1.6329166e-07
0001d0 27 a6 e2 39 24 6c 4a 39 70 a1 bc b7 fc 64 76 ba
       0.00043229872 0.00019304507 -2.2486522e-05 -0.0009399203
0001e0 2a ee 09 bb b5 15 79 38 04 e9 77 ba e0 9a 3a ba
       -0.0021046498 5.9386442e-05 -0.0009457024 -0.0007118415
0001f0 6d 18 e7 b8 8d 68 4e b9 66 cb b8 3a 4f 27 8c b5
       -0.00011019488 -0.00019684639 0.0014098703 -1.0442253e-06
000200 3c 66 0b b9 e7 bf fb 3a b5 15 79 38 63 15 0c 3a
       -0.00013294158 0.0019206972 5.9386442e-05 0.0005343763
000210 d4 8b 09 bb 01 3c cc 37 aa 26 96 ba 08 c2 08 ba
       -0.0020987885 2.4346637e-05 -0.0011455615 -0.0005216901
000220 92 79 6d 38 03 1a 75 b9 31 52 cb 3a ae e5 79 b5
       5.6618424e-05 -0.00023374711 0.0015512166 -9.3093956e-07
000230 d7 97 90 ba 13 13 fb 3a 01 3c cc 37 0c 95 07 3a
       -0.001103158 0.0019155465 2.4346637e-05 0.0005172051
000240 a2 26 12 bb 2b e4 26 39 19 f6 41 ba 22 5b b7 bb
       -0.002230086 0.00015915993 -0.0007399037 -0.0055955807
000250 a9 85 7e 39 62 dd c1 3a 0e 8f 7a 3b b1 74 96 b6
       0.0002427312 0.0014790709 0.003823224 -4.483933e-06
000260 8d 0a f5 39 90 c7 a8 3a 2b e4 26 39 02 0f a2 3a
       0.00046737902 0.0012876857 0.00015915993 0.0012364092
000270 b9 e5 11 bb f4 18 91 38 a2 36 8d ba 4b 80 a4 bb
       -0.002226217 6.918787e-05 -0.0010773728 -0.0050201765
000280 d4 d8 37 39 eb 7a b9 3a 88 72 96 3b 3e 02 ab b6
       0.00017533015 0.0014151012 0.00459129 -5.096458e-06
000290 b4 2f 72 bb ae e3 a8 3a f4 18 91 38 c3 8a 9c 3a
       -0.0036954703 0.0012885237 6.918787e-05 0.001194321
0002a0 48 9d 29 ba f7 2f 8f 38 47 a4 c5 39 79 56 43 ba
       -0.0006470275 6.8277055e-05 0.00037697164 -0.0007451545
0002b0 bb ff 89 38 b3 cc 3d 3a 2a 4b 9d 39 ae 71 14 b5
       6.5803026e-05 0.00072402804 0.00030001375 -5.529972e-07
0002c0 1e 28 68 39 d4 05 5f b8 f7 2f 8f 38 14 0e 5f 39
       0.00022140189 -5.317277e-05 6.8277055e-05 0.00021272182
0002d0 35 33 29 ba 6a e3 eb 37 cd 8c c8 39 84 55 35 ba
       -0.0006454469 2.8120081e-05 0.00038251877 -0.0006917345
0002e0 7c b3 99 38 fb 04 3f 3a 02 b8 e6 39 1f 57 5f b5
       7.32904e-05 0.0007286814 0.00044006115 -8.320075e-07
0002f0 26 d0 0f ba 4c da 5c b8 6a e3 eb 37 a6 0f 67 39
       -0.00054860336 -5.2655392e-05 2.8120081e-05 0.00022035706
000300 5e e1 39 bb 08 97 de 39 37 66 f9 bb 97 31 90 3a
       -0.002836309 0.00042455667 -0.007611062 0.0011001107
000310 b1 47 cd 39 71 68 d9 bb 29 21 34 bb 77 39 03 36
       0.0003915406 -0.006634765 -0.0027485585 1.955397e-06
000320 e9 b6 b5 ba 8b 9b 5e b9 08 97 de 39 84 3d ac b9
       -0.0013863716 -0.00021229514 0.00042455667 -0.0003285223
000330 34 e1 39 bb ac d9 43 39 e1 c7 03 bc d4 72 47 3a
       -0.0028362991 0.00018677738 -0.00804326 0.0007608358
000340 fd ce ef 39 77 e1 dc bb 20 47 26 bb 02 19 f5 35
       0.0004573985 -0.0067407447 -0.0025371984 1.8261201e-06
000350 84 88 1d 39 5d 8d 4e b9 ac d9 43 39 9e 9d cf b9
       0.00015023543 -0.00019698353 0.00018677738 -0.0003959955
000360 f9 f8 53 3a 1d b4 13 b9 b0 8e eb 3a 6c 10 fd 3a
       0.0008086111 -0.0001408611 0.0017971601 0.0019307262
000370 cf 55 c1 b8 92 aa 18 3a 2c aa 04 ba eb 35 c3 35
       -9.21894e-05 0.0005823757 -0.0005060758 1.4544324e-06
000380 d3 d4 4f b9 05 e0 11 39 1d b4 13 b9 5f 40 fb b9
       -0.00019820342 0.00013911731 -0.0001408611 -0.0004792241
000390 b1 e0 52 3a f3 48 5e b8 1a 80 09 3b f3 27 f3 3a
       0.0008044346 -5.2996864e-05 0.0020980895 0.0018551335
0003a0 a7 c7 1b b9 f0 9f 31 3a 1e b4 13 ba 31 1f 6b 35
       -0.00014856328 0.00067758467 -0.00056344445 8.758971e-07
0003b0 0e 85 1d 3b 5b 90 14 39 f3 48 5e b8 53 b9 e8 b9
       0.0024035606 0.00014168156 -5.2996864e-05 -0.00044388566
0003c0 80 9a 2b 3b e3 e9 5b 39 a7 48 3e bb 51 bd 2a 3b
       0.0026184618 0.00020972597 -0.0029035003 0.0026052783
0003d0 2c 96 9e 39 8f 15 1d bb eb d2 46 ba 0f 27 53 36
       0.00030247995 -0.0023969149 -0.000758453 3.1464185e-06
0003e0 70 5d b5 ba a7 36 9d ba e3 e9 5b 39 0d d6 18 b9
       -0.0013837051 -0.0011994437 0.00020972597 -0.0001457559
0003f0 aa 16 2b 3b 5b b4 b3 38 b9 0c 4e bb f0 83 21 3b
       0.0026106038 8.568979e-05 -0.0031440689 0.0024645291

exp_avg_sq f4 [128, 24]
000000 81 3d 22 39 b4 e2 c9 35 6d c9 5a 39 55 60 2b 39
       0.00015472436 1.5041646e-06 0.00020865137 0.00016343717
000010 d2 9d fe 36 60 12 3e 39 5e bc 66 39 38 b7 08 2f
       7.5881626e-06 0.00018126657 0.00022004682 1.243422e-10
000020 b7 8e 48 38 4b 99 f2 38 b4 e2 c9 35 4a 94 20 39
       4.781663e-05 0.00011568012 1.5041646e-06 0.00015314031
000030 e4 74 21 39 17 ba 18 34 a5 36 61 39 a2 36 39 39
       0.00015397702 1.4223802e-07 0.00021478029 0.00017663327
000040 3c 3a 49 36 79 a8 3b 39 01 81 62 39 24 3a 16 2f
       2.998523e-06 0.0001789647 0.00021601097 1.3663076e-10
000050 58 c4 63 38 51 8b f1 38 17 ba 18 34 22 6f 20 39
       5.4303877e-05 0.00011517725 1.4223802e-07 0.00015300189
000060 02 08 15 39 7a 67 5d 35 3e 61 38 39 03 2b 27 39
       0.0001421273 8.2479494e-07 0.00017583833 0.00015942384
000070 53 82 1e 36 14 d5 31 39 11 d0 51 39 21 7b 04 2f
       2.3619693e-06 0.00016959413 0.00020009304 1.2049074e-10
000080 0d ff 3a 38 47 3d f0 38 7a 67 5d 35 8d ed 1f 39
       4.458339e-05 0.000114555056 8.2479494e-07 0.00015251916
000090 53 31 14 39 f8 00 0e 34 9a 59 3b 39 e6 16 31 39
       0.00014132755 1.3225133e-07 0.00017867089 0.00016888566
0000a0 61 e9 8e 35 26 a7 2d 39 6a d1 4b 39 d3 2f 19 2f
       1.0647747e-06 0.00016560833 0.00019437601 1.393226e-10
0000b0 29 c0 52 38 cb e1 ee 38 f8 00 0e 34 70 62 1f 39
       5.0246865e-05 0.000113907816 1.3225133e-07 0.00015200092
0000c0 aa ad d1 38 43 bb 1d 35 76 c2 1c 39 7b 43 19 39
       9.998244e-05 5.875956e-07 0.00014949762 0.00014616355
0000d0 26 bc a8 35 cc 49 1c 39 d9 53 0c 39 4c 58 06 2f
       1.2571734e-06 0.00014904811 0.00013382676 1.2218598e-10
0000e0 4a 3c 39 38 2a 62 ab 38 43 bb 1d 35 9e 70 06 39
       4.4163586e-05 8.1722e-05 5.875956e-07 0.00012821189
0000f0 b9 81 d0 38 4d 1d c9 33 58 fd 21 39 04 ce 22 39
       9.9423756e-05 9.365122e-08 0.00015448534 0.0001552627
000100 51 13 3e 35 6a b8 17 39 89 20 0c 39 80 06 11 2f
       7.0808625e-07 0.00014469182 0.0001336356 1.3189982e-10
000110 dc d3 3e 38 8e 63 aa 38 4d 1d c9 33 e9 38 06 39
       4.549684e-05 8.124775e-05 9.365122e-08 0.00012800437
000120 d8 23 f3 37 f2 4e ec 34 c8 28 20 38 b7 94 4e 38
       2.8984548e-05 4.4015866e-07 3.8184953e-05 4.925273e-05
000130 f6 76 46 35 cc e4 2f 38 5e aa 2d 38 22 aa 4b 2e
       7.393386e-07 4.1936335e-05 4.140508e-05 4.6307964e-11
000140 c5 42 55 37 88 47 ca 37 f2 4e ec 34 18 85 33 38
       1.2711335e-05 2.4113586e-05 4.4015866e-07 4.280088e-05
000150 41 d5 f1 37 f4 bd e7 32 9d 94 22 38 af 81 5e 38
       2.8828743e-05 2.697832e-08 3.8762217e-05 5.30497e-05
000160 70 01 10 35 8b 1d 28 38 d4 96 21 38 a6 7a 5b 2e
       5.364627e-07 4.0081835e-05 3.852586e-05 4.990377e-11
000170 2c 8e 7b 37 d3 60 c9 37 f4 bd e7 32 57 5c 33 38
       1.4993868e-05 2.4006154e-05 2.697832e-08 4.2762924e-05
000180 74 75 06 37 21 fd df 33 01 77 19 37 21 30 26 37
       8.014369e-06 1.04302906e-07 9.147218e-06 9.905577e-06
000190 58 60 52 34 87 56 63 37 0d 5d 47 37 65 ba 43 2d
       1.9592824e-07 1.3550401e-05 1.1882989e-05 1.1125855e-11
0001a0 c0 60 23 36 ad bf c7 36 21 fd df 33 c5 2f 7a 37
       2.4345209e-06 5.952976e-06 1.04302906e-07 1.4912283e-05
0001b0 d9 c9 05 37 28 4e 02 32 a0 63 12 37 c3 15 1a 37
       7.974414e-06 7.584767e-09 8.725474e-06 9.184182e-06
0001c0 9b 6e 11 34 8b bd 5e 37 02 59 47 37 c3 f0 65 2d
       1.3544415e-07 1.3276363e-05 1.1882048e-05 1.3070603e-11
0001d0 64 c2 16 36 7b b0 c6 36 28 4e 02 32 87 49 7a 37
       2.2464892e-06 5.921405e-06 7.584767e-09 1.4918281e-05
0001e0 d5 50 5e 38 6c c5 c7 34 ba 90 87 38 8b 50 8b 38
       5.3004205e-05 3.7210282e-07 6.464259e-05 6.643039e-05
0001f0 21 a7 6a 36 af f2 85 38 31 a7 8f 38 6b 5e 7f 2e
       3.4966e-06 6.3871375e-05 6.849913e-05 5.8064147e-11
000200 b2 cb ad 37 df 2f 4d 38 6c c5 c7 34 83 6d 83 38
       2.071806e-05 4.8920392e-05 3.7210282e-07 6.266965e-05
000210 a7 11 5d 38 be 2a 51 33 5a e5 8a 38 79 c1 9a 38
       5.2706946e-05 4.870048e-08 6.623073e-05 7.379329e-05
000220 83 01 7e 35 89 47 7d 38 55 81 89 38 8d 16 a1 2e
       9.4624573e-07 6.0386523e-05 6.556759e-05 7.325438e-11
000230 49 ce e7 37 f3 18 4c 38 be 2a 51 33 75 0e 83 38
       2.7633405e-05 4.8660626e-05 4.870048e-08 6.2492596e-05
000240 c4 fa 88 39 ad 34 d2 35 a4 ba ad 39 61 49 9a 39
       0.00026126776 1.566155e-06 0.0003313619 0.0002942784
000250 6a 6e 66 36 91 0a b9 39 40 3a b3 39 7d d3 80 2f
       3.433694e-06 0.00035293822 0.0003418494 2.3433336e-10
000260 79 a0 b4 38 9f 77 84 39 ad 34 d2 35 2b f9 bc 39
       8.612959e-05 0.00025266127 1.566155e-06 0.000360438
000270 e7 34 88 39 51 db 84 34 ac 9b b0 39 c1 97 a2 39
       0.00025979357 2.474649e-07 0.0003368532 0.00031012113
000280 fa 3e fd 35 dc 55 b4 39 2d b7 b0 39 73 1e a1 2f
       1.8868298e-06 0.00034396246 0.00033705813 2.9307365e-10
000290 af ae c7 38 5f b7 83 39 51 db 84 34 4e ee bb 39
       9.521597e-05 0.0002512289 2.474649e-07 0.0003584497
0002a0 1c c0 a6 36 ab 5f 61 33 d5 30 d0 36 f6 ed cc 36
       4.96955e-06 5.2473904e-08 6.204568e-06 6.107376e-06
0002b0 28 bc d6 33 e8 a6 f9 36 c8 5e e7 36 db e0 dd 2c
       9.999377e-08 7.4402087e-06 6.8953705e-06 6.3061618e-12
0002c0 70 e2 02 36 6a 26 ad 36 ab 5f 61 33 46 2c df 36
       1.9503314e-06 5.1602738e-06 5.2473904e-08 6.651072e-06
0002d0 b2 b1 a5 36 47 93 a2 31 b4 e5 cc 36 f1 77 ca 36
       4.9380697e-06 4.731564e-09 6.1064147e-06 6.034032e-06
0002e0 dc fe 81 33 a0 b4 ef 36 76 87 e1 36 51 50 e4 2c
       6.053389e-08 7.1437826e-06 6.7212923e-06 6.4890667e-12
0002f0 5f ee 0a 36 0e 53 ac 36 47 93 a2 31 fa 7c dd 36
       2.0702353e-06 5.1356683e-06 4.731564e-09 6.6008624e-06
000300 46 26 e7 38 c9 97 b2 35 09 bd 4f 39 24 7f 03 39
       0.00011022067 1.3306209e-06 0.0001981148 0.00012540497
000310 76 40 ea 36 e8 35 30 39 88 0b 15 39 29 e6 e0 2e
       6.9812477e-06 0.0001680475 0.00014214043 1.0227225e-10
000320 3d fc 30 38 c1 b7 b6 38 c9 97 b2 35 c4 01 ec 38
       4.2196585e-05 8.712663e-05 1.3306209e-06 0.00011253686
000330 0c 19 e6 38 57 bb d2 33 78 f1 56 39 3b ad 0c 39
       0.0001097192 9.812964e-08 0.00020498584 0.00013415974
000340 2f 53 21 36 69 ba 30 39 18 66 14 39 7f e9 dc 2e
       2.4039289e-06 0.00016854111 0.00014152413 1.0045919e-10
000350 97 52 3a 38 3d f8 b5 38 57 bb d2 33 72 c4 ec 38
       4.4422773e-05 8.6769905e-05 9.812964e-08 0.00011289948
000360 e6 4a 7d 38 52 3d da 34 bc aa 92 38 ab 63 88 38
       6.0389655e-05 4.065028e-07 6.993624e-05 6.50355e-05
000370 b1 75 35 36 49 69 9c 38 57 67 ab 38 e8 02 71 2e
       2.7039607e-06 7.4582706e-05 8.173164e-05 5.4799637e-11
000380 e9 8f c3 37 c1 a2 58 38 52 3d da 34 11 5d 96 38
       2.3312825e-05 5.164999e-05 4.065028e-07 7.169892e-05
000390 a3 da 7b 38 a7 f1 76 33 40 91 97 38 13 79 91 38
       6.0046685e-05 5.749612e-08 7.227296e-05 6.9366906e-05
0003a0 7e 6b 5f 35 f2 5c 9a 38 48 3d a9 38 11 0b 96 2e
       8.3230395e-07 7.360605e-05 8.0699625e-05 6.823176e-11
0003b0 5f 8e d3 37 e6 5d 57 38 a7 f1 76 33 e7 6a 96 38
       2.5219457e-05 5.1347444e-05 5.749612e-08 7.1724695e-05
0003c0 53 54 7a 38 66 97 c0 34 7a fb b5 38 3b c8 b6 38
       5.9683178e-05 3.5872944e-07 8.677594e-05 8.715732e-05
0003d0 e0 21 4d 35 fd b4 b2 38 8e 0e b4 38 44 46 b1 2e
       7.6417746e-07 8.521413e-05 8.58578e-05 8.06151e-11
0003e0 be 03 c5 37 aa cf 3c 38 66 97 c0 34 22 97 aa 38
       2.3485973e-05 4.5016095e-05 3.5872944e-07 8.1343824e-05
0003f0 7f e8 78 38 d2 ef 73 33 67 0c bb 38 97 c1 c5 38
       5.9344336e-05 5.679596e-08 8.919165e-05 9.429751e-05

exp_avg f4 [128]
000000 9e b7 c6 3b e2 81 b6 3b fc c1 8f 3b 8f ad 82 3a
       0.0060643693 0.0055696825 0.0043871384 0.0009969937
000010 b0 7c 41 ba 17 7e 51 3a 45 d5 14 3b 25 f6 71 3a
       -0.00073809456 0.0007991506 0.0022710126 0.0009230099
000020 81 e4 c8 3b 07 02 e4 ba c6 54 38 3b a0 f2 96 3b
       0.0061307554 -0.0017395624 0.00281267 0.00460656
000030 1a 9f 81 bb ea d3 8d 3a 02 78 17 3b 03 af 4f 3b
       -0.003955734 0.0010820602 0.0023112302 0.0031690008
000040 f2 5d 33 ba a3 c6 88 bb 1f c1 d2 bb b4 7f 17 bb
       -0.0006842307 -0.00417407 -0.0064317132 -0.0023116888
000050 be fa 54 bb 2d 71 23 3c 90 cc ad 3b b5 65 ab 3a
       -0.0032498087 0.009975714 0.0053039268 0.0013076576
000060 21 48 29 3a bb 9d aa bb fe 42 a5 bb f3 1e a2 3b
       0.00064575864 -0.005206791 -0.0050433865 0.004947537
000070 c5 4e c5 bb 11 f2 01 ba b5 c5 f8 ba 1a a1 f8 ba
       -0.006021353 -0.000495703 -0.001897982 -0.001896891
000080 af fb 86 bb 07 54 e7 ba 37 77 f2 b9 5c 06 81 3a
       -0.0041193585 -0.0017648943 -0.0004624666 0.0009843814
000090 1c 4a 94 3a fe a8 0c 3a 01 3e 48 b9 dc 96 44 3b
       0.001131359 0.0005365758 -0.00019096585 0.0029997146
0000a0 0b ff fe bb 2b f3 d4 39 9b 36 17 bc 71 58 3b 3c
       -0.0077818683 0.00040616965 -0.009229328 0.01143466
0000b0 6c 62 96 bc 44 07 ba ba c1 0a ee bb fa 63 43 3b
       -0.018357478 -0.0014192839 -0.0072644656 0.002981423
0000c0 8c 5b fb b8 47 26 22 3c 3c c9 12 3b 6f 94 ef 3b
       -0.000119856646 0.009896821 0.0022397777 0.007311396
0000d0 eb 46 c5 ba a8 12 a2 3b 12 7e b6 ba 5c 33 e1 b9
       -0.0015051042 0.0049460717 -0.001392307 -0.0004295361
0000e0 63 b0 09 bc 0b ab 8d b6 fe b9 61 ba d3 9d 8c ba
       -0.00840387 -4.2220395e-06 -0.0008610784 -0.0010728188
0000f0 62 fe e0 bb ad de 2a ba 09 c1 41 bb 93 a0 00 bc
       -0.0068662623 -0.00065181666 -0.002956452 -0.007850784
000100 8f b9 a1 39 56 15 55 3c 47 83 58 bc 04 2b 50 3b
       0.00030846565 0.013005575 -0.013214893 0.003176392
000110 5a be 2e bb 55 06 89 3a aa fb e8 3b 73 fc 45 b7
       -0.0026663751 0.0010454158 0.007110079 -1.1800893e-05
000120 45 12 b0 bb 7a 76 c9 ba f3 ca 37 3c 60 70 eb 3b
       -0.0053732716 -0.0015370392 0.01121782 0.007185027
000130 de df 54 39 5c 95 33 ba ad 83 50 b9 ee 01 58 ba
       0.00020301293 -0.00068505644 -0.00019885479 -0.00082400336
000140 26 a8 37 3b 3b 39 6a 3b bb 2a 49 bb 64 e0 79 bc
       0.0028023808 0.0035739678 -0.0030695635 -0.015251253
000150 18 33 44 3a 8b 87 42 bb 0c eb 2a 3c 10 a8 cb bb
       0.000748442 -0.002968284 0.010432016 -0.006215103
000160 12 2a e3 b9 cf e0 3c 3a 79 5d 21 bb ff 4f 92 3b
       -0.0004332816 0.000720513 -0.0024622364 0.0044651027
000170 01 b1 59 3b 3d 86 29 bb aa dd 2d bc 82 81 f3 ba
       0.0033217075 -0.0025867366 -0.010611931 -0.0018578025
000180 18 2b d4 ba cd 5b f7 3b 52 c7 10 3c 3d 48 ad ba
       -0.0016187159 0.0075487853 0.008836584 -0.0013220381
000190 46 49 92 3b a4 ad 6a 3b 1b b7 ef 39 17 97 0c 3c
       0.0044643013 0.0035809064 0.00045722057 0.0085809445
0001a0 dd 4b f7 ba a0 28 2b bb 21 8a 0c ba 89 99 8c 38
       -0.0018867214 -0.0026116744 -0.0005361159 6.7043184e-05
0001b0 f1 2b fb 35 0b db 7b 3a 8e 78 11 bb ff c3 9a ba
       1.8713746e-06 0.000960753 -0.00221971 -0.0011807679
0001c0 f5 3e 1a 3a d7 65 53 3b 39 27 fc ba af 00 2f 39
       0.0005884015 0.0032256746 -0.0019237763 0.00016689555
0001d0 c5 af ee 3b 41 50 0e 39 89 e8 d1 3a c5 ce 4e bb
       0.007284137 0.00013572072 0.0016014735 -0.003155635
0001e0 0a 65 67 bb 53 58 b5 3b cd 8f 66 bb 47 89 46 3b
       -0.0035308027 0.0055342107 -0.0035180927 0.0030294226
0001f0 9b e3 7d 3b 31 8e fa ba c8 61 0d 3b d9 f2 48 3b
       0.00387404 -0.0019115863 0.0021573175 0.0030662327
