Assets/Training/results/MassiveTraining/PingPongAgent/PingPongAgent-548568.onnx (onnx, 16130 bytes, 4 tensors)

action_model._discrete_distribution.branches.0.bias f4 [3]
000000 5c 9b bb 3c af de df 3b be 6c df bc
       0.02290123 0.006831966 -0.027273532

action_model._discrete_distribution.branches.0.weight f4 [3, 128]
000000 fb 8b 3d bd b3 10 ff bc dd 0b 36 3d 76 4d 42 bd
       -0.046276074 -0.031135892 0.044444907 -0.047437154
000010 74 34 98 bc 41 51 28 3e 04 8c 8f bc 35 7b d0 3c
       -0.0185797 0.16437246 -0.01752282 0.025449375
000020 cb 6b fe 3c c3 69 b4 bc 1e fa 51 bb a7 29 df 3c
       0.031057259 -0.022023087 -0.003203995 0.027241541
000030 11 a0 ea 3c 66 a2 15 3d e4 33 ce bc cf 70 d4 3c
       0.028640779 0.03653183 -0.025171228 0.025932698
000040 6b f8 e1 bc 39 22 89 39 e2 a0 f0 3c 97 75 99 3c
       -0.027584275 0.00026156174 0.02937359 0.018732829
000050 c1 d0 68 3d 0b 68 07 bc 2d 43 9c bb 2d fb 22 bd
       0.05683971 -0.008264552 -0.00476875 -0.03979032
000060 f2 51 cb 3b 02 a9 8d 3d c5 0e 6a 3d 73 ba 1d bc
       0.006204837 0.06917001 0.05714299 -0.0096269725
000070 a2 03 ca 3c ff 29 c4 ba 36 71 cc bc 2e 6e 8e 3c
       0.024659935 -0.0014966129 -0.024956327 0.017386522
000080 3b dd 02 3d ba be 1c bb 65 02 16 3d 54 0f 48 3b
       0.031949263 -0.0023917393 0.036623377 0.0030526714
000090 ad f8 bd 3c 1d 31 53 bd a3 a9 4d bc 70 cb 31 bd
       0.023189867 -0.05156051 -0.012552652 -0.043406904
0000a0 64 5f 4a 3d 53 62 ed 3b 45 fe 9a bc 55 2a 45 bd
       0.049407378 0.007244387 -0.018920073 -0.048136074
0000b0 c9 0f f1 bc 41 0f 7c 3d 34 76 d3 3c 96 d5 a0 bc
       -0.029426472 0.061537985 0.0258132 -0.019633096
0000c0 1b b1 59 bc b3 21 df bb 82 60 c8 bb 88 51 e9 3a
       -0.013286854 -0.006809437 -0.0061150203 0.0017800787
0000d0 99 ef dd bd 7e a1 5d bb 50 5f ab 3d 71 df 08 3d
       -0.10836715 -0.003381818 0.08367789 0.033416215
0000e0 20 97 97 bb 46 7b 14 bc 70 64 9d 3c 33 ee 97 3b
       -0.00462617 -0.009062594 0.019212931 0.00463655
0000f0 4b 21 9f bc 8b 2c d2 3b 7d 90 c9 bc f7 39 ac bc
       -0.019425055 0.0064140013 -0.02460503 -0.021023734
000100 c7 a7 c9 bc 7c 98 e1 3c ee 3e 3d 3c ca 6c 27 3c
       -0.024616135 0.02753853 0.011550648 0.010218808
000110 51 35 17 3e f7 d0 bd bc 59 57 f0 3a 09 ef 01 3d
       0.14766432 -0.023170931 0.0018336579 0.031722102
000120 c5 dd fb 3c 8b 91 ab 3c f5 79 95 b9 a2 34 a3 bc
       0.030745396 0.020943424 -0.0002851036 -0.019922558
000130 05 d5 a0 bc 1b 1d 10 3c 8f 86 2a 3d bb 5e a8 3c
       -0.019632826 0.008796002 0.04163223 0.020552984
000140 2f fa ec 3c e5 09 19 3c 63 53 aa bc 31 c7 0b ba
       0.02892789 0.009340738 -0.020791715 -0.0005332111
000150 58 13 2d 3d 15 5d 11 bc 5f d4 1d bd fe c7 cf bd
       0.042254776 -0.00887229 -0.03853261 -0.10145567
000160 39 10 3a bd ae 81 35 bc 81 40 a0 bc 6e 1c 47 bd
       -0.045425627 -0.011078281 -0.019562008 -0.048611097
000170 7f 0f e9 bc 74 01 4b bd 82 30 ca 3a 76 71 ac 3c
       -0.028449772 -0.049561933 0.0015425833 0.021050196
000180 35 14 bd 3b 06 db 58 bd d3 57 00 3d a1 51 e4 bc
       0.005770231 -0.052943252 0.031333756 -0.027870955
000190 9f 54 72 ba 1d 8c dd 3c 76 ea 8d 3c 6f 7c b2 3c
       -0.0009244177 0.02704435 0.017323714 0.02178785
0001a0 86 3f 65 bc 74 ca 1c 3c 43 0f f8 3c bd 79 89 3d
       -0.013992196 0.009569753 0.030280715 0.06712673
0001b0 52 1d 0c bc 53 d8 cb 3b a5 ba 4f 3c c3 8b cf 3d
       -0.008551912 0.006220856 0.012678777 0.10134079
0001c0 29 13 45 3d 88 74 eb bb b4 11 3b bc 91 0e 92 3c
       0.048113976 -0.0071855225 -0.011417795 0.017829211
0001d0 ea 7b fb 3c 5b 88 03 bc e8 c2 48 3d 2c 94 14 3d
       0.030698735 -0.008028115 0.049014002 0.03627412
0001e0 72 59 43 3d d8 b0 c6 bb 44 60 a5 3c 15 91 19 3d
       0.047692724 -0.006063562 0.020187505 0.037491877
0001f0 eb 70 b9 bc 3c 24 89 3d 91 d2 e2 bc 26 c4 41 bc
       -0.022636851 0.06696364 -0.027688297 -0.011826551
000200 0b 65 8f 3d 41 f8 21 bd 22 05 36 bd 73 47 2a 3d
       0.07001694 -0.039543394 -0.04443849 0.041572046
000210 17 3d c4 bc 5f 8c d7 bc 90 67 32 3d db 5b 2b bd
       -0.023954911 -0.026312051 0.043555796 -0.041835647
000220 a8 8f 8f bd 7c e2 b6 3c a6 c5 15 3c 3f 7b 4e 3d
       -0.07009822 0.022324793 0.009141361 0.050410505
000230 ba 7c bd 3c 82 e3 83 bd e8 a5 72 3d 17 59 1d bd
       0.023130763 -0.06439878 0.05924025 -0.03841504
000240 cc eb 6f 3a 48 c7 24 bd 84 77 0a bd 01 bf e2 3c
       0.0009152263 -0.040229112 -0.033805385 0.027678968
000250 b3 a0 d6 bc 58 42 4e 3c 66 e5 cc 3c 55 99 be 3c
       -0.026199674 0.01258906 0.02501173 0.023266474
000260 82 42 65 bd 40 f0 44 bc 33 7b 2f be fa 77 3e bc
       -0.05597163 -0.012020171 -0.1713684 -0.011625284
000270 f8 1a 0c bd 3b 09 0c bd c7 86 31 3d 31 3d c5 3c
       -0.034205407 -0.03418849 0.043341424 0.02407703
000280 0b c4 d1 bc c6 c3 1c bd 3b 5f 84 bd 4f db 7c 3b
       -0.025606176 -0.03827264 -0.06463476 0.0038582867
000290 f0 bd 85 bd 1a 09 09 3d 05 24 54 3d 04 51 0d bb
       -0.06530368 0.033455946 0.051792163 -0.0021563182
0002a0 70 28 8c 3c f2 03 1b bd 87 b9 5a 3c 0a 1a ea bc
       0.017109126 -0.03784556 0.013349897 -0.02857687
0002b0 33 2c 05 3d fe 4b 5a 3d f7 9c b0 bc 38 34 fa bc
       0.032512855 0.053295128 -0.021559222 -0.030542478
0002c0 4a 5a 19 b9 fc 26 e3 3c 4f 16 37 bb db a9 3b 3b
       -0.00014624852 0.02772855 -0.002793688 0.0028635177
0002d0 74 dc 00 bc 02 f4 c9 3c 08 15 34 bd f5 75 88 bc
       -0.00786506 0.024652485 -0.04396537 -0.016657809
0002e0 61 e1 81 3d bc 4d 13 bc f0 ad 1b 3d c8 f3 0f 3c
       0.06341816 -0.008990701 0.038007677 0.008786149
0002f0 01 d0 b6 bb 52 99 6e 3c d8 34 9b bc 96 74 b9 39
       -0.005578995 0.014562922 -0.018946096 0.00035372813
000300 ae 51 e1 3c 7c 63 9f 3b 91 80 77 bc 8b e1 f7 3c
       0.027504768 0.0048641544 -0.015106336 0.030258914
000310 cc d4 62 bd 29 e9 52 3c 7f 4d df 3c 00 54 ab 3c
       -0.05537872 0.0128729725 0.027258633 0.020914078
000320 a5 09 ed 3c c3 e3 56 3c 6a 36 3a 3c 8c 8f 93 3c
       0.028935263 0.013115826 0.011365512 0.018012784
000330 72 44 97 3d c7 37 d5 ba 08 10 3b bd 80 f7 08 bc
       0.07386102 -0.0016267233 -0.045669585 -0.00835979
000340 ef 7a 70 bd 01 3e 2c bc 4d 23 e0 3c cd bd 83 3c
       -0.05871099 -0.01051283 0.027360583 0.016081715
000350 34 7c 5c bd f4 cf a9 bc 32 c5 c8 3c cb 4a 12 3c
       -0.053829387 -0.020729043 0.024508093 0.008928965
000360 78 31 d2 bc 1e 92 38 3c ff a8 10 3d 6b 87 bf 3d
       -0.025658354 0.011265306 0.035317417 0.09352001
000370 b4 e0 a3 bd b9 13 99 3c 47 1f 1f 3d 31 5d 22 3d
       -0.08001843 0.018686162 0.038848188 0.039639656
000380 28 94 77 3a fd 15 b0 3d 91 53 91 bb 97 d4 80 3d
       0.0009444379 0.08597944 -0.0044350107 0.06290548
000390 1a 1d 94 3c 9b e5 d2 bc b0 dd be bd 80 8e a5 3d
       0.018080283 -0.02574425 -0.09319627 0.0808382
0003a0 30 bb 54 bd b7 58 da 3c 2d 35 34 3d 03 0e 1e bd
       -0.05193633 0.02665363 0.043996025 -0.03858758
0003b0 90 b5 33 3d 9d aa 51 bd ef 7d 46 3d 8b 12 cb bd
       0.043874323 -0.0511881 0.048459943 -0.09915646
0003c0 9e 8c 4c bc 40 ff 60 3d ab 4a 2d 3d 66 c2 89 bb
       -0.012484698 0.054930925 0.042307537 -0.0042040823
0003d0 07 0b a3 3a 2d d5 62 bc 94 b3 2d 3d 70 cf 4d bd
       0.00124392 -0.01384477 0.042407587 -0.050246656
0003e0 9a 31 97 3b e2 ba cf 3c 54 00 cb 3c a1 fb 19 bd
       0.0046140673 0.025357667 0.02478043 -0.037593488
0003f0 9a 11 2b bd 51 d3 2b bc e4 f2 14 3d 91 ef b3 3c
       -0.041764833 -0.0104873935 0.03636445 0.02196482

network_body._body_endoder.seq_layers.0.bias f4 [128]
000000 eb e4 b3 bd 11 46 93 bd db 9a 5b bd 99 ce 01 be
       -0.08783897 -0.071910985 -0.05361448 -0.12676467
000010 95 9a 6f be 13 42 3b bd 09 4c 32 be 61 b5 1b be
       -0.23398812 -0.04571731 -0.17411818 -0.1520591
000020 de 7e d7 bd 7c e1 7a be 5e 21 4d be 33 0f 26 be
       -0.10522245 -0.24500078 -0.2003226 -0.16216736
000030 4f 1a 0b be 89 e0 c8 bd 5f ea 14 be 8e 71 dd bd
       -0.13584255 -0.09808452 -0.1454253 -0.108126745
000040 6a 9b 6e be 38 b3 c2 bd e6 36 12 bc bd 6a 23 be
       -0.23301473 -0.095068395 -0.008924222 -0.15958686
000050 9e 02 e1 bd 61 ac 12 be 90 7f e7 bd cf a1 a1 bd
       -0.10986827 -0.1432357 -0.113036275 -0.07892191
000060 1f cc de bd 22 d3 2a bd 9c cc 17 bd af 40 c9 bd
       -0.10878777 -0.04170526 -0.037060365 -0.098267905
000070 99 77 44 be 81 bb 2e be 3c c8 ed bd fb 71 7d be
       -0.19186248 -0.17063715 -0.11610457 -0.24750511
000080 b6 d7 8b bd ef c8 49 be 82 96 56 bd 8b 41 65 be
       -0.06828253 -0.19705556 -0.05238963 -0.22388284
000090 7c 4b 92 bd 00 6e 40 3d b1 c2 64 bd e2 57 a7 bd
       -0.07143304 0.046979904 -0.055849735 -0.08171059
0000a0 b8 81 c1 bd 24 14 91 bd e2 b2 1c be 2f 51 9f bc
       -0.0944857 -0.0708392 -0.15302613 -0.019447891
0000b0 ce 67 31 be 11 1a a3 bd 19 55 cd bd 8c 8a 13 bd
       -0.17324755 -0.07963956 -0.10025997 -0.0360208
0000c0 59 be e4 bd e3 fe 16 be 10 e7 dc bd 0f 88 c1 bd
       -0.111691184 -0.14745669 -0.10786259 -0.09449779
0000d0 68 a5 42 bc fb 13 f7 bd 10 a5 9a bc c5 8b bc bd
       -0.011880256 -0.12064358 -0.018877536 -0.092063464
0000e0 17 3d b2 bd 03 ed 70 be a0 f4 55 be 0c 32 93 be
       -0.08703058 -0.23527913 -0.20894098 -0.2874912
0000f0 25 4e 51 be 25 fe 3c be e6 7b 6d bd 81 f4 0b be
       -0.20439966 -0.18456323 -0.057979487 -0.1366749
000100 13 06 e4 bd fc fc 0d be da 13 20 be 41 74 f0 bd
       -0.11133971 -0.13866037 -0.15632573 -0.11740924
000110 dc 04 df b9 6e ea 54 be 08 d3 59 be d4 e4 27 be
       -0.00042537495 -0.20792553 -0.21271908 -0.16395885
000120 ef 22 3f be b4 e9 f7 bd a8 30 2c be a6 0a 25 be
       -0.1866567 -0.12105122 -0.16815436 -0.16117343
000130 8f 17 2f bd 51 90 71 be 0e 18 03 be 86 76 d5 bd
       -0.042747077 -0.23590209 -0.12802145 -0.10422997
000140 98 1c 8d bd 14 e5 79 be e9 cc 0e be d6 71 50 be
       -0.068902194 -0.24403793 -0.13945355 -0.20355925
000150 c4 86 9f bd 24 f5 7f be 3a a8 ec bd 30 5f 07 be
       -0.077893764 -0.24995857 -0.11555524 -0.13219905
000160 82 db 1f be 94 d4 04 be c5 0d 4c be 8b 11 de bd
       -0.1561108 -0.12971717 -0.19927128 -0.1084319
000170 a8 b4 f8 bc 0b a8 34 be f2 cf db bd fb e4 9d bd
       -0.030359581 -0.17642228 -0.10733022 -0.0770969
000180 7e b6 f0 bd e1 8b 58 be b8 d8 c7 bd 36 73 15 be
       -0.117535576 -0.2114711 -0.09758133 -0.1459473
000190 01 77 3c be 6e 14 95 bd 7f 27 00 bd c6 f6 64 bd
       -0.18404771 -0.07279287 -0.031287666 -0.055899404
0001a0 8c 4d 05 be 85 c6 37 be c8 dc cb bd 58 10 ab bd
       -0.13017863 -0.17946823 -0.0995422 -0.08352727
0001b0 5e dc ba bd 24 9e 86 bd c6 2f 66 be b7 a5 ea ba
       -0.09124063 -0.06573132 -0.22479162 -0.001790217
0001c0 0f 54 7b bd 6f d0 e4 bd 03 7f a2 bd 3c 01 95 be
       -0.06135946 -0.11172568 -0.07934382 -0.29102504
0001d0 c2 33 e5 bd cf bc d9 bd 25 00 b6 bd 93 a9 16 be
       -0.11191513 -0.106317155 -0.08886746 -0.14713125
0001e0 d3 f0 05 be fa a9 84 be 03 db fe bd a2 22 e6 bd
       -0.13080148 -0.25910932 -0.12444117 -0.112370744
0001f0 df 49 23 be a4 29 bc bd f8 6c 9b bd 5d 8f 36 be
       -0.15946148 -0.0918763 -0.075891435 -0.17828126

network_body._body_endoder.seq_layers.0.weight f4 [128, 24]
000000 81 4c 99 bd c5 90 54 3e 6d 33 a8 3e 35 c1 1f 3e
       -0.07485295 0.2075835 0.32851735 0.15601046
000010 5f bc bf be 73 db a1 3d 18 a5 65 bd 04 72 d8 3d
       -0.37448403 0.07903185 -0.05606565 0.10568622
000020 5b cd 53 3d e1 12 0b be b7 8a 37 bc b5 31 cc 3d
       0.051709514 -0.1358142 -0.011202506 0.09970418
000030 38 63 3c be 51 37 b9 bd 5c 56 20 be fe 16 a7 bd
       -0.18397224 -0.09043754 -0.15657943 -0.08158682
000040 68 97 c6 3c d5 c4 98 be aa ec 2a 3e 09 37 1f be
       0.024242118 -0.2983767 0.16691843 -0.15548338
000050 be 19 84 3e f4 05 f5 3d 4a 9c 6d be b7 68 73 bd
       0.2580089 0.11964026 -0.23204151 -0.059426036
000060 37 93 aa 3d 57 94 f2 3c fe 21 26 3a 11 5b f9 bd
       0.0832886 0.02961175 0.00063374627 -0.12175573
000070 c3 41 1f 3e c8 f8 3c be 70 6f b7 be 01 f0 b2 be
       0.1555243 -0.18454278 -0.35827208 -0.34948733
000080 4b 4c bb 3d b6 ad 50 be 59 52 7a be 70 14 7e 3e
       0.09145411 -0.20378765 -0.24445476 0.24812484
000090 a9 19 2c be d5 bb 8f 3e fa 52 20 3c a8 5b 41 be
       -0.16806664 0.28072992 0.009785408 -0.1888262
0000a0 a8 88 67 bb de 62 27 be 7b c3 62 3d f5 df c7 3d
       -0.0035329256 -0.16346309 0.055362206 0.09759513
0000b0 2a 82 4a be c2 0d a7 3d 4b e8 4e be b6 0e 6d 3e
       -0.19776216 0.08156921 -0.202058 0.23150143
0000c0 3f c8 d2 3d bb f4 8a be cf fe 72 3e 43 49 d0 bd
       0.102921 -0.2713984 0.23730014 -0.101702236
0000d0 3d 57 1d 3e f7 3f 58 be 65 d5 1c 3e 82 3c 09 3d
       0.1536531 -0.2111815 0.15315779 0.03350497
0000e0 e6 46 fc 3d 77 a2 08 3e 85 8b b6 3c f7 6b 5b bd
       0.1231821 0.13343225 0.022283325 -0.05356976
0000f0 87 6d 11 3e ec f3 93 bd 01 5d bc 3d a8 7b 3e 3e
       0.14201938 -0.07224259 0.091974266 0.18601859
000100 cd 1d 6a be c8 c5 ce be 25 84 c2 bd 3d 46 e2 bd
       -0.2286293 -0.4038527 -0.09497861 -0.11048553
000110 1c fd 9d 3d ee 52 0b 3e 69 59 bd 3d 94 a1 6b 3e
       0.077142924 0.13605854 0.09245569 0.23010856
000120 1b ee 11 be ef fb 3b be cf b7 1a be 35 0c 10 be
       -0.14250986 -0.18357824 -0.1510918 -0.14067157
000130 49 7e 14 3c 5a 24 ad be 25 32 72 3d f2 f8 a4 be
       0.009063312 -0.33816797 0.059129853 -0.3222118
000140 4c 54 21 3e 3a 59 fb bd bd e0 a0 bb 3c d2 db 3d
       0.15754813 -0.12272878 -0.0049096034 0.107334584
000150 3d 55 91 bd 79 63 bf bd a8 72 20 3c 5d c7 12 be
       -0.07096336 -0.09345145 0.009792961 -0.14333864
000160 ac f5 4f 3c 2a dc 51 be d6 84 40 3e 74 74 9a 3e
       0.01269285 -0.20494142 0.18800673 0.30166972
000170 e4 cf 26 3e fa a4 ff 3d c3 37 6e bd ce 8a 25 bd
       0.16290241 0.12482639 -0.058158647 -0.040415578
000180 ef 7e 2c be 83 81 22 bf 95 03 66 3e 71 ec e7 3d
       -0.16845296 -0.6347887 0.22462304 0.113243945
000190 e3 b5 6f 3d a5 1b 93 bd 20 47 db 3d 9f c6 52 3e
       0.05852307 -0.07183007 0.107069254 0.2058358
0001a0 d0 3c b0 3c b6 fd 12 be 1e be d7 be ef d2 93 3e
       0.021513373 -0.14354596 -0.42137235 0.28871867
0001b0 dc f2 eb 3c 41 23 96 bd 8c 0b 92 3e f6 14 0f be
       0.028802328 -0.07330943 0.28524435 -0.1397284
0001c0 47 4f 8c be 9f a9 3f bc 1e 07 82 be ed de 98 3e
       -0.27404234 -0.011698156 -0.25396055 0.2985758
0001d0 e6 86 bc bd 04 d7 6f bb 84 75 de be f7 6f 3b be
       -0.09205417 -0.0036596665 -0.43449032 -0.1830443
0001e0 95 0e 68 be 89 2e a2 be 30 89 91 be 0c 37 63 3e
       -0.22661813 -0.31676129 -0.28424978 0.22188967
0001f0 4b b8 2c bd 34 74 27 3e 18 98 06 3e 8a 08 c2 be
       -0.042167943 0.16352922 0.13143957 -0.3789714
000200 bd ab b4 3e 94 c1 e6 be 0a 70 d2 3d a2 fc c9 3e
       0.35287276 -0.45069563 0.10275276 0.39450556
000210 09 ee 8b 3d d6 f4 2b be 29 41 0e bd 7e 45 73 bd
       0.06832511 -0.16792616 -0.03473011 -0.059392445
000220 19 76 0e 3e b5 13 63 bd 90 27 c7 3e 0f 19 15 be
       0.13912238 -0.055438716 0.3889737 -0.1456034
000230 9d 29 2a 3e c0 18 cc 3d 31 08 0f 3c 24 c3 22 3e
       0.16617437 0.09965658 0.00872998 0.15894753
000240 f3 d4 57 3e 04 51 4e be 4e 9e 55 3e 1f b5 81 bd
       0.21077327 -0.20148093 0.2086117 -0.06333374
000250 7a ff b3 be 5c f6 45 3b 4d 10 76 bd 64 7d d2 bc
       -0.3515585 0.0030206656 -0.06007414 -0.025694557
000260 bb bb 8c be b2 48 14 3d 6b c7 9d be b0 67 ac 3e
       -0.27486977 0.03620214 -0.30816206 0.33672857
000270 f8 00 f8 bd 1d a7 9c be d4 19 95 be 48 59 62 3e
       -0.1210956 -0.30596247 -0.29121268 0.2210437
000280 52 06 fe bd 00 a8 4c 3e 5b fa 89 be aa 9e 80 3e
       -0.12403549 0.19985962 -0.2694882 0.2512105
000290 fb 4e a3 3d 64 c8 c7 bd 1b c9 11 be c4 34 a3 be
       0.07974049 -0.09755018 -0.14236872 -0.31876194
0002a0 00 f2 a1 be 44 23 3f 3e 2a 27 c8 3e 63 75 f4 3d
       -0.31629944 0.18665797 0.3909238 0.11936452
0002b0 87 48 d6 be 3e 08 9f be 36 69 5a 3d 13 08 b9 3d
       -0.4185221 -0.31060976 0.053322993 0.09034743
0002c0 15 30 8a 3e 35 2a 2d 3e e9 6c 42 be 8d fe f9 3d
       0.2698981 0.16910632 -0.18986858 0.12206755
0002d0 7e 39 8f 3e 62 76 21 3e 05 34 af be 65 fb 8a be
       0.2797355 0.15767816 -0.34219375 -0.27144924
0002e0 58 81 8c bd cc c3 b2 bd 97 1f 4d 3e 9c 9e b4 bc
       -0.06860608 -0.087287515 0.20031582 -0.022048287
0002f0 52 fa 68 3b 6a 65 6f 3e 5a c8 47 bc 7a 23 c0 3e
       0.0035549593 0.2337853 -0.012193764 0.37527066
000300 09 a4 34 be d7 aa 1d 3d 2b 68 88 3e 5e 9d 5c 3e
       -0.176407 0.038493004 0.26641974 0.21544406
000310 af 79 62 be 26 e9 75 3e 40 be be be 44 3d b0 3e
       -0.22116731 0.2401472 -0.37254524 0.34421742
000320 8f b0 9a bd ec 2c 81 3e 89 b3 8f bd 1f ac 29 3e
       -0.07553207 0.25229585 -0.070166655 0.16569565
000330 95 96 51 be cd fa 83 3e 9f d6 96 3d 25 f0 73 3b
       -0.20467599 0.25777283 0.073651545 0.0037221995
000340 0d 2c ac be d1 aa 4a 3e 72 6c dd 3d b7 36 85 3d
       -0.33627358 0.19791724 0.108117 0.06504577
000350 ea c0 b1 be 20 e0 e0 be a7 aa 4f be b1 f7 79 bd
       -0.34717494 -0.43920994 -0.20279942 -0.061027233
000360 b2 65 33 bd bc 9d e3 be 1c 23 a9 3c b4 ec 5d bc
       -0.043798156 -0.4445628 0.020646624 -0.013545204
000370 17 bc 42 be 85 67 b3 3d a7 a1 9c 3c b7 bd 98 3e
       -0.19017063 0.08759979 0.01912005 0.2983224
000380 57 df d3 bd 0a 48 a8 bd 16 2e 63 be 1e a1 36 3e
       -0.10345333 -0.08216865 -0.22185549 0.17834899
000390 6e 8e 0f bd c8 a2 42 be 5f 82 24 3e ac ce b2 ba
       -0.03504794 -0.19007409 0.16065358 -0.0013641915
0003a0 1d 2f 5e be 86 dd 03 be 1f 8f 99 3a 5c 16 21 3e
       -0.2169766 -0.12877473 0.0011715627 0.15731186
0003b0 18 45 dc 3d 65 ee 7a 3d 80 20 26 bb 7f a8 ec bd
       0.10755366 0.061262507 -0.0025348961 -0.115555756
0003c0 95 46 09 bd 90 f7 46 be 66 96 38 3e ef c8 65 be
       -0.033514578 -0.19430375 0.18026122 -0.22439931
0003d0 0a 2e c6 bd f4 9f 90 3e 0b d2 80 bd f6 5e 3c 3e
       -0.0967675 0.28247035 -0.062900625 0.183956
0003e0 b7 49 88 3b 4a 8d 93 bc 50 87 c7 be 74 af 94 3d
       0.004159178 -0.018011708 -0.38970423 0.072600275
0003f0 79 2e f6 bc 9a 9e 59 3d 1d 57 b8 3e ca 0f 46 3e
       -0.030051457 0.05312977 0.36003962 0.1934196
