Assets/Training/results/MassiveTraining/PingPongAgent/PingPongAgent-499988.onnx (onnx, 16130 bytes, 4 tensors)

action_model._discrete_distribution.branches.0.bias f4 [3]
000000 c2 69 80 3c c3 98 1a 3c 4e 07 b8 bc
       0.01567543 0.009435835 -0.02246442

action_model._discrete_distribution.branches.0.weight f4 [3, 128]
000000 72 c5 5b bd 65 35 9f bc a5 bc 1d 3d 4e ca 36 bd
       -0.053655095 -0.01943464 0.038509984 -0.044626527
000010 01 8c d4 bc f3 be 25 3e 6a 1e a3 bc 46 cd bc 3c
       -0.025945665 0.16186123 -0.019911963 0.0230471
000020 02 07 ab 3c 06 12 e0 bc 31 ea 03 bc 73 9b 16 3d
       0.020877365 -0.027352344 -0.008051441 0.03676934
000030 bc 2a cc 3c cf 6f d0 3c dc f9 c0 bc 7f 11 b7 3c
       0.024922721 0.02544394 -0.023556642 0.02234721
000040 75 6d ab bc c6 0e 09 3b 99 cc f0 3c a8 fa 6e 3c
       -0.020926217 0.0020913347 0.029394435 0.014586128
000050 28 0f 71 3d f0 51 28 bc b8 96 05 bc 6b b0 d9 bc
       0.058852345 -0.010273442 -0.00815361 -0.02657338
000060 93 38 b0 3a 58 76 84 3d 6d ba 5e 3d 08 5d 03 bc
       0.0013444595 0.06467885 0.05437701 -0.008017786
000070 91 1e af 3c 00 5f 5c ba bf b2 dd bc fb 78 a3 3c
       0.02137688 -0.000840649 -0.027062772 0.019955149
000080 d9 87 0f 3d fc 12 ec bb bf 9d 02 3d b9 27 0a 39
       0.035041664 -0.0072044116 0.03188872 0.00013175503
000090 05 e8 70 3c 53 6e 30 bd e2 9e dc ba 14 ce 39 bd
       0.014703755 -0.043073963 -0.0016832019 -0.045362547
0000a0 c4 a4 56 3d 7c 70 0e b9 21 85 e3 bc 2c 50 47 bd
       0.052403226 -0.00013584079 -0.027773442 -0.048660442
0000b0 4d 3d e2 bc 5e 3f 75 3d 99 be ca 3c a1 56 19 bc
       -0.027617121 0.059874885 0.024749087 -0.009359033
0000c0 e0 8c 3a bc ec 7b 8f bc 38 b8 87 bc 59 63 a6 3b
       -0.011386126 -0.017515145 -0.016567335 0.005077761
0000d0 2e 28 eb bd 8e 7e 14 bb 9c 56 99 3d a1 2a f9 3c
       -0.11482273 -0.002265844 0.074872226 0.030415835
0000e0 b8 0b db 3b 8e 46 34 bb bc fa ea 39 cd 11 54 bb
       0.0066847466 -0.0027507874 0.0004481877 -0.0032359243
0000f0 e2 f3 ac bc 04 e6 4e 39 59 84 fc bc 3b 84 e4 bc
       -0.021112386 0.00019731378 -0.030824827 -0.027895084
000100 58 a3 96 bc eb d1 90 3c b2 5e 06 3c 95 75 0f bb
       -0.018388435 0.017678222 0.008201288 -0.0021890153
000110 18 96 12 3e f1 cd 86 bc 89 17 91 bb 1e 9e f8 3c
       0.14315069 -0.016455622 -0.0044278544 0.030348834
000120 69 74 b2 3c 94 95 93 3c a3 44 79 bc 67 d3 a9 bc
       0.021784024 0.01801566 -0.015214118 -0.020730687
000130 f7 42 e7 bc 1b 44 17 3c 82 5b 29 3d ff 7a b5 3c
       -0.028230174 0.009232546 0.041347034 0.022153376
000140 6c ec b0 3c a7 35 98 3b 12 0c e5 bc da e8 0b bc
       0.02159711 0.0046450677 -0.027959857 -0.008539403
000150 ab fd de 3c 15 16 10 bc 18 85 04 bd ba d1 cd bd
       0.027220568 -0.008794327 -0.03235349 -0.10049768
000160 9d c9 4a bd 8c fe 93 bc e8 af a9 bc 30 bd 33 bd
       -0.04950868 -0.018065713 -0.020713761 -0.043881595
000170 b8 5d d3 bc 6e bb 0f bd 17 75 b9 bb c9 6f 6f 3c
       -0.025801525 -0.035090856 -0.00565971 0.014614054
000180 32 8d 04 3c e5 92 41 bd 40 9b 0c 3c d2 19 cb bc
       0.008090304 -0.04725923 0.008581936 -0.024792586
000190 09 2f 3c 3c 15 3e c9 3c f6 80 1d 3c 42 c3 bc 3c
       0.011485823 0.024565736 0.009613266 0.023042325
0001a0 62 7d 17 bc a0 b3 ba 3b db c5 ea 3c d1 9e 70 3d
       -0.009246202 0.0056976825 0.028658798 0.05874521
0001b0 6d dc 3c bc c5 c2 a4 3b 14 de ac 3b b5 11 c5 3d
       -0.011527163 0.005028101 0.005275497 0.09622518
0001c0 fe fe 3e 3d 9a de 2c bc ae f0 3e bc 46 c7 86 3c
       0.0466299 -0.010551119 -0.011654062 0.016452443
0001d0 32 f0 fa 3c e2 31 e8 bb c5 6d 47 3d a4 fa 0a 3d
       0.030632112 -0.0070860246 0.04868867 0.033930436
0001e0 a8 d4 30 3d 64 c4 cc 3b e2 7d a3 3c 2b 55 11 3d
       0.043171555 0.0062489975 0.019957487 0.035481613
0001f0 f5 c7 c8 bc 4f c6 66 3d bf 64 21 bd 7f 3e 1a bc
       -0.02450941 0.056341466 -0.03940272 -0.009414314
000200 07 4c 82 3d 67 ed 53 bd 06 ed 21 bd a7 06 12 3d
       0.06362157 -0.051740076 -0.039532684 0.035650875
000210 01 b1 12 bc 3c 0c 53 bc 58 b3 1b 3d b7 01 1f bd
       -0.008953334 -0.012881335 0.038012832 -0.038819995
000220 fe f6 67 bd 1f dc 93 3c bc 99 4c 3c 6e a5 63 3d
       -0.056632034 0.018049298 0.012487825 0.055577688
000230 16 67 cd 3c bd 80 54 bd 21 5a 77 3d 56 37 51 bd
       0.02507357 -0.051880587 0.060388688 -0.051078163
000240 73 f8 88 3a 3e 73 80 bd 0c 83 4d bd 4b 37 d1 3c
       0.001045002 -0.06271981 -0.050173804 0.025539061
000250 d0 5c c3 bc dc f8 95 ba 84 a6 06 3d a8 00 65 3b
       -0.023847967 -0.0011441964 0.032873645 0.0034943018
000260 a4 4e 1d bd 8a 15 db bc 7e ed 2e be 07 2f 9f bc
       -0.038405076 -0.026743669 -0.17082784 -0.019431604
000270 f3 9e fe bc 2b e9 13 bd 73 23 32 3d 20 cf 8d 3c
       -0.031081652 -0.03611104 0.04349084 0.017310679
000280 bd a8 f8 bc 4e 7e b1 bc 14 36 8b bd 7c a7 61 3c
       -0.030353898 -0.021666672 -0.06797424 0.013772842
000290 ce 01 5d bd 34 82 05 3d 0b 27 44 3d 20 47 b5 bc
       -0.0539568 0.032594875 0.047888797 -0.022128642
0002a0 48 87 89 3c d1 ad c7 bc fc 3c 95 3c 8a 5d e0 bc
       0.01678814 -0.024374874 0.018217556 -0.027388353
0002b0 57 ac d3 3c 97 3b 5a 3d 07 e2 bc bc 66 a6 34 bd
       0.025839014 0.053279486 -0.023056997 -0.044104002
0002c0 6e 64 32 3b 92 4e 0b 3d 15 85 d4 3b cd 79 ed bb
       0.0027220505 0.034010477 0.006485591 -0.007247186
0002d0 7b 58 8f bc c4 62 fb 3c d3 e0 4f bd 2b 3c 81 bc
       -0.017498245 0.030686744 -0.05075152 -0.01577576
0002e0 6f 1b 4f 3d 99 08 ca 3a 5a 79 28 3d 33 ba f5 ba
       0.050563272 0.0015413939 0.041131355 -0.0018747508
0002f0 ef f3 4c bb 66 5b 1e 3c a6 9d 8d bc a2 c0 b9 3b
       -0.0031273325 0.009665346 -0.017287087 0.0056687156
000300 18 fc 8c 3c 07 55 c3 3c 79 45 0c bc 59 72 1d 3d
       0.017210051 0.023844255 -0.008561485 0.03843913
000310 ca 92 6e bd 2e cd 72 3c 56 6b 87 3c 8d 48 34 3c
       -0.058245458 0.014819426 0.016530674 0.011003626
000320 b5 b8 e4 3c 19 ee 84 3c 36 0b a3 3c e8 c1 d5 3c
       0.027920106 0.016226815 0.019902807 0.026093438
000330 8c 61 98 3d 47 1c 47 bc 25 19 49 bd 81 05 ee bc
       0.074404806 -0.012152738 -0.049096245 -0.029055359
000340 b6 dd 27 bd 20 8d bd bc aa 1f be 3c a4 4c ba 3c
       -0.040982924 -0.023138583 0.023208458 0.022741623
000350 bd a0 66 bd 67 db fe bb 14 cc c1 3c 84 68 68 3c
       -0.056305636 -0.0077776196 0.023656882 0.014185075
000360 8b 47 96 bc 44 4d 1a 3c eb 80 1c 3d be cc c2 3d
       -0.018344661 0.009417836 0.038208883 0.09511708
000370 b8 e1 9e bd 3e 33 7b 3c c3 72 da 3c 5b 7a 32 3d
       -0.07757896 0.015332041 0.02666605 0.04357372
000380 b4 0f 96 bb 4a 2c 96 3d fd 95 a7 3b 2a c0 60 3d
       -0.0045795087 0.07332666 0.0051143155 0.054870762
000390 85 e4 d4 3b 3f b8 d4 bc 81 4e 9b bd 45 13 8e 3d
       0.006496968 -0.025966762 -0.07583333 0.06937269
0003a0 52 a2 39 bd 5e 2a e0 3c 18 66 2e 3d 19 bb 40 bd
       -0.045320816 0.027363952 0.042577833 -0.04705343
0003b0 db 36 47 3d 7c 40 25 bd 55 84 2b 3d 24 72 f4 bd
       0.0486363 -0.0403447 0.04187425 -0.11935833
0003c0 22 f1 bc bc b9 0a 01 3d b4 d5 20 3d 3f d7 1b 3b
       -0.0230642 0.031504367 0.039266303 0.002377942
0003d0 9e e7 d1 ba da 9e 85 bc 28 1b 16 3d c1 c3 34 bd
       -0.0016014462 -0.016311098 0.036646992 -0.044131998
0003e0 66 13 d1 3b 33 95 48 3c c7 3c b6 3c d1 4b 92 bc
       0.0063804863 0.012242603 0.022245778 -0.017858418
0003f0 40 a1 05 bd 2f 8c 60 bb 12 70 ab 3c 07 20 5d 3c
       -0.032624483 -0.0034263243 0.020927463 0.013496405

network_body._body_endoder.seq_layers.0.bias f4 [128]
000000 b5 8e b3 bd 97 79 8c bd 36 13 4f bd 32 1f 03 be
       -0.087674536 -0.06859129 -0.05055543 -0.12804869
000010 e9 9b 6b be 2f 3e 39 bd 2c fa 39 be c4 ea 1b be
       -0.23008694 -0.04522532 -0.18161839 -0.15226275
000020 2b c4 cd bd 55 b6 81 be 60 b4 36 be 1a c5 0d be
       -0.10047182 -0.2533442 -0.17842245 -0.1384472
000030 d2 1f 02 be e1 f3 ce bd 94 91 11 be d2 c3 cf bd
       -0.12707451 -0.1010511 -0.1421569 -0.10144772
000040 97 11 5b be 6d 08 a9 bd c4 c5 a2 bc 3f a5 1f be
       -0.21393429 -0.0825356 -0.019869693 -0.1559038
000050 5f eb b4 bd 72 0e 14 be 32 b5 d0 bd 38 84 91 bd
       -0.08833956 -0.14458635 -0.1019081 -0.07105297
000060 6d 24 d8 bd 5f b8 2f bd 1b 7e 1f bd cf 75 cd bd
       -0.10553823 -0.04290044 -0.038938623 -0.10032236
000070 2e f5 44 be 32 d8 24 be 62 ce e6 bd 18 3d 6e be
       -0.19234154 -0.16098097 -0.11269833 -0.23265493
000080 2f c3 83 bd aa 89 4e be dc 31 65 bd 63 19 55 be
       -0.06433713 -0.20169702 -0.055955753 -0.20810466
000090 1b 45 9c bd f6 de 65 3d 6d 07 54 bd 85 10 ae bd
       -0.07630368 0.056120835 -0.051764894 -0.084992446
0000a0 ac bf b9 bd 12 c1 8c bd e3 9b 13 be 8a 0c 39 bc
       -0.09069762 -0.06872763 -0.14414935 -0.011294493
0000b0 a7 8a 21 be b1 6a a6 bd cf 9b de bd 5e c7 06 bd
       -0.15775548 -0.081258185 -0.10869562 -0.032904975
0000c0 fe c9 e0 bd e5 58 0f be 26 d0 cc bd 52 5c ec bd
       -0.10976027 -0.13998754 -0.10000639 -0.11541046
0000d0 d7 17 f9 bb d6 35 fd bd b5 3d b1 bc 45 ef b3 bd
       -0.007601719 -0.12363784 -0.02163587 -0.087858714
0000e0 6d b7 a6 bd 68 2f 6f be b1 58 56 be a4 c9 89 be
       -0.081404544 -0.23357928 -0.2093227 -0.26911652
0000f0 cc 98 46 be 2d 50 27 be 73 d1 1d bd a3 e6 06 be
       -0.19394225 -0.16339178 -0.038529824 -0.13173918
000100 a2 fe da bd 5a 72 0a be 4c e3 14 be cc 78 c9 bd
       -0.106930986 -0.13520184 -0.14539832 -0.09837493
000110 13 8f 8f 3b cb 96 38 be 08 e8 5a be 86 14 1d be
       0.0043810694 -0.18026273 -0.21377575 -0.1533986
000120 66 d2 3f be ca 66 d3 bd 54 3d 24 be 4c b0 1c be
       -0.18732604 -0.1032234 -0.1603902 -0.15301627
000130 48 b6 28 bd dc 9d 60 be 43 7d e6 bd 2e a4 be bd
       -0.041189462 -0.21935219 -0.112543605 -0.093086585
000140 ac df 85 bd 53 0b 70 be 7f 6f 03 be 81 ea 47 be
       -0.06536803 -0.2344182 -0.12835501 -0.1952305
000150 43 82 88 bd 55 9f 6b be 58 ce da bd 52 1d fc bd
       -0.066654705 -0.23009999 -0.10683888 -0.1231028
000160 1d 00 12 be e4 09 e7 bd 3c 57 4a be 3c 92 c1 bd
       -0.14257856 -0.11281183 -0.1975984 -0.0945172
000170 dd 04 98 bc 2d 56 2b be 7a d2 fe bd 50 84 ad bd
       -0.018557006 -0.16732092 -0.12442489 -0.08472502
000180 60 36 e5 bd 48 71 62 be e3 66 ab bd c7 ce 18 be
       -0.11192012 -0.22113526 -0.083692335 -0.1492263
000190 e2 b4 3a be b3 aa 92 bd a0 62 1b bd e5 a1 0b bd
       -0.18233064 -0.071614645 -0.037935853 -0.03408994
0001a0 87 f7 00 be 0c 1e 2f be 9c 7c a9 bd be d9 ae bd
       -0.12594424 -0.17101306 -0.082757205 -0.08537625
0001b0 d9 78 a7 bd b5 c2 8d bd b8 0c 6a be b3 6a fd b9
       -0.08177347 -0.06921903 -0.22856414 -0.00048335418
0001c0 9c b8 62 bd f3 a5 eb bd f1 6b a2 bd 86 31 96 be
       -0.05535184 -0.11506262 -0.079307444 -0.29334658
0001d0 c3 f6 de bd 5a dc cc bd 9b f4 a4 bd c1 d0 1a be
       -0.1088691 -0.10002966 -0.08054467 -0.15118696
0001e0 28 63 02 be c4 4e 73 be fb 49 01 be b3 3a 01 be
       -0.12733138 -0.23760515 -0.12625878 -0.12620048
0001f0 c5 48 20 be 32 5c b4 bd b1 5b b0 bd 85 e3 31 be
       -0.1565276 -0.08806647 -0.08611239 -0.17371948

network_body._body_endoder.seq_layers.0.weight f4 [128, 24]
000000 cf cc 91 bd 2b 2b 56 3e 6a f2 a5 3e 61 4b 2c 3e
       -0.07119142 0.20914905 0.3241151 0.1682563
000010 67 6c c0 be 36 6a a8 3d 68 10 4b bd e4 00 d9 3d
       -0.37582704 0.08223383 -0.049576193 0.10595873
000020 72 4d 7a 3d ce 58 0d be aa e1 1d bc 6a 1f d2 3d
       0.061109014 -0.13803408 -0.009636322 0.10259898
000030 5e e6 35 be 1f e1 b8 bd fc dc 24 be 24 be 8d bd
       -0.1776366 -0.090273134 -0.16099924 -0.06921032
000040 42 42 ca 3c 6f 28 97 be 70 cb 27 3e 57 cc 1c be
       0.024689797 -0.29523036 0.16386199 -0.15312324
000050 c0 29 81 3e 22 27 ee 3d 22 71 6d be fa 8c 69 bd
       0.25227165 0.11628558 -0.23187688 -0.05701921
000060 45 52 b9 3d a0 ff 02 3d fc fd ba bb bf f6 db bd
       0.09048895 0.031982064 -0.005706547 -0.107404225
000070 6a 24 21 3e 66 e9 23 be f6 8a b6 be 69 8e b2 be
       0.15736547 -0.16007003 -0.35652894 -0.34874275
000080 cb 8e af 3d 76 c6 53 be 00 e5 77 be d9 a1 88 3e
       0.085721575 -0.20681176 -0.2420845 0.2668598
000090 22 e9 25 be ed 6e 91 3e 7d 98 19 3b 03 b9 33 be
       -0.16202214 0.28404942 0.0023436837 -0.17551045
0000a0 f9 6d 4b ba 9e df 0f be f3 1a 75 3d 4c 3e c9 3d
       -0.00077602227 -0.14050147 0.059840154 0.09826335
0000b0 66 47 46 be 7e 61 a2 3d 31 82 4b be be af 7f 3e
       -0.19363174 0.079287514 -0.19873883 0.24969384
0000c0 a4 91 d1 3d d4 f5 89 be 80 6e 66 3e 92 8c d1 bd
       0.10232857 -0.26945364 0.2250309 -0.1023189
0000d0 73 79 22 3e 93 86 59 be 93 88 1f 3e 2c e1 fa 3c
       0.15866642 -0.21242742 0.15579443 0.030624948
0000e0 68 be 09 3e 34 31 08 3e d7 7b c6 3c bc 3e 71 bd
       0.1345154 0.1330002 0.024228973 -0.05889772
0000f0 39 3e 0f 3e 30 b0 8d bd 38 b1 a1 3d 76 a6 3e 3e
       0.1398858 -0.06918371 0.0789513 0.18618187
000100 fe ca 65 be 65 8d ce be ca a4 b7 bd 73 6f e6 bd
       -0.22440717 -0.4034225 -0.08966978 -0.11251726
000110 06 00 9c 3d 2f ce 0a 3e 25 9d c3 3d 4f 49 66 3e
       0.07617192 0.13555215 0.09551457 0.22488903
000120 00 bb 14 be a0 26 3b be 24 6b 19 be 11 f9 08 be
       -0.1452446 -0.18276453 -0.14982277 -0.13376261
000130 a3 0c 1f 3c ca 3c ae be 67 2e 94 3d 35 fb a3 be
       0.009707603 -0.34030753 0.07235413 -0.32027593
000140 f8 ad 13 3e 01 e6 00 be 9e 3d 86 bb da 8b d1 3d
       0.14421833 -0.1258774 -0.004096701 0.10231753
000150 b6 95 91 bd c0 04 c2 bd d3 ea 05 3c 0b 52 0b be
       -0.07108633 -0.09473562 0.008173662 -0.13605516
000160 73 20 43 3c cc 42 55 be a9 d3 44 3e a1 1e 9c 3e
       0.011909592 -0.20826262 0.19221367 0.30492118
000170 2d 70 1f 3e 3b 98 f6 3d b8 7a 73 bd 22 a4 36 bd
       0.15570135 0.120407544 -0.059443206 -0.044590123
000180 27 d1 31 be b8 da 20 bf 80 74 60 3e 0b 7b e4 3d
       -0.17364942 -0.6283374 0.21919441 0.11156281
000190 bd 90 81 3d 72 7e 8f bd a7 88 02 3e 30 85 52 3e
       0.06326435 -0.070065394 0.12747441 0.2055862
0001a0 39 e5 17 3d 97 a7 1f be 69 70 d4 be 22 6c 92 3e
       0.037083838 -0.15591274 -0.41492012 0.28598124
0001b0 e1 76 98 3c c0 25 8e bd 20 de 8f 3e 8a e5 0e be
       0.018611373 -0.06940794 0.28099155 -0.1395475
0001c0 50 e0 89 be c8 da 1d bc 0a 00 71 be b1 df 98 3e
       -0.2692895 -0.009634681 -0.23535171 0.29858163
0001d0 2a eb ba bd 4b 3c 7c bc 2b 76 dc be a8 1e 3d be
       -0.09126885 -0.015395234 -0.43058905 -0.18468726
0001e0 fc 2b 76 be aa 6d a1 be e3 13 94 be 2d ff 67 3e
       -0.24040216 -0.3152898 -0.28921422 0.22655936
0001f0 2c b3 26 bd 01 b2 2b 3e 6b c7 07 3e 53 15 c1 be
       -0.040698215 0.16767122 0.13259666 -0.37711582
000200 66 fe b2 3e a4 7d e5 be a0 73 d5 3d 97 6a c6 3e
       0.34959716 -0.4482242 0.10422444 0.38753197
000210 db bb 57 3d f5 73 2b be 69 73 1b bd 36 49 5d bd
       0.052669387 -0.16743453 -0.03795186 -0.054024898
000220 85 f9 0f 3e 86 0f 5a bd 93 23 cb 3e c4 0b 14 be
       0.14060028 -0.05323746 0.39675578 -0.14457613
000230 3b ac 2e 3e d1 84 cf 3d 8b 17 17 3c cf 15 1c 3e
       0.17057888 0.101327546 0.009221922 0.15242694
000240 d1 cb 53 3e 69 b0 52 be 7d 3e 54 3e 67 31 87 bd
       0.20683219 -0.20575108 0.20726962 -0.066012196
000250 77 8d b7 be 15 37 4a 3c e0 8e 41 bd db 56 d7 bc
       -0.35850117 0.012342234 -0.047255397 -0.026286533
000260 89 62 8d be 0d e9 05 3d 3f f7 9f be 1b b0 b2 3e
       -0.2761424 0.032692958 -0.3124332 0.34899983
000270 3b 77 fb bd 27 7e a0 be bd a5 96 be 52 6e 60 3e
       -0.12278601 -0.31346247 -0.29423323 0.21917084
000280 79 86 06 be 2a d1 55 3e 1d cc 83 be 17 50 81 3e
       -0.13137235 0.20880571 -0.25741664 0.25256416
000290 eb 49 a1 3d 46 96 cf bd 51 77 19 be 31 2f 9d be
       0.07875427 -0.10136084 -0.14986922 -0.30700067
0002a0 31 ee a0 be 73 63 40 3e 5f 20 c3 3e 2c c1 f5 3d
       -0.31431726 0.18787937 0.38110635 0.11999735
0002b0 a5 e4 d5 be 51 20 9c be 15 ce 31 3d 6e f7 b6 3d
       -0.41776004 -0.30493405 0.043409426 0.08933912
0002c0 37 d9 8c 3e 23 f8 37 3e ba 2c 41 be d6 dc df 3d
       0.27509472 0.1796575 -0.18864718 0.10930793
0002d0 33 91 8f 3e fe 40 21 3e f2 6a b5 be d7 92 8a be
       0.28040466 0.15747449 -0.35433155 -0.27065155
0002e0 d3 f1 87 bd 91 e3 a2 bd 71 4a 51 3e 77 e1 b1 bc
       -0.06637921 -0.07953561 0.20438553 -0.021713955
0002f0 12 1c 6d 3c d9 8c 78 3e 83 1f 4b bc b4 9c b9 3e
       0.0144720245 0.24272479 -0.01239765 0.36252367
000300 9a 78 2d be 73 57 32 3d 75 f4 7d 3e eb bc 5a 3e
       -0.16940537 0.04354043 0.24800284 0.21361129
000310 d1 64 58 be 20 cb 81 3e b0 08 b9 be 47 63 b1 3e
       -0.21132208 0.25350285 -0.3613944 0.34646055
000320 da 32 9a bd 88 96 74 3e 52 5d 85 bd c3 2f 24 3e
       -0.075292304 0.23885548 -0.0651194 0.16033845
000330 43 ba 4b be 74 69 86 3e ea 6b 5d 3d f2 70 82 3b
       -0.19895272 0.2625233 0.054057993 0.0039807493
000340 d8 44 a9 be 92 cb 58 3e c7 91 00 3e 3e 0b 87 3d
       -0.33060336 0.21171406 0.1255561 0.06593941
000350 74 1c af be 96 b2 e7 be 56 cd 4a be 33 95 87 bd
       -0.34201396 -0.45253438 -0.19804892 -0.06620254
000360 7e a8 11 bd c5 eb e6 be 95 5c 92 3c 04 53 92 bc
       -0.035561077 -0.45101753 0.017866412 -0.01786185
000370 39 8d 48 be 59 7a b7 3d cb bf eb 3c 0c e2 98 3e
       -0.19585122 0.08958883 0.028777977 0.2985996
000380 a0 c5 c1 bd 4d 13 a4 bd 23 ca 69 be be c0 3a 3e
       -0.09461522 -0.08011494 -0.22831015 0.18237588
000390 9f 1e 6e bc 3a 2e 4b be db c7 1f 3e 6d 08 b6 bb
       -0.014533668 -0.19841853 0.15603583 -0.0055552037
0003a0 6b 23 69 be b0 a4 02 be a1 a4 7c 3c 59 f7 21 3e
       -0.22767417 -0.12758136 0.01542011 0.15817012
0003b0 9e 58 b5 3d 2a 7d 83 3d 67 3d 32 bc 76 5e f2 bd
       0.08854793 0.064203575 -0.010878897 -0.11834423
0003c0 0f d9 52 bd 9e ad 30 be 0b df 45 3e cf ee 59 be
       -0.051476534 -0.1725373 0.19323365 -0.21282504
0003d0 4d 60 99 bd 23 f3 95 3e ec 3e 73 bd e1 63 3c 3e
       -0.07489071 0.2928706 -0.05938618 0.18397476
0003e0 3d 23 09 3c b8 f8 f3 bc 76 62 bc be ab 89 5e 3d
       0.008370218 -0.029781684 -0.3679387 0.05433051
0003f0 d7 99 41 bd 54 aa 99 3d 8d 17 bf 3e 35 b2 51 3e
       -0.047265854 0.07503191 0.37322655 0.20478137
