Assets/trining/results/Messi2/AgentTest/AgentTest-1499962.onnx (onnx, 82986 bytes, 8 tensors)

49 f4 [24]
40.897217 0.20998552 11.84696 22.882353 0.10499514 13.207313 27.370312 0.0008165066
18.40894 40.897217 0.20998552 11.8471155 40.998245 0.0025819906 11.871473 23.118402
0.001471965 13.231517 27.428196 0.0008165066 18.479082 40.998245 0.0025819906 11.87163
00000000: c096 2342 7206 573e 268d 3d41 0f0f b741
00000010: b107 d73d 2751 5341 66f6 da41 d50a 563a
00000020: 8245 9341 c096 2342 7206 573e c98d 3d41
00000030: 34fe 2342 9d36 293b 8ef1 3d41 7df2 b841
00000040: f3ee c03a 4bb4 5341 f26c db41 d50a 563a
00000050: 29d5 9341 34fe 2342 9d36 293b 32f2 3d41

action_model._discrete_distribution.branches.0.bias f4 [3]
0.012976058 -0.05809713 0.037438523
00000000: 8899 543c 42f7 6dbd 2359 193d

action_model._discrete_distribution.branches.0.weight f4 [3, 128]
0.017780667 0.05753755 -0.01961237 0.037527297 0.053024787 0.0013453414 0.01681021 0.011471451
0.012029695 -0.03500098 0.046439037 0.014172939 -0.0014502652 -0.013688091 -0.017694894 0.01258642
0.06582249 0.013760473 -0.042247117 0.0060120635 0.09006801 -0.0048171044 -0.013010911 0.043386307
-0.016849313 0.042999335 0.033605926 0.019501563 0.03759274 0.0030951113 0.068800256 0.011540996
0.034021743 0.0043425173 0.024564682 -0.061825458 -0.029633852 0.07210383 0.03612368 0.013386268
-0.06844213 -0.0035364449 0.012290965 0.016617471 -0.03616897 0.034529198 -0.059228383 0.0144633
-0.032420125 0.009472125 0.061926007 -0.053589188 -0.0029017588 -0.006807105 0.019616388 -0.053012222
-0.00214138 0.106679834 0.037901353 -0.077755 0.017804323 0.058535796 0.0023985263 0.018506618
0.03593588 0.058202714 -0.012617132 -0.008998811 0.004043847 0.001095141 0.0021725767 -0.016589228
-0.050370686 0.10264922 -0.041870784 0.065929964 0.03962145 -0.02479859 0.053569358 -0.00029874835
-0.039114427 -0.056263488 -0.019651087 0.024107654 0.036698863 0.10131164 0.043687202 0.08338084
-0.03818389 0.07027743 -0.004753899 0.061204243 -0.0674372 0.011136879 -0.023155373 0.008223868
0.08097461 0.016358538 -0.04187879 -0.042531908 0.030423317 0.021573389 0.06264571 0.045025803
-0.004927882 0.013298559 0.07161282 0.042252675 0.036728352 -0.075770296 -0.041899327 -0.025320088
-0.045691364 -0.014688633 0.036148947 0.057301488 0.061431494 -0.021890398 0.060441878 0.06207137
-0.066020034 0.029205397 0.047681518 0.018733706 -0.013002458 0.014029734 0.03820757 -0.012278732
0.035725653 0.16008057 0.14988889 0.12783998 -0.07079718 0.04536305 -0.10914677 0.035849996
0.14915858 0.2147988 0.038984284 0.031465273 -0.18325058 -0.14897712 0.008596646 -0.12812442
-0.07107539 -0.0154033685 0.1383552 0.054360926 0.068549596 0.10688514 0.041217674 0.16103959
-0.06604748 0.15889229 -0.086885445 -0.050358254 -0.14043991 -0.11632711 0.1380693 -0.008853741
0.17819513 0.033657372 -0.012444108 0.057984162 -0.13528872 0.06358858 0.1443878 -0.007566303
0.1753884 0.17823501 -0.19887583 -0.20057897 0.073104545 -0.032492872 0.22830987 0.114763804
-0.009003719 0.16650467 0.018757917 0.13266832 0.20268227 -0.08833265 -0.020430967 0.07725918
-0.028088443 0.10033801 -0.06625228 0.1580778 -0.11629895 -0.08964432 0.16471055 0.1345293
-0.2535957 -0.041762985 -0.12979732 -0.011024627 0.15146212 0.0065235975 -0.068717316 -0.06821704
-0.07540354 0.082661234 0.22185887 0.12590249 0.16950892 0.012669553 -0.10710985 0.12023447
0.18153931 0.16763522 0.094072975 0.1362262 0.02684842 0.13270546 -0.02985781 -0.018985301
0.205549 0.12277532 0.10641545 0.005863093 -0.04459758 0.040849917 -0.09411045 -0.14776185
0.07477559 0.036398977 -0.021266853 0.1323594 0.019122764 0.089519374 0.013811689 0.07273805
-0.008031172 0.11390115 0.041848402 0.03953834 0.018390788 0.129411 -0.09861225 0.053819716
-0.0707492 -0.082856186 0.07186097 -0.021993466 0.15964244 -0.06283758 -0.0489471 0.042039458
0.11004601 0.043081664 -0.094403595 -0.13268632 0.0078020506 -0.03211087 -0.08784663 -0.24226572
00000000: c3a8 913c 7eac 6b3d 1faa a0bc 39b6 193d
00000010: 8530 593d 2b56 b03a 91b5 893c c1f2 3b3c
00000020: 3318 453c 305d 0fbd dc36 3e3d 9d35 683c
00000030: d316 beba 0444 60bc e2f4 90bc 4637 4e3c
00000040: f1cd 863d 9b73 613c 500b 2dbd d800 c53b
00000050: 9475 b83d cdd8 9dbb b72b 55bc d7b5 313d
00000060: 9207 8abc 1220 303d 5ea6 093d bec1 9f3c
00000070: d8fa 193d 5ad7 4a3b 26e7 8c3d 7216 3d3c
00000080: 625a 0b3d ad4b 8e3b df3b c93c b13c 7dbd
00000090: b1c2 f2bc 2cab 933d 6df6 133d 1452 5b3c
000000a0: 632b 8cbd b3c3 67bb 0b60 493c 5d21 883c
000000b0: ea25 14bd 7d6e 0d3d 7699 72bd 7af7 6c3c
000000c0: f7ca 04bd f930 1b3c 20a6 7d3d 5680 5bbd
000000d0: 6f2b 3ebb 230e dfbb 8cb2 a03c 5823 59bd
000000e0: 6556 0cbb f57a da3d 733e 1b3d 033e 9fbd
000000f0: 5fda 913c 3bc3 6f3d 9830 1d3b 319b 973c
00000100: 8031 133d f865 6e3d 16b8 4ebc c06f 13bc
00000110: 3f82 843b d68a 8f3a ca61 0e3b 22e6 87bc
00000120: 7e51 4ebd c139 d23d b380 2bbd 4a06 873d
00000130: 1a4a 223d 6a26 cbbc 8b6b 5b3d 53a1 9cb9
00000140: 7336 20bd 8b74 66bd 51fb a0bc 6a7d c53c
00000150: 8c51 163d 7a7c cf3d 5af1 323d 93c3 aa3d
00000160: b666 1cbd 9ded 8f3d 98c6 9bbb 4db1 7a3d
00000170: 841c 8abd 7577 363c 56b0 bdbc 67bd 063c
00000180: 04d6 a53d 5702 863c 1889 2bbd f035 2ebd
00000190: 523a f93c adba b03c 654c 803d fa6c 383d
000001a0: 127a a1bb 33e2 593c bea9 923d 2411 2d3d
000001b0: 7870 163d 752d 9bbd a19e 2bbd 136c cfbc
000001c0: de26 3bbd 98a8 70bc eb10 143d f7b4 6a3d
000001d0: 979f 7b3d 7e53 b3bc e791 773d 8d3e 7e3d
000001e0: 8335 87bd 2840 ef3c b24d 433d 6e77 993c
000001f0: 4308 55bc f8dc 653c 8a7f 1c3d bc2c 49bc
00000200: 1055 123d 29ec 233e 797c 193e 7ce8 023e
00000210: 1dfe 90bd 9bce 393d 5788 dfbd 72d7 123d
00000220: 07bd 183e 37f4 5b3e fcad 1f3d bbe1 003d
00000230: 0aa6 3bbe 758d 18be f2d8 0c3c 0c33 03be
00000240: f98f 91bd 695e 7cbc fcac 0d3e 90a9 5e3d
00000250: bb63 8c3d 99e6 da3d ddd3 283d 90e7 243e
00000260: e743 87bd a9b4 223e fff0 b1bd 7544 4ebd
00000270: 7bcf 0fbe e83c eebd 0a62 0d3e 480f 11bc
00000280: c978 363e 50dc 093d 5fe2 4bbc cd80 6d3d
00000290: 2089 0abe bb3a 823d 65da 133e c0ee f7bb
000002a0: 0499 333e 3d83 363e 1ba6 4bbe 9364 4dbe
000002b0: d6b7 953d 3f17 05bd 10ca 693e 4909 eb3d
000002c0: 5684 13bc 3380 2a3e 34aa 993c 34da 073e
000002d0: f18b 4f3e c0e7 b4bd d85e a7bc 103a 9e3d
000002e0: bc19 e6bc 047e cd3d 46af 87bd 26df 213e
000002f0: 252e eebd 7197 b7bd e2a9 283e 0cc2 093e
00000300: 4cd7 81be aa0f 2bbd 97e9 04be a3a0 34bc
00000310: e318 1b3e e7c3 d53b aabb 8cbd 60b5 8bbd
00000320: 2c6d 9abd 4b4a a93d f92e 633e 95ec 003e
00000330: bf93 2d3e f593 4f3c 695c dbbd 7d3d f63d
00000340: 71e5 393e 91a8 2b3e 55a9 c03d e27e 0b3e
00000350: 38f1 db3c f1e3 073e 5e98 f4bc 1087 9bbc
00000360: 707b 523e a171 fb3d 58f0 d93d 301f c03b
00000370: f4ab 36bd 3e52 273d fbbc c0bd e24e 17be
00000380: f223 993d 1817 153d d337 aebc 3989 073e
00000390: 58a7 9c3c ef55 b73d 6c4a 623c b0f7 943d
000003a0: 2d95 03bc 0245 e93d 3b69 2b3d f4f2 213d
000003b0: 47a8 963c 5184 043e 38f5 c9bd 1072 5c3d
000003c0: f5e4 90bd 81b0 a9bd d82b 933d a42b b4bc
000003d0: 4f79 233e fdb0 80bd c17c 48bd 9131 2c3d
000003e0: cd5f e13d 6676 303d ac56 c1bd ecde 07be
000003f0: 58a8 ff3b b086 03bd efe8 b3bd 8114 78be

network_body._body_endoder.seq_layers.0.bias f4 [128]
0.02864598 0.009480968 -0.042156458 -0.022130486 -0.0007097085 -0.023871528 0.035027992 0.0066874656
0.0067371246 0.06474298 -0.03043781 -0.05665975 -0.056516252 0.0111321565 -0.035807114 -0.067662366
0.02037366 0.10317365 -0.04544353 -0.16901948 -0.024749955 -0.059438597 -0.14085308 -0.0307199
-0.03760562 -0.007868449 0.023881728 0.021735188 -0.00035436227 -0.010224816 0.023550414 0.035555664
-0.09839498 0.05823685 0.032231394 0.07410051 -0.04331237 -0.01512527 -0.10668308 -0.16986966
-0.05032984 0.059830006 0.08573479 -0.08218588 -0.11041389 -0.0064306483 0.032933123 -0.038240425
-0.006723013 0.042943336 -0.014671076 -0.06559017 -0.029797157 -0.013100452 0.0021164815 0.01564513
-0.06271745 -0.0319634 -0.0004798731 0.008615799 0.01143006 -0.010373317 -0.020252217 0.031057764
0.038939804 -0.03237184 0.026001088 0.03726128 0.029277729 -0.039143827 -0.11442506 0.030187478
0.029652208 -0.003867368 -0.045383267 -0.029670803 -0.042227034 0.023187652 0.05022403 0.00750627
0.035382293 0.00630188 0.025314637 -0.045746524 -0.025357585 0.0037106054 -0.07653781 -0.075434305
-0.03232117 -0.053031873 0.0022958831 0.06275538 -0.008966386 -0.046954207 -0.042050187 0.038628954
0.0494597 0.026594749 -0.11480942 0.008006931 0.029426508 0.010423687 -0.053459786 0.0021686016
-0.055120505 0.015085887 0.005595037 -0.007461314 -0.077388145 -0.12294793 0.014693861 0.00086390093
-0.0932415 -0.12637416 0.015308183 -0.04645157 0.055734396 -0.12473114 -0.039090417 -0.044808477
0.039364208 -0.028696204 0.014309423 -0.042898215 0.008221152 -0.0066055674 -0.13060038 -0.02647172
00000000: f9aa ea3c 1056 1b3c 40ac 2cbd fe4a b5bc
00000010: bb0b 3aba 398e c3bc 8379 0f3d 8722 db3b
00000020: 19c3 dc3b f897 843d b758 f9bc 0e14 68bd
00000030: 967d 67bd a663 363c 7baa 12bd 9192 8abd
00000040: a9e6 a63c b54c d33d ff22 3abd 7113 2dbe
00000050: 6bc0 cabc e375 73bd ca3b 10be 4da8 fbbc
00000060: 5a08 1abd abea 00bc 9da3 c33c fe0d b23c
00000070: b3c9 b9b9 fd85 27bc ccec c03c d1a2 113d
00000080: 4f83 c9bd c389 6e3d 1105 043d 02c2 973d
00000090: 5068 31bd fbcf 77bc a97c dabd 50f2 2dbe
000000a0: aa26 4ebd 4f10 753d b995 af3d 1251 a8bd
000000b0: ad20 e2bd 30b8 d2bb e2e4 063d fea1 1cbd
000000c0: b84c dcbb 5ae5 2f3d f45e 70bc 2454 86bd
000000d0: 2b19 f4bc 47a3 56bc abb4 0a3b 372a 803c
000000e0: 0272 80bd 0eec 02bd 7a97 fbb9 4829 0d3c
000000f0: 2545 3b3c d8f4 29bc fae7 a5bc da6c fe3c
00000100: 587f 1f3d 5698 04bd 3c00 d53c 499f 183d
00000110: d9d7 ef3c 4755 20bd b057 eabd bb4b f73c
00000120: 30e9 f23c ab73 7dbb cee3 39bd 2f10 f3bc
00000130: 41f6 2cbd 08f4 bd3c b6b7 4d3d 28f7 f53b
00000140: 06ed 103d 0080 ce3b a460 cf3c b560 3bbd
00000150: b6ba cfbc a12d 733b dbbf 9cbd 4d7d 9abd
00000160: 3463 04bd f337 59bd 8776 163b e585 803d
00000170: c0e7 12bc 0e53 40bd d13c 2cbd 6539 1e3d
00000180: 4196 4a3d 3bdd d93c 3421 ebbd 812f 033c
00000190: dc0f f13c 1dc8 2a3c a6f8 5abd 191f 0e3b
000001a0: 0ac6 61bd cc2a 773c 9256 b73b 0a7e f4bb
000001b0: ad7d 9ebd 20cc fbbd 85be 703c 6977 623a
000001c0: 66f5 bebd 3a68 01be 2ccf 7a3c 0044 3ebd
000001d0: c049 643d 0a73 ffbd 461d 20bd 1889 37bd
000001e0: 5d3c 213d 4d14 ebbc 1272 6a3c 0ab6 2fbd
000001f0: 03b2 063c 8473 d8bb 1bbc 05be 38db d8bc

network_body._body_endoder.seq_layers.0.weight f4 [128, 24]
0.042924806 0.012881642 0.45246866 -0.21805638 0.346235 -0.3461877 -0.2632753 -0.054473575
-0.07585667 0.12399647 0.19866478 -0.09367541 -0.26185188 0.18775326 0.3468857 0.69249433
0.2543021 0.13393912 -0.31145403 0.23640466 0.04909356 -0.013712006 -0.08441865 -0.17745359
-0.1339028 -0.28141227 -0.08862819 0.11849817 -0.037146904 0.31803438 0.29330292 0.010010396
-0.2900742 -0.39090875 -0.2149037 0.04448052 0.31376904 -0.09801024 -0.21677482 0.3414129
-0.3903529 0.26938808 0.31597054 0.11993291 -0.32501888 -0.16748692 0.29681635 0.004081041
-0.20933045 -0.19244382 0.007344462 -0.16028096 0.06042549 -0.3193729 -0.3068871 -0.19958319
0.08346715 -0.050751153 -0.20758533 0.2587965 -0.16930413 -0.061067663 0.11722925 -0.16694456
0.09824707 -0.2505498 0.2958613 0.09811339 0.027868798 -0.72880155 0.25070316 -0.022117525
0.1104596 -0.14703639 0.115900315 0.08410588 0.0011719437 0.17704178 -0.6179367 0.03589497
0.14746122 0.14798239 0.23013476 -0.13595894 0.12819076 -0.4655051 -0.2069374 -0.27786356
-0.21447247 0.09820815 -0.11915947 0.17848094 0.019781565 -0.19520497 -0.034445193 -0.23269992
-0.11191168 0.16640824 -0.19709004 -0.5849806 0.2707005 -0.011650655 0.22651026 -0.0061588436
-0.3702272 -0.23261467 -0.048555322 -0.13751367 0.169535 -0.186298 0.45759434 -0.26161897
-0.07047294 -0.12996419 0.045461535 -0.09089796 0.014935871 -0.41097793 -0.049163498 0.070008576
-0.14261587 -0.06439334 -0.24480473 0.032066513 0.016160652 0.008047583 0.062097676 0.34313002
-0.37123802 0.19323066 0.21492031 -0.19873331 -0.056567248 -0.11106321 0.0927516 -0.26692775
-0.06438156 -0.2960042 0.5989261 -0.0778953 -0.12774628 -0.01104569 -0.037113503 0.114749454
-0.18182996 0.06530857 0.16516149 -0.27898937 -0.0038972932 -0.20043707 0.08468843 -0.07808675
0.03447564 0.2513926 -0.078661986 0.10931287 0.070143655 0.08592454 0.12234362 -0.2638854
-0.17391203 -0.011595579 0.15285829 -0.27909034 -0.032158326 -0.00030874932 0.09598978 -0.09661646
-0.2034039 0.12319438 0.080613755 -0.3669782 -0.15718599 -0.22071569 -0.45324993 -0.16678411
0.3271281 0.3797062 0.0081805205 -0.15927477 -0.060861345 -0.036080353 -0.24643883 0.1490691
0.038114898 -0.19649592 -0.14110714 0.002534675 -0.2287837 0.10916957 0.14306732 -0.010334407
-0.24394079 0.31674242 -0.10330988 0.10097716 0.03579917 -0.060495358 -0.13994394 -0.0165562
-0.13935336 0.06256859 0.06829012 -0.03247938 -0.26840308 -0.038388353 0.091231935 -0.25761676
0.04411685 0.0016439405 -0.25047094 0.06074558 -0.08819933 0.10212484 -0.3067042 -0.001213554
-0.28177515 0.08510657 -0.18783686 -0.2829721 -0.13840859 0.3533789 -0.050376665 0.19552083
-0.17245287 -0.08962135 -0.22943845 0.07741175 0.090604566 -0.15771353 -0.26569366 -0.0068283323
0.2420878 0.107205674 0.306176 0.6107634 -0.14264774 0.065534845 -0.009173898 -0.34365535
0.008240029 -0.34425676 -0.2602158 -0.12500225 -0.30346674 -0.14181095 -0.049021825 0.15081137
-0.18197499 0.03926382 -0.055515885 -0.10809593 -0.23579025 -0.028018223 0.15475968 -0.16737896
00000000: ecd1 2f3d 860d 533c f9a9 e73e 2c4a 5fbe
00000010: b745 b13e 843f b1be 05cc 86be af1f 5fbd
00000020: be5a 9bbd dcf1 fd3d c86e 4b3e e5d8 bfbd
00000030: 7311 86be 6442 403e 019b b13e 4f47 313f
00000040: e333 823e 5627 093e e776 9fbe 1014 723e
00000050: 5416 493d 52a8 60bc afe3 acbd 65b6 35be
00000060: d11d 09be 4515 90be b282 b5bd 2baf f23d
00000070: 5a27 18bd 67d5 a23e cd2b 963e a502 243c
00000080: 9b84 94be 3125 c8be b70f 5cbe 3531 363d
00000090: 56a6 a03e 98b9 c8bd 38fa 5dbe accd ae3e
000000a0: 56dc c7be 3ced 893e e4c6 a13e 639f f53d
000000b0: e068 a6be b181 2bbe 50f8 973e 41ba 853b
000000c0: b95a 56be fe0f 45be d0a9 f03b b120 24be
000000d0: b880 773d d884 a3be 4e20 9dbe 895f 4cbe
000000e0: d3f0 aa3d 71e0 4fbd 4091 54be fa80 843e
000000f0: 105e 2dbe 1622 7abd e415 f03d 84f3 2abe
00000100: c335 c93d 1048 80be 227b 973e acef c83d
00000110: 1b4d e43c bd92 3abf 2a5c 803e d02f b5bc
00000120: a538 e23d b590 16be 255d ed3d b43f ac3d
00000130: e89b 993a 714a 353e 1931 1ebf 9b06 133d
00000140: 1300 173e b288 173e 72a8 6b3e d238 0bbe
00000150: 7044 033e af56 eebe 66e7 53be 2244 8ebe
00000160: ac9e 5bbe 5b21 c93d e109 f4bd b5c3 363e
00000170: f30c a23c d0e3 47be 6716 0dbd e348 6ebe
00000180: f331 e5bd ec66 2a3e f9d1 49be 4ac1 15bf
00000190: 4299 8a3e 64e2 3ebc 4ef2 673e 20d0 c9bb
000001a0: 6b8e bdbe 8a32 6ebe f2e1 46bd 62d0 0cbe
000001b0: 959a 2d3e e7c4 3ebe ce49 ea3e ecf2 85be
000001c0: 1e54 90bd 5515 05be e035 3a3d b628 babd
000001d0: 95b5 743c b36b d2be aa5f 49bd a860 8f3d
000001e0: e509 12be a8e0 83bd 17ae 7abe 2d58 033d
000001f0: 5863 843c 02da 033c 225a 7e3d bdae af3e
00000200: e912 bebe 42de 453e 1214 5c3e bf80 4bbe
00000210: 0fb3 67bd 1c75 e3bd 8df4 bd3d c1aa 88be
00000220: 7bda 83bd dd8d 97be 3953 193f 9287 9fbd
00000230: eccf 02be fbf8 34bc 5404 18bd c301 eb3d
00000240: a231 3abe 80c0 853d 1820 293e b2d7 8ebe
00000250: bb69 7fbb 603f 4dbe 2171 ad3d f2eb 9fbd
00000260: 5436 0d3d 88b6 803e 8919 a1bd 6ddf df3d
00000270: 7aa7 8f3d 35f9 af3d 4b8f fa3d fd1b 87be
00000280: ff15 32be 62fb 3dbc e286 1c3e eee4 8ebe
00000290: 73b8 03bd a2df a1b9 4a96 c43d dade c5bd
000002a0: 1d49 50be 564d fc3d d318 a53d 91e4 bbbe
000002b0: 5df5 20be 4b03 62be 6010 e8be 74c9 2abe
000002c0: 567d a73e da68 c23e 9707 063c ed18 23be
000002d0: bf49 79bd fec8 13bd 765a 7cbe 92a5 183e
000002e0: 5e1e 1c3d 3a36 49be 647e 10be ca1c 263b
000002f0: 4646 6abe 4c94 df3d 3d80 123e a551 29bc
00000300: 9dcb 79be 102c a23e 2194 d3bd 1dcd ce3d
00000310: 27a2 123d fbc9 77bd 774d 0fbe dea0 87bc
00000320: a6b2 0ebe f623 803d b1db 8b3d 1909 05bd
00000330: 216c 89be 1b3d 1dbd cfd7 ba3d 58e6 83be
00000340: dfb3 343d 7d79 d73a ba3d 80be 5bd0 783d
00000350: daa1 b4bd d426 d13d 5508 9dbe 1d10 9fba
00000360: d544 90be 5a4c ae3d 4e58 40be b8e1 90be
00000370: fbba 0dbe 14ee b43e c357 4ebd 9d36 483e
00000380: 7c97 30be 668b b7bd eaf1 6abe 0d8a 9e3d
00000390: e38e b93d a87f 21be 0009 88be 34c0 dfbb
000003a0: dde5 773e a68e db3d 1ac3 9c3e fd5a 1c3f
000003b0: 4012 12be 2237 863d 1e4e 16bc 98f3 afbe
000003c0: 3001 073c 6c42 b0be 013b 85be 9700 00be
000003d0: fe5f 9bbe e436 11be 1ccb 48bd 4c6e 1a3e
000003e0: a757 3abe 19d3 203d a064 63bd 6661 ddbd
000003f0: 0073 71be 7986 e5bc 5279 1e3e 6465 2bbe

network_body._body_endoder.seq_layers.2.bias f4 [128]
-0.07024862 0.074001834 0.034818478 0.059553057 0.007099603 -0.022968167 -0.0067420397 -0.019511059
0.038913734 0.02862644 -0.0267145 0.0051388005 0.08844892 0.053491514 -0.0940185 0.07648546
0.002006391 0.041863337 -0.0221924 -0.057677362 0.04796617 0.003682686 -0.061170056 0.068586744
-0.016880339 0.05032892 0.06105381 -0.021404475 0.07805175 0.04330157 0.05289229 0.0089306
0.060748067 -0.008071092 -0.06819515 -0.009036595 0.0762368 0.055476982 0.037804134 0.033585194
0.014798955 0.053524483 0.08892614 0.09048067 -0.008515455 -0.010053351 0.07243457 0.02734179
-0.037949443 0.040524106 -0.019995436 -0.0035790973 0.015421017 0.08877453 -0.042164363 0.008281218
0.0060585923 0.04486106 -0.07624647 -0.013554731 0.07485231 0.060391374 0.030763788 0.06893115
0.15305196 0.021200238 0.080478586 -0.0149528 0.015870731 -0.053071093 0.022410402 0.0042118207
0.035849914 0.054888587 0.012858412 0.024265585 0.01859566 -0.057887048 0.06946927 0.011269249
0.033875458 0.030592429 0.018402163 0.03214151 0.003833162 0.048845883 0.026634175 -0.035328463
0.05973065 0.033364378 0.033371434 -0.036941495 0.01510095 -0.0569523 0.020041734 0.08700263
0.038178317 -0.024945538 -0.08716162 -0.03529852 -0.047265653 0.029339097 -0.027309448 0.0015250862
-0.04919525 0.001920817 0.056472942 -0.046442993 -0.010325588 -0.00470244 0.038455524 -0.005110467
0.013938812 0.0486892 0.027695488 -0.04617008 0.049546145 0.040302645 -0.031153584 -0.011337231
-0.03701634 -0.035046857 -0.032006588 0.07398621 -0.07688532 0.020364543 0.047646277 0.13418645
00000000: 82de 8fbd 468e 973d d29d 0e3d e8ed 733d
00000010: c9a3 e83b bd27 bcbc 54ec dcbb a8d5 9fbc
00000020: 0264 1f3d ff81 ea3c 5ed8 dabc 6263 a83b
00000030: b524 b53d eb19 5b3d c58c c0bd 69a4 9c3d
00000040: a87d 033b e478 2b3d d6cc b5bc 193f 6cbd
00000050: 2d78 443d 3859 713b 748d 7abd 3577 8c3d
00000060: a348 8abc b325 4e3d 8f13 7a3d 7058 afbc
00000070: 99d9 9f3d fd5c 313d 96a5 583d a751 123c
00000080: f7d2 783d 9d3c 04bc e6a9 8bbd 3a0e 14bc
00000090: 0a22 9c3d d53b 633d 82d8 1a3d a190 093d
000000a0: 5177 723c 7d3c 5b3d e81e b63d ee4d b93d
000000b0: 6884 0bbc cfb6 24bc 9358 943d e4fb df3c
000000c0: e070 1bbd 9bfc 253d 78cd a3bc 4a8f 6abb
000000d0: 6fa8 7c3c 6ccf b53d 8ab4 2cbd f2ad 073c
000000e0: 2887 c63b 3bc0 373d 1c27 9cbd aa14 5ebc
000000f0: 2b4c 993d f25c 773d 5704 fc3c c62b 8d3d
00000100: a7b9 1c3e 1fac ad3c f5d1 a43d 97fc 74bc
00000110: 5603 823c 1361 59bd 0596 b73c 5003 8a3b
00000120: 5cd7 123d dbd2 603d 17ac 523c 9fc8 c63c
00000130: ed55 983c f81a 6dbd e845 8e3d a8a2 383c
00000140: fec0 0a3d f99c fa3c 22c0 963c d1a6 033d
00000150: c935 7b3b 9f12 483d ea2f da3c 94b4 10bd
00000160: 20a8 743d 16a9 083d 7cb0 083d f74f 17bd
00000170: fa69 773c d146 69bd 902e a43c 6f2e b23d
00000180: de60 1c3d 965a ccbc cb81 b2bd 2e95 10bd
00000190: a199 41bd 8c58 f03c 10b8 dfbc 67e5 c73a
000001a0: f580 49bd ecc3 fb3a 2c50 673d 023b 3ebd
000001b0: a82c 29bc ed16 9abb 8a83 1d3d b475 a7bb
000001c0: 9d5f 643c 546e 473d a6e1 e23c d61c 3dbd
000001d0: e6f0 4a3d 6314 253d cd35 ffbc cbbf 39bc
000001e0: 729e 17bd 4b8d 0fbd 5719 03bd 1586 973d
000001f0: 0d76 9dbd 8bd3 a63c be28 433d 2c68 093e

network_body._body_endoder.seq_layers.2.weight f4 [128, 128]
0.015141706 -0.056302056 0.06275673 -0.020802772 -0.054916102 -0.054474697 0.058978774 -0.13070747
0.21123412 -0.0505913 -0.05800084 -0.11753063 -0.13812572 -0.052049343 0.055379692 -0.17356913
0.06794037 0.1694421 0.08053119 -0.061899196 0.015792334 0.015866723 -0.1461266 -0.15346754
-0.029394882 0.08053198 -0.119996265 -0.09192684 -0.061141368 0.13898142 0.11330336 0.13064094
0.067737006 0.13799393 -0.038339153 -0.0968104 0.062027 0.0067162192 0.07085451 0.1556254
-0.08635827 0.16227895 0.0522937 0.03873725 -0.09736207 0.051030196 -0.02038485 0.066421956
0.011021963 -0.030667912 -0.22964963 0.042005096 0.012255312 0.11900399 0.06231958 -0.100322425
0.0126989335 -0.13491163 0.103831604 0.099631876 0.0889482 -0.0336227 -0.043190837 -0.1385015
0.078490205 -0.18878902 0.11637588 -0.024441304 0.015213638 -0.00797609 0.034070063 -0.08554009
-0.10648782 0.0814034 -0.13546503 0.10713913 0.03791659 -0.1324686 -0.033862587 -0.05256506
-0.14676294 0.1256035 0.023267638 0.08844592 -0.17553928 0.11512017 -0.04512298 0.13649313
-0.07452733 -0.17416848 -0.21164344 0.04225811 0.002828556 -0.08232002 -0.11652647 0.0007165272
-0.06959525 -0.01640565 0.12471671 0.10881852 -0.125024 -0.12504132 -0.03923339 0.07322064
-0.13488807 0.060645785 0.006585698 0.040841255 0.0789052 0.13708594 -0.0002622713 0.14717713
-0.045617767 0.18268675 0.060648516 0.05221742 0.12455026 -0.08908723 -0.002041505 -0.20464756
0.11667931 0.024556657 0.121337704 0.15066285 -0.12720479 -0.080074385 0.052802887 0.17702337
-0.0815924 0.04566189 -0.21042718 0.14139858 -0.18112314 0.0008015054 -0.12369247 0.117143065
0.1377969 -0.08061645 -0.24842206 0.054697167 -0.08662922 -0.00077478285 -0.06527944 0.03561256
-0.1678622 -0.49722752 -0.22048876 -0.17156757 -0.17740765 -0.03869347 -0.03586301 0.14544684
-0.04682903 0.044611108 -0.36138222 0.1388143 -0.008760498 -0.21082735 0.1823454 0.24477804
-0.092811555 0.24229404 0.1378162 0.20137052 0.08613703 0.16003673 0.032623254 0.055363167
0.055854272 -0.42237756 -0.019951722 -0.05135891 -0.073644854 0.011487564 0.15286878 -0.09575992
0.077173196 -0.015974425 -0.059011225 -0.00160088 -0.2274009 -0.01582456 0.09241649 0.10402178
0.016431022 -0.030715229 0.15545495 -0.09199841 -0.0075563192 -0.049549337 -0.10858927 -0.010439095
0.1280695 0.042670622 0.1670661 -0.19450802 0.09350285 -0.004608138 0.02834566 -0.026097193
-0.31906798 -0.061486017 0.09004665 -0.08896853 0.0734032 0.17275862 0.20743354 0.060990386
0.0078321155 -0.01997945 -0.058835313 0.0008723615 0.044955883 -0.22022526 0.09016486 0.122682616
-0.08949366 0.28326413 0.16711432 -0.20757909 0.23520428 -0.08972299 0.04038412 -0.20564486
0.032460924 0.11749439 -0.13449611 -0.21633412 0.15503465 0.012993251 -0.08125527 -0.21641499
0.04304881 -0.14035685 -0.23444664 -0.02486165 -0.20036761 -0.16257778 0.04010233 0.054628458
0.10208153 -0.12988403 0.071922526 0.0335971 0.10346826 -0.15211225 -0.040477257 0.02093902
0.13606931 0.05657141 -0.3280093 -0.18803735 0.092224136 -0.09250355 -0.05527158 -0.09383135
00000000: eb14 783c fc9c 66bd 9a86 803d 936a aabc
00000010: b5ef 60bd dc20 5fbd ba93 713d 2ed8 05be
00000020: c24d 583e d338 4fbd 4a92 6dbd e6b3 f0bd
00000030: d470 0dbe b131 55bd d1d5 623d 1bbc 31be
00000040: 5224 8b3d 3b82 2d3e 89ed a43d 038a 7dbd
00000050: ed5e 813c eefa 813c 36a2 15be 9826 1dbe
00000060: 89cd f0bc f3ed a43d 9ac0 f5bd 2444 bcbd
00000070: 5f6f 7abd 2551 0e3e 980b e83d bdc6 053e
00000080: b3b9 8a3d 484e 0d3e 8409 1dbd 8844 c6bd
00000090: 0610 7e3d bb13 dc3b 2b1c 913d 445c 1f3e
000000a0: 9bdc b0bd 742c 263e eb31 563d f3aa 1e3d
000000b0: c465 c7bd 0a05 513d 21fe a6bc 3c08 883d
000000c0: 7795 343c 463b fbbc 4629 6bbe 890d 2c3d
000000d0: 81ca 483c 5db8 f33d d142 7f3d d875 cdbd
000000e0: 300f 503c 4626 0abe aaa5 d43d cc0b cc3d
000000f0: 792a b63d f5b7 09bd e0e8 30bd 56d3 0dbe
00000100: 79bf a03d e951 41be 7a56 ee3d 2139 c8bc
00000110: 9f42 793c 25ae 02bc 0d8d 0b3d a52f afbd
00000120: 4916 dabd d3b6 a63d 58b7 0abe c36b db3d
00000130: 6d4e 1b3d d9a5 07be 7fb3 0abd 764e 57bd
00000140: 0649 16be 349e 003e c69b be3c 2223 b53d
00000150: 92c0 33be 20c4 eb3d e0d2 38bd dbc4 0b3e
00000160: c9a1 98bd 3959 32be 0fb9 58be d716 2d3d
00000170: 4c5f 393b 6697 a8bd 6ea5 eebd 54d5 3b3a
00000180: f487 8ebd 2465 86bc 796b ff3d 3fdc de3d
00000190: 4b06 00be d50a 00be 31b3 20bd b4f4 953d
000001a0: 1920 0abe b767 783d d7cc d73b 2949 273d
000001b0: 0d99 a13d 4260 0c3e 7581 89b9 9ab5 163e
000001c0: b2d9 3abd 3c12 3b3e 946a 783d efe1 553d
000001d0: 3514 ff3d 5e73 b6bd c5ca 05bb 218f 51be
000001e0: 90f5 ee3d 0b2b c93c e77f f83d 5d47 1a3e
000001f0: f941 02be 0afe a3bd d747 583d 9d45 353e
00000200: eb19 a7bd f607 3b3d 397a 57be caca 103e
00000210: 5878 39be 1e1c 523a 7a52 fdbd b4e8 ef3d
00000220: a11a 0d3e 3d1a a5bd 5a62 7ebe 230a 603d
00000230: a96a b1bd cc1a 4bba 3ab1 85bd 7ade 113d
00000240: 12e4 2bbe 9b94 febe cec7 61be 69af 2fbe
00000250: 5aaa 35be 0b7d 1ebd 17e5 12bd 04f0 143e
00000260: cccf 3fbd 23ba 363d 1707 b9be 5625 0e3e
00000270: 3188 0fbc 20e3 57be c1b8 3a3e 18a7 7a3e
00000280: fc13 bebd ee1b 783e b11f 0d3e 1334 4e3e
00000290: 9c68 b03d abe0 233e f69f 053d 7dc4 623d
000002a0: 73c7 643d df41 d8be cb71 a3bc b85d 52bd
000002b0: 1dd3 96bd 5636 3c3c a289 1c3e c71d c4bd
000002c0: fb0c 9e3d ccdc 82bc c1b5 71bd 9ed4 d1ba
000002d0: c8db 68be 82a2 81bc db44 bd3d 5f09 d53d
000002e0: 5a9a 863c 819e fbbc 952f 1f3e aa69 bcbd
000002f0: 009b f7bb 3ff4 4abd 0d64 debd bd08 2bbc
00000300: a724 033e 64c7 2e3d 6013 2b3e 1c2d 47be
00000310: 6c7e bf3d ddff 96bb 2835 e83c c8c9 d5bc
00000320: e15c a3be c3d8 7bbd 616a b83d 2235 b6bd
00000330: 6b54 963d a3e7 303e 7569 543e 0ed1 793d
00000340: 4652 003c f2ab a3bc 4cfd 70bd 30af 643a
00000350: a923 383d bb82 61be 5ba8 b83d 0641 fb3d
00000360: 7448 b7bd ff07 913e 0420 2b3e 9d8f 54be
00000370: 64d9 703e b0c0 b7bd d269 253d 9194 52be
00000380: bff5 043d e6a0 f03d 59b9 09be b186 5dbe
00000390: 67c1 1e3e a5e1 543c 2a69 a6bd e49b 5dbe
000003a0: f353 303d b5b9 0fbe c812 70be a9aa cbbc
000003b0: 2b2d 4dbe ca7a 26be 5742 243d 17c2 5f3d
000003c0: 1f10 d13d 5200 05be 1e4c 933d 1d9d 093d
000003d0: 2be7 d33d 50c3 1bbe 7bcb 25bd 4f88 ab3c
000003e0: c155 0b3e 6cb7 673d d6f0 a7be dd8c 40be
000003f0: 02e0 bc3d 8072 bdbd 7464 62bd a72a c0bd

network_body.observation_encoder.processors.0.normalizer.running_mean f4 [24]
0.001749255 2.9852583 -0.48377794 -2.2836673 1.4926292 0.9885282 -0.27728286 0.0
0.027550746 -0.001749255 2.9852583 -0.48364583 0.0017493948 2.9999242 -0.4827004 -2.3100758
1.4999621 0.991025 -0.2867052 0.0 0.027135642 -0.0017493948 2.9999242 -0.482569
00000000: 4247 e53a 790e 3f40 beb1 f7be 9b27 12c0
00000010: 790e bf3f 2f10 7d3f 05f8 8dbe 0000 0000
00000020: 1ab2 e13c 4247 e5ba 790e 3f40 6da0 f7be
00000030: f34b e53a c2fe 3f40 8224 f7be 48d8 13c0
00000040: c2fe bf3f d0b3 7d3f 06cb 92be 0000 0000
00000050: 914b de3c f34b e5ba c2fe 3f40 4913 f7be
