Assets/trining/results/Messi2/AgentTest/AgentTest-999996.onnx (onnx, 82986 bytes, 8 tensors)

49 f4 [24]
0	0x42237d1d	40.87218
1	0x3e710b64	0.23539501
2	0x413630be	11.3869
3	0x41b91aa9	23.138018
4	0x3df10d10	0.117700696
5	0x414e66a1	12.900056
6	0x41c31325	24.384348
7	0x3a83127b	0.0010000014
8	0x41988811	19.066439
9	0x42237d1d	40.87218
10	0x3e710b64	0.23539501
11	0x413630b4	11.38689
12	0x4223ffe8	40.99991
13	0x3b4f3dac	0.0031622453
14	0x4136afa4	11.417881
15	0x41bb7895	23.433878
16	0x3aec4aa8	0.001802762
17	0x414ee295	12.930318
18	0x41c3ab89	24.458757
19	0x3a83127b	0.0010000014
20	0x41992074	19.140846
21	0x4223ffe8	40.99991
22	0x3b4f3dac	0.0031622453
23	0x4136afad	11.41789

action_model._discrete_distribution.branches.0.bias f4 [3]
0	0x3b683ca7	0.0035436542
1	0xbd47919c	-0.04872285
2	0x3d24984c	0.040184304

action_model._discrete_distribution.branches.0.weight f4 [3, 128]
0	0x3cad522e	0.02115735
1	0x3d4b1aa5	0.049585957
2	0xbc70f6da	-0.0147072915
3	0x3d2611bb	0.040544253
4	0x3d48c370	0.04901451
5	0x3c14d569	0.009084084
6	0x3c9325bc	0.01796233
7	0x3b6996ba	0.0035642819
8	0x3c577a6f	0.013151749
9	0xbce27bec	-0.027646981
10	0x3d2fb098	0.042893022
11	0x3cbade45	0.022811064
12	0xbc314037	-0.010818533
13	0xbcd6e4fe	-0.026232239
14	0xbc8391b3	-0.016060686
15	0x3bcb1918	0.00619806
16	0x3d7ec5a0	0.06220019
17	0x3c8209c1	0.015873792
18	0xbcdfcd38	-0.027319536
19	0x3ba6690d	0.005078441
20	0x3da8d829	0.08244354
21	0xbb01804a	-0.0019760304
22	0xbc0dc69b	-0.008653308
23	0x3d2bd841	0.041954283
24	0xbc8672b1	-0.016412111
25	0x3d1c604b	0.03817777
26	0x3cf11e21	0.029433312
27	0x3c8d90cf	0.017280964
28	0x3cf2de38	0.029646978
29	0xbc93c4bb	-0.018038144
30	0x3d76fab1	0.06029767
31	0x3c27e2ae	0.010246916
32	0x3d033c77	0.032040086
33	0xbad2136e	-0.0016027519
34	0x3cf75eec	0.03019663
35	0xbd82564a	-0.063641146
36	0xbd222049	-0.03958157
37	0x3d8693fc	0.065711945
38	0x3d157a29	0.036493454
39	0x3cc9c0ba	0.024628032
40	0xbd51e7e9	-0.051246557
41	0xbbc5c519	-0.0060354588
42	0x3af12ec1	0.0018400775
43	0x3c28394a	0.010267565
44	0xbcb8e3b6	-0.022569519
45	0x3d01a8d9	0.031655166
46	0xbd3aae28	-0.045576245
47	0x3c3fdd37	0.011710457
48	0xbce76eef	-0.02825114
49	0x3c0aedc6	0.008479541
50	0x3d672a8b	0.056437057
51	0xbd2b4b24	-0.041819707
52	0x3bcfca3b	0.0063412464
53	0xbab49aec	-0.001377908
54	0x3c8d0e3c	0.017218702
55	0xbd2a9a84	-0.041651264
56	0x3b44af43	0.003001169
57	0x3dc8fe9a	0.098141864
58	0x3cc4bd11	0.024015935
59	0xbd84f978	-0.06492895
60	0x3c9a05ec	0.018801652
61	0x3d5f8fc1	0.054580454
62	0x3b36d18e	0.00278959
63	0x3c89eb8c	0.01683595
64	0x3cfcd03d	0.030861015
65	0x3d649494	0.055805758
66	0xbc30ca5c	-0.010790434
67	0xbca2a039	-0.01985179
68	0xbb4cd083	-0.0031252212
69	0x3a2cf8bf	0.00065983454
70	0xbc172c04	-0.009226803
71	0xbd032702	-0.032019623
72	0xbd462192	-0.04837186
73	0x3dcd5397	0.10025709
74	0xbd04ba63	-0.032404315
75	0x3d70b2bf	0.058764216
76	0x3d4ccdd2	0.050000973
77	0xbcff2694	-0.031146325
78	0x3d281dfd	0.041044224
79	0x3b2887bc	0.002571567
80	0xbd1d36c6	-0.038382314
81	0xbd535c43	-0.05160166
82	0xbc8b7f59	-0.017028498
83	0x3cbab3d2	0.022790823
84	0x3d09057e	0.033452503
85	0x3dbfa459	0.09357519
86	0x3d236359	0.039889667
87	0x3d9f15d2	0.07767834
88	0xbcc99a9e	-0.02460986
89	0x3d89e570	0.06733215
90	0x3ae62626	0.0017558977
91	0x3d7b47f4	0.061347917
92	0xbd86d891	-0.065842755
93	0x3c267a66	0.010161018
94	0xbcec6fca	-0.028861899
95	0x3af7ebac	0.001891484
96	0x3d934a8f	0.07191955
97	0x3c80ae92	0.015708242
98	0xbd47ecaa	-0.048809685
99	0xbcf6821b	-0.030091336
100	0x3cfd8937	0.030949218
101	0x3cbedb6e	0.023297992
102	0x3d7e5bc8	0.06209925
103	0x3d3c87fc	0.046028122
104	0xbbffa1ac	-0.007801255
105	0x3c8285eb	0.015932998
106	0x3d9e28ad	0.07722602
107	0x3d1c77f9	0.038200352
108	0x3cd0dd89	0.025496261
109	0xbd8fcdef	-0.070217006
110	0xbd26ff78	-0.040770978
111	0xbc657117	-0.0140040135
112	0xbd1a469c	-0.037664995
113	0xbc767ce0	-0.015044421
114	0x3d07d284	0.033159748
115	0x3d5e2e0d	0.054243136
116	0x3d825fc5	0.06365923
117	0xbcd3484c	-0.02579131
118	0x3d51a6c6	0.05118444
119	0x3d6455ee	0.05574601
120	0xbd526c38	-0.051372737
121	0x3cb777e8	0.022396043
122	0x3d1e5334	0.038653567
123	0x3be16755	0.006878773
124	0xbc641ef9	-0.0139234
125	0x3c047657	0.008084855
126	0x3d0a3b50	0.03374797
127	0xbcc3ee3c	-0.02391731
128	0x3cca880d	0.024723077
129	0x3e1f5d0e	0.15562841
130	0x3e0e8334	0.13917238
131	0x3de146cb	0.10999831
132	0xbd6df2e6	-0.058092974
133	0x3ce621c5	0.028092274
134	0xbdbdf0c6	-0.092744395
135	0x3cfb895d	0.030705148
136	0x3e140ec6	0.1445876
137	0x3e4b4289	0.198496
138	0x3d0430b6	0.032273017
139	0x3c8d2add	0.017232353
140	0xbe2268d7	-0.15860306
141	0xbdfa5b3d	-0.122244336
142	0x3aa23b46	0.0012377284
143	0xbdd67e12	-0.10473265
144	0xbd833c1b	-0.064079486
145	0xbc54ccc8	-0.012988277
146	0x3ddfcfa4	0.10928276
147	0x3d5e39db	0.054254394
148	0x3d91f515	0.07126824
149	0x3dc348cd	0.0953537
150	0x3ce80e56	0.028327148
151	0x3e0cd799	0.13754119
152	0xbd751c56	-0.059841476
153	0x3e12c11d	0.1433148
154	0xbd90ed51	-0.070765145
155	0xbd264fd5	-0.040603478
156	0xbdeb0cd5	-0.11477057
157	0xbdb1dbfb	-0.08684536
158	0x3e07a182	0.13245204
159	0x3b282b3f	0.0025660542
160	0x3e2a167a	0.16610137
161	0x3d1ba121	0.03799546
162	0xbc3986cb	-0.011323641
163	0x3d70f228	0.05882469
164	0xbde697f7	-0.11259454
165	0x3d7f1d44	0.06228377
166	0x3e055edc	0.13024467
167	0xbc41d776	-0.011831155
168	0x3e161eb2	0.14660147
169	0x3e2af8e3	0.16696505
170	0xbe25c713	-0.16189222
171	0xbe2b774b	-0.16744725
172	0x3d597944	0.053094164
173	0xbcefbc5a	-0.029264618
174	0x3e4d8133	0.20068817
175	0x3ddc154b	0.10746249
176	0xbb826ee8	-0.003980506
177	0x3e1fadc7	0.15593635
178	0x3c7ddfc3	0.0154952435
179	0x3ded2b68	0.11580545
180	0x3e331914	0.17490035
181	0xbd98e5da	-0.07465716
182	0xbc505874	-0.012716401
183	0x3d7fcf66	0.06245365
184	0xbc92b93d	-0.017910594
185	0x3dcb6225	0.09930829
186	0xbd5626b2	-0.052282996
187	0x3e0ada3e	0.13559815
188	0xbdc4bfe8	-0.09606916
189	0xbd9e6d71	-0.07735718
190	0x3e18cf63	0.14922862
191	0x3df157c7	0.1178432
192	0xbe662a4e	-0.22477075
193	0xbcf41a06	-0.029797565
194	0xbdec1ea4	-0.11529282
195	0xbafb2874	-0.0019161836
196	0x3e117a47	0.14206801
197	0x3952d8f1	0.00020107978
198	0xbd3b10a3	-0.045670163
199	0xbd533338	-0.051562518
200	0xbd8d0966	-0.06886558
201	0x3d9c5542	0.07633449
202	0x3e4a9022	0.19781545
203	0x3df59730	0.11991727
204	0x3e0e3559	0.13887538
205	0x3c6a74d1	0.014310078
206	0xbdacfce8	-0.084466755
207	0x3dd34313	0.10315528
208	0x3e2c0f30	0.16802669
209	0x3e21e152	0.15808609
210	0x3da4b871	0.08042992
211	0x3e00cbf9	0.1257781
212	0x3c8a4c27	0.016882015
213	0x3df7ea82	0.12105276
214	0xbcf3d969	-0.029766755
215	0xbc615999	-0.013754272
216	0x3e3fa4c2	0.18715194
217	0x3ddf2cf9	0.1089725
218	0x3dbfeb1b	0.09371015
219	0x3a586690	0.0008255029
220	0xbd1e36a0	-0.038626313
221	0x3d0bab60	0.034098983
222	0xbda1bbf0	-0.07897174
223	0xbe02a01b	-0.12756388
224	0x3d94fc6b	0.072747074
225	0x3d1f4c6a	0.038891234
226	0xbc1d428c	-0.009598386
227	0x3dd8369f	0.10557293
228	0x3cc44220	0.023957312
229	0x3da1dd03	0.07903483
230	0x3c7b2d12	0.01533057
231	0x3d775a71	0.060388986
232	0xbb69db14	-0.003568356
233	0x3dcbd178	0.09952062
234	0x3cea507c	0.028602831
235	0x3d329e65	0.043608088
236	0x3cafa0be	0.021438953
237	0x3decc74f	0.115614526
238	0xbdbcb37d	-0.09213922
239	0x3d1990bf	0.037491556
240	0xbd83ac2d	-0.06429324
241	0xbd86d2f4	-0.06583205
242	0x3d82dbe3	0.06389596
243	0xbc9047f3	-0.017612433
244	0x3e132038	0.14367759
245	0xbd465297	-0.048418608
246	0xbd47a806	-0.048744224
247	0x3d2f5ed5	0.04281505
248	0x3dbd7103	0.09250071
249	0x3d25b37f	0.040454384
250	0xbd8d6343	-0.06903698
251	0xbdd39c92	-0.10332598
252	0x3c2779c2	0.0102219
253	0xbc8c1369	-0.0170991
254	0xbd888fe9	-0.06668074
255	0xbe566371	-0.20936371

network_body._body_endoder.seq_layers.0.bias f4 [128]
0	0x3cc920ca	0.024551768
1	0x3af84833	0.0018942415
2	0xbd20d897	-0.039269056
3	0xbcbecfd6	-0.023292463
4	0x3b8ccfac	0.0042972174
5	0xbcb6fab5	-0.022336343
6	0x3cf5172f	0.029918281
7	0xb9809f18	-0.00024532597
8	0xbc216586	-0.009850865
9	0x3d75aa54	0.05997689
10	0xbcff50ef	-0.031166522
11	0xbd5fa044	-0.0545962
12	0xbd6dac0f	-0.058025416
13	0x3c956a12	0.018239055
14	0xbd112eff	-0.03544521
15	0xbd7d30e5	-0.061814208
16	0x3cb7c687	0.022433532
17	0x3dd5b7cb	0.10435446
18	0xbd460e10	-0.048353255
19	0xbe1ab1f6	-0.15106949
20	0xbc904f6c	-0.017615996
21	0xbd6e4ca1	-0.058178548
22	0xbe01abd4	-0.12663203
23	0xbd0bc653	-0.034124684
24	0xbd1cc312	-0.03827197
25	0xbc820368	-0.015870765
26	0x3cf04799	0.029331015
27	0x3c5d7a64	0.01351795
28	0xbb8a16fb	-0.0042141653
29	0xbc549b2d	-0.01297645
30	0x3c9b1a73	0.01893351
31	0x3d0246a9	0.031805668
32	0xbdca068a	-0.098645285
33	0x3d4c3d7b	0.04986332
34	0x3cb47968	0.022030547
35	0x3d8e4187	0.06946092
36	0xbd3cd8f1	-0.04610533
37	0xbc7d5077	-0.015461079
38	0xbddafabb	-0.10692354
39	0xbe1213b3	-0.14265327
40	0xbd53364c	-0.051565453
41	0x3d6e1fca	0.058135785
42	0x3dab962f	0.083782546
43	0xbd9edf92	-0.077574864
44	0xbdc6c95f	-0.09706377
45	0xbc2043c5	-0.0097817825
46	0x3cfeefc2	0.031120185
47	0xbd04345b	-0.032276493
48	0xbc4a9a83	-0.01236594
49	0x3d266fbc	0.040633902
50	0xbc653975	-0.01399075
51	0xbd8e6a32	-0.06953849
52	0xbd04e0ab	-0.032440823
53	0xbc53e072	-0.01293193
54	0xbb7c9516	-0.003854101
55	0x3c3522a1	0.011055619
56	0xbd7c19b2	-0.061547942
57	0xbceaa3b7	-0.028642518
58	0xbc00bac2	-0.0078570265
59	0x3ae68a0d	0.001758875
60	0x3c3c1d19	0.011481547
61	0xbc84c4b4	-0.016207077
62	0xbc82d446	-0.01597036
63	0x3cd4608b	0.025924942
64	0x3d0f22f6	0.03494545
65	0xbcfd8d0e	-0.03095105
66	0x3cdea34e	0.02717748
67	0x3d119b1c	0.035548314
68	0x3c889980	0.016674757
69	0xbd125705	-0.03572752
70	0xbddc7668	-0.10764772
71	0x3d068859	0.032844875
72	0x3cdd9850	0.027050167
73	0xbab8f158	-0.0014110012
74	0xbd11e259	-0.035616253
75	0xbccf79ea	-0.025326688
76	0xbd33e811	-0.043922488
77	0x3c57c101	0.013168574
78	0x3d37802b	0.044799965
79	0x3c2d05dd	0.01056048
80	0x3cf470b1	0.029838892
81	0x3b258d2f	0.0025261154
82	0x3c9d688e	0.019214895
83	0xbd2aef2c	-0.041732
84	0xbd3ecf22	-0.046584256
85	0x3aa57b52	0.0012625253
86	0xbd82768f	-0.063702695
87	0xbd8fbf8d	-0.07018957
88	0xbcd6419b	-0.02615433
89	0xbd5bccb0	-0.053662002
90	0xbb66acc0	-0.0035198182
91	0x3d7a0e71	0.06104893
92	0xbcd19b49	-0.025586741
93	0xbd4cc7b1	-0.049995128
94	0xbd300404	-0.04297258
95	0x3d0ecf58	0.034865707
96	0x3d282e8e	0.041060023
97	0x3ca325c6	0.019915473
98	0xbdd01506	-0.1016026
99	0x3be425f9	0.0069625345
100	0x3caaffa3	0.02087385
101	0x3bc92429	0.006138344
102	0xbd51f533	-0.05125923
103	0x3af62ae3	0.0018781092
104	0xbd4cef60	-0.050032973
105	0x3c491273	0.012272465
106	0x3b91f2d1	0.004453995
107	0xbc64abab	-0.013956944
108	0xbd8dae58	-0.06918019
109	0xbdec1a4e	-0.11528455
110	0xbba23de5	-0.004951226
111	0x3a25bc03	0.00063222664
112	0xbdbfeff8	-0.09371942
113	0xbdf5d6fc	-0.12003896
114	0x3b97e96d	0.004635981
115	0xbd2bd017	-0.041946497
116	0x3d474061	0.04864538
117	0xbde59011	-0.11209119
118	0xbd086819	-0.0333024
119	0xbd393b3c	-0.045222506
120	0x3d12fe5e	0.035887115
121	0xbcef0169	-0.029175477
122	0x3c30cdcc	0.010791253
123	0xbd20473f	-0.039130446
124	0x3b866ba9	0.0041021896
125	0xbc0ea24e	-0.008705689
126	0xbde0de7f	-0.10979938
127	0xbc997634	-0.018733121

network_body._body_endoder.seq_layers.0.weight f4 [128, 24]
0	0x3d2e6f61	0.042586688
1	0x3c0e836a	0.008698324
2	0x3ee92dd4	0.45542777
3	0xbe5f7de3	-0.21825366
4	0x3eaf2163	0.3420516
5	0xbeab86ca	-0.33501273
6	0xbe857d69	-0.26072243
7	0xbd5f1faf	-0.054473575
8	0xbda70130	-0.081545234
9	0x3dfea2fb	0.1243343
10	0x3e47262b	0.19448154
11	0xbdacade9	-0.08431608
12	0xbe863d58	-0.26218677
13	0x3e3c042c	0.18360966
14	0x3eaea5de	0.34110922
15	0x3f317a11	0.69326884
16	0x3e801484	0.25015652
17	0x3e14420e	0.14478323
18	0xbe9d6553	-0.30741367
19	0x3e721410	0.23640466
20	0x3d38caa9	0.045115147
21	0xbc5b2435	-0.013375332
22	0xbdb56050	-0.08856261
23	0xbe2d6b11	-0.16935374
24	0xbe105ea3	-0.14098601
25	0xbe968895	-0.2940108
26	0xbdc1419a	-0.09436341
27	0x3dd8c316	0.10584085
28	0xbd4bc22c	-0.049745724
29	0x3e9d1ed0	0.3068757
30	0x3e8ea3d7	0.27859375
31	0x3c2402a5	0.010010396
32	0xbe9e2b11	-0.30892232
33	0xbec48501	-0.38382724
34	0xbe68f672	-0.22750261
35	0x3d2e107a	0.042496182
36	0x3e9cf1f0	0.30653334
37	0xbdd867d5	-0.105666794
38	0xbe5f199e	-0.21787116
39	0x3ea777fb	0.32708725
40	0xbecbc782	-0.3980065
41	0x3e844503	0.25833902
42	0x3e96af76	0.2943074
43	0x3df59f63	0.11993291
44	0xbea2cf1b	-0.31798634
45	0xbe2418c0	-0.16025066
46	0x3e940d26	0.2891628
47	0x3b40d20a	0.0029422068
48	0xbe539be5	-0.20664938
49	0xbe421553	-0.18953447
50	0xbaf30c01	-0.0018543006
51	0xbe234ccc	-0.15947264
52	0x3d81b5a3	0.063334726
53	0xbea618c1	-0.3244076
54	0xbe97a820	-0.29620457
55	0xbe4c5f89	-0.19958319
56	0x3db7d18c	0.08975515
57	0xbd5adcd7	-0.053433266
58	0xbe519695	-0.20467599
59	0x3e804986	0.25056094
60	0xbe2aa438	-0.16664207
61	0xbd6e2e07	-0.058149364
62	0x3dcb2054	0.099182755
63	0xbe292b9c	-0.16520542
64	0x3dcf2fad	0.10116515
65	0xbe82c233	-0.25538787
66	0x3e9903d2	0.29885727
67	0x3dc8efac	0.09811339
68	0x3cf3814f	0.029724745
69	0xbf3b40fb	-0.7314603
70	0x3e81dad1	0.25362256
71	0xbcfb5965	-0.030682275
72	0x3de6be84	0.11266807
73	0xbe15fa80	-0.1464634
74	0x3df58445	0.11988119
75	0x3da74f74	0.08169451
76	0x3ae4cf82	0.0017456862
77	0x3e35a9f9	0.1774062
78	0xbf1e798d	-0.6190422
79	0x3d13069b	0.03589497
80	0x3e12ec7c	0.14348024
81	0x3e15457c	0.14577287
82	0x3e6c3ea7	0.23070775
83	0xbe0a3e75	-0.13500388
84	0x3e0578b0	0.1303432
85	0xbeeeee94	-0.46666396
86	0xbe48fce3	-0.19627719
87	0xbe8f561c	-0.27995384
88	0xbe5cced5	-0.21563275
89	0x3dc9b948	0.09849793
90	0xbdeaa293	-0.1145679
91	0x3e36c3b5	0.17848094
92	0x3c866864	0.0164072
93	0xbe4a1810	-0.19735742
94	0xbd11d6cd	-0.03560524
95	0xbe6c0a81	-0.23050882
96	0xbdf3c064	-0.1190193
97	0x3e2f5e1d	0.17125745
98	0xbe520d5f	-0.20512913
99	0xbf18bc3f	-0.5966224
100	0x3e8d14de	0.27554983
101	0xbc7bf906	-0.015379196
102	0x3e6ef9df	0.23337506
103	0xbbc9d020	-0.0061588436
104	0xbebeb5b0	-0.37247992
105	0xbe66eb1e	-0.22550628
106	0xbd33051a	-0.043706037
107	0xbe14e9f5	-0.14542373
108	0x3e2650f4	0.16241819
109	0xbe399670	-0.18123794
110	0x3ee1e93c	0.44123256
111	0xbe8b25e6	-0.27177352
112	0xbd85f67f	-0.06541156
113	0xbe0937cd	-0.13400193
114	0x3d4572f9	0.04820535
115	0xbdba28b6	-0.09089796
116	0x3c3571b2	0.01107447
117	0xbecec797	-0.4038665
118	0xbd34a53e	-0.0441029
119	0x3d76f524	0.060292378
120	0xbe0c2860	-0.13687277
121	0xbd801efe	-0.06255911
122	0xbe7ca8eb	-0.24673812
123	0x3cb59aaa	0.022168476
124	0x3c936a2f	0.017994968
125	0x3c0a16d6	0.008428296
126	0x3d7e7faa	0.06213347
127	0x3eafaebd	0.34313002
128	0xbebbcf43	-0.36681566
129	0x3e3ffcbd	0.18748756
130	0x3e5df4fd	0.21675487
131	0xbe4e591b	-0.20151179
132	0xbd5028ec	-0.050820276
133	0xbde03e7c	-0.10949418
134	0x3dae2bba	0.08504434
135	0xbe8d6bfc	-0.27621448
136	0xbd80a3e8	-0.06281263
137	0xbe970783	-0.29497918
138	0x3f189921	0.59608656
139	0xbd9f8792	-0.0778953
140	0xbdf274bc	-0.118386716
141	0xbc8990fc	-0.016792767
142	0xbd1196ef	-0.035544332
143	0x3de33221	0.11093546
144	0xbe3c084b	-0.18362539
145	0x3d7ac969	0.061227236
146	0x3e2adcf6	0.16685852
147	0xbe8e4f53	-0.27794895
148	0xbc02ba90	-0.00797905
149	0xbe409b0d	-0.18809147
150	0x3dbe7466	0.09299545
151	0xbd9febf2	-0.07808675
152	0x3cd650da	0.0261616
153	0x3e81a1f9	0.25318888
154	0xbda97544	-0.0827432
155	0x3df215a4	0.11820534
156	0x3d8be119	0.06830043
157	0x3da56ab4	0.08076993
158	0x3deba4dc	0.11506054
159	0xbe862ee3	-0.26207647
160	0xbe375d99	-0.17906798
161	0x39c5b16f	0.00037706966
162	0x3e1d5b81	0.15366937
163	0xbe8ee4ee	-0.27909034
164	0xbcd98961	-0.026554765
165	0x3ac93ac9	0.0015352602
166	0x3dba07c9	0.09083516
167	0xbdb46a4b	-0.08809336
168	0xbe42afe8	-0.19012415
169	0x3df56051	0.119812615
170	0x3d858b8f	0.06520759
171	0xbeb5674b	-0.3543037
172	0xbe246bd0	-0.16056752
173	0xbe68dd66	-0.22740707
174	0xbee2eb42	-0.44320112
175	0xbe2ac974	-0.16678411
176	0x3ea4fb72	0.32223088
177	0x3ebb9c0d	0.36642495
178	0x3b9d4088	0.0047989525
179	0xbe268020	-0.16259813
180	0xbd443e29	-0.047910843
181	0xbd307575	-0.043080766
182	0xbe85215f	-0.26002023
183	0x3e279ab0	0.16367602
184	0x3cfee3f4	0.031114556
185	0xbe50b251	-0.20380522
186	0xbe0105b0	-0.12599826
187	0x3b261cca	0.002534675
188	0xbe653c3c	-0.22386259
189	0x3dc50e6e	0.09621893
190	0x3e0b551c	0.13606685
191	0xbc61380b	-0.013746272
192	0xbe65c767	-0.22439347
193	0x3e99cd37	0.3003938
194	0xbde017e5	-0.109420575
195	0x3de103bf	0.10987043
196	0x3c9f5915	0.019451657
197	0xbd6e998e	-0.05825191
198	0xbdf177cd	-0.11790428
199	0xbc87a0de	-0.0165562
200	0xbe14b386	-0.14521608
201	0x3d3036e8	0.043021113
202	0x3d54c1f9	0.0519428
203	0xbcd4f97e	-0.025997873
204	0xbe7ed289	-0.24885
205	0xbd61d99c	-0.05513917
206	0x3da405d4	0.08008924
207	0xbe7b7ea2	-0.24560025
208	0x3ce02fdd	0.027366573
209	0x3b9f03db	0.0048527545
210	0xbe6746f9	-0.22585668
211	0x3d78d05b	0.06074558
212	0xbd934491	-0.071908124
213	0x3da91b37	0.08257144
214	0xbea59b94	-0.3234526
215	0x3b972371	0.0046123792
216	0xbe8fce80	-0.28087234
217	0x3da7d23f	0.08194398
218	0xbe3ba187	-0.18323337
219	0xbe90d026	-0.28283805
220	0xbe10f7f0	-0.1415708
221	0x3eb4d686	0.35319918
222	0xbd699707	-0.057028797
223	0x3e48369d	0.19552083
224	0xbe2a48c2	-0.16629317
225	0xbdb96519	-0.09052486
226	0xbe6e2ee2	-0.23260072
227	0x3da75c04	0.081718475
228	0x3dbb923c	0.09158751
229	0xbe266d8c	-0.16252726
230	0xbe80171d	-0.25017634
231	0xbbe887a7	-0.007096249
232	0x3e72f7f5	0.237274
233	0x3ddb7c33	0.107170485
234	0x3e9d64c0	0.3074093
235	0x3f1c5afd	0.6107634
236	0xbe175944	-0.14780146
237	0x3d8433c9	0.0645519
238	0xbc652cdc	-0.013987746
239	0xbead0e6e	-0.3380007
240	0x3b975069	0.00461774
241	0xbeb503eb	-0.35354552
242	0xbe84a8d6	-0.25910062
243	0xbe0abf3a	-0.1354951
244	0xbea02180	-0.31275558
245	0xbe0bcbe2	-0.13651994
246	0xbd2d5178	-0.042314023
247	0x3e1a6e4c	0.15081137
248	0xbe2b33f9	-0.16719045
249	0x3d2fa95f	0.042886134
250	0xbd84b851	-0.06480468
251	0xbde120d3	-0.10992589
252	0xbe758a8b	-0.23978631
253	0xbceb87a4	-0.028751202
254	0x3e1963d8	0.14979494
255	0xbe3426eb	-0.17592971

network_body._body_endoder.seq_layers.2.bias f4 [128]
0	0xbd9157ff	-0.07096862
1	0x3d8fa6da	0.07014246
2	0x3d1621a0	0.03665316
3	0x3d4bf6f2	0.049796052
4	0xbb50c76c	-0.0031857146
5	0xbce91e07	-0.028456701
6	0xbc89e6e3	-0.016833728
7	0xbcafdca6	-0.021467518
8	0x3d1f90cc	0.03895645
9	0x3ceb7f97	0.028747363
10	0xbd0c0bb2	-0.03419084
11	0x3b7bf63f	0.0038446335
12	0x3d9fad65	0.07796744
13	0x3d3b3957	0.04570898
14	0xbdaa782c	-0.08323702
15	0x3d843e1f	0.06457161
16	0xbc0c28d0	-0.008554652
17	0x3cfe2cc8	0.031027213
18	0xbce5823a	-0.028016198
19	0xbd5ba9dc	-0.053628787
20	0x3d4e5bcc	0.050380513
21	0x38fa8de5	0.00011947359
22	0xbd62c969	-0.05536786
23	0x3d5646e5	0.052313704
24	0xbca2f882	-0.019893888
25	0x3d234c45	0.03986766
26	0x3d3c51d3	0.04597647
27	0xbd009261	-0.031389598
28	0x3d80d4d8	0.06290597
29	0x3d26b8bb	0.040703516
30	0x3d307b28	0.0430862
31	0xba95f687	-0.0011441269
32	0x3d6299a8	0.05532232
33	0xbb98d427	-0.0046639624
34	0xbd9a83a9	-0.075446434
35	0xbb39d5e9	-0.002835626
36	0x3d9895b4	0.074504286
37	0x3d5b8731	0.053595725
38	0x3d012556	0.031529747
39	0x3d00aa3b	0.031412344
40	0x3c34db4b	0.011038612
41	0x3d459062	0.048233397
42	0x3d9a7430	0.07541692
43	0x3da0219f	0.07818913
44	0xbbc79eab	-0.0060919127
45	0xbc94a5d8	-0.018145487
46	0x3d89853e	0.06714867
47	0x3cb5a227	0.022172047
48	0xbcf58ba4	-0.029973812
49	0x3d23a025	0.039947648
50	0xbcec1e5c	-0.02882307
51	0xbaa61baf	-0.0012673045
52	0x3c13d88e	0.009023799
53	0x3da5e271	0.08099831
54	0xbd4748f9	-0.048653577
55	0x3c22bbc1	0.009932459
56	0x3b21ffaf	0.002471905
57	0x3d1e702b	0.03868119
58	0xbdb275fd	-0.08713911
59	0xbc2fc5e6	-0.010728335
60	0x3d839df5	0.06426612
61	0x3d4844e8	0.04889384
62	0x3cd3090d	0.025761152
63	0x3d61bf68	0.05511418
64	0x3e0ff632	0.1405876
65	0x3c546eeb	0.012965898
66	0x3d972745	0.07380537
67	0xbc09dad6	-0.008413991
68	0x3c22c44a	0.009934494
69	0xbd64821c	-0.055788144
70	0x3c7a3cb3	0.015273261
71	0x3c01d348	0.0079239085
72	0x3cfddf36	0.030990224
73	0x3d4969fa	0.049173333
74	0x3c352cf3	0.01105808
75	0x3ca5df60	0.020248115
76	0x3c029d81	0.007972122
77	0xbd40d168	-0.047074705
78	0x3d634114	0.055481985
79	0x3ba4e986	0.005032721
80	0x3d02a022	0.031890996
81	0x3d0506ac	0.032477066
82	0x3c8de22f	0.017319767
83	0x3cd2beb2	0.025725696
84	0xbbda0a5c	-0.006654067
85	0x3d1d0beb	0.038341444
86	0x3cb25b1e	0.021771964
87	0xbd193712	-0.037406035
88	0x3d797be8	0.06090918
89	0x3cc9a593	0.024615085
90	0x3ce6fbb7	0.028196199
91	0xbd2ab30f	-0.04167467
92	0x3c88fd4a	0.01672234
93	0xbd673242	-0.056444414
94	0x3c82c266	0.015961837
95	0x3d9c1806	0.076217696
96	0x3d126651	0.035742108
97	0xbcc92d7f	-0.024557827
98	0xbda7c6a2	-0.08192183
99	0xbd458065	-0.04821815
100	0xbd3cde7a	-0.046110608
101	0x3cc3a038	0.02388011
102	0xbcd5f5da	-0.026118208
103	0xbbfe1cf1	-0.007754915
104	0xbd423e04	-0.047422424
105	0xbb993350	-0.0046753064
106	0x3d57ed84	0.052716747
107	0xbd458e78	-0.048231572
108	0xbc7005ae	-0.014649792
109	0x39fef45a	0.0004862871
110	0x3d0b2f7d	0.033980835
111	0xbb3e0eff	-0.0029000638
112	0x3c00bd12	0.007857578
113	0x3d1ef4b0	0.03880757
114	0x3ca7d31f	0.020486413
115	0xbd45ec14	-0.048320845
116	0x3d3b4da8	0.045728356
117	0x3d17ed16	0.037091337
118	0xbd1b6c37	-0.037945
119	0xbc583750	-0.013196781
120	0xbd1306c6	-0.03589513
121	0xbd1609bb	-0.036630373
122	0xbd3c1a04	-0.045923248
123	0x3d7c739d	0.061633695
124	0xbd8de449	-0.069283076
125	0x3c259adf	0.010107725
126	0x3d17cc61	0.037060145
127	0x3e003a9f	0.12522362

network_body._body_endoder.seq_layers.2.weight f4 [128, 128]
0	0x3cc0409c	0.023468308
1	0xbd77b0b6	-0.06047126
2	0x3d8526d6	0.06501548
3	0xbc7df58a	-0.015500436
4	0xbd49cb0c	-0.049265906
5	0xbd5842fa	-0.05279825
6	0x3d9d0410	0.076667905
7	0xbe028959	-0.12747706
8	0x3e640482	0.22267345
9	0xbd4ca9e6	-0.049966715
10	0xbd8a14dd	-0.067422606
11	0xbe020bcf	-0.12699817
12	0xbe096c1c	-0.13420147
13	0xbd2d5678	-0.04231879
14	0x3d490871	0.049080316
15	0xbe2b814a	-0.16748539
16	0x3d8b824c	0.068119615
17	0x3e34790b	0.17624299
18	0x3dab6a7c	0.0836992
19	0xbd634425	-0.05548491
20	0x3cb3d295	0.021951
21	0x3b212737	0.0024590024
22	0xbe0b327b	-0.13593476
23	0xbe218a1d	-0.15775342
24	0xbcc8f52d	-0.024530971
25	0x3dab17ce	0.0835415
26	0xbdfb27c1	-0.12263442
27	0xbdc30a86	-0.095234916
28	0xbd4faad7	-0.050700035
29	0x3e0ce839	0.13760461
30	0x3debb941	0.11509944
31	0x3e081b6f	0.13291715
32	0x3da2ec0d	0.07955179
33	0x3e0ae9fc	0.1356582
34	0xbcdbff00	-0.026854992
35	0xbdd31548	-0.103067935
36	0x3d90f6bd	0.070783116
37	0x3c8a834f	0.016908316
38	0x3d90fca4	0.070794374
39	0x3e3099c2	0.17246154
40	0xbda9b9d6	-0.082873985
41	0x3e2d905e	0.16949603
42	0x3d421e80	0.04739237
43	0x3d5999a7	0.05312505
44	0xbdb5cd63	-0.08877065
45	0x3d484413	0.048893046
46	0xbc541709	-0.012944945
47	0x3d7212a9	0.059099827
48	0x3b465e5a	0.003026864
49	0xbd396c9b	-0.04526959
50	0xbe61cb63	-0.22050242
51	0x3d41c2d1	0.047304932
52	0x3c6b0351	0.014344052
53	0x3dddcb1d	0.108297564
54	0x3d902786	0.070387885
55	0xbdca9a48	-0.09892708
56	0x3be9c998	0.0071346276
57	0xbe07d37d	-0.1326427
58	0x3dde89f9	0.1086616
59	0x3dba8d51	0.09108985
60	0x3db7c93d	0.0897393
61	0xbcf9ac60	-0.030477703
62	0xbd58dc00	-0.052944183
63	0xbe0757d1	-0.13217093
64	0x3d6a3d8b	0.0571876
65	0xbe3ee9c6	-0.18643865
66	0x3df7c5a8	0.12098247
67	0xbc5c4531	-0.013444231
68	0x3bea5a43	0.0071518733
69	0x3b4faee4	0.0031689936
70	0x3cdbbc9b	0.026823333
71	0xbd9df2db	-0.07712337
72	0xbdc63d75	-0.09679691
73	0x3d8d87d2	0.06910671
74	0xbe10b2d1	-0.14130713
75	0x3ddc0778	0.10743612
76	0x3d39764d	0.045278836
77	0xbdfe43c6	-0.124152705
78	0xbcf6c2cd	-0.030122185
79	0xbd74912f	-0.05970877
80	0xbe09628b	-0.13416497
81	0x3df65b0e	0.12029086
82	0x3bf244b3	0.0073934435
83	0x3da842af	0.08215844
84	0xbe29635a	-0.16541806
85	0x3ddcd66a	0.10783084
86	0xbd355679	-0.04427192
87	0x3e10272d	0.14077444
88	0xbd76718c	-0.06016688
89	0xbe2b6ded	-0.16741152
90	0xbe567632	-0.20943525
91	0x3d2bf104	0.041977897
92	0x3ca502db	0.020142963
93	0xbda4b652	-0.08042587
94	0xbdd38e54	-0.10329881
95	0x3b29face	0.0025936845
96	0xbdc01a58	-0.09380025
97	0xbcc43c97	-0.023954673
98	0x3e00c7a8	0.12576163
99	0x3ddc6488	0.10761362
100	0xbde9a491	-0.11408342
101	0xbde481bc	-0.11157557
102	0xbd123683	-0.035696518
103	0x3d9942d1	0.07483447
104	0xbe11b54c	-0.14229316
105	0x3d746878	0.05966994
106	0x3bab8e55	0.005235473
107	0x3d0ccea6	0.034376763
108	0x3da9e624	0.08295849
109	0x3e15aea3	0.146174
110	0x3a91a962	0.0011113102
111	0x3e13c8f8	0.14432132
112	0xbd37c248	-0.044863015
113	0x3e34e957	0.17667137
114	0x3d413fae	0.04717987
115	0x3d7db71b	0.0619422
116	0x3df59a38	0.119923055
117	0xbdb13806	-0.08653264
118	0xbba3ffa5	-0.0050048404
119	0xbe42a70e	-0.19009039
120	0x3e01b201	0.1266556
121	0x3cf2c1c6	0.029633414
122	0x3df6ec9d	0.12056849
123	0x3e1ff6ee	0.1562154
124	0xbdfab045	-0.12240652
125	0xbd878b41	-0.066183574
126	0x3d6d21d6	0.057893597
127	0x3e36e8c9	0.17862238
128	0xbda061bb	-0.078311406
129	0x3d15dc78	0.03658721
130	0xbe3fcbd0	-0.18730092
131	0x3e117977	0.14206491
132	0xbe343beb	-0.17600982
133	0xbb3cdbf4	-0.0028817626
134	0xbe02e272	-0.12781695
135	0x3df320ea	0.11871512
136	0x3e0cc23f	0.13745974
137	0xbdbbfcfd	-0.09179113
138	0xbe6cbc96	-0.23118815
139	0x3d2dacd6	0.042401157
140	0xbdb80181	-0.08984662
141	0x3b0817cd	0.002076614
142	0xbd6fa4ac	-0.058506653
143	0x3cf9dee8	0.030501798
144	0xbe24e5ad	-0.1610324
145	0xbefd3015	-0.49450746
146	0xbe5c40da	-0.21509114
147	0xbe3157aa	-0.17318597
148	0xbe2c0210	-0.16797662
149	0xbd1e1789	-0.038596664
150	0xbcf3b697	-0.029750152
151	0x3e0cc3ad	0.1374652
152	0xbd6262cd	-0.055270005
153	0x3d120b89	0.035655532
154	0xbeb44332	-0.35207516
155	0x3e0d081e	0.13772628
156	0xbc8700cc	-0.016479872
157	0xbe563297	-0.20917736
158	0x3e36410b	0.1779825
159	0x3e7acc3f	0.24491976
160	0xbdccdf8d	-0.100035764
161	0x3e69d00e	0.22833273
162	0x3e0c2d89	0.13689245
163	0x3e4da408	0.20082104
164	0x3dae9f52	0.08526482
165	0x3e2018f0	0.15634513
166	0x3d2935c3	0.041311037
167	0x3d76b729	0.06023327
168	0x3d3058da	0.043053485
169	0xbed4dccc	-0.41574705
170	0xbcf3b203	-0.029747969
171	0xbd63924c	-0.05555944
172	0xbd862472	-0.0654992
173	0x3c131718	0.008977674
174	0x3e15169d	0.14559408
175	0xbdbf8fbb	-0.09353586
176	0x3d82e0f5	0.063905634
177	0xbca3f5de	-0.0200147
178	0xbd7cf332	-0.061755367
179	0xbc1b6917	-0.009485505
180	0xbe612302	-0.2198601
181	0xbc4994aa	-0.012303511
182	0x3da71613	0.08158507
183	0x3dc2e7ad	0.09516845
184	0x3c918a5e	0.017766174
185	0xbcb70bce	-0.022344496
186	0x3e20989e	0.15683219
187	0xbdc66e64	-0.09689024
188	0xbca7dcf1	-0.020491095
189	0xbd26a1fb	-0.04068182
190	0xbdd065a6	-0.10175638
191	0xbbdef6fc	-0.006804345
192	0x3e012048	0.1260997
193	0x3d3afec2	0.045653112
194	0x3e24a88a	0.16079918
195	0xbe3df7b0	-0.18551517
196	0x3daf5f4d	0.08563099
197	0xbbce08fd	-0.0062876926
198	0x3ca8569f	0.020549117
199	0xbcc911e6	-0.024544667
200	0xbe94f923	-0.29096326
201	0xbd6897f6	-0.056785546
202	0x3dc1bea2	0.094601884
203	0xbdb6d429	-0.08927185
204	0x3d931482	0.07181646
205	0x3e2a2c3b	0.16618435
206	0x3e49dd4b	0.19713323
207	0x3d8d995d	0.06914017
208	0x3c817b8a	0.015805978
209	0xbbbfea5d	-0.0058567957
210	0xbd72e5dd	-0.059301246
211	0x3c28ec24	0.010310207
212	0x3d2554d3	0.040364098
213	0xbe5b4c7d	-0.21415897
214	0x3dbe5fbd	0.092956044
215	0x3df00c8f	0.11721145
216	0xbdbb05f6	-0.09131996
217	0x3e8fe5c9	0.28105
218	0x3e25342a	0.1613318
219	0xbe540b27	-0.2070738
220	0x3e6f3e8a	0.233637
221	0xbdb4a5a7	-0.08820658
222	0x3d37b63c	0.044851527
223	0xbe40c674	-0.18825704
224	0x3cc35836	0.023845773
225	0x3dd9cb01	0.10634423
226	0xbe1167fa	-0.1419982
227	0xbe50e32a	-0.20399156
228	0x3e1d192f	0.15341638
229	0x3c510636	0.012757828
230	0xbdab59ca	-0.08366735
231	0xbe58a150	-0.21155286
232	0x3d3c86f7	0.04602715
233	0xbe0c813e	-0.13721177
234	0xbe6e4147	-0.23267089
235	0xbca31fac	-0.019912563
236	0xbe4bfa0c	-0.19919604
237	0xbe1be46b	-0.15223853
238	0x3d003c4a	0.031307496
239	0x3d58a042	0.05288721
240	0x3dba81e2	0.091068044
241	0xbded56c8	-0.11588818
242	0x3d82c4a6	0.06385164
243	0x3d0bc6db	0.03412519
244	0x3dc2a095	0.09503285
245	0xbe11fcd6	-0.14256606
246	0xbd0d803b	-0.03454612
247	0x3cb2b83b	0.021816364
248	0x3e098bd1	0.13432242
249	0x3d8da954	0.069170624
250	0xbe9c78a6	-0.30560797
251	0xbe3c86a0	-0.1841073
252	0x3daf3c56	0.0855643
253	0xbdafc008	-0.08581549
254	0xbd672be4	-0.05643834
255	0xbdaa62f8	-0.08319658

network_body.observation_encoder.processors.0.normalizer.running_mean f4 [24]
0	0xb4074000	-1.2596138e-07
1	0x403ecf4d	2.9814026
2	0xbf1469f6	-0.57974184
3	0xc03d4684	-2.957429
4	0x3fbecf4d	1.4907013
5	0x3f4b7aa1	0.7948399
6	0xbedcf16a	-0.43152934
7	0x00000000	0.0
8	0x3c942ec3	0.018088704
9	0x34074000	1.2596138e-07
10	0x403ecf4d	2.9814026
11	0xbf1469e5	-0.5797408
12	0x32b80000	2.142042e-08
13	0x403ffec2	2.9999242
14	0xbf1476e5	-0.5799392
15	0xc03fe8c5	-2.9985821
16	0x3fbffec2	1.4999621
17	0x3f4bcb0b	0.79606694
18	0xbee41a67	-0.44551393
19	0x00000000	0.0
20	0x3c86443e	0.016389962
21	0xb2b80000	-2.142042e-08
22	0x403ffec2	2.9999242
23	0xbf1476e3	-0.57993907
