Assets/trining/results/Messi2/AgentTest/AgentTest-499990.pt (torch, 498871 bytes, 41 tensors)

network_body.observation_encoder.processors.0.normalizer.running_mean f4 [24]
-0.0052482975 2.973145 -0.52100486 -4.478491 1.4865725 0.81415844 -0.82514095 0.0
0.0053698984 0.0052482975 2.973145 -0.5210876 -0.0052480996 2.9999242 -0.5222528 -4.558666
1.4999621 0.8133355 -0.8508465 0.0 -0.005659949 0.0052480996 2.9999242 -0.5223571
00000000: e9f9 abbb 0248 3e40 9360 05bf cc4f 8fc0
00000010: 0248 be3f b06c 503f 703c 53bf 0000 0000
00000020: f9f5 af3b e9f9 ab3b 0248 3e40 ff65 05bf
00000030: 40f8 abbb c2fe 3f40 5cb2 05bf 98e0 91c0
00000040: c2fe bf3f c136 503f 14d1 59bf 0000 0000
00000050: 1877 b9bb 40f8 ab3b c2fe 3f40 32b9 05bf

network_body.observation_encoder.processors.0.normalizer.running_variance f4 [24]
8.329467e+08 39968.33 5.5808016e+07 2.7919968e+08 9992.832 7.623223e+07 2.156543e+08 1.0
1.8338568e+08 8.329467e+08 39968.33 5.580677e+07 8.404829e+08 9.999765 5.6295412e+07 2.89069e+08
3.2499413 7.677737e+07 2.1788256e+08 1.0 1.8488856e+08 8.404829e+08 9.999765 5.6294064e+07
00000000: 0897 464e 5420 1c47 04e4 544c fe21 854d
00000010: 5423 1c46 c566 914c faa9 4d4d 0000 803f
00000020: e5e3 2e4d 0897 464e 5420 1c47 cce2 544c
00000030: 0163 484e 0aff 1f41 fdbf 564c bed6 894d
00000040: 0aff 4f40 f370 924c fcc9 4f4d 0000 803f
00000050: cf52 304d 0163 484e 0aff 1f41 acbe 564c

network_body.processors.0.normalizer.running_mean f4 [24]
-0.0052482975 2.973145 -0.52100486 -4.478491 1.4865725 0.81415844 -0.82514095 0.0
0.0053698984 0.0052482975 2.973145 -0.5210876 -0.0052480996 2.9999242 -0.5222528 -4.558666
1.4999621 0.8133355 -0.8508465 0.0 -0.005659949 0.0052480996 2.9999242 -0.5223571
00000000: e9f9 abbb 0248 3e40 9360 05bf cc4f 8fc0
00000010: 0248 be3f b06c 503f 703c 53bf 0000 0000
00000020: f9f5 af3b e9f9 ab3b 0248 3e40 ff65 05bf
00000030: 40f8 abbb c2fe 3f40 5cb2 05bf 98e0 91c0
00000040: c2fe bf3f c136 503f 14d1 59bf 0000 0000
00000050: 1877 b9bb 40f8 ab3b c2fe 3f40 32b9 05bf

network_body.processors.0.normalizer.running_variance f4 [24]
8.329467e+08 39968.33 5.5808016e+07 2.7919968e+08 9992.832 7.623223e+07 2.156543e+08 1.0
1.8338568e+08 8.329467e+08 39968.33 5.580677e+07 8.404829e+08 9.999765 5.6295412e+07 2.89069e+08
3.2499413 7.677737e+07 2.1788256e+08 1.0 1.8488856e+08 8.404829e+08 9.999765 5.6294064e+07
00000000: 0897 464e 5420 1c47 04e4 544c fe21 854d
00000010: 5423 1c46 c566 914c faa9 4d4d 0000 803f
00000020: e5e3 2e4d 0897 464e 5420 1c47 cce2 544c
00000030: 0163 484e 0aff 1f41 fdbf 564c bed6 894d
00000040: 0aff 4f40 f370 924c fcc9 4f4d 0000 803f
00000050: cf52 304d 0163 484e 0aff 1f41 acbe 564c

network_body._body_endoder.seq_layers.0.weight f4 [128, 24]
0.03760198 0.0131138675 0.46142212 -0.2197447 0.34646717 -0.3153146 -0.260952 -0.054473575
-0.069757976 0.12931904 0.19889669 -0.08200313 -0.26713663 0.18609142 0.32461822 0.69213414
0.25263777 0.16602544 -0.30167717 0.23640466 0.042908072 -0.008425203 -0.0860806 -0.17009299
-0.17307991 -0.27455464 -0.0832575 0.07570039 -0.030288348 0.28875986 0.26824665 0.010010396
-0.2902995 -0.3517336 -0.20804591 0.049158975 0.27461916 -0.10879931 -0.18923724 0.29736638
-0.40113875 0.24018186 0.27169856 0.11993291 -0.30889073 -0.12833627 0.28603083 0.0058213826
-0.20797876 -0.18137348 -0.014408046 -0.1658565 0.07149749 -0.31892887 -0.29851285 -0.19958319
0.10455785 -0.052104507 -0.196515 0.24441232 -0.16761705 -0.054454386 0.06678428 -0.1714486
0.10486078 -0.24885565 0.3087749 0.09811339 0.01983484 -0.73048896 0.25731587 -0.035981625
0.11121007 -0.14846143 0.12063381 0.08868678 -0.0002520703 0.1788607 -0.63267756 0.03589497
0.121188514 0.14723057 0.22870971 -0.12429834 0.12861785 -0.4683132 -0.18116884 -0.2759534
-0.21727984 0.09935083 -0.14047746 0.17848094 0.034912497 -0.19563207 -0.03725245 -0.21707967
-0.114310876 0.16399652 -0.22456071 -0.59416705 0.2682888 -0.006454096 0.22783388 -0.0061588436
-0.3924409 -0.23021394 -0.050967876 -0.16407798 0.1671374 -0.19048904 0.40110373 -0.26986846
-0.074662656 -0.12824269 0.054955557 -0.09089796 -0.039671198 -0.40858623 -0.053354003 0.041322634
-0.12384632 -0.07356451 -0.26369986 0.011030032 0.0069895447 0.0073637287 0.05401248 0.34313002
-0.3458593 0.17446116 0.20574972 -0.21136267 -0.037786927 -0.12082359 0.051907238 -0.28804615
-0.07414236 -0.29453725 0.5923368 -0.0778953 -0.10977029 -0.029825909 -0.046874303 0.10503072
-0.18194138 0.048783768 0.17463401 -0.26419652 -0.020422706 -0.17155114 0.09769923 -0.07808675
0.053094514 0.2515063 -0.09518769 0.12096715 0.06937016 0.080332235 0.10001471 -0.24918213
-0.17950575 0.018282035 0.15201248 -0.27909034 -0.027029013 0.00046572147 0.09039747 -0.08874895
-0.1733825 0.12056166 0.070001155 -0.3217219 -0.15981974 -0.24036784 -0.43384025 -0.16678411
0.29652944 0.3496817 0.005548203 -0.17120701 -0.032016855 -0.029806215 -0.24867183 0.19780935
0.044388838 -0.22006363 -0.11664582 0.002534675 -0.2433532 0.0803252 0.14934157 -0.027790856
-0.2097606 0.3230866 -0.11410199 0.17052585 0.042146165 -0.060435943 -0.10659794 -0.0165562
-0.14946073 0.028387818 0.07463739 -0.039382823 -0.23413311 -0.034910157 0.06698033 -0.18616748
0.04759449 0.00067729614 -0.22115247 0.06074558 -0.0740531 0.06785577 -0.30322587 -0.01764627
-0.283077 0.07934512 -0.18372367 -0.2883966 -0.1441691 0.3309864 -0.042596865 0.19552083
-0.15320097 -0.08832216 -0.23519963 0.09423278 0.08949511 -0.17216139 -0.22389676 -0.010559633
0.22764033 0.087839164 0.3153535 0.6107634 -0.09528669 0.06664428 -0.023621358 -0.32509282
0.006238681 -0.3118894 -0.2704067 -0.13157865 -0.27109984 -0.13113722 -0.039976306 0.15081137
-0.14959213 0.0412652 -0.023148736 -0.11092173 -0.2366591 -0.02802508 0.121399336 -0.17242141
00000000: 8904 1a3d 8cdb 563c 853f ec3e c104 61be
00000010: 2564 b13e ea70 a1be 809b 85be af1f 5fbd
00000020: 45dd 8ebd 366c 043e 93ab 4b3e 42f1 a7bd
00000030: 22c6 88be c08e 3e3e 5c34 a63e b42f 313f
00000040: bd59 813e 9302 2a3e 6e75 9abe 1014 723e
00000050: 60c0 2f3d dd09 0abc 074b b0bd db2c 2ebe
00000060: dc3b 31be 6d92 8cbe e882 aabd ce08 9b3d
00000070: 451f f8bc 55d8 933e a057 893e a502 243c
00000080: 23a2 94be 6d16 b4be fd09 55be ec5a 493d
00000090: e29a 8c3e 2cd2 debd 68c7 41be 6840 983e
000000a0: 0f62 cdbe 3cf2 753e 131c 8b3e 639f f53d
000000b0: ed26 9ebe 956a 03be a272 923e 4cc1 be3b
000000c0: 62f8 54be f8b9 39be ba0f 6cbc 49d6 29be
000000d0: 476d 923d a54a a3be add6 98be 895f 4cbe
000000e0: 6d22 d63d 896b 55bd 3a3b 49be 3947 7a3e
000000f0: cea3 2bbe 900b 5fbd 32c6 883d 3990 2fbe
00000100: 40c1 d63d 04d4 7ebe be17 9e3e acef c83d
00000110: ad7c a23c 5301 3bbf e8be 833e 7861 13bd
00000120: 1bc2 e33d 4606 18be dc0e f73d 6aa1 b53d
00000130: 4e28 84b9 4227 373e 28f7 21bf 9b06 133d
00000140: af31 f83d 9cc3 163e e132 6a3e 2190 febd
00000150: 66b4 033e bfc6 efbe 5384 39be c449 8dbe
00000160: 9b7e 5ebe 7378 cb3d 53d9 0fbe b5c3 363e
00000170: 6800 0f3d c653 48be 0696 18bd 224a 5ebe
00000180: d21b eabd b4ee 273e 3ef3 65be 551b 18bf
00000190: 265d 893e e27c d3bb 494d 693e 20d0 c9bb
000001a0: 03ee c8be 34bd 6bbe b1c3 50bd 0f04 28be
000001b0: 1126 2b3e 8f0f 43be 785d cd3e 332c 8abe
000001c0: bce8 98bd 0d52 03be 1419 613d b628 babd
000001d0: 447e 22bd 3732 d1be ba89 5abd ec41 293d
000001e0: 24a3 fdbd fda8 96bd ab03 87be 4fb7 343c
000001f0: 8d08 e53b 6f4b f13b 313c 5d3d bdae af3e
00000200: 7814 b1be f2a5 323e 0eb0 523e 756f 58be
00000210: 77c6 1abd 5c72 f7bd af9c 543d c97a 93be
00000220: f3d7 97bd 96cd 96be 62a3 173f 9287 9fbd
00000230: 3fcf e0bd 7755 f4bc 45ff 3fbd 591a d73d
00000240: d74e 3abe 7dd1 473d 42d3 323e c444 87be
00000250: 854d a7bc 1aab 2fbe 8916 c83d f2eb 9fbd
00000260: a279 593d 6fc5 803e c3f1 c2bd a0bd f73d
00000270: f111 8e3d 3a85 a43d 83d4 cc3d 9a29 7fbe
00000280: 5bd0 37be 35c4 953c 29a9 1b3e eee4 8ebe
00000290: f36b ddbc 142c f439 4f22 b93d 02c2 b5bd
000002a0: 2f8b 31be 08e9 f63d c45c 8f3d bcb8 a4be
000002b0: c9a7 23be fd22 76be 4f20 debe 74c9 2abe
000002c0: b5d2 973e 7b09 b33e b3cd b53b e450 2fbe
000002d0: 1b24 03bd 2a2c f4bc d4a3 7ebe 898e 4a3e
000002e0: 12d1 353d 5c58 61be 01e4 eebd ca1c 263b
000002f0: 9531 79be 8a81 a43d ffec 183e a6a9 e3bc
00000300: 7ccb 56be 9b6b a53e 4eae e9bd 549e 2e3e
00000310: 75a1 2c3d ae8b 77bd 0550 dabd dea0 87bc
00000320: 3c0c 19be 928d e83c 7ddb 983d e24f 21bd
00000330: 97c0 6fbe f4fd 0ebd fc2c 893d b0a2 3ebe
00000340: 71f2 423d 938c 313a cb75 62be 5bd0 783d
00000350: 27a9 97bd f7f7 8a3d 6c40 9bbe e98e 90bc
00000360: 78ef 90be b27f a23d 0f22 3cbe b8a8 93be
00000370: 11a1 13be 0d77 a93e 0d7a 2ebd 9d36 483e
00000380: b7e0 1cbe 40e2 b4bd 2cd8 70be 1efd c03d
00000390: 3649 b73d 134b 30be 3145 65be 5002 2dbc
000003a0: 8c1a 693e 05e5 b33d 0476 a13e fd5a 1c3f
000003b0: ab25 c3bd cc7c 883d 9481 c1bc 9172 a6be
000003c0: d96d cc3b f8af 9fbe bf72 8abe 8ebc 06be
000003d0: 99cd 8abe d648 06be 32be 23bd 4c6e 1a3e
000003e0: ae2e 19be b305 293d 6ba2 bdbc ef2a e3bd
000003f0: c356 72be da94 e5bc 37a0 f83d 3d8f 30be

network_body._body_endoder.seq_layers.0.bias f4 [128]
0.027051665 -0.0011513791 -0.03568091 -0.024961205 -0.0048502376 -0.033506207 0.029528635 0.012824372
0.010060094 0.050475985 -0.030472009 -0.044083904 -0.050541323 0.024531316 -0.035260316 -0.05785322
0.018720677 0.09068152 -0.050543465 -0.131262 -0.01719925 -0.050411988 -0.092983946 -0.037687566
-0.03880697 -0.011281653 0.03369565 -0.0012707687 -0.0046081175 -0.012535402 0.0065167067 0.023463022
-0.09836843 0.036662333 0.025136547 0.06011825 -0.058832217 -0.014148388 -0.077088036 -0.12276504
-0.040998206 0.042804465 0.07449207 -0.07404031 -0.084680766 -0.023785377 0.032336883 -0.00011711925
-0.02321319 0.036969498 -0.020810034 -0.065943636 -0.03826516 -0.01592236 -0.008683619 -0.0022626417
-0.06299941 -0.018923081 -0.032457113 -0.008327983 0.00998937 -0.007800344 -0.00029525734 0.02673184
0.02935455 -0.030633228 0.025382334 0.036643468 0.0030096814 -0.017858673 -0.08385776 0.02961672
0.012792464 -0.0043667946 -0.0017010419 -0.016626643 -0.05059242 0.0039023731 0.035643857 0.018018588
0.030470977 -0.0026742672 0.017351782 -0.029451257 -0.023016527 -0.0042456123 -0.03738902 -0.058942247
-0.010485665 -0.0520844 -0.00021397624 0.0484207 -0.022096736 -0.038335875 -0.02456914 0.022272347
0.034319863 0.015046865 -0.06730267 0.0060393987 0.017438196 0.01282079 -0.056225467 0.0066622477
-0.015503082 -0.0052676606 0.0039962577 -0.0105476305 -0.051356666 -0.10916687 -0.021572981 -0.0034616399
-0.09926471 -0.097387314 0.01208121 -0.02573999 0.045177795 -0.08953827 -0.011107638 -0.01755871
0.026266374 -0.029426128 0.0023714635 -0.031014482 -0.0010586448 -0.0138861565 -0.05763881 -0.0024875803
00000000: 749b dd3c dfe9 96ba 2526 12bd 717b ccbc
00000010: beee 9ebb ce3d 09bd 09e6 f13c 511d 523c
00000020: 18d3 243c e8bf 4e3d 6fa0 f9bc 5391 34bd
00000030: 6b04 4fbd e6f5 c83c 1f6d 10bd 7ff7 6cbd
00000040: 1b5c 993c 3cb7 b93d aa06 4fbd 8c69 06be
00000050: 71e5 8cbc cd7c 4ebd 5e6e bebd 475e 1abd
00000060: 0ff4 1ebd afd6 38bc 7304 0a3d ec8f a6ba
00000070: b1ff 96bb 4961 4dbc 198a d53b 8635 c03c
00000080: 6375 c9bd 3e2b 163d 29eb cd3c 8e3e 763d
00000090: 0dfa 70bd a4ce 67bc 55e0 9dbd 3d6c fbbd
000000a0: bced 27bd bc53 2f3d 4c8f 983d 72a2 97bd
000000b0: 1c6d adbd 8dd9 c2bc ae73 043d eb9d f5b8
000000c0: 9629 bebc 546d 173d ce79 aabc 750d 87bd
000000d0: eebb 1cbd 9c6f 82bc bd45 0ebc d448 14bb
000000e0: d605 81bd 9404 9bbc c0f1 04bd 1872 08bc
000000f0: 74aa 233c 079a ffbb c5cc 9ab9 bbfc da3c
00000100: f478 f03c 89f2 fabc 9dee cf3c 7617 163d
00000110: 133e 453b 5a4c 92bc 9ebd abbd c39e f23c
00000120: 7c97 513c 5417 8fbb 7ff5 deba 9934 88bc
00000130: ff39 4fbd f5be 7f3b 4bff 113d b89b 933c
00000140: 459e f93c c242 2fbb 5325 8e3c c343 f1bc
00000150: 288d bcbc c71e 8bbb 3b25 19bd 6d6d 71bd
00000160: 11cc 2bbc 7456 55bd cf5e 60b9 c954 463d
00000170: 3704 b5bc 1406 1dbd 3945 c9bc 7f74 b63c
00000180: fc92 0c3d 2087 763c fbd5 89bd 26e6 c53b
00000190: 8cda 8e3c 4a0e 523c ad4c 66bd fc4e da3b
000001a0: a400 7ebc 579c acbb 0af3 823b f8cf 2cbc
000001b0: 5e5b 52bd e192 dfbd d2b9 b0bc aedc 62bb
000001c0: 4c4b cbbd 0073 c7bd 44f0 453c acdc d2bc
000001d0: 5a0c 393d d75f b7bd cffc 35bc 49d7 8fbc
000001e0: 942c d73c 100f f1bc 8e6a 1b3b 1512 febc
000001f0: 3ac2 8aba c382 63bc ac16 6cbd ac06 23bb

network_body._body_endoder.seq_layers.2.weight f4 [128, 128]
-0.0025931927 -0.04994589 0.05471752 -0.0011799923 -0.07224865 -0.05040745 0.07368777 -0.09385059
0.21791044 -0.06320556 -0.08661563 -0.08086989 -0.1375402 -0.0449107 0.029710703 -0.13956173
0.08239382 0.16805498 0.060561027 -0.07475862 0.008139218 -0.014529761 -0.11069453 -0.15456335
-0.014048905 0.055492297 -0.13233733 -0.092413545 -0.045406092 0.13464174 0.11494559 0.14714287
0.071995266 0.1509529 -0.016802205 -0.08660978 0.060069986 0.027436016 0.05813174 0.15477395
-0.093201414 0.18425032 0.057696532 0.05480086 -0.084174484 0.040367324 0.011367602 0.08475371
-0.0043331324 -0.02320338 -0.19393378 0.07073634 -0.007022074 0.08523549 0.076686226 -0.124870524
0.0043982086 -0.11981032 0.10737437 0.08345223 0.097338036 -0.018798467 -0.05432376 -0.09933819
0.07391456 -0.20357604 0.14570464 -0.023954056 0.022920744 0.0014888581 0.026908558 -0.09940898
-0.12531255 0.042967215 -0.1288004 0.11418911 0.047955092 -0.11938576 -0.025147758 -0.027442181
-0.111946374 0.09898089 -0.0024839244 0.071655445 -0.1628341 0.09450278 -0.06941774 0.13705236
-0.040639203 -0.1580961 -0.19308835 0.029198484 0.0035089059 -0.093338676 -0.07970395 -0.0097878715
-0.1000452 -0.04410494 0.12861417 0.097509 -0.077783585 -0.09329268 -0.02537426 0.0664772
-0.13835089 0.06260198 0.002407754 0.0060593775 0.07751418 0.13198817 0.008415775 0.15375815
-0.0347562 0.17171839 0.03168001 0.08029352 0.09129316 -0.081202134 0.017278906 -0.16484292
0.12821758 0.008432668 0.092417255 0.1578095 -0.12592949 -0.047861334 0.06960574 0.19943216
-0.07329739 0.0070105693 -0.14859906 0.14346233 -0.13984539 0.006435046 -0.1156858 0.11248918
0.13217372 -0.11283079 -0.19599038 0.0368688 -0.1123125 0.013745692 -0.062243078 0.028255602
-0.15548508 -0.49761257 -0.20024012 -0.16253589 -0.14566547 -0.06461709 -0.015760386 0.095839895
-0.06701351 0.03270791 -0.33524814 0.123892546 -0.010570326 -0.19563682 0.14438158 0.24024527
-0.087248154 0.19050352 0.13465378 0.19771563 0.08431446 0.17292005 0.06032113 0.07735569
0.04602603 -0.4009661 -0.06291169 -0.0376765 -0.028634837 -0.016769864 0.14216575 -0.09308214
0.011793025 -0.031758107 -0.058446884 -0.021689907 -0.20135167 -0.034834288 0.06928542 0.066086285
0.015942505 0.021283846 0.15039025 -0.10580224 -0.044355676 -0.029258069 -0.107765555 -0.00801367
0.11186474 0.042694286 0.1524519 -0.16242611 0.0644552 -0.00090133236 0.028526148 0.019411135
-0.23309508 -0.080026925 0.09751484 -0.07727317 0.063715085 0.15740003 0.17958936 0.07077398
0.026700629 0.016284207 -0.07341064 0.017081272 0.031494316 -0.20830558 0.08325951 0.11152306
-0.08433438 0.26420277 0.14391495 -0.2216951 0.22816285 -0.08019483 0.047821652 -0.13952191
-0.014881272 0.08606284 -0.14478998 -0.16739577 0.14688264 0.01677181 -0.0882281 -0.19879709
0.04436359 -0.13897574 -0.21596032 -0.023357034 -0.19264849 -0.11521706 0.011396986 0.030601617
0.06737047 -0.10079908 0.03847027 0.036823433 0.085816175 -0.1519449 -0.03139773 0.017277783
0.11509819 0.08127741 -0.25317118 -0.13498007 0.061789438 -0.050692055 -0.04508042 -0.06146508
00000000: 8ef2 29bb 1094 4cbd 7a1f 603d f9a9 9aba
00000010: 1af7 93bd 0b78 4ebd 9de9 963d bd34 c0bd
00000020: ea23 5f3e eb71 81bd 8963 b1bd 1d9f a5bd
00000030: 57d7 0cbe 48f4 37bd dc63 f33c 45e9 0ebe
00000040: 17be a83d 9b16 2c3e d70e 783d 0c1b 99bd
00000050: 5b5a 053c 3c0e 6ebc d0b3 e2bd db45 1ebe
00000060: 612d 66bc e44b 633d 7083 07be 5043 bdbd
00000070: bdfb 39bd 86df 093e 9868 eb3d 9fac 163e
00000080: 4172 933d 6693 1a3e c7a4 89bc 7860 b1bd
00000090: f20b 763d 7fc1 e03c 8c1b 6e3d 107d 1e3e
000000a0: 62e0 bebd 1eac 3c3e 3353 6c3d de76 603d
000000b0: ac63 acbd 3558 253d 2e3f 3a3c 5a93 ad3d
000000c0: f3fc 8dbb 0415 bebc 9496 46be 37de 903d
000000d0: 6d19 e6bb f28f ae3d ab0d 9d3d 1ebc ffbd
000000e0: d91e 903b 1d5f f5bd 18e7 db3d 01e9 aa3d
000000f0: 2a59 c73d 3eff 99bc 9782 5ebd d271 cbbd
00000100: 8460 973d 3d76 50be 9933 153e 4c3b c4bc
00000110: 49c4 bb3c ca25 c33a 566f dc3c ef96 cbbd
00000120: ef51 00be 64fe 2f3d 41e4 03be fbdb e93d
00000130: 8f6c 443d 8580 f4bd ac02 cebc 6dce e0bc
00000140: 2444 e5bd 7eb6 ca3d 56c9 22bb 17c0 923d
00000150: fbbd 26be ac8a c13d e32a 8ebd 7457 0c3e
00000160: 4b75 26bd f2e3 21be f4b8 45be a931 ef3c
00000170: acf5 653b 5928 bfbd d33b a3bd 4f5d 20bc
00000180: 7fe4 ccbd 62a7 34bd 6fb3 033e ccb2 c73d
00000190: 004d 9fbd 3c10 bfbd aedd cfbc 3325 883d
000001a0: dbab 0dbe 7835 803d 69cb 1d3b be8d c63b
000001b0: c1bf 9e3d e827 073e 52e2 093c c772 1d3e
000001c0: 845c 0ebd f2d6 2f3e e6c2 013d ee70 a43d
000001d0: e9f7 ba3d 4e4d a6bd 7e8c 8d3c 95cc 28be
000001e0: 784b 033e 2c29 0a3c 4245 bd3d d098 213e
000001f0: a9f3 00be 3f0a 44bd 748d 8e3d f237 4c3e
00000200: f11c 96bd ebb8 e53b 5a2a 18be cae7 123e
00000210: a133 0fbe 14dd d23b adec ecbd ba60 e63d
00000220: 8c58 073e d413 e7bd b4b1 48be bd03 173d
00000230: 1904 e6bd 9c35 613c 99f2 7ebd 4b78 e73c
00000240: 7b37 1fbe 13c7 febe bf0b 4dbe cf6f 26be
00000250: 5429 15be f755 84bd ed1b 81bc b547 c43d
00000260: 613e 89bd bbf8 053d a5a5 abbe 60bb fd3d
00000270: 292f 2dbc 0555 48be c4d8 133e db02 763e
00000280: 29af b2bd 5b13 433e aee2 093e f775 4a3e
00000290: 0fad ac3d f411 313e 4a13 773d a96c 9e3d
000002a0: ca85 3c3d 6e4b cdbe d8d7 80bd ac52 1abd
000002b0: 9b93 eabc f460 89bc e693 113e d9a1 bebd
000002c0: 8837 413c ca14 02bd 0066 6fbd 08af b1bc
000002d0: 222f 4ebe 66ae 0ebd 84e5 8d3d 3f58 873d
000002e0: db99 823c 765b ae3c e7ff 193e d8ae d8bd
000002f0: 4cae 35bd 9eae efbc 30b4 dcbd c54b 03bc
00000300: 5719 e53d 34e0 2e3d 5a1c 1c3e 0853 26be
00000310: 1701 843d 6447 6cba abaf e93c 1a04 9f3c
00000320: 7ab0 6ebe 28e5 a3bd dcb5 c73d 6541 9ebd
00000330: 0e7d 823d 792d 213e 46e6 373e f3f1 903d
00000340: 47bb da3c 7566 853c 5158 96bd 06ee 8b3c
00000350: 2f00 013d 0f4e 55be f683 aa3d 3466 e43d
00000360: 81b7 acbd 9645 873e 715e 133e 0a04 63be
00000370: 86a3 693e 303d a4bd a3e0 433d d5de 0ebe
00000380: 94d0 73bc b741 b03d d343 14be cc69 2bbe
00000390: 6768 163e 0965 893c efb0 b4bd 7791 4bbe
000003a0: 99b6 353d a84f 0ebe b424 5dbe 4057 bfbc
000003b0: a545 45be ecf6 ebbd 6dba 3a3c 3eb0 fa3c
000003c0: 87f9 893d c06f cebd 0093 1d3d 2bd4 163d
000003d0: 64c0 af3d 7297 1bbe e89a 00bd 238a 8d3c
000003e0: 9ab8 eb3d c574 a63d a79f 81be 3738 0abe
000003f0: ec16 7d3d 79a2 4fbd 3fa6 38bd cfc2 7bbd

network_body._body_endoder.seq_layers.2.bias f4 [128]
-0.08327141 0.0607353 0.044662282 0.03436427 -0.029946333 -0.037146606 -0.038024068 -0.016531618
0.035186492 0.02747226 -0.04563005 -0.007716489 0.063602224 0.045172717 -0.053315222 0.0522113
-0.022279395 0.018394323 -0.028666018 -0.048572544 0.039407823 -0.012342306 -0.040228806 0.028878506
0.005925918 0.019205501 0.029349012 -0.041741535 0.031219386 0.032937016 0.032831203 -0.0107986415
0.046648074 -0.014564481 -0.09159952 0.009357672 0.07958128 0.037659023 0.020132631 0.015780566
0.011522639 0.051883075 0.055448953 0.055793054 -0.0004980379 -0.024902586 0.0647909 0.013442459
-0.0032498618 0.031012237 -0.055510182 0.00888431 0.002483663 0.07251464 -0.054169312 0.017531626
-0.009098744 0.018924456 -0.10881761 -0.0015577665 0.046037015 0.020571565 0.02127496 0.041210845
0.10949495 -0.001960218 0.066599816 0.023239873 0.0021651057 -0.029783444 0.01445484 0.029948065
0.052171413 0.031016184 0.010277813 0.015150172 -0.0028258127 -0.0154235475 0.032953978 -0.007640552
0.03744209 0.03805577 0.0115792565 0.012199002 -0.01939568 0.021835232 0.0033162825 -0.05222213
0.05448647 0.0063416953 0.020605516 -0.06645961 0.049259894 -0.05542249 0.027846929 0.048493404
0.025651738 -0.032658316 -0.059118103 -0.05577166 -0.05129661 0.01440987 -0.031249644 -0.03420129
-0.014309539 -0.011380899 0.022267105 -0.041332036 -0.028038552 0.016894273 0.045913965 0.019821078
0.016923616 0.03095679 0.0068764514 -0.054944184 0.034764342 0.032527413 -0.06439276 -0.015471966
-0.031633664 -0.044910476 -0.06340301 0.04248911 -0.034459863 0.013176829 0.02658323 0.10122848
00000000: 338a aabd 94c5 783d ccef 363d 8cc1 0c3d
00000010: 0352 f5bc 0a27 18bd 20bf 1bbd 516d 87bc
00000020: b61f 103d 810d e13c 93e6 3abd 9ada fcbb
00000030: e241 823d 0707 393d 1061 5abd 84db 553d
00000040: 4783 b6bc b1af 963c ffd4 eabc 01f4 46bd
00000050: 196a 213d 6237 4abc f6c6 24bd 9e92 ec3c
00000060: 342e c23b db54 9d3c 576d f03c 2cf9 2abd
00000070: ccbf ff3c f7e8 063d 037a 063d c9ec 30bc
00000080: 0d12 3f3d dc9f 6ebc 8798 bbbd ec50 193c
00000090: 83fb a23d 5940 1a3d 30ed a43c 3f46 813c
000000a0: 73c9 3c3c 5983 543d 711e 633d 4287 643d
000000b0: c28e 02ba 8200 ccbc 17b1 843d c23d 5c3c
000000c0: a2fb 54bb 600d fe3c a55e 63bd 7f8f 113c
000000d0: f3c4 223b 8e82 943d a4e0 5dbd 7c9e 8f3c
000000e0: e612 15bc 7607 9b3c c4db debd f82d ccba
000000f0: 4f91 3c3d b385 a83c d348 ae3c b4cc 283d
00000100: e33e e03d 0077 00bb 7c65 883d 8c61 be3c
00000110: 72e4 0d3b 69fc f3bc fed3 6c3c a555 f53c
00000120: b1b1 553d a715 fe3c 4664 283c 6d38 783c
00000130: 4531 39bb 0cb3 7cbc c0fa 063d 985d fabb
00000140: e15c 193d 5ee0 1b3d ecb6 3d3c 53de 473c
00000150: b0e3 9ebc cddf b23c fd55 593b dfe6 55bd
00000160: 342d 5f3d ffcd cf3b e6cc a83c fa1b 88bd
00000170: bec4 493d b102 63bd 3e1f e43c 05a1 463d
00000180: 9823 d23c bac4 05bd d325 72bd d370 64bd
00000190: 651c 52bd 6017 6c3c 41ff ffbc a716 0cbd
000001a0: 8f72 6abc f376 3abc 8169 b63c c84b 29bd
000001b0: 1bb1 e5bc dc65 8a3c 4810 3c3d d05f a23c
000001c0: 65a3 8a3c 1899 fd3c db53 e13b 270d 61bd
000001d0: 0e65 0e3d 773b 053d 5ae0 83bd 217e 7dbc
000001e0: 4d92 01bd 0cf4 37bd 70d9 81bd 1009 2e3d
000001f0: c925 0dbd a0e3 573c 13c5 d93c e150 cf3d

action_model._discrete_distribution.branches.0.weight f4 [3, 128]
0.013775764 0.028375437 -0.019795004 0.020795904 0.033447906 -0.012168694 0.0076947957 0.015068558
0.0145112695 -0.023253294 0.043231733 0.013857222 -0.015555379 -0.037917346 -0.007091648 0.016956218
0.059021838 0.03394326 -0.020827673 0.015690729 0.05514929 0.035865117 -0.008922225 0.00037658765
-0.041402068 -0.0009973703 0.027108526 0.0095503675 0.02992675 -0.027141733 0.045938868 0.022602715
0.016896017 0.0035136288 0.037047442 -0.07359525 -0.05077022 0.07182368 0.003448561 0.020427914
-0.04118034 -0.03160413 -0.024695328 0.018146006 0.001258216 0.03839117 -0.054289147 0.017241133
-0.021096041 -0.009646943 0.023744348 -0.0634331 0.009599191 0.023039808 0.015095923 -0.027395237
-0.008186009 0.0714491 -0.0059900885 -0.0511142 0.014412628 0.055588566 -0.024660727 -0.029214941
0.029487219 0.056049246 0.003986215 -0.040092178 0.0044186916 0.005859536 -0.02603302 -0.06273252
-0.059569225 0.08848214 -0.009999439 0.03214112 0.018972106 -0.035484847 0.037403107 0.014591532
-0.028504707 -0.043275956 -0.014057968 0.03245943 0.029729525 0.045959137 0.023441542 0.078269556
-0.010102508 0.050353304 0.022243349 0.028443 -0.07773165 0.029148173 -0.048285693 -0.0015554345
0.046303984 0.02514928 -0.043658894 0.0024629424 0.042794973 0.0012916751 0.059548892 0.04108438
-0.017831083 0.019629823 0.046526045 0.05379951 0.018023223 -0.061275855 -0.059019167 -0.012378669
-0.035599925 -0.011716353 0.0114707155 0.05122799 0.032552313 -0.007931724 0.022244979 0.056275204
-0.018122224 0.02876974 -0.008606288 0.00886842 0.007716236 -0.019291949 0.015632574 -0.019866072
0.007630461 0.1429056 0.12320707 0.106799096 -0.041185867 0.01675504 -0.05038727 0.009242766
0.1206528 0.16651593 0.026158499 0.011743779 -0.120864704 -0.07089419 -0.0045192204 -0.08050579
-0.057130106 -0.04013536 0.07717299 0.046342883 0.08517133 0.049158484 0.03111627 0.13192095
-0.028180702 0.12434263 -0.071501225 -0.026625033 -0.088917464 -0.030800767 0.12692073 -0.012945749
0.14246725 0.024416193 -0.018503724 0.06784954 -0.06262843 0.051172398 0.11212853 -0.013739723
0.10813841 0.15898934 -0.08502141 -0.1251216 0.022472225 -0.034211766 0.17255865 0.08312672
0.014570027 0.1478406 0.011830963 0.108574234 0.13531059 -0.07029839 -0.014253019 0.03962388
-0.020692358 0.084146425 -0.008447612 0.096673176 -0.060135417 -0.065867126 0.12874235 0.120013475
-0.17479986 -0.02392547 -0.09032217 0.009142335 0.11281311 -0.006233337 -0.011899314 -0.0041618524
-0.045333575 0.06868813 0.14573331 0.1147259 0.12631162 0.02452725 -0.067669846 0.07167154
0.13799298 0.1220945 0.050006263 0.095417134 0.012325556 0.11567918 -0.017817281 -0.010808657
0.15509802 0.095796 0.06907048 0.003812265 -0.021185802 0.0036419993 -0.037871324 -0.09475523
0.07608376 0.02634196 0.016332215 0.06771926 0.014646306 0.0650728 -0.0016961107 0.040482715
-0.00032493047 0.08686192 0.018626513 0.025711907 0.0014721603 0.09414236 -0.06594105 0.02815857
-0.047550056 -0.052408837 0.05625912 -0.015790364 0.12701349 -0.031981766 -0.030363135 0.012863663
0.063546725 0.008466078 -0.024327219 -0.066215135 0.0073401164 -0.009718191 -0.043325752 -0.15208693
00000000: beb3 613c 9b73 e83c 2229 a2bc 2c5c aa3c
00000010: ac00 093d 345f 47bc a024 fc3b 1de2 763c
00000020: adc0 6d3c b17d bebc c213 313d 6709 633c
00000030: fddb 7ebc 384f 1bbd 0e61 e8bb c4e7 8a3c
00000040: e2c0 713d 1608 0b3d cc9e aabc d889 803c
00000050: 39e4 613d 4de7 123d 862e 12bc bd70 c539
00000060: 3795 29bd 32ba 82ba b312 de3c 2579 1c3c
00000070: f228 f53c 5758 debc 652a 3c3d 5429 b93c
00000080: 8469 8a3c e944 663b 0fbf 173d 1bb9 96bd
00000090: 6ff4 4fbd 4b18 933d 4101 623b 7158 a73c
000000a0: b7ac 28bd 5573 01bd db4d cabc efa6 943c
000000b0: b9ea a43a 0f40 1d3d 4c5e 5ebd 473d 8d3c
000000c0: 9bd1 acbc 360e 1ebc 8283 c23c 37e9 81bd
000000d0: ed45 1d3c fbbd bc3c e454 773c fa6b e0bc
000000e0: 9c1e 06bc e853 923d 8148 c4bb 205d 51bd
000000f0: f122 6c3c d6b0 633d 4b05 cabc 2c54 efbc
00000100: 2e8f f13c e593 653d cc9e 823b b237 24bd
00000110: acca 903b 5a01 c03b 3343 d5bc e879 80bd
00000120: dcfe 73bd 2036 b53d b0d4 23bc 68a6 033d
00000130: 646b 9b3c 8f58 11bd 0034 193d 5211 6f3c
00000140: b482 e9bc 2142 31bd 6453 66bc 2ef4 043d
00000150: 558b f33c a63f 3c3d 7a08 c03c ca4b a03d
00000160: fd84 25bc 443f 4e3d af37 b63c 4b01 e93c
00000170: c531 9fbd 26c8 ee3c 38c7 45bd b9df cbba
00000180: 3fa9 3d3d dd05 ce3c abd3 32bd 5169 213b
00000190: c849 2f3d 6d4d a93a 8ae9 733d 1848 283d
000001a0: 7e12 92bc b9ce a03c 1892 3e3d e05c 5c3d
000001b0: 70a5 933c 64fc 7abd 15be 71bd e7cf 4abc
000001c0: 3ad1 11bd f2f5 3fbc abef 3b3c 71d4 513d
000001d0: 9355 053d 10f4 01bc 1a3b b63c d480 663d
000001e0: 0f75 94bc 85ae eb3c 6301 0dbc d94c 113c
000001f0: 7bd8 fc3b 260a 9ebc e20f 803c 2cbe a2bc
00000200: f208 fa3b d855 123e fd53 fc3d 7cb9 da3d
00000210: 83b2 28bd de41 893c e262 4ebd f86e 173c
00000220: d118 f73d 2783 2a3e 594a d63c fb68 403c
00000230: ea87 f7bd f930 91bd f815 94bb 38e0 a4bd
00000240: 4201 6abd fa64 24bd df0c 9e3d 09d2 3d3d
00000250: 4e6e ae3d 685a 493d 8ce7 fe3c 4916 073e
00000260: 37db e6bc 59a7 fe3d 3c6f 92bd be1c dabc
00000270: 5c1a b6bd e451 fcbc 82f7 013e 681a 54bc
00000280: efe2 113e 7804 c83c 1f95 97bc b3f4 8a3d
00000290: 5643 80bd 269a 513d a5a3 e53d 931c 61bc
000002a0: ac77 dd3d 1ace 223e b41f aebd e01f 00be
000002b0: ac17 b83c a321 0cbd 37b3 303e 573e aa3d
000002c0: 1fb7 6e3c 8763 173e a8d6 413c 2b5c de3d
000002d0: dc8e 0a3e 9af8 8fbd 7f85 69bc a64c 223d
000002e0: 0583 a9bc f654 ac3d da67 0abc 96fc c53d
000002f0: 8e50 76bd 58e5 86bd 09d5 033e a0c9 f53d
00000300: bcfe 32be 59ff c3bc d4fa b8bd bbc9 153c
00000310: 8f0a e73d 0541 ccbb 57f5 42bc 2660 88bb
00000320: b3af 39bd 5dac 8c3d 1d3b 153e 6af5 ea3d
00000330: d557 013e 5fed c83c 7d96 8abd 87c8 923d
00000340: 084e 0d3e ae0c fa3d 5ed3 4c3d 0f6a c33d
00000350: 21f1 493c 35e9 ec3d 8cf5 91bc cb16 31bc
00000360: 04d2 1e3e b130 c43d d374 8d3d 31d7 793b
00000370: d98d adbc 9cae 6e3b f61e 1bbd 080f c2bd
00000380: cdd1 9b3d 18cb d73c 23cb 853c 65b0 8a3d
00000390: 0ff7 6f3c e344 853d 0850 deba 34d1 253d
000003a0: 6e5b aab9 aae4 b13d a196 983c c7a1 d23c
000003b0: 81f5 c03a b6cd c03d 1a0c 87bd cdac e63c
000003c0: d9c3 42bd a6aa 56bd f76f 663d cb5a 81bc
000003d0: d30f 023e 50ff 02bd 1cbc f8bc 1dc2 523c
000003e0: c924 823d 4eb5 0a3c e049 c7bc cd9b 87bd
000003f0: 5c85 f03b 0c39 1fbc 5876 31bd adbc 1bbe

action_model._discrete_distribution.branches.0.bias f4 [3]
-0.022793485 -0.03008276 0.051596187
00000000: 67b9 babc 1f70 f6bc 8656 533d

exp_avg f4 [128, 24]
0.0036348018 -0.000376122 -0.0043142205 0.00285012 -0.0003761079 -0.0038139932 0.0015639854 0.0
-0.0009090042 -0.0036348018 -0.000376122 -0.00074356946 0.0036183535 -6.618764e-05 -0.0039322753 0.002948518
-5.8050264e-05 -0.0039231917 0.0016802399 0.0 -0.0012195621 -0.0036183535 -6.618764e-05 -0.00025692425
0.00017907788 -2.9744613e-06 0.000870947 -0.0004880143 -2.9759942e-06 0.00095382624 0.0013128818 0.0
-0.000427055 -0.00017907788 -2.9744613e-06 0.0010541357 0.00015807574 7.3116935e-06 0.0009225089 -0.00036987156
6.412763e-06 0.00091144757 0.0011981253 0.0 -6.698591e-05 -0.00015807574 7.3116935e-06 0.00083851255
-0.00023650505 -0.00018617242 -0.0020081613 0.0024882972 -0.00018616657 -0.0021167884 -0.0007057098 0.0
-0.00023766277 0.00023650505 -0.00018617242 -0.0015606282 -0.00024291176 -2.7254342e-05 -0.0019968834 0.0023891793
-2.390358e-05 -0.0021646835 -0.0006063239 0.0 -0.00036484498 0.00024291176 -2.7254342e-05 -0.0012026874
-0.0002722002 8.9208486e-05 0.0007183293 -0.0009853675 8.9205416e-05 0.00058819604 -7.342254e-05 0.0
0.0006680018 0.0002722002 8.9208486e-05 -0.00024304156 -0.00027325642 1.4482556e-05 0.0006855472 -0.00097634335
1.270201e-05 0.000673081 -9.6093565e-05 0.0 0.0005733078 0.00027325642 1.4482556e-05 -0.00034524387
-0.00013441697 -0.00035021122 -0.0019381448 0.0030038478 -0.00035019818 -0.0024078037 -0.0019912121 0.0
-0.00048644873 0.00013441697 -0.00035021122 -0.0017619177 -0.0001357552 -6.1127306e-05 -0.0020418025 0.0027841814
-5.361205e-05 -0.0024786228 -0.0018787003 0.0 -0.0003572528 0.0001357552 -6.1127306e-05 -0.001495868
-0.00026336158 -4.7516467e-05 -0.0021029725 0.0010528541 -4.751471e-05 -0.0020565582 -0.0015935011 0.0
-0.00041098899 0.00026336158 -4.7516467e-05 -0.0017750554 -0.00026232057 -8.290842e-06 -0.0022344845 0.0008972703
-7.2715293e-06 -0.0021192497 -0.0016289172 0.0 -0.00038236822 0.00026232057 -8.290842e-06 -0.0017898619
0.0006749123 -0.00013795316 -0.00093683554 0.0007716954 -0.00013794805 -0.0012555793 -0.00043098864 0.0
-0.001144416 -0.0006749123 -0.00013795316 0.00016289525 0.000665017 -2.398989e-05 -0.000869783 0.00072095444
-2.104047e-05 -0.0014157264 -0.0004927853 0.0 -0.001091852 -0.000665017 -2.398989e-05 0.00031066214
-0.00064231525 7.621083e-05 7.675381e-05 -0.0013308033 7.6206874e-05 0.00011795271 -0.0016690321 0.0
-0.0006956559 0.00064231525 7.621083e-05 6.467751e-05 -0.0006599081 1.8698132e-05 2.2165626e-05 -0.0014458576
1.6399303e-05 8.183148e-06 -0.0015687102 0.0 -0.0007143974 0.0006599081 1.8698132e-05 1.5125085e-05
-0.00033657165 1.9318004e-05 0.001285848 -0.00039657002 1.9317291e-05 0.0010293653 -0.00023061055 0.0
0.00013162286 0.00033657165 1.9318004e-05 0.0010106057 -0.00033583143 3.388993e-06 0.0013411538 -0.00040890975
2.9723346e-06 0.0010476356 -0.0002083403 0.0 0.00015963735 0.00033583143 3.388993e-06 0.0010715838
-0.0015905075 0.00023571236 0.0016068862 -0.0015534392 0.00023570347 0.0017811817 -1.0071307e-05 0.0
0.0002536707 0.0015905075 0.00023571236 0.0008163513 -0.0015818053 4.1740466e-05 0.001486569 -0.0015295951
3.6608722e-05 0.0017951769 -2.7256097e-05 0.0 0.00013303362 0.0015818053 4.1740466e-05 0.0004359065
-0.0004600754 -0.00013936045 -0.0004118503 0.0009254729 -0.0001393589 -0.0004460169 -0.0001521137 0.0
0.00013083794 0.0004600754 -0.00013936045 -0.00016076106 -0.00048398934 -6.942281e-06 -0.00039954687 0.000895873
00000000: db35 6e3b 3e32 c5b9 4e5e 8dbb 14c9 3a3b
00000010: 5930 c5b9 30f4 79bb a4fe cc3a 0000 0000
00000020: 3d4a 6eba db35 6ebb 3e32 c5b9 1aec 42ba
00000030: e621 6d3b 38ce 8ab8 51da 80bb ec3b 413b
00000040: ff7a 73b8 1e8e 80bb 7f3b dc3a 0000 0000
00000050: b7d9 9fba e621 6dbb 38ce 8ab8 cab3 86b9
00000060: dac6 3b39 db9c 47b6 4450 643a 2cdc ffb9
00000070: 31b7 47b6 320a 7a3a 0115 ac3a 0000 0000
00000080: 5ae6 dfb9 dac6 3bb9 db9c 47b6 ed2a 8a3a
00000090: 22c1 2539 f856 f536 86d4 713a 52eb c1b9
000000a0: 372d d736 36ee 6e3a 6a0a 9d3a 0000 0000
000000b0: c97a 8cb8 22c1 25b9 f856 f536 a0cf 5b3a
000000c0: 57fe 77b9 4737 43b9 5b9b 03bb b312 233b
000000d0: b535 43b9 d1b9 0abb 62ff 38ba 0000 0000
000000e0: 1d35 79b9 57fe 7739 4737 43b9 fe8d ccba
000000f0: 21b6 7eb9 41a0 e4b7 25de 02bb c793 1c3b
00000100: 8c84 c8b7 5ddd 0dbb b5f1 1eba 0000 0000
00000110: aa48 bfb9 21b6 7e39 41a0 e4b7 7ea3 9dba
00000120: 18b6 8eb9 7115 bb38 434e 3c3a 7227 81ba
00000130: cb13 bb38 2b31 1a3a 6dfa 99b8 0000 0000
00000140: d81c 2f3a 18b6 8e39 7115 bb38 f9d8 7eb9
00000150: db43 8fb9 1bfa 7237 4bb6 333a 4bf1 7fba
00000160: b81a 5537 b471 303a d785 c9b8 0000 0000
00000170: 094a 163a db43 8f39 1bfa 7237 d901 b5b9
00000180: 48f2 0cb9 8e9c b7b9 5909 feba 34dc 443b
00000190: ce9a b7b9 3ecc 1dbb ff7e 02bb 0000 0000
000001a0: 0b0a ffb9 48f2 0c39 8e9c b7b9 26f0 e6ba
000001b0: 8259 0eb9 7931 80b8 c3cf 05bb d076 363b
000001c0: 80dd 60b8 6470 22bb b93e f6ba 0000 0000
000001d0: a94d bbb9 8259 0e39 7931 80b8 0011 c4ba
000001e0: cb13 8ab9 6b4c 47b8 06d2 09bb ecff 893a
000001f0: 884a 47b8 52c7 06bb 06dd d0ba 0000 0000
00000200: 027a d7b9 cb13 8a39 6b4c 47b8 faa8 e8ba
00000210: 1288 89b9 e518 0bb7 6e70 12bb ca36 6b3a
00000220: f6fd f3b6 1ce3 0abb 6481 d5ba 0000 0000
00000230: 9878 c8b9 1288 8939 e518 0bb7 cd99 eaba
00000240: 99ec 303a 85a7 10b9 f895 75ba 9a4b 4a3a
00000250: 26a6 10b9 4092 a4ba 51f6 e1b9 0000 0000
00000260: 3b00 96ba 99ec 30ba 85a7 10b9 dcce 2a39
00000270: 8954 2e3a e63d c9b7 2602 64ba 6ffe 3c3a
00000280: 1180 b0b7 e58f b9ba 432e 01ba 0000 0000
00000290: 791c 8fba 8954 2eba e63d c9b7 5ee0 a239
000002a0: 0c61 28ba 61d3 9f38 e3f6 a038 596e aeba
000002b0: 41d1 9f38 615d f738 6dc3 daba 0000 0000
000002c0: ad5c 36ba 0c61 283a 61d3 9f38 79a3 8738
000002d0: affd 2cba efd9 9c37 52f0 b937 ee82 bdba
000002e0: 3c91 8937 5a4a 0937 2e9d cdba 0000 0000
000002f0: 6646 3bba affd 2c3a efd9 9c37 bfc1 7d37
00000300: e275 b0b9 190d a237 e689 a83a baea cfb9
00000310: 910b a237 c5eb 863a 0cd0 71b9 0000 0000
00000320: 3e04 0a39 e275 b039 190d a237 4d76 843a
00000330: 8812 b0b9 756e 6336 a7c9 af3a f062 d6b9
00000340: 5278 4736 d150 893a ec75 5ab9 0000 0000
00000350: 5364 2739 8812 b039 756e 6336 6374 8c3a
00000360: 9378 d0ba 8e29 7739 279e d23a c59c cbba
00000370: 2b27 7739 8a76 e93a eff7 28b7 0000 0000
00000380: 1bff 8439 9378 d03a 8e29 7739 6900 563a
00000390: 9454 cfba 7c12 2f38 fad8 c23a b27c c8ba
000003a0: 518c 1938 244c eb3a 06a4 e4b7 0000 0000
000003b0: f17e 0b39 9454 cf3a 7c12 2f38 618a e439
000003c0: 4636 f1b9 4921 12b9 9ded d7b9 6f9b 723a
000003d0: df20 12b9 60d7 e9b9 b680 1fb9 0000 0000
000003e0: 8b31 0939 4636 f139 4921 12b9 f891 28b9
000003f0: f3bf fdb9 bdf1 e8b6 467a d1b9 05d9 6a3a

exp_avg_sq f4 [128, 24]
0.00018484615 1.6739855e-06 0.00018859492 0.00015530684 1.6738569e-06 0.00014472079 0.0002943424 0.0
6.344948e-05 0.00018484615 1.6739855e-06 0.00019095842 0.0001831383 4.950826e-08 0.00018826175 0.00016864302
3.8083034e-08 0.00013990905 0.00028944088 0.0 6.726157e-05 0.0001831383 4.950826e-08 0.00018953127
4.2922988e-05 8.780891e-07 4.5591332e-05 5.5690183e-05 8.7805876e-07 3.566908e-05 9.967408e-05 0.0
1.7466817e-05 4.2922988e-05 8.780891e-07 4.716453e-05 4.2522584e-05 1.14579075e-08 4.5536282e-05 6.2889354e-05
8.8137515e-09 3.4032786e-05 9.871903e-05 0.0 1.7781864e-05 4.2522584e-05 1.14579075e-08 4.4932975e-05
7.392884e-05 1.0222541e-06 9.6111566e-05 7.055821e-05 1.0222042e-06 7.147205e-05 0.000120860714 0.0
4.690425e-05 7.392884e-05 1.0222541e-06 9.979248e-05 7.3218194e-05 2.005416e-08 9.2983624e-05 7.55036e-05
1.5426188e-08 6.291557e-05 0.00011935745 0.0 4.859808e-05 7.3218194e-05 2.005416e-08 9.589088e-05
1.7940762e-05 2.0715251e-07 1.8486477e-05 1.42118e-05 2.0713989e-07 1.4468742e-05 3.4826713e-05 0.0
6.285418e-06 1.7940762e-05 2.0715251e-07 2.0899097e-05 1.776166e-05 4.919145e-09 1.8223827e-05 1.5118275e-05
3.7839434e-09 1.3884549e-05 3.4236076e-05 0.0 6.5129884e-06 1.776166e-05 4.919145e-09 2.0610294e-05
8.84137e-05 8.1320917e-07 0.0001004637 7.278389e-05 8.1314664e-07 6.821368e-05 0.00018799647 0.0
3.2172746e-05 8.84137e-05 8.1320917e-07 0.00010401329 8.760119e-05 2.4327276e-08 9.8129276e-05 7.963092e-05
1.8713212e-08 6.365244e-05 0.00018621304 0.0 3.288061e-05 8.760119e-05 2.4327276e-08 9.983575e-05
2.5911251e-05 2.3448953e-07 3.7398855e-05 2.4265124e-05 2.3447164e-07 2.568674e-05 5.703657e-05 0.0
1.1428999e-05 2.5911251e-05 2.3448953e-07 3.841957e-05 2.5674422e-05 7.055194e-09 3.578312e-05 2.7063457e-05
5.4270424e-09 2.3726283e-05 5.7133922e-05 0.0 1.1743626e-05 2.5674422e-05 7.055194e-09 3.633991e-05
2.1089023e-05 3.6767727e-07 2.1111422e-05 1.910186e-05 3.6766235e-07 1.7736125e-05 3.0066374e-05 0.0
1.66299e-05 2.1089023e-05 3.6767727e-07 2.0098996e-05 2.0920004e-05 5.792767e-09 2.064255e-05 2.077946e-05
4.455953e-09 1.6977263e-05 2.967669e-05 0.0 1.668403e-05 2.0920004e-05 5.792767e-09 1.9852894e-05
1.08944905e-05 3.0911306e-07 1.4023825e-05 1.0135961e-05 3.0910581e-07 1.1402479e-05 1.9269239e-05 0.0
9.626823e-06 1.08944905e-05 3.0911306e-07 1.5424981e-05 1.0808927e-05 2.9471616e-09 1.3567868e-05 1.0539758e-05
2.267038e-09 1.0850927e-05 1.9128154e-05 0.0 9.423887e-06 1.0808927e-05 2.9471616e-09 1.5214968e-05
3.5371397e-06 3.8710965e-08 4.307055e-06 3.479005e-06 3.8708556e-08 3.6139736e-06 5.496739e-06 0.0
4.0837995e-06 3.5371397e-06 3.8710965e-08 3.8359412e-06 3.5051928e-06 9.438343e-10 4.2347974e-06 3.4645145e-06
7.2602346e-10 3.6822305e-06 5.4499674e-06 0.0 4.0836776e-06 3.5051928e-06 9.438343e-10 3.7886782e-06
4.0902887e-05 4.4499066e-07 3.7958267e-05 3.9901977e-05 4.4496136e-07 3.152886e-05 6.945472e-05 0.0
1.7468888e-05 4.0902887e-05 4.4499066e-07 4.400833e-05 4.0539195e-05 1.1657642e-08 3.829988e-05 4.3793065e-05
8.967367e-09 3.0741478e-05 6.904135e-05 0.0 1.7684712e-05 4.0539195e-05 1.1657642e-08 4.363446e-05
1.4714215e-05 1.6276739e-06 2.244458e-05 1.3481113e-05 1.6276645e-06 1.7054059e-05 2.5192665e-05 0.0
1.0872705e-05 1.4714215e-05 1.6276739e-06 2.45622e-05 1.4614823e-05 3.984901e-09 2.126808e-05 1.4465029e-05
00000000: 43d3 4139 b4ad e035 90c1 4539 ddd9 2239
00000010: 49a9 e035 31c0 1739 f851 9a39 0000 0000
00000020: 2e10 8538 43d3 4139 b4ad e035 033c 4839
00000030: d008 4039 e8a2 5433 2168 4539 c4d5 3039
00000040: bd90 2333 8db4 1239 19c0 9739 0000 0000
00000050: c80e 8d38 d008 4039 e8a2 5433 eabc 4639
00000060: 3508 3438 d3b5 6b35 5239 3f38 e194 6938
00000070: bdb3 6b35 629b 1538 1d08 d138 0000 0000
00000080: b485 9237 3508 3438 d3b5 6b35 87d2 4538
00000090: 475a 3238 69d8 4432 36fe 3e38 77e3 8338
000000a0: 4a6b 1732 6dbe 0e38 6007 cf38 0000 0000
000000b0: 432a 9537 475a 3238 69d8 4432 6a76 3c38
000000c0: 3e0a 9b38 6234 8935 818f c938 a7f8 9338
000000d0: ab32 8935 44e3 9538 9a76 fd38 0000 0000
000000e0: 0ebb 4438 3e0a 9b38 6234 8935 ae47 d138
000000f0: b88c 9938 9043 ac32 3400 c338 b057 9e38
00000100: 8c82 8432 8af1 8338 8b4f fa38 0000 0000
00000110: cbd5 4b38 b88c 9938 9043 ac32 0619 c938
00000120: 7e7f 9637 a66d 5e34 6813 9b37 376f 6e37
00000130: 2e6a 5e34 c6be 7237 e612 1238 0000 0000
00000140: 54e7 d236 7e7f 9637 a66d 5e34 7850 af37
00000150: e0fe 9437 4205 a931 5fdf 9837 7fa4 7d37
00000160: eb03 8231 aff1 6837 b598 0f38 0000 0000
00000170: 258a da36 e0fe 9437 4205 a931 45e4 ac37
00000180: be6a b938 4f4b 5a35 0ab0 d238 8ea3 9838
00000190: 0347 5a35 f10d 8f38 eb20 4539 0000 0000
000001a0: 39f1 0638 be6a b938 4f4b 5a35 b621 da38
000001b0: 88b6 b738 3ff8 d032 c1ca cd38 86ff a638
000001c0: cabe a032 257d 8538 2f42 4339 0000 0000
000001d0: 49e9 0938 88b6 b738 3ff8 d032 e95e d138
000001e0: fd5b d937 fec7 7b34 b7dc 1c38 f58c cb37
000001f0: 13c3 7b34 db79 d737 8d3a 6f38 0000 0000
00000200: 2dbf 3f37 fd5b d937 fec7 7b34 b324 2138
00000210: 675f d737 256a f231 d515 1638 5506 e337
00000220: c578 ba31 ce07 c737 15a3 6f38 0000 0000
00000230: 7d06 4537 675f d737 256a f231 ae6b 1838
00000240: 55e8 b037 2e65 c534 6f18 b137 ef3c a037
00000250: 2163 c534 0ac8 9437 0c37 fc37 0000 0000
00000260: 7080 8b37 55e8 b037 2e65 c534 449a a837
00000270: 5e7d af37 b809 c731 8a29 ad37 8d4f ae37
00000280: fa1a 9931 656a 8e37 35f2 f837 0000 0000
00000290: aef4 8b37 5e7d af37 b809 c731 c489 a637
000002a0: 7bc7 3637 2df4 a534 df47 6b37 9f0d 2a37
000002b0: 2ef3 a534 464d 3f37 60a4 a137 0000 0000
000002c0: e482 2137 7bc7 3637 2df4 a534 e564 8137
000002d0: fd57 3537 0487 4a31 8da1 6337 ead3 3037
000002e0: 27ca 1b31 600c 3637 6675 a037 0000 0000
000002f0: 491b 1e37 fd57 3537 0487 4a31 ca43 7f37
00000300: 995f 6d36 2843 2633 5285 9036 da78 6936
00000310: 8240 2633 9887 7236 a170 b836 0000 0000
00000320: 9207 8936 995f 6d36 2843 2633 7cb6 8036
00000330: c13a 6b36 38b8 8130 a218 8e36 e87f 6836
00000340: 5c91 4730 3d1c 7736 ddde b636 0000 0000
00000350: 8606 8936 c13a 6b36 38b8 8130 ff40 7e36
00000360: 248f 2b38 0de7 ee34 6135 1f38 6c5c 2738
00000370: 06e3 ee34 db3d 0438 38a8 9138 0000 0000
00000380: 278a 9237 248f 2b38 0de7 ee34 9695 3838
00000390: a108 2a38 da46 4832 2fa4 2038 72ae 3738
000003a0: e60e 1a32 69f0 0038 4bca 9038 0000 0000
000003b0: a159 9437 a108 2a38 da46 4832 2504 3738
000003c0: 12dd 7637 7376 da35 5e47 bc37 f02c 6237
000003d0: 2076 da35 500f 8f37 d654 d337 0000 0000
000003e0: ea69 3637 12dd 7637 7376 da35 ec0a ce37
000003f0: 3032 7537 8feb 8831 db68 b237 d4ae 7237

exp_avg f4 [128]
-0.0039236015 0.000433437 -0.0016156367 0.00085852563 -0.003623624 -0.0004914809 -0.0014221203 0.0011084249
0.0002008993 0.0024743741 -0.00041153817 0.0004706045 -0.002084931 -0.0010892194 -0.00081825035 -0.0002305088
-0.0014503684 -0.0059673954 8.1975515e-05 -0.0012903094 -0.0022693002 -0.00036839742 -0.00034960642 -0.0015091059
0.0016371366 0.000837932 -0.0009180961 0.00022482575 0.0017244391 -0.00328516 0.0047667394 0.0038706432
-0.0018312043 0.0012594232 0.0010856396 0.0023201003 -0.0021606633 0.0014354672 0.00017182894 -0.0004803764
0.00021231985 -0.003397226 0.0042005247 -0.0018412172 0.00027475014 0.0011355457 0.0035389373 0.0004038969
0.00218208 0.0013050826 -0.0022449282 7.614837e-05 -0.003515493 -0.00027620213 0.0021762848 0.00092762284
0.00047556293 -0.0009051578 0.00013154006 -0.00066706655 0.0016875431 9.406122e-05 -0.00025968495 0.002116609
0.0014895682 0.0005870959 0.0038796416 -0.0043703383 -0.00015869515 -0.0013711313 0.00024684638 -0.0019673584
-0.0024868252 -0.0014553961 0.00012454983 0.0012459942 -0.0020100605 0.0017817226 0.0024169218 0.001360597
-0.0007770306 -0.0028555396 0.00021083273 -0.0002690152 0.0006848062 -0.00016780086 -0.00086720235 8.2505445e-05
0.0011095969 0.00014135691 0.00035041186 -0.006963059 0.0005610041 -9.930413e-06 0.00017386836 -0.001670433
0.00013092805 0.0011713398 -0.00068187946 -0.0022871448 0.0026081826 -0.0011566646 -0.0021986663 -0.0038966434
0.00014064304 -0.003764033 -0.0030247266 -0.0015197108 -0.0011569809 0.00022938356 -0.00017155161 0.0017986172
0.0012301195 -4.818824e-05 -5.1327035e-05 -0.00016058626 0.0013377152 0.00038259142 0.00041240556 0.0011441264
0.0036488748 -0.002785555 -0.0026344238 -0.0010364677 0.0024572155 -0.0037643635 -7.985811e-05 0.0021399586
00000000: 8e91 80bb ee3e e339 c6c3 d3ba ae0e 613a
00000010: 537a 6dbb bad6 00ba 7066 baba 9148 913a
00000020: 7fa8 5239 1c29 223b b8c3 d7b9 77bb f639
00000030: 56a3 08bb 23c4 8eba da7f 56ba bcb4 71b9
00000040: 4a1a beba 248a c3bb 45ea ab38 991f a9ba
00000050: 8ab8 14bb 7725 c1b9 614b b7b9 31cd c5ba
00000060: 3095 d63a aaa8 5b3a 63ac 70ba 34bf 6b39
00000070: 9306 e23a d74b 57bb 4f32 9c3b 9eaa 7d3b
00000080: 0505 f0ba 3b13 a53a 054c 8e3a d30c 183b
00000090: ea99 0dbb 4926 bc3a fb2c 3439 07db fbb9
000000a0: 2da2 5e39 ffa3 5ebb 8ea4 893b ff54 f1ba
000000b0: 570c 9039 97d6 943a 84ed 673b 20c2 d339
000000c0: 3a01 0f3b 4e0f ab3a a51f 13bb d8b1 9f38
000000d0: 2f64 66bb 39cf 90b9 00a0 0e3b b72b 733a
000000e0: fa54 f939 1d48 6dba 04ee 0939 14de 2eba
000000f0: 8d30 dd3a bc42 c538 5326 88b9 ceb6 0a3b
00000100: 9d3d c33a 57e7 193a 9641 7e3b 0e35 8fbb
00000110: 6867 26b9 88b7 b3ba 296b 8139 ccee 00bb
00000120: 01fa 22bb fdc2 beba 9799 0239 a150 a33a
00000130: 38bb 03bb b188 e93a 3865 1e3b 0f56 b23a
00000140: a4b1 4bba 0124 3bbb fb12 5d39 9c0a 8db9
00000150: 9184 333a b3f3 2fb9 f754 63ba c606 ad38
00000160: e56f 913a 3539 1439 7cb7 b739 5f2a e4bb
00000170: 5910 133a cd9a 26b7 6f50 3639 6ef2 daba
00000180: bb49 0939 a487 993a 28c0 32ba ece3 15bb
00000190: 0bee 2a3b 399b 97ba 8017 10bb d45e 7fbb
000001a0: 9479 1339 ffad 76bb 7e3a 46bb 0831 c7ba
000001b0: d6a5 97ba ae86 7039 89e2 33b9 94bf eb3a
000001c0: f63b a13a bb1d 4ab8 fc47 57b8 0c63 28b9
000001d0: 4656 af3a 8d96 c839 2338 d839 83f6 953a
000001e0: f621 6f3b dc8d 36bb 4ca6 2cbb 16da 87ba
000001f0: 3c09 213b 8ab3 76bb 7f79 a7b8 8c3e 0c3b

exp_avg_sq f4 [128]
0.0001799777 4.1412408e-05 7.265362e-05 1.797847e-05 8.8026405e-05 2.5491741e-05 2.0934485e-05 1.0736823e-05
3.4238951e-06 4.218056e-05 1.44890155e-05 1.09335815e-05 5.3960102e-05 7.152492e-06 3.822589e-05 2.5581933e-06
0.00011921962 0.00037377415 9.652172e-07 1.2594563e-05 5.215593e-05 1.3395067e-05 1.4282018e-06 3.8633527e-05
4.6477748e-05 3.1050353e-05 0.00013680929 1.3943139e-05 4.9962386e-05 8.393985e-05 0.00017080952 0.00011344603
2.2473125e-05 3.470389e-05 8.885579e-06 9.980017e-05 3.1629243e-05 5.5713255e-05 5.7945404e-06 7.5965403e-07
3.5786732e-06 0.0003514964 0.0002991906 3.733388e-05 1.4631261e-05 1.585513e-05 8.8365254e-05 2.6264308e-06
6.3770465e-05 3.779448e-05 0.00023505637 5.1986162e-06 0.00010604553 4.7138485e-05 4.156418e-05 1.4098594e-05
6.992366e-06 2.450764e-05 5.2758837e-06 2.5530566e-05 5.0126633e-05 2.8502836e-06 6.9823654e-05 4.5455607e-05
7.819773e-05 9.163535e-06 0.00010029345 0.00014983471 2.6463943e-06 1.3486804e-05 1.166484e-05 5.8948448e-05
8.554132e-05 8.3300016e-05 7.4863283e-06 2.303851e-05 1.8927201e-05 1.9772377e-05 5.0321418e-05 2.0725083e-05
1.6830849e-05 0.0001270985 1.8361849e-05 3.0800962e-05 3.259148e-06 3.9004695e-05 5.6962463e-06 8.242162e-06
1.2322221e-05 1.1310705e-05 7.276709e-06 0.00047521768 9.646508e-06 9.9190265e-06 1.09837065e-05 8.340861e-05
4.753752e-05 4.8314996e-05 5.63791e-06 0.00013711609 5.7589674e-05 3.6548077e-05 2.3931892e-05 0.00018517363
6.1642613e-06 0.00029257915 0.00021988466 2.9071136e-05 1.711362e-05 5.008813e-06 4.0658697e-06 3.628866e-05
1.2533632e-05 9.873978e-06 2.0121091e-05 1.5976832e-06 5.9474736e-05 1.6895824e-06 6.629493e-06 1.3068471e-05
0.00020502204 3.9560025e-05 8.265247e-05 2.5526559e-05 4.1846917e-05 0.0001348576 3.9191896e-06 2.2198486e-05
00000000: 65b8 3c39 3cb2 2d38 9d5d 9838 78d0 9637
00000010: d19a b838 19d7 d537 779c af37 4e22 3437
00000020: 12c6 6536 08eb 3038 d915 7337 606f 3737
00000030: 3853 6238 70ff ef36 bd54 2038 6dad 2b36
00000040: 8c05 fa38 1ef7 c339 9c8c 8135 3c4d 5337
00000050: 01c2 5a38 60bb 6037 a4b0 bf35 6f0a 2238
00000060: 1af1 4238 103c 0238 7774 0f39 53ed 6937
00000070: b48e 5138 dd08 b038 551b 3339 e0e9 ed38
00000080: ab84 bc37 058f 1138 4513 1537 cf4b d138
00000090: a4a9 0438 a7ad 6938 b96e c236 07eb 4b35
000000a0: 2329 7036 0c49 b839 afdc 9c39 f396 1c38
000000b0: ca78 7537 a200 8537 bc50 b938 bd41 3036
000000c0: 82bc 8538 8485 1e38 7779 7639 c66f ae36
000000d0: c364 de38 90b6 4538 3355 2e38 0089 6c37
000000e0: f79f ea36 c295 cd37 7f07 b136 792a d637
000000f0: 103f 5238 8047 3f36 4a6e 9238 96a7 3e38
00000100: 16fe a338 15bd 1937 a354 d238 f31c 1d39
00000110: b598 3136 6245 6237 1bb4 4337 6a3f 7738
00000120: a564 b338 5bb1 ae38 1233 fb36 d342 c137
00000130: dbc5 9e37 dbdc a537 3610 5338 c7da ad37
00000140: f92f 8d37 be45 0539 c507 9a37 4830 0138
00000150: bcb7 5a36 f998 2338 6222 bf36 d147 0a37
00000160: 89bb 4e37 1cc3 3d37 742a f436 a326 f939
00000170: 70d7 2137 e569 2637 a946 3837 a8eb ae38
00000180: 0663 4738 d5a5 4a38 472d bd36 d2c6 0f39
00000190: 718c 7138 334b 1938 59c1 c837 2b2b 4239
000001a0: 9ad6 ce36 4f65 9939 d790 6639 cadd f337
000001b0: 388f 8f37 6011 a836 8e6d 8836 a734 1838
000001c0: 8a47 5237 6aa8 2537 b7c9 a837 fa6f d635
000001d0: 8374 7938 9cc5 e235 e972 de36 a840 5b37
000001e0: 2ffb 5639 41ed 2538 b555 ad38 de21 d637
000001f0: c984 2f38 9068 0d39 9581 8336 e336 ba37
