Assets/trining/results/Messi2/AgentTest/AgentTest-499990.onnx (onnx, 82986 bytes, 8 tensors)

49 f4 [24]
40.815723 0.28273326 10.564944 23.630688 0.14137194 12.347761 20.768158 0.0014142263
19.151447 40.815723 0.28273326 10.564826 40.99995 0.004472124 10.610978 24.044716
0.0025495098 12.391831 20.875175 0.0014142263 19.229763 40.99995 0.004472124 10.610851
00000000: 4d43 2342 6ac2 903e 030a 2941 a60b bd41
00000010: cec3 103e 6e90 4541 3025 a641 8f5d b93a
00000020: 2a36 9941 4d43 2342 6ac2 903e 8709 2941
00000030: f3ff 2342 e58a 923b 91c6 2941 945b c041
00000040: ad15 273b f144 4641 5c00 a741 8f5d b93a
00000050: 8ed6 9941 f3ff 2342 e58a 923b 0cc6 2941

action_model._discrete_distribution.branches.0.bias f4 [3]
-0.022793485 -0.03008276 0.051596187
00000000: 67b9 babc 1f70 f6bc 8656 533d

action_model._discrete_distribution.branches.0.weight f4 [3, 128]
0.013775764 0.028375437 -0.019795004 0.020795904 0.033447906 -0.012168694 0.0076947957 0.015068558
0.0145112695 -0.023253294 0.043231733 0.013857222 -0.015555379 -0.037917346 -0.007091648 0.016956218
0.059021838 0.03394326 -0.020827673 0.015690729 0.05514929 0.035865117 -0.008922225 0.00037658765
-0.041402068 -0.0009973703 0.027108526 0.0095503675 0.02992675 -0.027141733 0.045938868 0.022602715
0.016896017 0.0035136288 0.037047442 -0.07359525 -0.05077022 0.07182368 0.003448561 0.020427914
-0.04118034 -0.03160413 -0.024695328 0.018146006 0.001258216 0.03839117 -0.054289147 0.017241133
-0.021096041 -0.009646943 0.023744348 -0.0634331 0.009599191 0.023039808 0.015095923 -0.027395237
-0.008186009 0.0714491 -0.0059900885 -0.0511142 0.014412628 0.055588566 -0.024660727 -0.029214941
0.029487219 0.056049246 0.003986215 -0.040092178 0.0044186916 0.005859536 -0.02603302 -0.06273252
-0.059569225 0.08848214 -0.009999439 0.03214112 0.018972106 -0.035484847 0.037403107 0.014591532
-0.028504707 -0.043275956 -0.014057968 0.03245943 0.029729525 0.045959137 0.023441542 0.078269556
-0.010102508 0.050353304 0.022243349 0.028443 -0.07773165 0.029148173 -0.048285693 -0.0015554345
0.046303984 0.02514928 -0.043658894 0.0024629424 0.042794973 0.0012916751 0.059548892 0.04108438
-0.017831083 0.019629823 0.046526045 0.05379951 0.018023223 -0.061275855 -0.059019167 -0.012378669
-0.035599925 -0.011716353 0.0114707155 0.05122799 0.032552313 -0.007931724 0.022244979 0.056275204
-0.018122224 0.02876974 -0.008606288 0.00886842 0.007716236 -0.019291949 0.015632574 -0.019866072
0.007630461 0.1429056 0.12320707 0.106799096 -0.041185867 0.01675504 -0.05038727 0.009242766
0.1206528 0.16651593 0.026158499 0.011743779 -0.120864704 -0.07089419 -0.0045192204 -0.08050579
-0.057130106 -0.04013536 0.07717299 0.046342883 0.08517133 0.049158484 0.03111627 0.13192095
-0.028180702 0.12434263 -0.071501225 -0.026625033 -0.088917464 -0.030800767 0.12692073 -0.012945749
0.14246725 0.024416193 -0.018503724 0.06784954 -0.06262843 0.051172398 0.11212853 -0.013739723
0.10813841 0.15898934 -0.08502141 -0.1251216 0.022472225 -0.034211766 0.17255865 0.08312672
0.014570027 0.1478406 0.011830963 0.108574234 0.13531059 -0.07029839 -0.014253019 0.03962388
-0.020692358 0.084146425 -0.008447612 0.096673176 -0.060135417 -0.065867126 0.12874235 0.120013475
-0.17479986 -0.02392547 -0.09032217 0.009142335 0.11281311 -0.006233337 -0.011899314 -0.0041618524
-0.045333575 0.06868813 0.14573331 0.1147259 0.12631162 0.02452725 -0.067669846 0.07167154
0.13799298 0.1220945 0.050006263 0.095417134 0.012325556 0.11567918 -0.017817281 -0.010808657
0.15509802 0.095796 0.06907048 0.003812265 -0.021185802 0.0036419993 -0.037871324 -0.09475523
0.07608376 0.02634196 0.016332215 0.06771926 0.014646306 0.0650728 -0.0016961107 0.040482715
-0.00032493047 0.08686192 0.018626513 0.025711907 0.0014721603 0.09414236 -0.06594105 0.02815857
-0.047550056 -0.052408837 0.05625912 -0.015790364 0.12701349 -0.031981766 -0.030363135 0.012863663
0.063546725 0.008466078 -0.024327219 -0.066215135 0.0073401164 -0.009718191 -0.043325752 -0.15208693
00000000: beb3 613c 9b73 e83c 2229 a2bc 2c5c aa3c
00000010: ac00 093d 345f 47bc a024 fc3b 1de2 763c
00000020: adc0 6d3c b17d bebc c213 313d 6709 633c
00000030: fddb 7ebc 384f 1bbd 0e61 e8bb c4e7 8a3c
00000040: e2c0 713d 1608 0b3d cc9e aabc d889 803c
00000050: 39e4 613d 4de7 123d 862e 12bc bd70 c539
00000060: 3795 29bd 32ba 82ba b312 de3c 2579 1c3c
00000070: f228 f53c 5758 debc 652a 3c3d 5429 b93c
00000080: 8469 8a3c e944 663b 0fbf 173d 1bb9 96bd
00000090: 6ff4 4fbd 4b18 933d 4101 623b 7158 a73c
000000a0: b7ac 28bd 5573 01bd db4d cabc efa6 943c
000000b0: b9ea a43a 0f40 1d3d 4c5e 5ebd 473d 8d3c
000000c0: 9bd1 acbc 360e 1ebc 8283 c23c 37e9 81bd
000000d0: ed45 1d3c fbbd bc3c e454 773c fa6b e0bc
000000e0: 9c1e 06bc e853 923d 8148 c4bb 205d 51bd
000000f0: f122 6c3c d6b0 633d 4b05 cabc 2c54 efbc
00000100: 2e8f f13c e593 653d cc9e 823b b237 24bd
00000110: acca 903b 5a01 c03b 3343 d5bc e879 80bd
00000120: dcfe 73bd 2036 b53d b0d4 23bc 68a6 033d
00000130: 646b 9b3c 8f58 11bd 0034 193d 5211 6f3c
00000140: b482 e9bc 2142 31bd 6453 66bc 2ef4 043d
00000150: 558b f33c a63f 3c3d 7a08 c03c ca4b a03d
00000160: fd84 25bc 443f 4e3d af37 b63c 4b01 e93c
00000170: c531 9fbd 26c8 ee3c 38c7 45bd b9df cbba
00000180: 3fa9 3d3d dd05 ce3c abd3 32bd 5169 213b
00000190: c849 2f3d 6d4d a93a 8ae9 733d 1848 283d
000001a0: 7e12 92bc b9ce a03c 1892 3e3d e05c 5c3d
000001b0: 70a5 933c 64fc 7abd 15be 71bd e7cf 4abc
000001c0: 3ad1 11bd f2f5 3fbc abef 3b3c 71d4 513d
000001d0: 9355 053d 10f4 01bc 1a3b b63c d480 663d
000001e0: 0f75 94bc 85ae eb3c 6301 0dbc d94c 113c
000001f0: 7bd8 fc3b 260a 9ebc e20f 803c 2cbe a2bc
00000200: f208 fa3b d855 123e fd53 fc3d 7cb9 da3d
00000210: 83b2 28bd de41 893c e262 4ebd f86e 173c
00000220: d118 f73d 2783 2a3e 594a d63c fb68 403c
00000230: ea87 f7bd f930 91bd f815 94bb 38e0 a4bd
00000240: 4201 6abd fa64 24bd df0c 9e3d 09d2 3d3d
00000250: 4e6e ae3d 685a 493d 8ce7 fe3c 4916 073e
00000260: 37db e6bc 59a7 fe3d 3c6f 92bd be1c dabc
00000270: 5c1a b6bd e451 fcbc 82f7 013e 681a 54bc
00000280: efe2 113e 7804 c83c 1f95 97bc b3f4 8a3d
00000290: 5643 80bd 269a 513d a5a3 e53d 931c 61bc
000002a0: ac77 dd3d 1ace 223e b41f aebd e01f 00be
000002b0: ac17 b83c a321 0cbd 37b3 303e 573e aa3d
000002c0: 1fb7 6e3c 8763 173e a8d6 413c 2b5c de3d
000002d0: dc8e 0a3e 9af8 8fbd 7f85 69bc a64c 223d
000002e0: 0583 a9bc f654 ac3d da67 0abc 96fc c53d
000002f0: 8e50 76bd 58e5 86bd 09d5 033e a0c9 f53d
00000300: bcfe 32be 59ff c3bc d4fa b8bd bbc9 153c
00000310: 8f0a e73d 0541 ccbb 57f5 42bc 2660 88bb
00000320: b3af 39bd 5dac 8c3d 1d3b 153e 6af5 ea3d
00000330: d557 013e 5fed c83c 7d96 8abd 87c8 923d
00000340: 084e 0d3e ae0c fa3d 5ed3 4c3d 0f6a c33d
00000350: 21f1 493c 35e9 ec3d 8cf5 91bc cb16 31bc
00000360: 04d2 1e3e b130 c43d d374 8d3d 31d7 793b
00000370: d98d adbc 9cae 6e3b f61e 1bbd 080f c2bd
00000380: cdd1 9b3d 18cb d73c 23cb 853c 65b0 8a3d
00000390: 0ff7 6f3c e344 853d 0850 deba 34d1 253d
000003a0: 6e5b aab9 aae4 b13d a196 983c c7a1 d23c
000003b0: 81f5 c03a b6cd c03d 1a0c 87bd cdac e63c
000003c0: d9c3 42bd a6aa 56bd f76f 663d cb5a 81bc
000003d0: d30f 023e 50ff 02bd 1cbc f8bc 1dc2 523c
000003e0: c924 823d 4eb5 0a3c e049 c7bc cd9b 87bd
000003f0: 5c85 f03b 0c39 1fbc 5876 31bd adbc 1bbe

network_body._body_endoder.seq_layers.0.bias f4 [128]
0.027051665 -0.0011513791 -0.03568091 -0.024961205 -0.0048502376 -0.033506207 0.029528635 0.012824372
0.010060094 0.050475985 -0.030472009 -0.044083904 -0.050541323 0.024531316 -0.035260316 -0.05785322
0.018720677 0.09068152 -0.050543465 -0.131262 -0.01719925 -0.050411988 -0.092983946 -0.037687566
-0.03880697 -0.011281653 0.03369565 -0.0012707687 -0.0046081175 -0.012535402 0.0065167067 0.023463022
-0.09836843 0.036662333 0.025136547 0.06011825 -0.058832217 -0.014148388 -0.077088036 -0.12276504
-0.040998206 0.042804465 0.07449207 -0.07404031 -0.084680766 -0.023785377 0.032336883 -0.00011711925
-0.02321319 0.036969498 -0.020810034 -0.065943636 -0.03826516 -0.01592236 -0.008683619 -0.0022626417
-0.06299941 -0.018923081 -0.032457113 -0.008327983 0.00998937 -0.007800344 -0.00029525734 0.02673184
0.02935455 -0.030633228 0.025382334 0.036643468 0.0030096814 -0.017858673 -0.08385776 0.02961672
0.012792464 -0.0043667946 -0.0017010419 -0.016626643 -0.05059242 0.0039023731 0.035643857 0.018018588
0.030470977 -0.0026742672 0.017351782 -0.029451257 -0.023016527 -0.0042456123 -0.03738902 -0.058942247
-0.010485665 -0.0520844 -0.00021397624 0.0484207 -0.022096736 -0.038335875 -0.02456914 0.022272347
0.034319863 0.015046865 -0.06730267 0.0060393987 0.017438196 0.01282079 -0.056225467 0.0066622477
-0.015503082 -0.0052676606 0.0039962577 -0.0105476305 -0.051356666 -0.10916687 -0.021572981 -0.0034616399
-0.09926471 -0.097387314 0.01208121 -0.02573999 0.045177795 -0.08953827 -0.011107638 -0.01755871
0.026266374 -0.029426128 0.0023714635 -0.031014482 -0.0010586448 -0.0138861565 -0.05763881 -0.0024875803
00000000: 749b dd3c dfe9 96ba 2526 12bd 717b ccbc
00000010: beee 9ebb ce3d 09bd 09e6 f13c 511d 523c
00000020: 18d3 243c e8bf 4e3d 6fa0 f9bc 5391 34bd
00000030: 6b04 4fbd e6f5 c83c 1f6d 10bd 7ff7 6cbd
00000040: 1b5c 993c 3cb7 b93d aa06 4fbd 8c69 06be
00000050: 71e5 8cbc cd7c 4ebd 5e6e bebd 475e 1abd
00000060: 0ff4 1ebd afd6 38bc 7304 0a3d ec8f a6ba
00000070: b1ff 96bb 4961 4dbc 198a d53b 8635 c03c
00000080: 6375 c9bd 3e2b 163d 29eb cd3c 8e3e 763d
00000090: 0dfa 70bd a4ce 67bc 55e0 9dbd 3d6c fbbd
000000a0: bced 27bd bc53 2f3d 4c8f 983d 72a2 97bd
000000b0: 1c6d adbd 8dd9 c2bc ae73 043d eb9d f5b8
000000c0: 9629 bebc 546d 173d ce79 aabc 750d 87bd
000000d0: eebb 1cbd 9c6f 82bc bd45 0ebc d448 14bb
000000e0: d605 81bd 9404 9bbc c0f1 04bd 1872 08bc
000000f0: 74aa 233c 079a ffbb c5cc 9ab9 bbfc da3c
00000100: f478 f03c 89f2 fabc 9dee cf3c 7617 163d
00000110: 133e 453b 5a4c 92bc 9ebd abbd c39e f23c
00000120: 7c97 513c 5417 8fbb 7ff5 deba 9934 88bc
00000130: ff39 4fbd f5be 7f3b 4bff 113d b89b 933c
00000140: 459e f93c c242 2fbb 5325 8e3c c343 f1bc
00000150: 288d bcbc c71e 8bbb 3b25 19bd 6d6d 71bd
00000160: 11cc 2bbc 7456 55bd cf5e 60b9 c954 463d
00000170: 3704 b5bc 1406 1dbd 3945 c9bc 7f74 b63c
00000180: fc92 0c3d 2087 763c fbd5 89bd 26e6 c53b
00000190: 8cda 8e3c 4a0e 523c ad4c 66bd fc4e da3b
000001a0: a400 7ebc 579c acbb 0af3 823b f8cf 2cbc
000001b0: 5e5b 52bd e192 dfbd d2b9 b0bc aedc 62bb
000001c0: 4c4b cbbd 0073 c7bd 44f0 453c acdc d2bc
000001d0: 5a0c 393d d75f b7bd cffc 35bc 49d7 8fbc
000001e0: 942c d73c 100f f1bc 8e6a 1b3b 1512 febc
000001f0: 3ac2 8aba c382 63bc ac16 6cbd ac06 23bb

network_body._body_endoder.seq_layers.0.weight f4 [128, 24]
0.03760198 0.0131138675 0.46142212 -0.2197447 0.34646717 -0.3153146 -0.260952 -0.054473575
-0.069757976 0.12931904 0.19889669 -0.08200313 -0.26713663 0.18609142 0.32461822 0.69213414
0.25263777 0.16602544 -0.30167717 0.23640466 0.042908072 -0.008425203 -0.0860806 -0.17009299
-0.17307991 -0.27455464 -0.0832575 0.07570039 -0.030288348 0.28875986 0.26824665 0.010010396
-0.2902995 -0.3517336 -0.20804591 0.049158975 0.27461916 -0.10879931 -0.18923724 0.29736638
-0.40113875 0.24018186 0.27169856 0.11993291 -0.30889073 -0.12833627 0.28603083 0.0058213826
-0.20797876 -0.18137348 -0.014408046 -0.1658565 0.07149749 -0.31892887 -0.29851285 -0.19958319
0.10455785 -0.052104507 -0.196515 0.24441232 -0.16761705 -0.054454386 0.06678428 -0.1714486
0.10486078 -0.24885565 0.3087749 0.09811339 0.01983484 -0.73048896 0.25731587 -0.035981625
0.11121007 -0.14846143 0.12063381 0.08868678 -0.0002520703 0.1788607 -0.63267756 0.03589497
0.121188514 0.14723057 0.22870971 -0.12429834 0.12861785 -0.4683132 -0.18116884 -0.2759534
-0.21727984 0.09935083 -0.14047746 0.17848094 0.034912497 -0.19563207 -0.03725245 -0.21707967
-0.114310876 0.16399652 -0.22456071 -0.59416705 0.2682888 -0.006454096 0.22783388 -0.0061588436
-0.3924409 -0.23021394 -0.050967876 -0.16407798 0.1671374 -0.19048904 0.40110373 -0.26986846
-0.074662656 -0.12824269 0.054955557 -0.09089796 -0.039671198 -0.40858623 -0.053354003 0.041322634
-0.12384632 -0.07356451 -0.26369986 0.011030032 0.0069895447 0.0073637287 0.05401248 0.34313002
-0.3458593 0.17446116 0.20574972 -0.21136267 -0.037786927 -0.12082359 0.051907238 -0.28804615
-0.07414236 -0.29453725 0.5923368 -0.0778953 -0.10977029 -0.029825909 -0.046874303 0.10503072
-0.18194138 0.048783768 0.17463401 -0.26419652 -0.020422706 -0.17155114 0.09769923 -0.07808675
0.053094514 0.2515063 -0.09518769 0.12096715 0.06937016 0.080332235 0.10001471 -0.24918213
-0.17950575 0.018282035 0.15201248 -0.27909034 -0.027029013 0.00046572147 0.09039747 -0.08874895
-0.1733825 0.12056166 0.070001155 -0.3217219 -0.15981974 -0.24036784 -0.43384025 -0.16678411
0.29652944 0.3496817 0.005548203 -0.17120701 -0.032016855 -0.029806215 -0.24867183 0.19780935
0.044388838 -0.22006363 -0.11664582 0.002534675 -0.2433532 0.0803252 0.14934157 -0.027790856
-0.2097606 0.3230866 -0.11410199 0.17052585 0.042146165 -0.060435943 -0.10659794 -0.0165562
-0.14946073 0.028387818 0.07463739 -0.039382823 -0.23413311 -0.034910157 0.06698033 -0.18616748
0.04759449 0.00067729614 -0.22115247 0.06074558 -0.0740531 0.06785577 -0.30322587 -0.01764627
-0.283077 0.07934512 -0.18372367 -0.2883966 -0.1441691 0.3309864 -0.042596865 0.19552083
-0.15320097 -0.08832216 -0.23519963 0.09423278 0.08949511 -0.17216139 -0.22389676 -0.010559633
0.22764033 0.087839164 0.3153535 0.6107634 -0.09528669 0.06664428 -0.023621358 -0.32509282
0.006238681 -0.3118894 -0.2704067 -0.13157865 -0.27109984 -0.13113722 -0.039976306 0.15081137
-0.14959213 0.0412652 -0.023148736 -0.11092173 -0.2366591 -0.02802508 0.121399336 -0.17242141
00000000: 8904 1a3d 8cdb 563c 853f ec3e c104 61be
00000010: 2564 b13e ea70 a1be 809b 85be af1f 5fbd
00000020: 45dd 8ebd 366c 043e 93ab 4b3e 42f1 a7bd
00000030: 22c6 88be c08e 3e3e 5c34 a63e b42f 313f
00000040: bd59 813e 9302 2a3e 6e75 9abe 1014 723e
00000050: 60c0 2f3d dd09 0abc 074b b0bd db2c 2ebe
00000060: dc3b 31be 6d92 8cbe e882 aabd ce08 9b3d
00000070: 451f f8bc 55d8 933e a057 893e a502 243c
00000080: 23a2 94be 6d16 b4be fd09 55be ec5a 493d
00000090: e29a 8c3e 2cd2 debd 68c7 41be 6840 983e
000000a0: 0f62 cdbe 3cf2 753e 131c 8b3e 639f f53d
000000b0: ed26 9ebe 956a 03be a272 923e 4cc1 be3b
000000c0: 62f8 54be f8b9 39be ba0f 6cbc 49d6 29be
000000d0: 476d 923d a54a a3be add6 98be 895f 4cbe
000000e0: 6d22 d63d 896b 55bd 3a3b 49be 3947 7a3e
000000f0: cea3 2bbe 900b 5fbd 32c6 883d 3990 2fbe
00000100: 40c1 d63d 04d4 7ebe be17 9e3e acef c83d
00000110: ad7c a23c 5301 3bbf e8be 833e 7861 13bd
00000120: 1bc2 e33d 4606 18be dc0e f73d 6aa1 b53d
00000130: 4e28 84b9 4227 373e 28f7 21bf 9b06 133d
00000140: af31 f83d 9cc3 163e e132 6a3e 2190 febd
00000150: 66b4 033e bfc6 efbe 5384 39be c449 8dbe
00000160: 9b7e 5ebe 7378 cb3d 53d9 0fbe b5c3 363e
00000170: 6800 0f3d c653 48be 0696 18bd 224a 5ebe
00000180: d21b eabd b4ee 273e 3ef3 65be 551b 18bf
00000190: 265d 893e e27c d3bb 494d 693e 20d0 c9bb
000001a0: 03ee c8be 34bd 6bbe b1c3 50bd 0f04 28be
000001b0: 1126 2b3e 8f0f 43be 785d cd3e 332c 8abe
000001c0: bce8 98bd 0d52 03be 1419 613d b628 babd
000001d0: 447e 22bd 3732 d1be ba89 5abd ec41 293d
000001e0: 24a3 fdbd fda8 96bd ab03 87be 4fb7 343c
000001f0: 8d08 e53b 6f4b f13b 313c 5d3d bdae af3e
00000200: 7814 b1be f2a5 323e 0eb0 523e 756f 58be
00000210: 77c6 1abd 5c72 f7bd af9c 543d c97a 93be
00000220: f3d7 97bd 96cd 96be 62a3 173f 9287 9fbd
00000230: 3fcf e0bd 7755 f4bc 45ff 3fbd 591a d73d
00000240: d74e 3abe 7dd1 473d 42d3 323e c444 87be
00000250: 854d a7bc 1aab 2fbe 8916 c83d f2eb 9fbd
00000260: a279 593d 6fc5 803e c3f1 c2bd a0bd f73d
00000270: f111 8e3d 3a85 a43d 83d4 cc3d 9a29 7fbe
00000280: 5bd0 37be 35c4 953c 29a9 1b3e eee4 8ebe
00000290: f36b ddbc 142c f439 4f22 b93d 02c2 b5bd
000002a0: 2f8b 31be 08e9 f63d c45c 8f3d bcb8 a4be
000002b0: c9a7 23be fd22 76be 4f20 debe 74c9 2abe
000002c0: b5d2 973e 7b09 b33e b3cd b53b e450 2fbe
000002d0: 1b24 03bd 2a2c f4bc d4a3 7ebe 898e 4a3e
000002e0: 12d1 353d 5c58 61be 01e4 eebd ca1c 263b
000002f0: 9531 79be 8a81 a43d ffec 183e a6a9 e3bc
00000300: 7ccb 56be 9b6b a53e 4eae e9bd 549e 2e3e
00000310: 75a1 2c3d ae8b 77bd 0550 dabd dea0 87bc
00000320: 3c0c 19be 928d e83c 7ddb 983d e24f 21bd
00000330: 97c0 6fbe f4fd 0ebd fc2c 893d b0a2 3ebe
00000340: 71f2 423d 938c 313a cb75 62be 5bd0 783d
00000350: 27a9 97bd f7f7 8a3d 6c40 9bbe e98e 90bc
00000360: 78ef 90be b27f a23d 0f22 3cbe b8a8 93be
00000370: 11a1 13be 0d77 a93e 0d7a 2ebd 9d36 483e
00000380: b7e0 1cbe 40e2 b4bd 2cd8 70be 1efd c03d
00000390: 3649 b73d 134b 30be 3145 65be 5002 2dbc
000003a0: 8c1a 693e 05e5 b33d 0476 a13e fd5a 1c3f
000003b0: ab25 c3bd cc7c 883d 9481 c1bc 9172 a6be
000003c0: d96d cc3b f8af 9fbe bf72 8abe 8ebc 06be
000003d0: 99cd 8abe d648 06be 32be 23bd 4c6e 1a3e
000003e0: ae2e 19be b305 293d 6ba2 bdbc ef2a e3bd
000003f0: c356 72be da94 e5bc 37a0 f83d 3d8f 30be

network_body._body_endoder.seq_layers.2.bias f4 [128]
-0.08327141 0.0607353 0.044662282 0.03436427 -0.029946333 -0.037146606 -0.038024068 -0.016531618
0.035186492 0.02747226 -0.04563005 -0.007716489 0.063602224 0.045172717 -0.053315222 0.0522113
-0.022279395 0.018394323 -0.028666018 -0.048572544 0.039407823 -0.012342306 -0.040228806 0.028878506
0.005925918 0.019205501 0.029349012 -0.041741535 0.031219386 0.032937016 0.032831203 -0.0107986415
0.046648074 -0.014564481 -0.09159952 0.009357672 0.07958128 0.037659023 0.020132631 0.015780566
0.011522639 0.051883075 0.055448953 0.055793054 -0.0004980379 -0.024902586 0.0647909 0.013442459
-0.0032498618 0.031012237 -0.055510182 0.00888431 0.002483663 0.07251464 -0.054169312 0.017531626
-0.009098744 0.018924456 -0.10881761 -0.0015577665 0.046037015 0.020571565 0.02127496 0.041210845
0.10949495 -0.001960218 0.066599816 0.023239873 0.0021651057 -0.029783444 0.01445484 0.029948065
0.052171413 0.031016184 0.010277813 0.015150172 -0.0028258127 -0.0154235475 0.032953978 -0.007640552
0.03744209 0.03805577 0.0115792565 0.012199002 -0.01939568 0.021835232 0.0033162825 -0.05222213
0.05448647 0.0063416953 0.020605516 -0.06645961 0.049259894 -0.05542249 0.027846929 0.048493404
0.025651738 -0.032658316 -0.059118103 -0.05577166 -0.05129661 0.01440987 -0.031249644 -0.03420129
-0.014309539 -0.011380899 0.022267105 -0.041332036 -0.028038552 0.016894273 0.045913965 0.019821078
0.016923616 0.03095679 0.0068764514 -0.054944184 0.034764342 0.032527413 -0.06439276 -0.015471966
-0.031633664 -0.044910476 -0.06340301 0.04248911 -0.034459863 0.013176829 0.02658323 0.10122848
00000000: 338a aabd 94c5 783d ccef 363d 8cc1 0c3d
00000010: 0352 f5bc 0a27 18bd 20bf 1bbd 516d 87bc
00000020: b61f 103d 810d e13c 93e6 3abd 9ada fcbb
00000030: e241 823d 0707 393d 1061 5abd 84db 553d
00000040: 4783 b6bc b1af 963c ffd4 eabc 01f4 46bd
00000050: 196a 213d 6237 4abc f6c6 24bd 9e92 ec3c
00000060: 342e c23b db54 9d3c 576d f03c 2cf9 2abd
00000070: ccbf ff3c f7e8 063d 037a 063d c9ec 30bc
00000080: 0d12 3f3d dc9f 6ebc 8798 bbbd ec50 193c
00000090: 83fb a23d 5940 1a3d 30ed a43c 3f46 813c
000000a0: 73c9 3c3c 5983 543d 711e 633d 4287 643d
000000b0: c28e 02ba 8200 ccbc 17b1 843d c23d 5c3c
000000c0: a2fb 54bb 600d fe3c a55e 63bd 7f8f 113c
000000d0: f3c4 223b 8e82 943d a4e0 5dbd 7c9e 8f3c
000000e0: e612 15bc 7607 9b3c c4db debd f82d ccba
000000f0: 4f91 3c3d b385 a83c d348 ae3c b4cc 283d
00000100: e33e e03d 0077 00bb 7c65 883d 8c61 be3c
00000110: 72e4 0d3b 69fc f3bc fed3 6c3c a555 f53c
00000120: b1b1 553d a715 fe3c 4664 283c 6d38 783c
00000130: 4531 39bb 0cb3 7cbc c0fa 063d 985d fabb
00000140: e15c 193d 5ee0 1b3d ecb6 3d3c 53de 473c
00000150: b0e3 9ebc cddf b23c fd55 593b dfe6 55bd
00000160: 342d 5f3d ffcd cf3b e6cc a83c fa1b 88bd
00000170: bec4 493d b102 63bd 3e1f e43c 05a1 463d
00000180: 9823 d23c bac4 05bd d325 72bd d370 64bd
00000190: 651c 52bd 6017 6c3c 41ff ffbc a716 0cbd
000001a0: 8f72 6abc f376 3abc 8169 b63c c84b 29bd
000001b0: 1bb1 e5bc dc65 8a3c 4810 3c3d d05f a23c
000001c0: 65a3 8a3c 1899 fd3c db53 e13b 270d 61bd
000001d0: 0e65 0e3d 773b 053d 5ae0 83bd 217e 7dbc
000001e0: 4d92 01bd 0cf4 37bd 70d9 81bd 1009 2e3d
000001f0: c925 0dbd a0e3 573c 13c5 d93c e150 cf3d

network_body._body_endoder.seq_layers.2.weight f4 [128, 128]
-0.0025931927 -0.04994589 0.05471752 -0.0011799923 -0.07224865 -0.05040745 0.07368777 -0.09385059
0.21791044 -0.06320556 -0.08661563 -0.08086989 -0.1375402 -0.0449107 0.029710703 -0.13956173
0.08239382 0.16805498 0.060561027 -0.07475862 0.008139218 -0.014529761 -0.11069453 -0.15456335
-0.014048905 0.055492297 -0.13233733 -0.092413545 -0.045406092 0.13464174 0.11494559 0.14714287
0.071995266 0.1509529 -0.016802205 -0.08660978 0.060069986 0.027436016 0.05813174 0.15477395
-0.093201414 0.18425032 0.057696532 0.05480086 -0.084174484 0.040367324 0.011367602 0.08475371
-0.0043331324 -0.02320338 -0.19393378 0.07073634 -0.007022074 0.08523549 0.076686226 -0.124870524
0.0043982086 -0.11981032 0.10737437 0.08345223 0.097338036 -0.018798467 -0.05432376 -0.09933819
0.07391456 -0.20357604 0.14570464 -0.023954056 0.022920744 0.0014888581 0.026908558 -0.09940898
-0.12531255 0.042967215 -0.1288004 0.11418911 0.047955092 -0.11938576 -0.025147758 -0.027442181
-0.111946374 0.09898089 -0.0024839244 0.071655445 -0.1628341 0.09450278 -0.06941774 0.13705236
-0.040639203 -0.1580961 -0.19308835 0.029198484 0.0035089059 -0.093338676 -0.07970395 -0.0097878715
-0.1000452 -0.04410494 0.12861417 0.097509 -0.077783585 -0.09329268 -0.02537426 0.0664772
-0.13835089 0.06260198 0.002407754 0.0060593775 0.07751418 0.13198817 0.008415775 0.15375815
-0.0347562 0.17171839 0.03168001 0.08029352 0.09129316 -0.081202134 0.017278906 -0.16484292
0.12821758 0.008432668 0.092417255 0.1578095 -0.12592949 -0.047861334 0.06960574 0.19943216
-0.07329739 0.0070105693 -0.14859906 0.14346233 -0.13984539 0.006435046 -0.1156858 0.11248918
0.13217372 -0.11283079 -0.19599038 0.0368688 -0.1123125 0.013745692 -0.062243078 0.028255602
-0.15548508 -0.49761257 -0.20024012 -0.16253589 -0.14566547 -0.06461709 -0.015760386 0.095839895
-0.06701351 0.03270791 -0.33524814 0.123892546 -0.010570326 -0.19563682 0.14438158 0.24024527
-0.087248154 0.19050352 0.13465378 0.19771563 0.08431446 0.17292005 0.06032113 0.07735569
0.04602603 -0.4009661 -0.06291169 -0.0376765 -0.028634837 -0.016769864 0.14216575 -0.09308214
0.011793025 -0.031758107 -0.058446884 -0.021689907 -0.20135167 -0.034834288 0.06928542 0.066086285
0.015942505 0.021283846 0.15039025 -0.10580224 -0.044355676 -0.029258069 -0.107765555 -0.00801367
0.11186474 0.042694286 0.1524519 -0.16242611 0.0644552 -0.00090133236 0.028526148 0.019411135
-0.23309508 -0.080026925 0.09751484 -0.07727317 0.063715085 0.15740003 0.17958936 0.07077398
0.026700629 0.016284207 -0.07341064 0.017081272 0.031494316 -0.20830558 0.08325951 0.11152306
-0.08433438 0.26420277 0.14391495 -0.2216951 0.22816285 -0.08019483 0.047821652 -0.13952191
-0.014881272 0.08606284 -0.14478998 -0.16739577 0.14688264 0.01677181 -0.0882281 -0.19879709
0.04436359 -0.13897574 -0.21596032 -0.023357034 -0.19264849 -0.11521706 0.011396986 0.030601617
0.06737047 -0.10079908 0.03847027 0.036823433 0.085816175 -0.1519449 -0.03139773 0.017277783
0.11509819 0.08127741 -0.25317118 -0.13498007 0.061789438 -0.050692055 -0.04508042 -0.06146508
00000000: 8ef2 29bb 1094 4cbd 7a1f 603d f9a9 9aba
00000010: 1af7 93bd 0b78 4ebd 9de9 963d bd34 c0bd
00000020: ea23 5f3e eb71 81bd 8963 b1bd 1d9f a5bd
00000030: 57d7 0cbe 48f4 37bd dc63 f33c 45e9 0ebe
00000040: 17be a83d 9b16 2c3e d70e 783d 0c1b 99bd
00000050: 5b5a 053c 3c0e 6ebc d0b3 e2bd db45 1ebe
00000060: 612d 66bc e44b 633d 7083 07be 5043 bdbd
00000070: bdfb 39bd 86df 093e 9868 eb3d 9fac 163e
00000080: 4172 933d 6693 1a3e c7a4 89bc 7860 b1bd
00000090: f20b 763d 7fc1 e03c 8c1b 6e3d 107d 1e3e
000000a0: 62e0 bebd 1eac 3c3e 3353 6c3d de76 603d
000000b0: ac63 acbd 3558 253d 2e3f 3a3c 5a93 ad3d
000000c0: f3fc 8dbb 0415 bebc 9496 46be 37de 903d
000000d0: 6d19 e6bb f28f ae3d ab0d 9d3d 1ebc ffbd
000000e0: d91e 903b 1d5f f5bd 18e7 db3d 01e9 aa3d
000000f0: 2a59 c73d 3eff 99bc 9782 5ebd d271 cbbd
00000100: 8460 973d 3d76 50be 9933 153e 4c3b c4bc
00000110: 49c4 bb3c ca25 c33a 566f dc3c ef96 cbbd
00000120: ef51 00be 64fe 2f3d 41e4 03be fbdb e93d
00000130: 8f6c 443d 8580 f4bd ac02 cebc 6dce e0bc
00000140: 2444 e5bd 7eb6 ca3d 56c9 22bb 17c0 923d
00000150: fbbd 26be ac8a c13d e32a 8ebd 7457 0c3e
00000160: 4b75 26bd f2e3 21be f4b8 45be a931 ef3c
00000170: acf5 653b 5928 bfbd d33b a3bd 4f5d 20bc
00000180: 7fe4 ccbd 62a7 34bd 6fb3 033e ccb2 c73d
00000190: 004d 9fbd 3c10 bfbd aedd cfbc 3325 883d
000001a0: dbab 0dbe 7835 803d 69cb 1d3b be8d c63b
000001b0: c1bf 9e3d e827 073e 52e2 093c c772 1d3e
000001c0: 845c 0ebd f2d6 2f3e e6c2 013d ee70 a43d
000001d0: e9f7 ba3d 4e4d a6bd 7e8c 8d3c 95cc 28be
000001e0: 784b 033e 2c29 0a3c 4245 bd3d d098 213e
000001f0: a9f3 00be 3f0a 44bd 748d 8e3d f237 4c3e
00000200: f11c 96bd ebb8 e53b 5a2a 18be cae7 123e
00000210: a133 0fbe 14dd d23b adec ecbd ba60 e63d
00000220: 8c58 073e d413 e7bd b4b1 48be bd03 173d
00000230: 1904 e6bd 9c35 613c 99f2 7ebd 4b78 e73c
00000240: 7b37 1fbe 13c7 febe bf0b 4dbe cf6f 26be
00000250: 5429 15be f755 84bd ed1b 81bc b547 c43d
00000260: 613e 89bd bbf8 053d a5a5 abbe 60bb fd3d
00000270: 292f 2dbc 0555 48be c4d8 133e db02 763e
00000280: 29af b2bd 5b13 433e aee2 093e f775 4a3e
00000290: 0fad ac3d f411 313e 4a13 773d a96c 9e3d
000002a0: ca85 3c3d 6e4b cdbe d8d7 80bd ac52 1abd
000002b0: 9b93 eabc f460 89bc e693 113e d9a1 bebd
000002c0: 8837 413c ca14 02bd 0066 6fbd 08af b1bc
000002d0: 222f 4ebe 66ae 0ebd 84e5 8d3d 3f58 873d
000002e0: db99 823c 765b ae3c e7ff 193e d8ae d8bd
000002f0: 4cae 35bd 9eae efbc 30b4 dcbd c54b 03bc
00000300: 5719 e53d 34e0 2e3d 5a1c 1c3e 0853 26be
00000310: 1701 843d 6447 6cba abaf e93c 1a04 9f3c
00000320: 7ab0 6ebe 28e5 a3bd dcb5 c73d 6541 9ebd
00000330: 0e7d 823d 792d 213e 46e6 373e f3f1 903d
00000340: 47bb da3c 7566 853c 5158 96bd 06ee 8b3c
00000350: 2f00 013d 0f4e 55be f683 aa3d 3466 e43d
00000360: 81b7 acbd 9645 873e 715e 133e 0a04 63be
00000370: 86a3 693e 303d a4bd a3e0 433d d5de 0ebe
00000380: 94d0 73bc b741 b03d d343 14be cc69 2bbe
00000390: 6768 163e 0965 893c efb0 b4bd 7791 4bbe
000003a0: 99b6 353d a84f 0ebe b424 5dbe 4057 bfbc
000003b0: a545 45be ecf6 ebbd 6dba 3a3c 3eb0 fa3c
000003c0: 87f9 893d c06f cebd 0093 1d3d 2bd4 163d
000003d0: 64c0 af3d 7297 1bbe e89a 00bd 238a 8d3c
000003e0: 9ab8 eb3d c574 a63d a79f 81be 3738 0abe
000003f0: ec16 7d3d 79a2 4fbd 3fa6 38bd cfc2 7bbd

network_body.observation_encoder.processors.0.normalizer.running_mean f4 [24]
-0.0052482975 2.973145 -0.52100486 -4.478491 1.4865725 0.81415844 -0.82514095 0.0
0.0053698984 0.0052482975 2.973145 -0.5210876 -0.0052480996 2.9999242 -0.5222528 -4.558666
1.4999621 0.8133355 -0.8508465 0.0 -0.005659949 0.0052480996 2.9999242 -0.5223571
00000000: e9f9 abbb 0248 3e40 9360 05bf cc4f 8fc0
00000010: 0248 be3f b06c 503f 703c 53bf 0000 0000
00000020: f9f5 af3b e9f9 ab3b 0248 3e40 ff65 05bf
00000030: 40f8 abbb c2fe 3f40 5cb2 05bf 98e0 91c0
00000040: c2fe bf3f c136 503f 14d1 59bf 0000 0000
00000050: 1877 b9bb 40f8 ab3b c2fe 3f40 32b9 05bf
